models/BinClassifier.pt (torch, 7183 bytes, 11 tensors)

weight f4 [4, 4]
0	0xbe2c056e	-0.16798946
1	0xc02dce60	-2.7157211
2	0xbf27fa9d	-0.6561678
3	0x3d9e9aca	0.077443674
4	0xc001711c	-2.0225286
5	0xbf892f53	-1.0717567
6	0x3f8fe91a	1.1243012
7	0xbf7bdbb6	-0.9838213
8	0xbf892766	-1.0715148
9	0x3f9661dc	1.1748614
10	0x3ff3fbea	1.9061253
11	0x3da5ab89	0.08089358
12	0x3e0b78c2	0.13620284
13	0xbf2c7d2a	-0.67378485
14	0xbf837f50	-1.0273228
15	0xbdaa7d5c	-0.08324692

weight_ih_l0 f4 [16, 4]
0	0x3d051d91	0.0324989
1	0xbed7e993	-0.4217039
2	0x3db7fea5	0.089841165
3	0xbe40f165	-0.18842085
4	0x3e24fb4c	0.16111487
5	0x3e64f067	0.22357331
6	0xbe6692f7	-0.22517
7	0x3dc0f26e	0.0942124
8	0x3da33181	0.079684265
9	0xbd9f66e6	-0.07783298
10	0xbe45f683	-0.19332318
11	0xbd0df39f	-0.034656163
12	0x3e70b55d	0.23506685
13	0xbe90d5e0	-0.28288174
14	0xbed0ca07	-0.40779135
15	0x3e5de769	0.21670307
16	0xbe711074	-0.23541433
17	0x3e247a0c	0.16062182
18	0x3eae5968	0.34052587
19	0x3e71c4e8	0.2361027
20	0xbd5dd93f	-0.05416226
21	0xbcaddd35	-0.021223644
22	0x3ec8e53d	0.39237395
23	0xbe88a615	-0.2668921
24	0xbeea525b	-0.45765957
25	0xbe89d25c	-0.26918304
26	0x3eb71b7c	0.35763156
27	0xbee89c72	-0.45431858
28	0xbf0f2ece	-0.55930793
29	0xbeac80e9	-0.336921
30	0x3ea38ab5	0.31941763
31	0xbe1a52ce	-0.1507065
32	0x3dacf49b	0.08445092
33	0xbecd02fb	-0.40041336
34	0x3ea403f7	0.32034275
35	0xbe38494f	-0.17996715
36	0x3e7e8903	0.24856953
37	0x3e977f47	0.29589292
38	0xbeaab641	-0.33342174
39	0xbb5e812e	-0.0033951509
40	0x3eda165e	0.4259519
41	0xbe45c7d1	-0.19314505
42	0x3e5bc1f9	0.21460713
43	0xbebcd253	-0.36879215
44	0xbf0b2d00	-0.5436554
45	0xbef78928	-0.4834683
46	0xbef1ca1c	-0.4722451
47	0x3e343771	0.17599274
48	0x3e8c33bb	0.27383217
49	0x3d497598	0.04918441
50	0xbe122177	-0.14270578
51	0xbe8dc0ec	-0.2768625
52	0xbe09ec40	-0.13469028
53	0xbe071458	-0.13191354
54	0x3e89cf9b	0.26916203
55	0x3e9af980	0.30268478
56	0x3dd7034c	0.10498676
57	0xbeb48f94	-0.3526579
58	0x3f09789b	0.53699654
59	0xbf0e8da0	-0.5568485
60	0xbce85a0d	-0.028363252
61	0x3ec66836	0.38751382
62	0xbe65b9c8	-0.22434151
63	0x3ecf353b	0.404703

weight_hh_l0 f4 [16, 4]
0	0x3ea19683	0.31560144
1	0x3e653a53	0.2238553
2	0xbeb7e266	-0.35914916
3	0x3f0a6d21	0.5407277
4	0x3e8d847e	0.27640146
5	0xbef5644f	-0.47928092
6	0xbeb30b82	-0.34969717
7	0x3f0371d7	0.5134558
8	0x3e3c5517	0.18391834
9	0x3ea0fc6d	0.31442586
10	0xbedef675	-0.43547407
11	0x3eef3ee2	0.46727663
12	0xbee12918	-0.43976665
13	0xbd35e4fd	-0.044407833
14	0xbc44afe0	-0.0120048225
15	0x3d01515a	0.031571724
16	0x3e991270	0.2989688
17	0xbf01489e	-0.5050143
18	0xbea9158d	-0.33024254
19	0x3e8bbf55	0.27294412
20	0xbea03955	-0.3129374
21	0xbea6187b	-0.32440552
22	0xbe29b264	-0.16571957
23	0x3e72a7ac	0.23696774
24	0xbe24eaaa	-0.16105142
25	0xbeee205c	-0.46509063
26	0x3eb957ef	0.361999
27	0xbeab85d7	-0.3350055
28	0x3eb1ae17	0.34703133
29	0x3e343dec	0.17601746
30	0x3ed4f540	0.4159336
31	0xbeab2692	-0.33427864
32	0xbeb01073	-0.3438755
33	0xbe2320e4	-0.15930516
34	0xbe9f130e	-0.31069225
35	0x3eab5ac2	0.3346768
36	0x3e8eb90a	0.2787555
37	0x3efe3a18	0.49653697
38	0x3dfb8d79	0.12282843
39	0xbdbb93c1	-0.09159041
40	0xbe00c33d	-0.12574477
41	0x3dec6468	0.115425885
42	0x3e959028	0.29211545
43	0x3ea2b40b	0.31777987
44	0xbe9ca07a	-0.30591184
45	0x3eb74176	0.3579213
46	0xbe834297	-0.25636742
47	0xbe61476d	-0.21999903
48	0x3f0b27e6	0.54357755
49	0xbef2428c	-0.47316396
50	0xbef59573	-0.47965583
51	0x3ea390ec	0.31946504
52	0xbe92485f	-0.2857084
53	0xbe7d8e58	-0.24761331
54	0xbf187b6f	-0.59563345
55	0x3ed6d5b4	0.41959918
56	0x3e0a0565	0.1347862
57	0x3e65468f	0.22390197
58	0xbf16bf70	-0.5888586
59	0x3eb08c38	0.34481978
60	0x3dbede59	0.09319753
61	0x3d2c90df	0.042130347
62	0xbeadbe3e	-0.33934206
63	0xbea8ba86	-0.32954806

bias_ih_l0 f4 [16]
0	0xbc835d8c	-0.016035818
1	0x3e8eb226	0.2787029
2	0x3ec1a8f0	0.37824202
3	0xbdbeda1e	-0.09318946
4	0xbcd90f42	-0.026496533
5	0xbbec7adf	-0.007216796
6	0x3f022a7c	0.50846076
7	0x3f0b5b41	0.5443612
8	0xbde87f3e	-0.113523945
9	0xbe7f4696	-0.2492927
10	0x3d449b2a	0.04799954
11	0xbeb320b4	-0.34985888
12	0xbe07594a	-0.13217655
13	0xbeb9a662	-0.36259753
14	0x3f0eec6b	0.55829495
15	0x3ece27ed	0.40264836

bias_hh_l0 f4 [16]
0	0xbe997ba6	-0.2997715
1	0xbeac70d1	-0.33679822
2	0xbec7bf0e	-0.3901295
3	0x3c9d4c8f	0.019201545
4	0x3eaac6ed	0.33354893
5	0x3e8a3178	0.26990867
6	0xbd4aeba1	-0.04954112
7	0x3e843f62	0.25829607
8	0x3f09970e	0.53746116
9	0xbe022dc4	-0.1271277
10	0xbf0c1192	-0.5471431
11	0x3e307e12	0.17235592
12	0xbc17541b	-0.009236361
13	0x3ea39d6d	0.31956044
14	0x3eb5889e	0.35455793
15	0x3f1483a2	0.58013356

weight_ih_l1 f4 [16, 4]
0	0x3ef0b178	0.47010398
1	0xbe3c0a6c	-0.1836335
2	0x3ec57a4c	0.38569868
3	0x3ebf81d7	0.37403747
4	0x3e66627c	0.22498506
5	0x3d15c5d7	0.036565628
6	0xbf1e9bec	-0.6195667
7	0x3ed8041c	0.42190635
8	0x3e7dcf5e	0.24786136
9	0xbf23cbf0	-0.6398306
10	0xbf18857d	-0.59578687
11	0xbe415494	-0.1887992
12	0x3e89385a	0.26800805
13	0xbe364fb8	-0.17803848
14	0xbf03dd7d	-0.5150984
15	0x3dab9a15	0.08378998
16	0x3e809984	0.25117123
17	0x3e64b92f	0.22336267
18	0x3edd4c3d	0.43222228
19	0xbc87bf57	-0.01657073
20	0x3e7947c6	0.24343786
21	0xbf1d0799	-0.6133972
22	0x3e92c370	0.28664732
23	0x3ebe2696	0.37138814
24	0x3e7501a6	0.2392641
25	0xbd0d7dc5	-0.03454377
26	0xbec151f5	-0.3775784
27	0xbe454f95	-0.1926864
28	0xbe21fadf	-0.15818356
29	0x3e0f6379	0.1400279
30	0xbf270df7	-0.65255684
31	0x3ea30238	0.3183763
32	0x3ddbf96e	0.10740934
33	0xbef8a677	-0.48564503
34	0x3ea69e4d	0.3254265
35	0x3eeba101	0.46021274
36	0xbeed1cb5	-0.46310964
37	0xbe5f536b	-0.21809165
38	0xbe9e7eea	-0.30956203
39	0xbdd754dc	-0.105142325
40	0xbe8c2850	-0.27374506
41	0x3ec1959f	0.37809464
42	0x3ebd4465	0.36966243
43	0xbea433b1	-0.32070687
44	0xbec9bc53	-0.39401492
45	0xbe2c185c	-0.16806167
46	0x3eabd6e6	0.33562392
47	0x3eb5d857	0.35516617
48	0xbe89b4e3	-0.26895818
49	0xbc954e6d	-0.018225873
50	0x3e759846	0.23983869
51	0xbebf08c8	-0.37311387
52	0x3ebdaabf	0.3704433
53	0x3e8762a3	0.2644244
54	0xbe040d41	-0.12895681
55	0xbeb5548e	-0.35416073
56	0x3ed1a0a3	0.4094287
57	0xbedcfa06	-0.43159503
58	0x3a0693ca	0.00051337166
59	0x3f0df1a0	0.55446815
60	0x3efd8024	0.49511826
61	0xbea6c470	-0.32571745
62	0x3e5dde04	0.21666723
63	0x3eba47fe	0.3638305

weight_hh_l1 f4 [16, 4]
0	0xbea070b7	-0.31335995
1	0xbdc4918d	-0.09598074
2	0x3eee0a3e	0.4649219
3	0x3b851a21	0.0040619527
4	0xbd3fb165	-0.046800036
5	0xbe9e8a56	-0.30964917
6	0xbe6cfc5d	-0.23143144
7	0x3e382a7a	0.17984954
8	0xbc03249d	-0.008004335
9	0x3e249ef3	0.1607626
10	0x3e68e3b4	0.22743112
11	0x3e38e388	0.18055546
12	0xbe65b61a	-0.22432747
13	0x3df90068	0.121582806
14	0x3e8a0dfb	0.2696379
15	0xbf164c75	-0.58710414
16	0xbece3456	-0.40274304
17	0xbdab6ff5	-0.083709635
18	0x3e2cebe2	0.16886857
19	0xbe88bc82	-0.2670632
20	0x3eeead35	0.4661652
21	0xbe2e7005	-0.1703492
22	0xbf018f4f	-0.50609297
23	0xbf0f59fb	-0.55996674
24	0xbecd6226	-0.40113944
25	0xbe8a7cbd	-0.27048293
26	0x3ea89b43	0.32930955
27	0x3e829639	0.25505236
28	0xbe99fca7	-0.3007557
29	0xbde1f26c	-0.110325664
30	0xbe366448	-0.17811692
31	0xbf1e79ab	-0.619044
32	0x3ee4a97b	0.44660553
33	0x3dc8b571	0.09800232
34	0x3ea40cb4	0.32040942
35	0x3e7c5910	0.2464335
36	0x3daf0c72	0.08547296
37	0xbdf45f43	-0.11932232
38	0x3ea3555c	0.31901062
39	0x3e463b07	0.19358455
40	0xbeadf7b3	-0.33978042
41	0x3e9930a6	0.29919928
42	0x3f0340b4	0.51270604
43	0x3f021f56	0.50829065
44	0xbeb11654	-0.34587348
45	0xbe2875ef	-0.16451238
46	0x3e79f57c	0.24410051
47	0x3e923a92	0.2856031
48	0xbe263b7e	-0.16233632
49	0x3de93931	0.113878615
50	0x3f022215	0.50833255
51	0x3da34be1	0.07973457
52	0x3ea4fac7	0.32222578
53	0xbe890f58	-0.2676952
54	0x3e1cbd22	0.15306523
55	0xbe6949ce	-0.2278206
56	0xbe9cbcfb	-0.3061293
57	0xbec2c29b	-0.38039097
58	0xbe4ef6ab	-0.20211284
59	0xbe8926ce	-0.26787418
60	0xbf085fd1	-0.53271204
61	0xbdb16e37	-0.086636
62	0xbf1f1c0f	-0.6215219
63	0xbe342399	-0.17591704

bias_ih_l1 f4 [16]
0	0x3ebf9dd7	0.3742511
1	0xbce265a5	-0.027636359
2	0xbe9de551	-0.30839017
3	0xbe3a827f	-0.18213843
4	0x3e558d16	0.20854601
5	0x3e7d3d5e	0.24730441
6	0x3e204480	0.1565113
7	0x3d95d095	0.073151745
8	0xbea916d5	-0.33025232
9	0xbec91924	-0.39276993
10	0xbf00d6aa	-0.5032755
11	0xbe63d323	-0.22248511
12	0xbeb77de5	-0.35838237
13	0x3eda21fa	0.42604047
14	0x3e8720a4	0.2639209
15	0xbe9d8cda	-0.30771524

bias_hh_l1 f4 [16]
0	0x3e5141d9	0.20435275
1	0xbea82128	-0.32837796
2	0x3e863885	0.26214996
3	0xbeb54eed	-0.35411778
4	0xbe618c8a	-0.22026268
5	0xbe647101	-0.22308733
6	0x3f1c7770	0.6111975
7	0xbdc63f62	-0.09680058
8	0x3eeb34b1	0.45938638
9	0xbecef3be	-0.40420336
10	0x3ebc72bf	0.36806294
11	0xbecd2f59	-0.40075186
12	0xbe383e9e	-0.17992637
13	0x3e984700	0.2974167
14	0xbdcd527e	-0.100255
15	0xbde65582	-0.11246778

weight f4 [2, 4]
0	0xbcc66b30	-0.024221033
1	0x3ee343cc	0.44387662
2	0x3f1b8068	0.6074281
3	0x3e47db1d	0.19517179
4	0x3ed2bb13	0.4115835
5	0xbe1d692e	-0.15372154
6	0xbd1fdab9	-0.03902695
7	0xbf0f84e1	-0.5606213

bias f4 [2]
0	0x3ca3ff19	0.020019101
1	0xbd907307	-0.0705319
