models/BinClassifier.pt (torch, 7183 bytes, 11 tensors)

weight f4 [4, 4]
000000 bb aa 70 3f 3b a2 c3 3f 86 0f de be 98 27 2c bf
       0.94010514 1.5283884 -0.43371218 -0.67247915
000010 df 0e b8 3e d2 74 ca 3d 0c 19 d2 be 5d b9 df bd
       0.35948846 0.09885563 -0.41034734 -0.10924027
000020 ba cd 75 3f 21 e2 69 3f 33 06 e3 3f 28 68 dd be
       0.9601704 0.9136067 1.7736267 -0.43243527
000030 19 9e 56 3f 0b 69 19 c0 2f 07 9c 3f 1c f3 e2 bd
       0.8383499 -2.3970363 1.2189692 -0.11081526

weight_ih_l0 f4 [16, 4]
000000 ca 97 fb be 7d 98 07 bf 99 98 5f 3e e6 ad d3 bc
       -0.49139243 -0.52967054 0.21835555 -0.025839757
000010 b2 e3 58 be 34 d9 d0 be c7 5c 8e be 56 53 e2 3e
       -0.21180609 -0.40790713 -0.27805158 0.44204205
000020 c8 a7 07 be 2e e5 86 3c 33 47 4f bd c0 33 0a 3f
       -0.13247597 0.016466703 -0.05060501 0.53985214
000030 6f d5 77 be f2 56 bb 3e 4a 39 df 3d b7 22 6b bb
       -0.24202512 0.36589772 0.10899599 -0.0035878846
000040 ce 6f 2e be 6d 6b f5 3e ff 15 d2 be 57 90 7d 3e
       -0.17034838 0.47933522 -0.41032407 0.24762093
000050 00 1c b7 3e 41 80 8b be b1 d9 cd 3e 37 14 4e bb
       0.3576355 -0.27246287 0.40205148 -0.0031445154
000060 41 f2 44 be 33 03 ff be c0 3f 8d 3e ab 9a aa 3e
       -0.19233038 -0.49807128 0.275877 0.33321127
000070 51 eb c5 be cb a6 3f 3e 0c 7c 29 be b4 77 f9 3e
       -0.38656095 0.1871597 -0.16551226 0.4872414
000080 d3 d9 a9 be 20 39 48 be ca d6 74 3e cc fa ca bc
       -0.33174 -0.19553041 0.2391006 -0.024777792
000090 a2 50 23 be e4 14 9a bd c7 0e 27 be 68 41 fe 3e
       -0.15948728 -0.07523516 -0.16314231 0.49659276
0000a0 1b c4 8e be 88 17 c8 be 41 01 29 be c0 99 7d 3e
       -0.27883992 -0.39080453 -0.16504385 0.24765682
0000b0 e4 cc c2 be 07 b8 e0 3d 87 43 a9 be c4 53 75 3e
       -0.38046944 0.109726004 -0.33059332 0.23957735
0000c0 22 8b 07 bf 08 a9 fb bc dc bf a1 3e d7 db 3e 3e
       -0.52946675 -0.030720249 0.3159169 0.1863855
0000d0 c3 01 d3 3e 6c 44 12 3d 86 99 87 be ed 2f 03 be
       0.41212282 0.035709783 -0.26484317 -0.12811251
0000e0 14 f1 b8 be 06 91 c1 3e 86 b7 9a 3c ba 7a 7f bb
       -0.36121428 0.37805957 0.018886339 -0.0038983063
0000f0 af 94 c8 bd 64 2e 2e 3e b3 59 ae 3e 94 07 3f 3d
       -0.09793984 0.17009884 0.3405281 0.046638086

weight_hh_l0 f4 [16, 4]
000000 73 8b 88 3d 68 6d 58 be 93 39 b8 be 71 a7 00 bd
       0.06667223 -0.21135485 -0.35981426 -0.031409685
000010 58 7d 92 bd 85 80 76 3e 5b ad 94 bd e0 32 86 be
       -0.07152814 0.24072464 -0.072596274 -0.2621069
000020 88 87 d6 3e b6 bb d1 3c ee 20 a5 be 72 c5 1c be
       0.41900277 0.025602203 -0.32251686 -0.15309694
000030 8b fe 75 3e bc 83 d1 bd ab 52 01 3f 5d 44 2a 3e
       0.24022882 -0.102302045 0.50516766 0.16627641
000040 99 a7 6a bd b0 90 27 be f0 d9 6d 3e 7b 41 97 3d
       -0.05728874 -0.16363788 0.23227668 0.07385536
000050 07 64 21 3d 3f 30 12 be 3a 33 98 be 47 5c f4 be
       0.039402034 -0.14276217 -0.29726583 -0.47726652
000060 fb f1 0e 3e 47 90 07 3f 24 3b df 3e fe 85 a7 be
       0.13959496 0.52954525 0.43599808 -0.32719415
000070 f5 2d 95 be c0 4b d5 3e 41 33 b8 3d a0 27 e6 be
       -0.29136625 0.41659355 0.08994151 -0.44952106
000080 aa fe cf 3e 20 af 4a be 71 2f 98 be f8 e0 4d be
       0.4062398 -0.19793367 -0.29723695 -0.2010535
000090 4a c5 6d bd 47 e4 6f be 22 a4 e7 3e a9 34 5c 3e
       -0.058049478 -0.23426925 0.4524241 0.21504463
0000a0 82 09 a0 3e 13 ae 07 3f 39 26 03 be 75 47 ba 3e
       0.31257254 0.5299999 -0.1280755 0.36382642
0000b0 49 91 b3 3d a7 0f 7d be 3a 41 9c be 01 56 fb be
       0.08767945 -0.24713002 -0.30518514 -0.49089053
0000c0 b6 50 0e 3b b2 8f da 3e d2 d1 b4 be d8 37 95 3e
       0.0021715588 0.42687756 -0.3531633 0.29144168
0000d0 dd 97 b7 3d 50 39 aa 3c d0 40 ab 3e 7b a5 2b be
       0.089645125 0.020779282 0.33447886 -0.16762345
0000e0 90 86 d7 bd 9c f7 77 be 61 85 ee 3e eb c9 c7 3e
       -0.10523713 -0.24215549 0.46586135 0.3902124
0000f0 b8 18 98 3d a8 12 03 3f c7 39 cd be 8a cf b3 be
       0.0742659 0.5120034 -0.40083143 -0.35119277

bias_ih_l0 f4 [16]
000000 38 89 a3 3e 1b 62 d3 3d 10 f5 96 3e 90 1a 64 bd
       0.31940627 0.103214465 0.29483843 -0.055689394
000010 9e b7 61 3e ef a9 02 3e 09 9a 22 3d 34 78 ca be
       0.220427 0.12760137 0.03969768 -0.39544833
000020 b4 76 19 be 4d eb 6a be 36 00 62 bd 4c 34 df 3d
       -0.14986688 -0.22941323 -0.055175982 0.10898647
000030 0d 23 b2 3d 7d d7 07 be af d7 b0 3e fd 1a 3e 3e
       0.08698092 -0.13265796 0.34539554 0.18564983

bias_hh_l0 f4 [16]
000000 ce b6 dd bd f4 62 63 3d 84 fc 5a be 3b 4a f6 bd
       -0.10825883 0.05551429 -0.2138539 -0.12025877
000010 6a b6 4d 3e 14 75 c1 3e 7b ad eb 3e 4d d6 9f 3e
       0.20089117 0.37784636 0.46030793 0.31218186
000020 df b9 c0 3c 5b 77 d2 3e 92 f1 8b bd 8d 07 e1 be
       0.02352613 0.41106686 -0.06833185 -0.43951073
000030 9d 7f cc be a5 f2 fe 3e 14 eb 84 be 03 18 82 be
       -0.3994111 0.49794498 -0.259606 -0.25408944

weight_ih_l1 f4 [16, 4]
000000 a8 53 ba 3e c2 48 c7 be 94 73 d8 3e b4 cf d3 3d
       0.3639195 -0.38922697 0.4227568 0.103423506
000010 60 c3 42 3e 30 d1 f8 bd 31 a4 00 bf 67 ff ca bd
       0.19019842 -0.12149274 -0.50250536 -0.099119954
000020 2e 61 87 3e c3 41 d7 bd 6c 05 d4 3e e8 e7 ff bc
       0.2644133 -0.1051059 0.41410387 -0.031238511
000030 6e e7 99 bd 46 e8 1a bd 73 b1 c5 3e 83 4d 4b bd
       -0.07514845 -0.03781917 0.38611946 -0.049634468
000040 dc 8d 0a 3e c6 f2 43 be ca c1 82 3d 60 07 db bd
       0.13530678 -0.1913558 0.063846186 -0.10694766
000050 34 fb 9c 3e 82 4f 9d 3e 92 95 01 bf 83 e0 e7 be
       0.30660403 0.30724722 -0.5061885 -0.45288476
000060 a3 af 9b bd 79 93 a2 be 52 4b c6 bd fe ee ab be
       -0.076018594 -0.31753138 -0.09682335 -0.33580774
000070 c2 86 52 3e 93 ca 42 3e 73 56 77 be 26 ab 84 be
       0.20559219 0.19022588 -0.24154072 -0.25911826
000080 ee 7b 4f bc ec f9 b4 be 55 3b 1d be ab 81 86 3e
       -0.0126638245 -0.35346925 -0.15354665 0.26270804
000090 2d 16 99 be 31 48 05 3f 6c b1 c7 be f4 4e d1 bd
       -0.2989973 0.5206328 -0.3900255 -0.10220137
0000a0 c2 eb 9d be 20 c0 d0 3d cb 6d 79 be b6 68 93 bd
       -0.3084393 0.10192895 -0.24358289 -0.071977064
0000b0 90 20 0d 3e 00 71 69 be d6 67 4d 3c 18 97 c5 be
       0.13781953 -0.22797012 0.012536963 -0.38591838
0000c0 8a 53 18 be 02 3a 47 3e 17 87 b3 3e d7 7a b0 be
       -0.14875618 0.19455722 0.35064003 -0.3446872
0000d0 59 83 4d 3e d6 20 44 be e6 76 c1 3e b1 52 0d 3e
       0.20069636 -0.19153151 0.37786025 0.13801076
0000e0 b6 d7 da be e0 35 a6 3d 70 fb d5 be c4 5d 5d be
       -0.427427 0.081157446 -0.41793394 -0.216178
0000f0 70 f1 8d be ab 63 fe 3d 2c 34 81 3e e2 83 20 be
       -0.27723265 0.12421354 0.25235116 -0.1567531

weight_hh_l1 f4 [16, 4]
000000 65 30 d5 be 1f b9 21 3e 36 fb a6 3e 57 af bc 3b
       -0.41638485 0.15793274 0.32613534 0.005758207
000010 74 f3 8e 3e 32 33 f8 3e d9 8d d1 be 4b 78 92 bd
       0.27920115 0.4847656 -0.40928534 -0.0715185
000020 6e 2c dd 3e 8c e5 cb 3e 6e 87 df 3e 2e a4 08 3f
       0.4319796 0.39823568 0.43658012 0.5337552
000030 29 c0 49 3e ee 5d 4b bd 56 88 40 be e7 89 5f be
       0.1970221 -0.049650125 -0.18802008 -0.2182995
000040 4f eb 68 3c 9c c4 81 bd 86 3b 5f 3d d2 f5 85 3d
       0.014216258 -0.063363284 0.054500125 0.06541027
000050 21 21 da 3e 5c 6e 42 3e 12 e9 a3 bd 56 ac c2 be
       0.426034 0.18987411 -0.08003439 -0.38022107
000060 ee 40 9b bd a3 bf 65 be 20 32 8d be 43 ab b9 3e
       -0.07580744 -0.22436385 -0.27577305 0.36263475
000070 51 3f 47 3d 34 e7 56 3e 63 1f 6a be 6a 55 7f 3e
       0.048644368 0.20986634 -0.22863536 0.24934927
000080 bf 91 56 3e 84 c5 e2 3e 03 af f1 3e e7 a3 e3 be
       0.20954035 0.44291317 0.47203836 -0.44460985
000090 ee 02 46 3e 7a 5c f3 3e 0b 9b 79 be 48 34 9e 3e
       0.19337055 0.47531492 -0.2437555 0.30899262
0000a0 e1 31 4b 3d f9 44 03 bf 36 19 fd 3e db 2b c5 3e
       0.049608115 -0.5127712 0.49433297 0.38510022
0000b0 68 05 b7 3e 59 69 43 be aa 83 f4 3e 11 ee bf be
       0.35746312 -0.19083156 0.47756702 -0.37486318
0000c0 39 3f b1 be 18 5e 4b be fe d2 56 be e0 ea cc be
       -0.34618548 -0.19860113 -0.20978925 -0.40022945
0000d0 0a 3c 57 be df c6 2b be 0e 0c 4c bc f1 46 74 3d
       -0.21018997 -0.16775082 -0.012454046 0.059637967
0000e0 7f 05 c8 3e 71 39 07 3e b7 35 9d be b3 16 d4 3e
       0.39066693 0.13205506 -0.30705044 0.41423568
0000f0 06 91 bf 3e d3 3e 62 be 0e cc d8 be 4d 75 a1 be
       0.37415332 -0.22094278 -0.4234318 -0.31534806

bias_ih_l1 f4 [16]
000000 05 66 ad 3d 12 97 c1 3e a2 ff 09 bd 68 82 cc 3d
       0.08466724 0.3781057 -0.033691056 0.099858105
000010 44 df f8 3e d9 76 cd be 5a 89 bf be c6 9b c7 3e
       0.48607838 -0.40129736 -0.37409478 0.38986033
000020 e3 0e 9b 3d 3f 03 ec be fe 19 44 3d c7 0c a5 3e
       0.07571199 -0.46096227 0.04787635 0.3223631
000030 eb be c2 bd 95 78 e8 3d ce 1b 17 be 12 63 d2 3e
       -0.09509071 0.11351124 -0.147567 0.4109121

bias_hh_l1 f4 [16]
000000 0c f0 97 3e e7 98 8a 3e 7a 22 be 3c 4c 24 c4 3e
       0.2967533 0.2706978 0.0232098 0.38308942
000010 04 0d 3d 3e e4 e9 55 be ea 23 e9 3e e4 bf d4 3e
       0.18461996 -0.20890003 0.45535213 0.4155265
000020 83 2a 14 3e d1 ee da be 3c 23 ac 3d cd d3 41 be
       0.14469342 -0.42760327 0.08405158 -0.18928452
000030 66 3a b1 3e f3 b3 28 3e 0d 2a e3 3e 17 b0 bd bc
       0.34614867 0.16474895 0.4436802 -0.023155255

weight f4 [2, 4]
000000 4e 04 8f be 71 4d fc 3e c2 79 9d be d5 7e 0a be
       -0.27932972 0.49277833 -0.30756956 -0.13524945
000010 ff f5 c1 3e 44 40 8f 3e e4 36 a1 be 50 e0 97 3e
       0.37882993 0.27978718 -0.3148719 0.29663324

bias f4 [2]
000000 eb ee b9 be d0 63 01 3f
       -0.36315092 0.50542927
