models/BinClassifier.pt (torch, 24070 bytes, 7 tensors)

weight f4 [4, 8]
0.0 0.0 0.0 0.0 0.0 0.0 0.0 0.0
-0.9639529 -0.40247443 0.8659123 1.7835195 0.0047271564 -2.019882 0.9847634 1.3117394
-0.006381545 1.5029663 -1.661996 -1.7443631 -1.0055646 -1.1628916 0.54415005 0.0655153
1.8780222 1.3665683 0.49274337 2.401458 0.39857858 0.76916164 -1.5803316 0.5419884
00000000: 0000 0000 0000 0000 0000 0000 0000 0000
00000010: 0000 0000 0000 0000 0000 0000 0000 0000
00000020: 9ec5 76bf 2111 cebe 6eac 5d3f 5e4a e43f
00000030: 43e6 9a3b bf45 01c0 7419 7c3f 14e7 a73f
00000040: 481c d1bb 3361 c03f 49bc d4bf 4a47 dfbf
00000050: 57b6 80bf a2d9 94bf 6b4d 0b3f e32c 863d
00000060: 0863 f03f b6eb ae3f dc48 fc3e 7db1 1940
00000070: 7e12 cc3e c7e7 443f 4e48 cabf c0bf 0a3f

weight_ih_l0 f4 [120, 8]
-0.080550805 -0.1332975 -0.134868 0.09637006 -0.056921963 -0.09679312 0.06554635 -0.17598328
-0.16119002 0.020910338 -0.18800971 -0.13195224 -0.16323255 -0.04806638 0.21243545 0.08255256
0.1433589 0.008528354 -0.16826448 0.027614485 -0.08099649 0.05560393 -0.048792575 0.06246954
-0.07837301 0.10060318 0.048831187 -0.07305757 -0.07084416 -0.14580192 -0.14992206 -0.12552913
-0.21501279 0.08827621 0.032669213 -0.035168935 -0.07232685 -0.21099484 -0.041707706 0.18082842
0.10595822 -0.031478778 -0.012660395 0.048984364 0.12140497 -0.09995375 -0.11982043 -0.0047961813
0.09291109 0.23171647 -0.032772884 -0.03179477 0.09377102 -0.043007612 0.08730504 -0.21895608
0.13660301 0.06488254 0.05035083 -0.16427156 0.15039377 -0.21517414 0.14515418 -0.16186246
0.12975304 -0.10638663 -0.09772619 -0.19061239 -0.018768286 -0.10760473 0.03681847 -0.2104132
-0.04259641 -0.027750676 0.08597153 0.15771082 0.15492842 0.13552654 -0.0021247617 0.06063888
0.088133305 -0.04142356 -0.12570788 -0.2221056 0.046209563 -0.18784659 0.26174155 0.06896547
-0.07722883 -0.005237999 0.14406268 -0.08181936 0.13440739 0.11100167 -0.111748524 -0.08323239
0.15792874 -0.18802755 0.0033064918 0.1887298 -0.012029839 -0.053409297 -0.076840706 -0.092608266
0.04047831 -0.15624842 -0.25506976 -0.019192899 -0.112537116 0.116146296 -0.18382072 0.07630384
0.016546512 -0.088879555 0.080779515 0.12174408 -0.1384505 -0.15219022 -0.08979787 -0.105917424
0.059427995 0.033291075 -0.026417954 0.23002054 0.10687494 0.12935108 0.18263413 -0.059902236
-0.26013875 -0.07814969 0.09037425 0.115947135 -0.15640499 -0.17408821 0.07622463 0.079571165
-0.018255021 0.013615696 -0.078481436 -0.1021964 0.10347726 0.11231176 0.10288733 -0.15344176
-0.096353956 -0.0202435 -0.0703014 -0.2714103 0.10887934 -0.085709244 0.17406556 0.025790827
-0.15659067 -0.010830359 0.24733481 -0.07209456 -0.110401325 0.048367642 0.17618653 -0.006421558
-0.1275544 -0.001396456 -0.11203492 -0.20119795 -0.22725351 -0.052988984 0.10906989 -0.22255501
-0.087214395 0.03924651 0.09379724 -0.042362377 0.02347826 -0.087883964 -0.03704155 -0.14622992
0.1993702 -0.08835655 -0.020089006 -0.039084267 -0.12230074 -0.010914575 -0.15502498 -0.21115087
-0.14158326 0.15866454 -0.0070219073 0.0019514015 -0.18049979 0.050765738 -0.05847053 0.03815831
-0.12687077 0.19210754 0.02333568 0.20439759 0.09463604 0.06846033 -0.05768593 -0.038725976
-0.018554956 0.12446237 -0.027049597 0.16163768 -0.18817517 0.07612433 -0.090825744 0.20249334
-0.19695847 0.16388462 -0.22066818 -0.22268534 0.066986 -0.21241955 0.08844053 -0.1292422
-0.27606505 -0.036324985 0.22114359 0.06125511 0.011209873 0.14052777 0.18366466 -0.01033773
0.08826172 -0.19853593 -0.10792594 -0.00490948 -0.066351004 0.17190656 -0.19687878 0.0396146
-0.023198921 0.060803615 -0.18754442 -0.14348085 -0.21949603 -0.20537487 0.08606229 0.10829352
-0.20368117 -0.1607393 -0.22041559 -0.016164029 -0.04573269 0.15011586 0.16117944 -0.20899807
-0.13754697 -0.11598466 -0.00080699543 0.12373265 0.037477627 0.10990602 0.017037906 0.107462764
00000000: d2f7 a4bd 247f 08be d61a 0abe ab5d c53d
00000010: 0127 69bd 793b c6bd 2a3d 863d f634 34be
00000020: ff0e 25be 284c ab3c 9e85 40be 7d1e 07be
00000030: 6f26 27be 41e1 44bd ae88 593e 5111 a93d
00000040: adcc 123e 82ba 0b3c 864d 2cbe c637 e23c
00000050: 7de1 a5bd f2c0 633d b9da 47bd 0fe0 7f3d
00000060: 0782 a0bd 0a09 ce3d 3603 483d 359f 95bd
00000070: be16 91bd 194d 15be 2b85 19be b58a 00be
00000080: 502c 5cbe 28ca b43d 27d0 053d 4d0d 10bd
00000090: 1920 94bd 080f 58be b3d5 2abd 162b 393e
000000a0: a000 d93d e4ef 00bd 8c6d 4fbc d4a3 483d
000000b0: 2ba3 f83d 8db4 ccbd 6a64 f5bd 4929 9dbb
000000c0: 2b48 be3d 1547 6d3e dc3c 06bd 3c3b 02bd
000000d0: 050b c03d c028 30bd fccc b23d 0636 60be
000000e0: a9e1 0b3e 23e1 843d ac3c 4e3d ce36 28be
000000f0: d300 1a3e 9c56 5cbe 4ca3 143e 46bf 25be
00000100: fbdd 043e 3ce1 d9bd ab24 c8bd e52f 43be
00000110: f3bf 99bc de5f dcbd f7ce 163d 8f76 57be
00000120: 9379 2ebd 6355 e3bc d711 b03d f27e 213e
00000130: 8ea5 1e3e 78c7 0a3e 963f 0bbb 7960 783d
00000140: 3c7f b43d c0ab 29bd 91b9 00be a76f 63be
00000150: 3d46 3d3d db5a 40be fd02 863e c53d 8d3d
00000160: 262a 9ebd 85a3 abbb 2b85 133e e990 a7bd
00000170: 17a2 093e d854 e33d 69dc e4bd be75 aabd
00000180: 12b8 213e 4b8a 40be bab1 583b 6242 413e
00000190: cd18 45bc b5c3 5abd a95e 9dbd 67a9 bdbd
000001a0: 96cc 253d 96ff 1fbe 8198 82be 6d3a 9dbc
000001b0: dc79 e6bd 1cde ed3d 803b 3cbe 3045 9c3d
000001c0: 8d8c 873c 7c06 b6bd bb6f a53d f654 f93d
000001d0: f8c5 0dbe c1d7 1bbe f2e7 b7bd 3ceb d8bd
000001e0: c56a 733d 395c 083d 776a d8bc 818a 6b3e
000001f0: 40e1 da3d 9c74 043e 7104 3b3e 0c5c 75bd
00000200: e830 85be f20c a0bd 2316 b93d b175 ed3d
00000210: a128 20be 2e44 32be a91b 9c3d 35f6 a23d
00000220: 8e8b 95bc 5e14 5f3c e0ba a0bd 594c d1bd
00000230: e3eb d33d b503 e63d 98b6 d23d d61f 1dbe
00000240: 3955 c5bd b2d5 a5bc 2efa 8fbd 4af6 8abe
00000250: 22fc de3d 5488 afbd 3e3e 323e 4947 d33c
00000260: 4e59 20be d171 31bc 5645 7d3e 50a6 93bd
00000270: 171a e2bd 261d 463d 3e6a 343e ef6b d2bb
00000280: 9f9d 02be 4a09 b7ba 9072 e5bd d606 4ebe
00000290: 25b5 68be fa0a 59bd 0960 df3d 76e5 63be
000002a0: 769d b2bd f3c0 203d c418 c03d 2c84 2dbd
000002b0: 7b55 c03c 82fc b3bd e1b8 17bd 4cbd 15be
000002c0: b427 4c3e 47f4 b4bd b391 a4bc d316 20bd
000002d0: cf78 fabd 0cd3 32bc debe 1ebe ef37 58be
000002e0: 34fb 10be f578 223e 0718 e6bb 2bc6 ff3a
000002f0: f0d4 38be bcef 4f3d cb7e 6fbd e34b 1c3d
00000300: 69ea 01be d7b7 443e 782a bf3c 9a4d 513e
00000310: 8ad0 c13d ee34 8c3d 1548 6cbd 219f 1ebd
00000320: 9000 98bc 21e6 fe3d 1e97 ddbc 5984 253e
00000330: feb0 40be 13e7 9b3d d902 babd 6a5a 4f3e
00000340: 7baf 49be 5fd1 273e d7f6 61be a007 64be
00000350: f52f 893d 8384 59be 4f20 b53d 1158 04be
00000360: 6658 8dbe 82c9 14bd 7773 623e a3e6 7a3d
00000370: 9da9 373c 83e6 0f3e 9712 3c3e 955f 29bc
00000380: 90c2 b43d 014d 4bbe 4608 ddbd b4df a0bb
00000390: 09e3 87bd 4608 303e 979a 49be eb42 223d
000003a0: aa0b bebc 360d 793d a50b 40be a5ec 12be
000003b0: 91c3 60be ca4d 52be 6d41 b03d fec8 dd3d
000003c0: cc91 50be d898 24be a0b4 61be 6d6a 84bc
000003d0: 3352 3bbd f9b7 193e 390c 253e 9703 56be
000003e0: 1dd9 0cbe 5e89 edbd 8c8c 53ba 8b67 fd3d
000003f0: 2482 193d 6816 e13d 1493 8b3c 7015 dc3d

weight_hh_l0 f4 [120, 30]
-0.0819066 -0.21027833 -0.11874782 0.073561504 0.0026924075 0.08587195 0.06330633 0.101958916
-0.09647628 0.03838349 0.061452027 0.080667384 -0.0014967751 0.071154386 0.09140413 -0.035674784
-0.09190974 0.11405664 0.15735485 -0.048140038 -0.17209266 0.15059957 -0.14263333 0.13798289
0.10334035 0.012461138 -0.22681238 0.2194844 0.08512824 0.011751348 -0.23923506 -0.034441948
0.17242137 0.049045492 0.06456034 -0.2031681 -0.13659932 -0.12172546 0.14660534 0.09802977
-0.1387102 -0.1779118 0.108675405 0.015663233 -0.1451347 -0.07480835 -0.11835379 -0.028821219
0.215983 -0.1538082 0.008913042 -0.0140463 -0.12182054 0.1295998 0.0625521 0.1084025
-0.04158808 0.20608416 -0.073887974 -0.024499107 -0.05360268 -0.18410921 0.11222961 -0.10558358
0.1873289 0.16749796 -0.119987346 -0.033701133 0.108154215 0.05690239 -0.11346096 -0.14920756
-0.087990336 0.05364056 0.17473066 0.024372073 -0.048700072 0.081682414 -0.0570226 0.21896204
-0.12872222 -0.21924217 -0.13707824 -0.025534708 -0.014992135 0.08929411 0.092349365 -0.11831661
-0.1225314 -0.08614006 -0.17611581 -0.15236822 -0.10584554 0.08135351 0.17929928 -0.05344774
-0.009482874 -0.11387113 0.16918941 0.09527619 -0.112241745 -0.0054012164 0.17975543 0.043089945
0.1350747 0.05637393 0.11072994 -0.12890247 0.22839434 0.027426193 -0.099354245 -0.06498434
0.026332052 -0.007788503 0.082617834 -0.02522075 -0.043443054 0.11860092 0.027346719 -0.096151784
-0.10613258 -0.019717515 0.18891081 -0.198445 0.06293063 -0.07645252 -0.12359448 0.1504024
0.22609663 -0.011065719 -0.027810028 -0.064061634 -0.08511895 -0.15259033 -0.094061315 0.072590396
0.0042460915 -0.22116812 0.008187833 0.043154363 0.019064786 -0.20357385 0.0039822306 0.13790679
-0.11263165 0.06979615 0.09777775 0.14952993 0.0657451 -0.1297851 -0.096477285 -0.1598088
-0.12264176 -0.05387452 0.06839165 -0.07404775 0.029078016 -0.14185798 0.075917095 0.10696101
0.05939081 -0.042607106 -0.13529156 -0.08698622 0.116936624 -0.13454233 0.15583813 -0.25181735
-0.15469077 0.098748825 -0.07544085 -0.122794405 0.16431095 -0.0052446257 0.16813093 0.008516004
0.14913417 0.063415654 0.017831778 0.18879148 0.06832173 -0.21642636 -0.10518652 -0.0944591
0.013746423 -0.05834427 -0.03608459 -0.15885125 0.16110738 0.14406486 -0.055300716 -0.08135511
0.032742675 -0.14975427 0.17004909 -0.0011724187 -0.03201191 -0.03372307 0.21131364 -0.049842346
0.04949436 0.010451731 -0.099735215 -0.05359808 -0.018112581 0.15192105 0.18179664 0.118695475
-0.21465328 -0.0932776 -0.016150793 -0.07526794 -0.038051534 0.1420325 0.14420705 -0.034381296
0.09794336 0.19569613 0.08836626 0.042587645 0.082442716 0.06986575 0.016025836 0.023901036
-0.09182627 -0.04533307 -0.020003535 0.013118967 0.058607504 -0.024864862 0.1463341 0.17371075
-0.12493408 -0.18583974 -0.13899453 -0.17341554 0.015246524 0.015615561 -0.010058926 -0.069497585
-0.06252671 -0.04360326 0.075199395 -0.0059820833 0.23880672 0.010757701 0.099992074 -0.18213528
-0.020886103 -0.10963913 0.05090559 0.09098997 -0.05891016 -0.17353846 0.00074517954 -0.06917127
00000000: a6be a7bd 3453 57be 0f32 f3bd 6aa7 963d
00000010: 1a73 303b a2dd af3d c0a6 813d d6cf d03d
00000020: 5b95 c5bd 0238 1d3d 1fb5 7b3d f134 a53d
00000030: 702f c4ba 64b9 913d 1732 bb3d b91f 12bd
00000040: 2c3b bcbd 8796 e93d a121 213e 7d2e 45bd
00000050: 0f39 30be c636 1a3e 790e 12be 634b 0d3e
00000060: 1ba4 d33d cd29 4c3c 8141 68be 85c0 603e
00000070: b757 ae3d ba88 403c 09fa 74be 0013 0dbd
00000080: 3a8f 303e ede3 483d 3638 843d 4c0b 50be
00000090: b1e0 0bbe 334b f9bd b61f 163e d5c3 c83d
000000a0: 0c0a 0ebe 832e 36be 3691 de3d 2e50 803c
000000b0: 319e 14be 1f35 99bd 7963 f2bd 7a1a ecbc
000000c0: a62a 5d3e e67f 1dbe 0208 123c 7422 66bc
000000d0: 0c7d f9bd cfb5 043e 511b 803d 2102 de3d
000000e0: 4358 2abd ba07 533e 9452 97bd 5ab2 c8bc
000000f0: 7c8e 5bbd 2087 3cbe a3d8 e53d 343c d8bd
00000100: 26d3 3f3e 9684 2b3e edbb f5bd 330a 0abd
00000110: f57f dd3d 7b12 693d 385e e8bd dec9 18be
00000120: 4734 b4bd 34b6 5b3d 98ec 323e f1a7 c73c
00000130: ba79 47bd 1c49 a73d 8890 69bd 9637 603e
00000140: c2cf 03be 0581 60be 3d5e 0cbe 2a2e d1bc
00000150: 92a1 75bc d5df b63d aa21 bd3d fb4f f2bd
00000160: bef1 fabd 336a b0bd b457 34be 6a06 1cbe
00000170: 8cc5 d8bd ab9c a63d 3b9a 373e 04ec 5abd
00000180: 0e5e 1bbc 4435 e9bd fd3f 2d3e 2a20 c33d
00000190: 00df e5bd b0fc b0bb cf11 383e 157f 303d
000001a0: 0651 0a3e 5ae8 663d 61c6 e23d 02ff 03be
000001b0: 35e0 693e e5ac e03c 3d7a cbbd 8216 85bd
000001c0: 51b6 d73c b336 ffbb 8a33 a93d bf9b cebc
000001d0: 58f1 31bd 0ae5 f23d 3a06 e03c 3aeb c4bd
000001e0: 0a5c d9bd a086 a1bc d671 413e 2b35 4bbe
000001f0: c6e1 803d 2493 9cbd 1a1f fdbd 1603 1a3e
00000200: e085 673e fd4c 35bc dbd1 e3bc bf32 83bd
00000210: d852 aebd a440 1cbe 38a3 c0bd 46aa 943d
00000220: cc22 8b3b e579 62be 4326 063c a1c2 303d
00000230: c12d 9c3c aa75 50be 5f7d 823b 7037 0d3e
00000240: 6cab e6bd 49f1 8e3d b33f c83d 601e 193e
00000250: 5ea5 863d 63e6 04be e295 c5bd eba4 23be
00000260: 9a2b fbbd 87ab 5cbd ec10 8c3d 59a6 97bd
00000270: 0535 ee3c 3843 11be 6c7a 9b3d 600e db3d
00000280: c743 733d ca84 2ebd df89 0abe d525 b2bd
00000290: 787c ef3d 77c5 09be 0894 1f3e 34ee 80be
000002a0: 4267 1ebe d33c ca3d bb80 9abd a27b fbbd
000002b0: 2141 283e 1cdb abbb 842a 2c3e b686 0b3c
000002c0: a1b6 183e 11e0 813d f313 923c 8e52 413e
000002d0: 43ec 8b3d df9e 5dbe 086c d7bd c673 c1bd
000002e0: ad38 613c 67fa 6ebd 6fcd 13bd e7a9 22be
000002f0: 55f9 243e bd85 133e 0183 62bd 829d a6bd
00000300: 2f1d 063d 2f59 19be 5921 2e3e d8ab 99ba
00000310: ec1e 03bd 3421 0abd 9a62 583e 7d27 4cbd
00000320: 99ba 4a3d bd3d 2b3c fa41 ccbd a989 5bbd
00000330: d660 94bc 3191 1b3e e628 3a3e 9d16 f33d
00000340: 12ce 5bbe 5408 bfbd ab4e 84bc 1426 9abd
00000350: eddb 1bbd f870 113e 03ab 133e 67d3 0cbd
00000360: 8796 c83d 9164 483e 5ff9 b43d 6270 2e3d
00000370: bad7 a83d c615 8f3d 9d48 833c 1bcc c33c
00000380: 690f bcbd 2baf 39bd 74de a3bc f0f0 563c
00000390: 6c0e 703d 65b1 cbbc 9bd8 153e 3be1 313e
000003a0: 70dd ffbd c64c 3ebe 9554 0ebe d893 31be
000003b0: 8ecc 793c 69d8 7f3c 32ce 24bc c054 8ebd
000003c0: 010e 80bd 5599 32bd 2402 9a3d 5a05 c4bb
000003d0: c089 743e 1141 303c a5c8 cc3d ac81 3abe
000003e0: 5519 abbc 7b8a e0bd 6182 503d f358 ba3d
000003f0: c84b 71bd 11b4 31be 2758 433a aba9 8dbd

bias_ih_l0 f4 [120]
-0.15345456 0.031150145 0.025005778 0.23036544 -0.007847009 -0.02813393 0.09909962 -0.021156982
0.17702438 0.08130617 -0.053745653 0.1595259 -0.05844624 -0.049850397 -0.022271337 0.23970744
0.14031053 0.12600486 -0.10862119 -0.060232386 -0.12041753 0.15437533 0.0006456167 0.17239921
0.20668831 -0.11933028 -0.08736724 -0.015512467 0.022659963 -0.112823024 0.064474374 0.08009826
0.20535573 0.00680645 0.17501093 0.041988313 0.21895005 -0.1176173 -0.049022548 -0.070618026
-0.038981386 -0.10784846 -0.13727368 -0.05041899 0.16204105 0.14177525 0.11275839 0.114375606
-0.08175601 0.19595158 -0.023571381 0.03704979 0.055261638 -0.10059274 0.21696182 -0.026545981
0.15636735 -0.039276842 -0.11525191 -0.06198876 -0.07705669 0.097040854 0.085923575 -0.03563233
0.008584925 -0.02997264 -0.13321505 -0.12935083 -0.10397741 0.090245746 0.004570173 0.12523635
-0.13143949 -0.09734427 -0.0134046385 -0.05149737 0.093848884 -0.19047767 0.20137155 -0.099514395
-0.14778033 -0.16022272 -0.15908206 0.20842934 0.006752604 0.06515399 0.07995799 0.14715299
-0.13314341 -0.11417657 0.17567652 0.05469086 0.13692288 0.18806508 0.18084793 -0.17729409
0.1511065 -0.016243301 0.17437077 0.066267975 0.10883417 0.024953203 -0.043434102 0.23529184
0.039327156 -0.09525431 0.035248913 0.021173794 0.06166709 0.0022454376 -0.10880722 0.07875851
-0.009189279 -0.021106748 0.13467728 0.18763886 0.043696813 0.2062647 -0.039606366 0.055666465
00000000: 3123 1dbe 972e ff3c ebd8 cc3c ebe4 6b3e
00000010: be90 00bc 2179 e6bc bef4 ca3d 6851 adbc
00000020: e145 353e d983 a63d 6724 5cbd c25a 233e
00000030: 5365 6fbd ee2f 4cbd 6172 b6bc de75 753e
00000040: 90ad 0f3e 6b07 013e c974 debd 3cb6 76bd
00000050: 779d f6bd 9114 1e3e 9a3e 293a 6b89 303e
00000060: 1aa6 533e 6f63 f4bd 98ed b2bd 0128 7ebc
00000070: 63a1 b93c c20f e7bd 240b 843d 8e0a a43d
00000080: c648 523e a408 df3b 1136 333e f0fb 2b3d
00000090: 7134 603e 57e1 f0bd decb 48bd 2fa0 90bd
000000a0: f2aa 1fbd a7df dcbd 7991 0cbe 2584 4ebd
000000b0: 17ee 253e 882d 113e dfed e63d c23d ea3d
000000c0: b26f a7bd 88a7 483e c518 c1bc 85c1 173d
000000d0: 075a 623d 9103 cebd 3d2b 5e3e f576 d9bc
000000e0: c31e 203e c1e0 20bd 3209 ecbd ede7 7dbd
000000f0: e6cf 9dbd 5bbd c63d b3f8 af3d 35f3 11bd
00000100: c9a7 0c3c 2f89 f5bc 8769 08be 8b74 04be
00000110: 1cf2 d4bd c3d2 b83d 64c1 953b f53d 003e
00000120: 1398 06be 6f5c c7bd 219f 5bbc e8ee 52bd
00000130: d833 c03d 940c 43be 5834 4e3e 34ce cbbd
00000140: ba53 17be 6d11 24be 68e6 22be 806e 553e
00000150: f344 dd3b 756f 853d 04c1 a33d 46af 163e
00000160: bf56 08be 68d5 e9bd 8ce4 333e 8603 603d
00000170: 8335 0c3e 2294 403e 3330 393e 958c 35be
00000180: aabb 1a3e ac10 85bc 408e 323e 81b7 873d
00000190: 73e4 de3d a96a cc3c f5e7 31bd 58f0 703e
000001a0: 8315 213d b114 c3bd 2a61 103d aa74 ad3c
000001b0: a196 7c3d 3128 133b 52d6 debd 244c a13d
000001c0: a18e 16bc 0fe8 acbc d7e8 093e 6724 403e
000001d0: 6efb 323d 0e37 533e 493a 22bd 8502 643d

bias_hh_l0 f4 [120]
-0.107713506 0.17361987 -0.016964113 -0.11209213 0.13708523 -0.13312465 0.21803753 -0.1311379
0.08033395 0.13450359 -0.07596341 -0.0061882455 0.13957325 0.22297262 -0.11282494 0.04267591
0.16476879 0.035963576 -0.0065422333 0.07618984 0.0763235 0.1633664 0.17457043 0.13362008
-0.061636973 -0.07714374 0.026634626 -0.03663593 -0.07155436 0.22376603 0.17092127 -0.09952001
-0.08364204 0.21500476 -0.04257386 0.15249501 -0.10496421 -0.14383134 0.03718081 0.08941742
0.083640516 -0.0206768 -0.118163735 0.003419854 -0.124438465 0.10525708 0.12636027 0.118600555
-0.07596431 0.18726905 0.050248653 0.13880171 0.18908378 0.054968596 0.23642628 0.08174813
-0.119524956 0.18042025 0.08415637 -0.048721235 0.005550704 -0.1273087 0.16267274 -0.19880517
0.01776229 -0.1529871 -0.18342718 -0.051898297 0.1056688 0.14268173 0.20040146 -0.18564384
0.1428411 -0.16646464 0.03785364 0.022760516 0.00532636 0.030917287 0.13150436 0.19147217
-0.22390507 -0.18664816 -0.051173326 0.14171468 0.1279512 -0.0062998515 0.12543318 0.17558527
-0.1591238 0.1900668 -0.015814371 0.20327726 -0.0006445635 -0.022632014 0.14458376 -0.16219628
0.088839054 -0.040790547 0.041284025 0.040221345 -0.10006052 0.19468391 0.011486089 0.22819261
-0.05444746 0.07088066 0.17916675 0.12241127 0.05891193 -0.01789309 0.2115583 0.22298837
0.084936835 0.1378429 -0.053614594 -0.112758555 -0.058584888 0.10651448 -0.058833368 0.09682945
00000000: e698 dcbd 68c9 313e 53f8 8abc 8f90 e5bd
00000010: 1260 0c3e d451 08be 3b45 5f3e 0349 06be
00000020: 2086 a43d 4fbb 093e b492 9bbd c4c6 cabb
00000030: 4aec 0e3e ef52 643e c310 e7bd efcc 2e3d
00000040: 26b9 283e 8b4e 133d 3b60 d6bb 6b09 9c3d
00000050: 7f4f 9c3d 8649 273e 97c2 323e b4d3 083e
00000060: 0d77 7cbd 8afd 9dbd dc30 da3c 8f0f 16bd
00000070: 188b 92bd ec22 653e fc05 2f3e 26d1 cbbd
00000080: 854c abbd 352a 5c3e ee61 2ebd a727 1c3e
00000090: 7af7 d6bd 8648 13be e84a 183d 7b20 b73d
000000a0: b84b ab3d 6462 a9bc d4ff f1bd a11f 603b
000000b0: 98d9 febd 0691 d73d 9664 013e d9e4 f23d
000000c0: 2d93 9bbd 75c3 3f3e 88d1 4d3d 0922 0e3e
000000d0: 2e9f 413e c026 613d bb19 723e 906b a73d
000000e0: 80c9 f4bd 16c0 383e 2d5a ac3d eb8f 47bd
000000f0: aee2 b53b 365d 02be af93 263e 9593 4bbe
00000100: 3982 913c a6a8 1cbe 56d4 3bbe 4f93 54bd
00000110: e268 d83d 291b 123e 0a36 4d3e 6b19 3ebe
00000120: f044 123e b575 2abe 6b0c 1b3d 4374 ba3c
00000130: bf88 ae3b 4046 fd3c 14a9 063e 4811 443e
00000140: 5f47 65be b220 3fbe 1f9b 51bd a71d 113e
00000150: a405 033e fc6e cebb 8e71 003e a0cc 333e
00000160: 59f1 22be dfa0 423e 248d 81bc ea27 503e
00000170: edf7 28ba c666 b9bc c40d 143e c816 26be
00000180: 40f1 b53d fd13 27bd 7019 293d 23bf 243d
00000190: 88ec ccbd 385b 473e 2630 3c3c 53ab 693e
000001a0: 4d04 5fbd e129 913d 7d77 373e c3b2 fa3d
000001b0: a34d 713d 8894 92bc bda2 583e 1057 643e
000001c0: 5df3 ad3d b026 0d3e fa9a 5bbd f5ed e6bd
000001d0: b5f6 6fbd 4424 da3d 42fb 70bd 854e c63d

weight f4 [2, 30]
-0.122445196 -0.14971247 -0.011144702 -0.033090554 0.14267164 0.06054241 -0.23361367 0.067907095
0.12395045 -0.17734934 0.22958295 -0.16985825 -0.20598312 -0.23918816 0.19874592 -0.117538884
0.20874578 -0.11596027 0.06027449 0.19048244 -0.11823407 -0.20910576 -0.19448254 0.214435
0.12405244 0.18854223 -0.108628035 0.054733213 -0.004961737 0.22191256 0.044586733 0.20573501
-0.11009138 0.061902378 -0.24459065 -0.16098602 -0.08741938 -0.09869526 -0.19271272 0.13321081
-0.12727605 0.13295053 -0.017307915 -0.035623353 -0.172172 0.120176196 0.07877221 0.05775346
-0.08780866 0.0024042467 0.093207814 -0.015446944 0.024568204 0.00426972 -0.25896654 0.07453035
0.10508378 -0.15711267 0.22777516 -0.2307252
00000000: 8cc4 fabd 3a4e 19be 4598 36bc f689 07bd
00000010: 8418 123e 51fb 773d 6c38 6fbe e012 8b3d
00000020: bcd9 fd3d 119b 35be cb17 6b3e 52ef 2dbe
00000030: 3ded 52be beed 74be 0d84 4b3e 3ab8 f0bd
00000040: 74c1 553e 947c edbd 62e2 763d d40d 433e
00000050: b424 f2bd d21f 56be 6e26 47be d994 5b3e
00000060: 350f fe3d 3711 413e 6078 debd ef2f 603d
00000070: 1196 a2bb 0c3d 633e 94a0 363d 33ac 523e
00000080: 9777 e1bd 598d 7d3d f975 7abe 85d9 24be
00000090: ef08 b3bd be20 cabd 7c56 45be 6a68 083e
000000a0: a754 02be 2f24 083e 54c9 8dbc cbe9 11bd
000000b0: db4d 30be f01e f63d 5353 a13d e48e 6c3d
000000c0: 07d5 b3bd 9190 1d3b bde3 be3d 2e15 7dbc
000000d0: 4243 c93c 02e9 8b3b 4397 84be 5ea3 983d
000000e0: 2a36 d73d 25e2 20be e43d 693e 3a43 6cbe

bias f4 [2]
-0.03833954 0.12760639
00000000: ec09 1dbd 40ab 023e
