models/BinClassifier.pt (torch, 54726 bytes, 7 tensors)

weight f4 [5, 10]
00000000: 0000 0000 0000 0000 0000 0000 0000 0000
00000010: 0000 0000 0000 0000 0000 0000 0000 0000
00000020: 0000 0000 0000 0000 e98a 323d 5e5f 823f
00000030: 4b48 2bbf 3d86 20c0 3088 a23e df11 25c0
00000040: 9661 2ebf 6e80 d1bf c90a ed3e 7bd3 8e3f
00000050: f269 56bd d17a 0fc0 62ed 9e3f 18f2 a2bf
00000060: abb3 bebe faf9 1bbf a2de f8be a794 233f
00000070: e89a 883f eeaa c1be d03d 35be 39c3 1fbf
00000080: 5e92 a4bf e441 99bf d86d 66bf 001c 9abf
00000090: 7cfe 4f3d 6def ddbf 0c53 d23e 3b19 ebbe
000000a0: 40e5 ae3f 8b66 b83f 4078 b8bf 78e2 043f
000000b0: eb4c 123f 7f04 4e40 5ef7 c43f e780 6fbf
000000c0: 942c ab3d 8e3e 22bf
0.0 0.0 0.0 0.0 0.0 0.0 0.0 0.0
0.0 0.0 0.043589506 1.0185354 -0.66907185 -2.5081933 0.31744528 -2.5792158
-0.68117654 -1.6367319 0.4629729 1.1158289 -0.05234713 -2.241871 1.2416193 -1.2730131
-0.3724645 -0.6092831 -0.48607355 0.638987 1.0672274 -0.37825722 -0.17699361 -0.6240726
-1.2857168 -1.1973233 -0.9001136 -1.2039795 0.050779805 -1.7338692 0.41078985 -0.45917687
1.3663712 1.4406294 -1.4411697 0.51908064 0.5714862 3.2190244 1.538799 -0.93556064
0.08358112 -0.633767

weight_ih_l0 f4 [200, 10]
00000000: 42eb f3bb db2b 01be 2e38 0a3e 15e3 eabd
00000010: e7a4 4e3d b723 9fbc af84 843d 38c8 78bd
00000020: 710e 94bd 779b 9ebd 4b6e b03d f1a6 63bd
00000030: d6be 4fbd f21c 11be ccc2 1abd 8cdc 4f3d
00000040: 3d06 ffbd 62ec b03d 7690 dd3d 196b 033d
00000050: 93b3 b83d 30ec d63c d01d 00bd a2d9 b0bd
00000060: dbfd a83d a88c c7bc 2439 2f3c 34bb 1abe
00000070: 062d 583d 1ec2 27bc dadd b83d ec36 053e
00000080: ecba 1a3e 112d 5a3b f3dd 253d 8595 d53d
00000090: 2a82 b9bc 5751 0bbe dcac eabc 0218 0e3e
000000a0: 36f7 0b3d fb45 5abe ffd7 63bd af42 1abe
000000b0: c7ff 82bd 6832 03be c0ae bc3d 528f 2d3d
000000c0: 3404 173e a128 c93d 57a3 503d f3e3 8ebd
000000d0: 3265 01be 2e35 e8bc 2c62 f3bc 5e48 feb9
000000e0: 12fe 5abd 151a 92bd 7c1b 353e 6fec 223e
000000f0: 9898 f53d 9639 e23d 6044 a33d 87f5 6cbd
00000100: 9fcf 303e 4b82 28bd 5d55 ba3d 938c a13d
00000110: 3ac1 21be de95 f9bd e3f2 273d 8bbe abbc
00000120: 77be 71bd 4662 2ebd c387 813d 4c32 933d
00000130: bd26 083c 1263 163d a317 05be 6e5b bdba
00000140: cd15 253e 0cd3 efbc a68d 21be 0292 adbd
00000150: 685e 18bd 6848 d53c 91f4 8f3d b7b2 8fbc
00000160: ac43 6cbc 0f2b 28bd e78f 37be 9743 d4bd
00000170: 7eb3 84bd fac2 ac3d 4628 693d 9f9e 0abe
00000180: bf62 9abd 04ff 31bd 1297 1c3d 7f30 0bbe
00000190: 362b 91bc d2a3 4c3c 6d35 e03b 2fdc 11bc
000001a0: 7610 1c3e 2870 3dbd 4967 cabd 743f 753d
000001b0: cfde 6e3d 6fc7 e33d 8594 3abd f350 aabd
000001c0: 303f 47bc 6cbb b0bb 0403 83bd 68d0 d5bb
000001d0: acbe c1bd c9ea dd3c b0cd bbbd 403b 9f3d
000001e0: fd78 d73d 4cef 073e 6fe0 cdbd 1920 883d
000001f0: a243 ca3d f1a7 71bd 66f1 5bbd 1263 633d
00000200: 9fd3 c3bd 98e4 29be 0ff3 223e 4d1a 163e
00000210: d663 f1bd 1cbe 30bd 1cb6 f3bc 5368 d13c
00000220: 6d12 f43d 8314 cf3d b59c 3b3c 99cc b13d
00000230: 2b0a 80bd 3e49 603d b0f6 18be 9f8d 2bbe
00000240: e8e8 37be 228a 21bc fa6c 84bd 4f41 3a3d
00000250: 99e1 58bd 1e75 16bd db27 97bd 59f1 583d
00000260: 9c2b 4cbe b0f6 cbbd 258d ccbd dc9d 9c3d
00000270: ae35 ae3d 6f8a f7bd 069b b23d 9540 dbbd
00000280: 1f07 7d3d b2eb edbc 8c19 d13a f64c 1e3e
00000290: 5522 85bd 7f37 163c ec3d 93bd 84ee 843d
000002a0: 058f 503d 90f3 da3c b82a 083c 6954 003e
000002b0: 2a86 173d 6620 09bd d4c2 4bbc ac00 6cbd
000002c0: 0f44 e23c e3a2 22be a192 a73b c1f0 383d
000002d0: 4544 a53d 74bc 883d d3f6 7c3d 3b15 5dbd
000002e0: c97a 973d af14 d43d 9c46 013e 353b 2c3e
000002f0: 12ef bdbd 440c 09bd 3dfa bc3d 2222 173c
00000300: 15c0 76bb 3aa8 97bd a630 0d3e 93f3 d73c
00000310: 4315 e43d 405f fbbd d97d 90bb 8f13 84bd
00000320: d339 50be 93b5 57be d482 c4bc 92a2 28be
00000330: fd61 873d ec11 adbc dd81 edbb 74a6 cc3d
00000340: 0a93 383e 638a 8cbd 6b8c 23be 7ced 1dbe
00000350: 95e3 d63d 7311 fcbb 7b5d 30be d7d2 60bd
00000360: 80a5 37bc bec6 f6bc b4cc 83bd af28 9abd
00000370: f1ae dfbd 6e8d f3bc f7a3 f1bd a260 8cbd
00000380: b290 f1bd 16d2 0b3c a5b4 0f3d b1d2 6abd
00000390: 6376 f93d 234d 39bc 9f0c 0fbd 321c 0abe
000003a0: 7a04 81bd 35e6 1cbd 1897 08be 450a 003e
000003b0: 65e8 64bd 43ac c33d d008 d13c 3c86 cc3d
000003c0: 3499 96bd 41af 0ebe 357a e63d fecb a83c
000003d0: f782 dcbc ceb8 b9bd 4081 d7bd 3c3e a83d
000003e0: 1c1f da3d 8875 eebd 4ba4 64bd cb5b e93d
000003f0: f31d 23bd 440b 283d 2635 ee3d 91ab e0bd
-0.0074438164 -0.12614386 0.13497993 -0.11469094 0.050450232 -0.01942621 0.0647062 -0.06073782
-0.07229317 -0.07744496 0.08614787 -0.05557913 -0.050719105 -0.14171198 -0.03778343 0.05074744
-0.12452362 0.086388364 0.10818569 0.03208456 0.09018626 0.02623567 -0.03127843 -0.0863526
0.08251544 -0.024359062 0.010694776 -0.15110475 0.052777313 -0.010239152 0.0902669 0.13009232
0.15110368 0.0033291022 0.04049487 0.10428909 -0.022645075 -0.13605247 -0.028646879 0.13876346
0.034171306 -0.21315758 -0.05562591 -0.150645 -0.06396442 -0.12812197 0.092130184 0.04237301
0.14747697 0.098222025 0.050937023 -0.069770716 -0.12636259 -0.02834567 -0.029709898 -0.00048500573
-0.053464957 -0.07133881 0.17686266 0.15910505 0.119919956 0.1104614 0.07972026 -0.05785134
0.17266701 -0.041139882 0.09098313 0.078881405 -0.15796366 -0.12186788 0.04100312 -0.020964881
-0.059019532 -0.04257419 0.063247226 0.07187328 0.008310017 0.036715575 -0.12997298 -0.0014446804
0.16121598 -0.02927544 -0.15776691 -0.084751144 -0.037199408 0.026035503 0.07029069 -0.017541273
-0.014420431 -0.04105669 -0.17925988 -0.10364454 -0.06479548 0.08435626 0.056923173 -0.13537072
-0.075383656 -0.043456092 0.03823001 -0.13592719 -0.0177208 0.01249023 0.0068423063 -0.0089025935
0.15240654 -0.04624954 -0.09882981 0.059874967 0.058317956 0.11122023 -0.045551796 -0.08316221
-0.012161061 -0.005393436 -0.063970596 -0.006525088 -0.09460196 0.027089493 -0.09170091 0.07774973
0.105211236 0.13274878 -0.10052573 0.06646747 0.09876181 -0.058998052 -0.053697012 0.055514403
-0.09561848 -0.16591108 0.15913032 0.1465847 -0.1178662 -0.043150052 -0.029749922 0.025562441
0.11917577 0.10111334 0.011450936 0.08681602 -0.062519394 0.05475735 -0.14937854 -0.16753243
-0.1795994 -0.009859594 -0.06466098 0.04547244 -0.05294952 -0.036732785 -0.07380649 0.052964542
-0.1993851 -0.09959161 -0.09987859 0.07647297 0.08506332 -0.12086951 0.087209746 -0.107056774
0.06177437 -0.029043052 0.0015953048 0.15459046 -0.06500689 0.009168505 -0.07189545 0.06490806
0.050917644 0.026727468 0.008310966 0.125322 0.036993183 -0.033478163 -0.012436587 -0.05761783
0.027620343 -0.15882449 0.005113915 0.045151476 0.08069662 0.066765696 0.061758827 -0.053975325
0.07396466 0.103555076 0.12624592 0.1681946 -0.09274115 -0.033458963 0.09227417 0.0092244465
-0.003765111 -0.074051335 0.13788089 0.026361262 0.11136868 -0.12274027 -0.0044095335 -0.06449043
-0.20334558 -0.21065359 -0.023988165 -0.16468266 0.06610487 -0.02112671 -0.007248147 0.09992686
0.18024841 -0.06862333 -0.15971534 -0.15422624 0.104926266 -0.00769251 -0.1722316 -0.054888573
-0.011208892 -0.030124065 -0.064355284 -0.07527291 -0.10922039 -0.029730525 -0.11798852 -0.06854369
-0.117951766 0.008533975 0.035084385 -0.057329837 0.121807836 -0.011309895 -0.034924146 -0.13487318
-0.06299682 -0.03830548 -0.13338888 0.12503918 -0.05588569 0.09554341 0.025516897 0.09986541
-0.0735344 -0.13934042 0.11253778 0.020605084 -0.026917918 -0.09068452 -0.10522699 0.08214995
0.10650465 -0.11643511 -0.055820744 0.11394461 -0.039823484 0.04102637 0.11631231 -0.10970224

weight_hh_l0 f4 [200, 50]
00000000: 779c f03d 75a3 e3bd 1393 863d f599 06bd
00000010: 7df9 b53d e3b1 cbbb 65ac e43c 7fe6 b4bb
00000020: 7305 0fbe 7947 6a3d fcd9 c9bd 5853 ee3d
00000030: 4b51 5e3d ff5a 98bc 73f9 0c3e 4b7e 4bbd
00000040: 529d eebc ab47 8ebd 2e20 a53d 1e56 843d
00000050: 2cfe e0bd 91cf 9c3d 0739 c83d b151 273d
00000060: 03b8 203d 7465 753d 5aa7 ea3d bad9 dbbd
00000070: b309 2e3d 539c 85bd cbb5 44bd cfc7 4e3d
00000080: 3405 f938 fc1b 03be c74c ca3d 1b1a bf3b
00000090: 0a52 cabd af8f a43d 2f9b 873d 321f 1bbe
000000a0: e681 433d 32b2 24bd 61bf ff3d dd42 b3bd
000000b0: 418b 81bc f222 e6bd 0040 72bc d1c0 aebc
000000c0: 68c4 ac3c 4720 923d fee1 a2bd a52c d63d
000000d0: af76 5abd fbbe 723d 461f e7bd 57be 15be
000000e0: a1fb 23be 0b42 943c 5c66 81bc 75f5 efbd
000000f0: 6754 10bd 1a4a 253e a73d 8e3d 6ef3 18be
00000100: 8797 7cbd b01b febd 7483 133e 112e 3ebd
00000110: 1efe 6fbd 4ae4 93bc d3c2 cd3d fe23 8cbd
00000120: cf1d 44bd c598 d53c b2ce fcbc f206 d13d
00000130: 20fa a43d 7546 873d 8ec2 3abd 1e4d b33d
00000140: d7e7 bb3d 5c3b 103b cdb5 093e bfce e63d
00000150: a6a1 a53d 0eba aa3d b38d ef3c e532 d2bc
00000160: d113 23bd ccd6 6c3d 170d df3d 45e1 a33c
00000170: b7e7 e7bd 7e88 6d3d b45d 043d 7960 f03d
00000180: b34a 103e 151c 4a3d 61f5 cebd 43c0 663b
00000190: 775b 1f3d 8cc0 03be ec62 07bd e3a9 ab3d
000001a0: 6fcf 10be 129f d03d 435d f6bd ff1f edbd
000001b0: f3f2 3cbd 6847 c23d 2d02 a5bc e7e9 94bd
000001c0: 0d10 64bd 27bf 82bd 6574 ecbd f508 66ba
000001d0: ba41 e23d 4a80 38bd 441a 013e 7e15 e6bd
000001e0: 162c d03d b33e 133e 6740 943d 78a1 b43d
000001f0: 2ad2 103d 53c5 be3d 2ad7 f13d 5569 643d
00000200: cb2e ccbc e43b 653d 1e65 bd3d f9ec ca3d
00000210: 60bb d33d 0ac8 a1bd fccb 99bc 4e4c 59bb
00000220: 0df5 7cbd 5a99 17be eb3d 8d3d 706f 47bb
00000230: c72a bf3d 4f35 ecbd 5b69 053e 6eb7 863d
00000240: 0ea6 643a f0d5 ab3d b649 953d 04d8 d8bd
00000250: 2f46 053e 5ff3 143d 5b50 953d beaa 87bd
00000260: bd4b 813d 5f13 f43d 5216 5a3d 8344 593d
00000270: 40f2 e43d f56e 80bd f34b eabc 7278 00bd
00000280: 63ee f83d 8dc6 aa3b 40da b7bd c837 163e
00000290: 86eb 8cbd 1630 cfbd 5808 b83d 2c18 473d
000002a0: 5735 893d cadb fbbb b6d7 04be 178e c43d
000002b0: 2a05 d33d eada d83d 78e9 8b3d 5717 84bc
000002c0: 9e6d 863b eb80 ad3d 6d98 d5bd 0b91 17bd
000002d0: 2f7f f1bd e69c 0dbe 99d8 d33d 59b8 f7bc
000002e0: f24a ab3d 5e5a b6bd a032 303d c171 393d
000002f0: 1b75 0fbc b7be acbd c8c2 dfbc ede6 013e
00000300: 5b21 9dbd 126c 3d3d 3969 9b3d 5944 60bd
00000310: a3a8 cfbd 4280 d6bd d049 ef3d 3b72 a5bc
00000320: 7326 933c d999 653d 2231 8f3b 9674 eb3d
00000330: 445c 2ebd 54fb 03be c9a4 773d 1933 813c
00000340: cb24 5a3d 66c7 90bd eeb2 f3bd 2b77 d1bc
00000350: 8ce6 9b3c 5b3d 403d 9895 873c 8eab 35ba
00000360: 07dd e1bd cf45 e4bd 4180 a8bd 683f 99ba
00000370: 8aa0 1fba f561 18bd 4048 d3bc 22b0 c4bd
00000380: 0ae4 1dbd f066 1b3e dbd5 de3d 59b3 373c
00000390: 87c7 0abe ca15 b83d a786 7cbd bca1 f13d
000003a0: b5ab ea3d 1c6c 8cbd e3cd 3bbd 22b7 a1bd
000003b0: 8e6a 6abd 6043 c2bd c8c2 0abc 6cf8 14be
000003c0: a3f3 dfbd 0332 b83d f310 5abd 960a 7a3d
000003d0: 751c f3bd 9806 03bd d077 3bbc 934f f33b
000003e0: d58c 0d3e d9bc 2abe 1ebe 8a3d 16d1 663d
000003f0: 8a8f c6bc 76f8 ae3c 1eaa 91bc ab65 683c
0.11748593 -0.11115161 0.06571021 -0.03286167 0.08885477 -0.006216274 0.027914235 -0.0055206413
-0.13966922 0.057197068 -0.0985603 0.1163699 0.054276746 -0.018598078 0.13767032 -0.04968099
-0.02912775 -0.06947263 0.080627784 0.06461738 -0.109859794 0.07656778 0.09776502 0.04084939
0.039237987 0.059911206 0.11457701 -0.107348874 0.04248972 -0.06523957 -0.048024934 0.05048352
0.000118742144 -0.12803644 0.09877925 0.0058319694 -0.09878929 0.08035218 0.06621396 -0.15148619
0.047731303 -0.040209003 0.124876745 -0.087529875 -0.015813472 -0.11237134 -0.014785767 -0.021332176
0.021089748 0.07135063 -0.07953261 0.10457734 -0.05333584 0.059264164 -0.11285262 -0.1462339
-0.16013958 0.018097898 -0.015795879 -0.11716739 -0.035236742 0.16141549 0.06945353 -0.14936611
-0.061667945 -0.12407625 0.14405614 -0.04643065 -0.058591954 -0.018053193 0.100469254 -0.068428025
-0.04787999 0.026073823 -0.030860279 0.10206403 0.0805552 0.066052355 -0.045595698 0.08754943
0.09175079 0.0022008037 0.13448258 0.112699024 0.080874726 0.08336268 0.029242372 -0.025659034
-0.03981382 0.057822034 0.108911686 0.020004878 -0.11323493 0.057991497 0.032315925 0.11737151
0.14090995 0.049343187 -0.10105396 0.0035209812 0.038905587 -0.1286642 -0.033053324 0.08382013
-0.1414163 0.1018659 -0.12029507 -0.115783684 -0.046130132 0.09486276 -0.020142639 -0.07271176
-0.05567937 -0.06384116 -0.11545638 -0.00087751384 0.110476926 -0.04504422 0.12607676 -0.11234568
0.10164659 0.14379387 0.07238846 0.0881986 0.035356678 0.0931498 0.118086174 0.055764515
-0.024924656 0.05596532 0.09247802 0.0990848 0.10338473 -0.078994825 -0.018774025 -0.0033157053
-0.061757136 -0.14804593 0.068965755 -0.0030431412 0.09334331 -0.11533605 0.13028471 0.06577955
0.0008722254 0.08390415 0.0728945 -0.10588077 0.13015054 0.03636491 0.07290717 -0.06624363
0.06313274 0.11917757 0.053243943 0.053043853 0.11179018 -0.062711634 -0.028600669 -0.031364866
0.12154844 0.0052116574 -0.08977175 0.14669716 -0.0688086 -0.101165935 0.089859664 0.048607036
0.06699627 -0.007686113 -0.12972912 0.09597414 0.10303719 0.105886295 0.0683164 -0.01612441
0.004102423 0.08471855 -0.104294635 -0.037003558 -0.117918365 -0.13829383 0.10344047 -0.030239271
0.08363904 -0.08903955 0.04301703 0.0452745 -0.008755947 -0.084348135 -0.027314559 0.12685747
-0.07672378 0.046245642 0.07588429 -0.05475268 -0.10139587 -0.10473682 0.116840005 -0.02019607
0.01796267 0.056054924 0.0043698708 0.114968464 -0.04256846 -0.12888843 0.060459886 0.015771436
0.053257745 -0.07069282 -0.118993625 -0.025569519 0.019030832 0.046933513 0.016550824 -0.00069301657
-0.11028486 -0.111461274 -0.082275875 -0.001169187 -0.0006089291 -0.037202794 -0.025791287 -0.09603907
-0.038547553 0.15175986 0.108806334 0.011212193 -0.13552676 0.08988531 -0.061651852 0.117984265
0.11458532 -0.06856558 -0.045850646 -0.07896258 -0.057230525 -0.09485507 -0.008469291 -0.1454789
-0.10935142 0.08993914 -0.05323882 0.06104525 -0.11870662 -0.03198871 -0.01144214 0.0074252575
0.13823254 -0.16673602 0.06774543 0.056351744 -0.024238367 0.02135871 -0.017781314 0.014184396

bias_ih_l0 f4 [200]
00000000: 3885 063e 7b78 db3d 5366 1dbc 172a 05bd
00000010: c831 ddbc 8bb2 ca3d d416 2fbd 75ee cabd
00000020: e1b9 4d3d f0d9 853d a4f6 7ebd f329 393b
00000030: 8592 153e c1f0 81bd fdeb 743d 251b 9b3d
00000040: 160c 8f3c 4977 14bd fd4f 07be 31d0 0c3e
00000050: a875 05bc 80ed f2bc 63ee 543d 6da4 83bd
00000060: 10c0 a73d 023f 21bc c507 993d 6db6 1cbd
00000070: 4ab0 e0bd 8633 bfbd 966b 63bd 0231 333e
00000080: 7c6f 153d d66b e7bd 9f14 62bd 34a5 0fbc
00000090: cb77 173e f34b 4dbc 2870 213d 7257 3dbc
000000a0: 4ff0 d53d 0451 8d3d 3dfd d1bd 150f 92bc
000000b0: 0893 a9bd f816 013e bfdb d2bd ff99 e53d
000000c0: 0636 753d 9ac9 b03c 8d94 333d 751b 083e
000000d0: 9931 9dbd 43c4 07bb f387 dd3d 41ea d0bd
000000e0: fc6a 973d d2d1 a03d 2d73 a23d 848a 943c
000000f0: 4896 5dbd f0bd aebd e18c 883d 068e d13d
00000100: d8cc c8bd 44ee 1cbe 7835 dc3d 934e 0a3d
00000110: e630 0ebd f235 9f3d fa47 963d 0bc6 153e
00000120: dd3b 8b3c 65bc 6b3c 35fd c83d ae06 dfbd
00000130: 4b5c 8fbb 1a99 e93d bbc5 e03d c404 18bc
00000140: 823d fd3d 5e08 e03d 006f 9b3c 9445 25bc
00000150: 8f28 e63d a13e 3ebc c2ad 87bd ae5a 053d
00000160: 4bc0 2cbd 8e85 a43c 8630 adbd 4d51 d1bd
00000170: feee 713d 9a9b 82bc 5fd3 143e 0200 f6bd
00000180: 39d2 1f3d 7fb5 bebc 16ed d13d ef2a 99bd
00000190: 8abe dcbd e273 1fbe 1d02 3dbe 695f 6b3d
000001a0: 3d06 c7bd d8e5 cfbd 680e afb9 347d 0f3d
000001b0: cf4d acbd 6475 0ebe 2e9e b13d dbd4 0fbe
000001c0: 6777 fabd b15b 7b3d 0a09 3fbe 29dd c13d
000001d0: 21a5 8ebd 199c 6bbd 9249 193d a67b 963d
000001e0: 6528 33bd eb10 153e 9347 ee3b 5a62 353b
000001f0: 1a68 febd f5cc 323d 56d2 bbbc b02d 5cbd
00000200: 0bc9 dfbd 7afe 95bc 61b4 a3bd f6b3 203e
00000210: 8e5f b93d 71b8 ad3d e440 01be 3d9d b4bd
00000220: 22ba acbd 6805 293d a41d 8f3b 3f7b 233d
00000230: 64bf f0bd 2743 53bd 8feb b8bb f70c 283e
00000240: 96c1 01be bfaa 083e b5e4 a0bd 7e77 08bd
00000250: a77d 2d3d 87b6 453e b06c 21bc 0f5a 0bbc
00000260: 0300 8e3d 80e8 2ebb 2ff3 d53d 6296 f33d
00000270: 9a36 14be 5c7e b1bd 909e 473d b2d9 51bd
00000280: 496a eabd b414 85bd c574 ccbd 6ba4 7abd
00000290: cfd2 4abd 4ecd 313e fb35 f3bd fb32 153e
000002a0: c0eb 7a3d e75c 213e 490e ad3d 8671 0a3c
000002b0: 64ed 883d 6cf1 023d 1954 97bd d12c e3bc
000002c0: 5f6d 913d 880a e53d 2a89 2f3d 839d f0bc
000002d0: a2b9 08bc b679 55bd e86a cbbd 965b 60bd
000002e0: 0a6a 9cbd 5131 b9bd 04ba b1bd 417d 40bc
000002f0: fc75 053e a30c a13d 742f 143e 674a 8e3d
00000300: fa63 3dbb c6a3 0fbd a7d1 313e 96f2 073e
00000310: 4cb3 813d 463d d73d f5b0 aa3d 7426 c53d
0.13136756 0.10716339 -0.0096069155 -0.032510843 -0.027001277 0.098973356 -0.04274638 -0.09908763
0.050226096 0.06535709 -0.062246934 0.0028253763 0.14606674 -0.06344748 0.05979537 0.07573537
0.017461818 -0.03624657 -0.13214107 0.13751294 -0.008145727 -0.029654264 0.051985156 -0.06427846
0.0819093 -0.009841682 0.07472185 -0.038259912 -0.109711245 -0.09335999 -0.055522524 0.17499164
0.036483273 -0.11299865 -0.055195447 -0.008767415 0.14791791 -0.012530315 0.0394136 -0.011556493
0.10446226 0.06900218 -0.102533795 -0.017829457 -0.08279997 0.12606418 -0.102958195 0.11211013
0.059865974 0.021580506 0.04384284 0.13291724 -0.076754756 -0.0020716346 0.10816946 -0.102009304
0.073934525 0.0785252 0.07932124 0.018132456 -0.054098397 -0.085323215 0.066674955 0.10232167
-0.09804696 -0.15325266 0.10752386 0.03376634 -0.034714602 0.07773961 0.07337947 0.14626329
0.016996318 0.0143881785 0.098139204 -0.10889946 -0.004375016 0.11406155 0.10975214 -0.00927848
0.12365247 0.10939096 0.018973827 -0.0100873895 0.11238205 -0.011611612 -0.066249385 0.032557182
-0.042175572 0.020083215 -0.08456521 -0.10220585 0.05906581 -0.015943337 0.14533757 -0.1201172
0.039018843 -0.023279903 0.10250299 -0.07478892 -0.1077853 -0.1557155 -0.18457837 0.057464037
-0.09717987 -0.10151261 -0.00033389335 0.035031512 -0.08413278 -0.13911968 0.086727485 -0.14046042
-0.122298054 0.06136674 -0.18655792 0.09466011 -0.069650896 -0.057521913 0.037423678 0.07347803
-0.043739695 0.14557235 0.007271716 0.002767703 -0.124221995 0.043652494 -0.022927444 -0.05375451
-0.10927018 -0.01830982 -0.07993389 0.1569365 0.09051429 0.08482445 -0.1262241 -0.08819053
-0.084339395 0.04126492 0.004367547 0.03991246 -0.11755255 -0.051577713 -0.005643315 0.16411196
-0.12671503 0.13346384 -0.078561224 -0.03331708 0.04235616 0.1930791 -0.009852573 -0.008505358
0.06933596 -0.0026688874 0.10446774 0.118939176 -0.14473954 -0.08666679 0.0487352 -0.051233
-0.114460535 -0.064980894 -0.099832095 -0.061191957 -0.04951745 0.17363474 -0.1187553 0.14570229
0.061259985 0.15758096 0.0844999 0.008449918 0.06685904 0.03196852 -0.07389087 -0.027731331
0.07100939 0.11183649 0.04285542 -0.029371982 -0.00834504 -0.052118026 -0.099325 -0.054774843
-0.07637413 -0.090426095 -0.08678058 -0.011748613 0.13033289 0.078637384 0.14471227 0.06947785
-0.0028898702 -0.035068296 0.17365132 0.13276133 0.06333026 0.10509734 0.08334533 0.09626475

bias_hh_l0 f4 [200]
00000000: 97ba d63d 9f36 b2bc cec3 043e a29b 523c
00000010: 0542 e83b 46b6 303e 38b1 f9bd 28c5 373e
00000020: 2719 5dbc 6528 2e3e e3a9 b43d a297 02be
00000030: 8082 163c 6949 95bd c67d 893c 822d 47bc
00000040: 9ee9 17be 99f3 ff3d 3776 c2bd 98f7 683d
00000050: 16c2 143c 35ee e23d b17c 5fbc d9b2 ad3b
00000060: dff6 173d f037 d83a c49c fdbd d888 bd3c
00000070: 9e46 d0bd e40c 493b 59af 803d ee94 82bb
00000080: 822d 01bd ecd9 17bd 7aaa cabd 589b 1b3e
00000090: 4b80 12bd 2e58 83bd 56ff 1b3e c0a4 1f3e
000000a0: f508 aa3d 3c10 5a3d 252b 25bd 20b9 a83d
000000b0: a89a f93d 6817 423d 77bc ce3d c44d a2bd
000000c0: 78e0 a1bd 09a6 323e fee5 d33d 8088 d83c
000000d0: 3db4 92bc 57c3 183d e9af 953d 7313 fdbd
000000e0: 3217 883d bee5 8cbd aad4 b03d 7a52 013d
000000f0: ca32 22bc 2773 12be 220e abbc 73c4 cc3d
00000100: 0a22 fd3c efcb 5dbe df42 fcbd eb93 e4bd
00000110: 1f3a dc3d 5073 7f3c a815 2e3d 7c0f b73d
00000120: a501 b6bd 65ed 17be 2bb2 25be 3dca 30bd
00000130: f24f acbd 8a19 a03d 2484 69bd c285 06be
00000140: d72c b53b ef09 fe3d 491b c4ba 7cd1 dabd
00000150: eca8 e4bd 32bc e2bc 8aa2 03be e798 aebd
00000160: 4710 c8bd b4b8 f13d 04f2 193e 274b 503d
00000170: b6ee c23d c329 8c3c 7e74 8cbd e1a0 e13d
00000180: 8398 bfbd 9907 adbc 67cb ecbd 727c 15bc
00000190: 7685 37bd 49c2 bb3d d20c 353d da09 d4bd
000001a0: f5f7 cbbd 67c3 8dbd 8555 943d e76a 86bd
000001b0: 2729 b93d c8cf 29be 3f95 1a3c 5f67 d63d
000001c0: 9abd 8bbc 5b25 abbd c8d4 91bc d9cd 483e
000001d0: a11a fc3d 14c2 9dbb 3a6b 173d 3ce9 42bb
000001e0: c187 b5bd d83c f13b e422 31be c69f 513b
000001f0: 2dca 423c a6e2 f2bd 4243 9fbc 7f62 083e
00000200: c82c 903c c513 e83d 98e2 23be 70f1 2e3e
00000210: 5032 03bd 7d19 89bd 3da5 1abe f899 983d
00000220: 1a6b 11be 0a3b a4bd 0830 d33c 9a4d f33d
00000230: 7c33 7dbd 0021 7fbc 4484 da3d 1d3f 5f3d
00000240: c8b4 3fbe deee 2abd 452d e63b a4be 313d
00000250: 2d63 a43d 28eb 303e d903 30bd b7e6 0c3d
00000260: 300e f43d cab6 0fbd b3cf a13d fb70 a03d
00000270: 0214 c1bd 3eff 03bd 60f6 5f3d e05c 83bd
00000280: 6bda 033d ae38 ebbd becf 923d 8b1a afbc
00000290: f520 db3d 4395 b43d 5fef 5a3d 3a9c 823c
000002a0: f70d b13d 8823 e23d 7080 dcbc a8bb dc3d
000002b0: 931a e5bd 6809 eb3d e816 e03d 17b1 e63d
000002c0: 0c4e 963d 0527 e8bd 623e eebd 1d10 073e
000002d0: 7d0e 303d ee16 afbd 1b2b 20be dc87 96bc
000002e0: a7ce cbbd 4525 0c3e 9644 f3bc 4b21 333d
000002f0: a440 d53d 0484 00bd 25cc 94bd 8ada 4cbd
00000300: b35c 8cbd 44c9 99bc 6e6a 643d 8f1b d9bd
00000310: 28ea 9ebd f776 aabd c593 5d3d cba0 9d3d
0.10484808 -0.021754561 0.12965319 0.012854489 0.0070879483 0.17257032 -0.12192005 0.17946303
-0.013494766 0.17007597 0.08821466 -0.12753156 0.009186387 -0.072893925 0.016783606 -0.012156846
-0.14835212 0.124976344 -0.09495204 0.05687675 0.009079477 0.11080591 -0.013640569 0.0053008613
0.03710067 0.0016496163 -0.12383416 0.023136541 -0.10169719 0.003067785 0.06283445 -0.003985039
-0.03153754 -0.03707306 -0.09895797 0.15195978 -0.03576688 -0.06413303 0.15234122 0.15590191
0.0830249 0.05323814 -0.04032435 0.08238435 0.121877015 0.047385603 0.100945406 -0.07924989
-0.07904142 0.1744615 0.10346602 0.026432276 -0.01790821 0.037295666 0.07308943 -0.12357225
0.06645049 -0.06879757 0.086343125 0.031572796 -0.009899804 -0.1430174 -0.020880762 0.09998407
0.03090002 -0.21659826 -0.12317442 -0.111610256 0.10753273 0.0155914575 0.04250112 0.089385
-0.088870324 -0.14836653 -0.16181247 -0.04316162 -0.08413686 0.07817371 -0.057010785 -0.13136962
0.005529027 0.124042384 -0.0014961745 -0.10684487 -0.11165032 -0.02767763 -0.12854972 -0.085252576
-0.0976873 0.118028075 0.15033728 0.05085292 0.09518187 0.017109757 -0.068581566 0.11017013
-0.09355261 -0.021121787 -0.115622334 -0.009123908 -0.044805013 0.09167916 0.04420168 -0.103534415
-0.099594034 -0.06922036 0.07242874 -0.06563359 0.09041052 -0.16583169 0.009434997 0.10468935
-0.017058183 -0.08356734 -0.017801657 0.19609775 0.123097666 -0.0048143957 0.036967494 -0.002974107
-0.08863784 0.0073619895 -0.17298466 0.0031986102 0.011889023 -0.11859636 -0.01944125 0.13318823
0.017599478 0.11331896 -0.16004407 0.17084289 -0.032030404 -0.06694315 -0.15102096 0.07451242
-0.14201012 -0.08019073 0.025779739 0.11880036 -0.061816677 -0.015571833 0.10669759 0.05450355
-0.18721306 -0.041731708 0.0070244395 0.0433947 0.08026729 0.17277205 -0.04297242 0.034399714
0.119167686 -0.03508643 0.079009436 0.07834049 -0.09427644 -0.03222584 0.05467832 -0.06414199
0.03219072 -0.1148542 0.0716853 -0.021374961 0.106996454 0.08817532 0.05345094 0.015943635
0.08645242 0.11041933 -0.026916713 0.1077798 -0.11186709 0.114764035 0.10941869 0.11264246
0.07339105 -0.113355674 -0.11632992 0.1318974 0.042982567 -0.08549295 -0.15641443 -0.01837533
-0.09951525 0.13686092 -0.02969579 0.043732923 0.1041272 -0.0313759 -0.072655 -0.050013103
-0.068536185 -0.018772729 0.05576556 -0.106009595 -0.077595055 -0.08323472 0.054096002 0.076966844

weight f4 [2, 50]
00000000: ffb1 87bd 12da b63d 1843 923d 69ef 2f3d
00000010: 1a23 b83d bdfa 69bd 003f df3c 5b78 e2bd
00000020: 48dd 023e 359c f33d f438 403d 87f2 da3d
00000030: abb2 b33c 9c7e 8cbb c423 523d a37f bfbd
00000040: e86b 6fbd 883d b3bd c70e 8a3d 43dc 1e3e
00000050: 456c a53d ffce 2ebe ec4d c53d 3e0b 09be
00000060: 960b ce3d 2a95 bd3d 7280 cbbd 904e a2bd
00000070: 7ee1 d13d 6f60 fabd 0c9d 393e 79fe fa3b
00000080: 7e7a 6bbd 1acc 98ba e32b b93d e417 0f3e
00000090: c855 083e 6528 f0bd 0bc6 afbd 8b9c 30be
000000a0: 0aeb c2ba f10a f53b 1b2c 9ebd 80a1 b7bd
000000b0: 4089 4a3d 0343 0a3e 74f2 823d 3562 943d
000000c0: 0ba1 1fbe f62c 9bbd 6904 f9bd 2886 15be
000000d0: 636c eebd fabd 89bd bd8e 543d 2e85 6d3d
000000e0: 35e8 7d3c 5fe6 363d 1775 0a3b 8ded b23c
000000f0: 2a05 abbd a593 11bd 9ece bdbd aa9f d9bc
00000100: 6d90 d1bd 9186 e33d e975 b53d 67ea 083e
00000110: 6689 933d 1f04 dbbd 0b55 16bd d813 a1bd
00000120: f061 e43b 8f2f f03c f45b e73c 5d9c 263d
00000130: aaa3 babd 1f59 803d 71ef 60bc dc04 773d
00000140: a174 593d 5fe6 e53d c79b 4a3d a2d1 293d
00000150: 10b5 07be f888 02bd 5f14 ff3c c02f 8a3c
00000160: 1b87 0ebe 04e0 213d ff10 01be 23d5 febd
00000170: c8ca aabc 7c0b 573d 93bc 06be 810f be3d
00000180: 93ec 57bb a2a2 b8bd 4549 053e cdf7 953d
-0.06625747 0.08928312 0.07141703 0.04295293 0.0899107 -0.05712389 0.02725172 -0.11058112
0.12779725 0.118950285 0.046929315 0.1069079 0.021935781 -0.004287554 0.05130364 -0.09350517
-0.058452517 -0.087519705 0.067411 0.1551371 0.080772914 -0.1707115 0.09634003 -0.13383195
0.100608036 0.092569664 -0.099366084 -0.07925141 0.10248087 -0.122254245 0.18126315 0.00765973
-0.057489865 -0.0011657507 0.09041574 0.13973957 0.13313973 -0.11726455 -0.085826956 -0.17247216
-0.0014871072 0.007478111 -0.07723256 -0.089663506 0.049447298 0.13502125 0.063939005 0.07245294
-0.15588777 -0.07576935 -0.12159044 -0.14601958 -0.11641767 -0.06725688 0.05189394 0.05798834
0.015497257 0.044653293 0.002112692 0.021841789 -0.08350594 -0.035541195 -0.09267925 -0.026565392
-0.10232625 0.11109651 0.0886038 0.13370667 0.07203941 -0.106941454 -0.036702197 -0.07865113
0.006969683 0.029319553 0.028242089 0.040676463 -0.09113248 0.062669985 -0.013728962 0.06030737
0.05308974 0.112255804 0.049464967 0.041459687 -0.13252664 -0.031868905 0.031137643 0.016868472
-0.13918726 0.03952028 -0.1260414 -0.12442996 -0.020848647 0.052501187 -0.13157873 0.09280301
-0.0032947406 -0.09015395 0.13016231 0.07322655

bias f4 [2]
00000000: b3b0 32be 8433 f8bc
-0.17450218 -0.030298002
