models/BinClassifier.pt (torch, 54726 bytes, 7 tensors)

weight f4 [5, 10]
00000000: 0000 0000 0000 0000 0000 0000 0000 0000
00000010: 0000 0000 0000 0000 0000 0000 0000 0000
00000020: 0000 0000 0000 0000 4a94 b23f 3164 7fbf
00000030: 9f4c 8e3f f27e 5ebf e6b6 80be 6377 9c3f
00000040: 2fc3 00bf 22a2 b53f 05b1 8a3f a86b a1bd
00000050: 9925 aa3d d4f4 0440 cc15 e43f dc7f 7abf
00000060: 32ab 88be 63a7 5f3f 9df8 fe3e 7aee c7bf
00000070: f218 0bbf 42a6 893e 0474 6e3f 88eb f7bf
00000080: 1365 a0bd aaa7 4c3f 9a06 d1bf 670c 3c3f
00000090: 183a dbbe 7788 1fbf 6816 c23e 0dad 823f
000000a0: 2b99 72be f3fb b2bf ee0f 95bf 66c5 1440
000000b0: a97b 69bf 3d0f 383f 66b3 9abe ff78 2cbf
000000c0: f02a 403f 2af0 a1bd
0.0 0.0 0.0 0.0 0.0 0.0 0.0 0.0
0.0 0.0 1.3951504 -0.99762255 1.1117133 -0.86912453 -0.2513954 1.2223934
-0.50297827 1.4190104 1.0835272 -0.07881862 0.083079524 2.0774431 1.7819152 -0.9785135
-0.26693112 0.87364787 0.49799052 -1.5619652 -0.5433494 0.26884657 0.93145776 -1.9368753
-0.078317784 0.79943335 -1.633014 0.73456424 -0.4281776 -0.62317604 0.3790772 1.0209061
-0.23691241 -1.3983139 -1.1645486 2.3245482 -0.91204315 0.7189825 -0.30214995 -0.67372125
0.7506552 -0.07907136

weight_ih_l0 f4 [200, 10]
00000000: 2085 a43d aaef 173e 03bd 873d 288f 05bd
00000010: 5256 6538 e2b5 d6bd 84ef 183e ed72 17be
00000020: 5525 923d 8ebf 003e 6f82 a1bd 5a8c 143e
00000030: fd8e 403c dcd3 b63d c403 4ebd ab38 303d
00000040: e9ad 133e 41f6 f03b 1dfb fcbd 122a 3ebd
00000050: 814d d83d 19d0 1dbd 49d3 5c3c 13a3 ffbd
00000060: 7b77 17be b6cb da3d d496 e2bd 4349 2c3d
00000070: d934 063d 5698 4c3e a921 ba3b c779 44be
00000080: 83a8 e23d dd7e 373e 8a8c 35be 650e 3d3e
00000090: c7b4 31be 46a5 82bc 5770 6dbd 6dd5 2c3c
000000a0: 1257 8cbd f86c b2bd 8361 0bbe 46cf 92bd
000000b0: 5f60 0d3e 5ece cc3c 5a2c 45be f27b 36bd
000000c0: 779b 5b3d aa4a bebd 218a 773d e744 47bd
000000d0: e5d7 cd3d aecc 2d3e f850 66be 38ab e13d
000000e0: 4dd8 d53c bf1c 67be 868e 293e 1f79 593e
000000f0: a018 29bd 4e0c febd a365 143d 5606 093e
00000100: 87d3 863d 92fa 973c 2885 a03d deb6 febd
00000110: de62 e7bc 5489 523d f25c 0a3c 20a1 a13d
00000120: 20b3 f23d 62fe 2fbd f999 cabd d709 d7bc
00000130: bd75 1ebe a71c ddbc 3efe 98bd f2c7 ddbb
00000140: 8257 8a3d 5dd6 f7bc 9916 623d 243a 873d
00000150: b670 a73b 38bc 153d 77a9 64bd 12eb 9b3d
00000160: ec47 923d b3ee af3d feed 113e 1106 663d
00000170: 9e77 2b3c 77dc 2dbd 5a1a 583c f87c 16bd
00000180: 72f3 793d 0db1 38be 94e8 81bd 9c41 543e
00000190: dcbd 243d 5c37 8ebc 8890 a4bc a706 5f3e
000001a0: d6dd 48bd 27b0 e5bc 9d4c 063c 28a3 c9bd
000001b0: c3aa f23d c2f4 60bd 6e62 893d 1f5e d53d
000001c0: 79f3 25bd 8879 aebc d4d5 ae3c 47c3 12be
000001d0: 9fb3 d8bd af0b 08be 11ef 64bd 1dca 8ebd
000001e0: 7081 5fbd 4df7 46bd b04a 19be 0a65 35bd
000001f0: 2ac3 41be cc33 193e 97ae 27be f842 b7bc
00000200: 4a03 883a 52b0 4e3d 35b7 a13c 7866 0fbe
00000210: 9cd8 6c3d d86f 0d3d 21e3 11be bd76 99bc
00000220: ec02 503c 1238 123e e7e1 6cbd 0824 ea3d
00000230: e6f5 6a39 b9d6 2abd 266f 3e3d a625 c3bc
00000240: 68df 57bd 971d fd3d 85bb 36bd b3d1 c8bd
00000250: 8e32 e6bd b49a 013d 7c2a 043e 4beb e1bd
00000260: c036 453e f6fd bf3d bbfd b0bc ba6b ba3d
00000270: c40c 8d3d 2cc7 35be 7550 9b3d 8f85 233e
00000280: bc9b d2bd bfdf a33c d81b cabb 028f 33bd
00000290: 4940 34bd 0242 bbbd 29b9 c83d 04d1 423d
000002a0: 394d aabd 77ea a8bd c795 54bd e973 a7bd
000002b0: c8c9 22be 7c13 f4bc 16b0 8fbd d993 0b3e
000002c0: 6731 0fbe 65ab 0dbe 6406 363d 42ba 953c
000002d0: bc8c 1abe 97f0 86bd e395 393e 3d5f 5f3d
000002e0: b483 c83c 2e43 f83c 7c1e ee3d a671 f7bd
000002f0: dfb0 7e3c 2f3b d23c ccbe 153e 1554 d73d
00000300: e612 5f3e 619f e9bd f9f3 e7bc 5d65 3e3d
00000310: ca05 b23d d2d7 02bc c638 153d 439e a3bd
00000320: a23e 353e e224 db3c e043 0a3e c9c2 b3bd
00000330: 5819 b7bd 5a1e c9bb a5f3 a53c d804 c53c
00000340: 1122 383e 42c9 9f3d 85e8 103e 1a2e 17bc
00000350: 1243 2f3e 4aab 203e 6f1e 89bd 95e3 c73d
00000360: c522 4fbd b94f 4dbe 1679 bc3d b0ba 90bc
00000370: 6ad0 6d3c db6c 48bd 60cb 983d eba1 563d
00000380: 9930 6bbe 1247 423e 9c7f 5fbe 09a8 a2bd
00000390: b352 1f3e d2d4 4d3d 7351 163d 5c9a b33d
000003a0: def9 913d 3d47 273e 5fa9 6cbd 581f 3b3e
000003b0: 71ad 643c 0711 66be 0553 b73c a3f4 9e3e
000003c0: 8b7a adbd 6cb8 e1bd 7166 1cbd 511e 0b3e
000003d0: 9ff2 f6bd 138e 0c3e 30d6 6abd dfac 02be
000003e0: 59ce 8dbd 79d5 38bd eed9 573b feec b73d
000003f0: 051b a93d 063b 033e 6187 a53c f848 7ebd
0.08033204 0.14837518 0.06627848 -0.032607228 5.4678247e-05 -0.1048391 0.14935118 -0.14789934
0.07136027 0.12573072 -0.07886206 0.14506665 0.011752841 0.08927128 -0.05029656 0.043022793
0.1442181 0.0073535745 -0.123525836 -0.04642684 0.10561658 -0.038528536 0.013478109 -0.12482276
-0.14791672 0.10683386 -0.110639244 0.042062055 0.032765243 0.19979987 0.005680282 -0.1918708
0.11067297 0.17919488 -0.17729393 0.18462522 -0.17354117 -0.01594795 -0.057968464 0.010548932
-0.06852545 -0.087121904 -0.13611417 -0.071684405 0.13806294 0.025000747 -0.192552 -0.044551797
0.05361506 -0.09291585 0.060434464 -0.048649695 0.10050944 0.1697261 -0.22491825 0.110189855
0.026104117 -0.2256956 0.16558275 0.2123761 -0.04128325 -0.12404691 0.03622974 0.13381323
0.065833144 0.018552098 0.078378975 -0.12437223 -0.028245386 0.051400498 0.008445011 0.0789206
0.11850572 -0.042967208 -0.09892649 -0.02624981 -0.15474601 -0.026991202 -0.07470368 -0.00676822
0.06754972 -0.030253584 0.055197332 0.06602886 0.0051098717 0.036556453 -0.055825677 0.076131955
0.07142624 0.0859045 0.14250943 0.05615813 0.010465531 -0.04244658 0.013189876 -0.036740273
0.061023183 -0.1803629 -0.06343189 0.20728153 0.040220127 -0.017360382 -0.02008845 0.21779881
-0.049039684 -0.028038098 0.008196977 -0.09845573 0.118489765 -0.05492092 0.06708227 0.10418343
-0.040515397 -0.021298185 0.021342196 -0.14332305 -0.10581135 -0.13285707 -0.055892054 -0.06972144
-0.0545668 -0.04857569 -0.14969897 -0.04428581 -0.18922105 0.14961165 -0.16375194 -0.0223708
0.0010376957 0.05046112 0.01974068 -0.14003932 0.057823762 0.03453049 -0.14246799 -0.018733377
0.012696009 0.14279202 -0.057832625 0.11432654 0.00022407583 -0.04170868 0.04649272 -0.023821663
-0.05270329 0.123591594 -0.044612426 -0.09805622 -0.11240111 0.031641677 0.12906832 -0.11031207
0.19259167 0.09374611 -0.021605363 0.091025785 0.068872005 -0.1775176 0.07583705 0.15968917
-0.1028361 0.020004151 -0.00616787 -0.043837555 -0.04400662 -0.09143449 0.098009415 0.047562614
-0.0831551 -0.082478456 -0.05190065 -0.08176405 -0.15897286 -0.029794447 -0.070160076 0.13630618
-0.13983689 -0.13834913 0.04443969 0.018277291 -0.15092748 -0.065888576 0.18123583 0.054534186
0.024476863 0.030305471 0.11626908 -0.120822236 0.015545099 0.025662987 0.14623564 0.10514084
0.21784553 -0.11407352 -0.028314577 0.046483386 0.086925104 -0.007986026 0.036431096 -0.079891704
0.17699674 0.026750986 0.13502455 -0.08777387 -0.08940381 -0.0061376514 0.02025778 0.024050161
0.17981745 0.07802059 0.14151199 -0.0092273 0.17115429 0.15690342 -0.06695258 0.09760205
-0.05057027 -0.20049943 0.09202783 -0.017667145 0.014515022 -0.048931938 0.07460666 0.05240051
-0.22967757 0.18972424 -0.21826023 -0.079422064 0.15558891 0.05025179 0.03669877 0.08769676
0.071277365 0.16335769 -0.057778712 0.18273675 0.013957367 -0.22467433 0.022378454 0.31046018
-0.08470639 -0.11021504 -0.038183633 0.13585784 -0.12057995 0.13726072 -0.05733317 -0.12761258
-0.06924123 -0.04512546 0.0032936293 0.089807495 0.08257107 0.12815484 0.020206155 -0.062081307

weight_hh_l0 f4 [200, 50]
00000000: 131a 0dbe 001a f23a 2b38 e43d f462 013e
00000010: 4321 233d a810 66bc 30d7 be3d 9cd9 f33d
00000020: 71df ee39 6304 a73d b9eb 223d 9db7 c43d
00000030: 79fd c3bd 9ca2 0b3e ce5d 25bc 2dad 6f3d
00000040: 5a88 d63c 7257 e1bd ed22 213d 9c64 9b3d
00000050: c3e5 7c3d 97bd c8bd c05b 5bbe ec76 c9bb
00000060: d220 20bd ffc8 063d a8c0 d83d 0446 013e
00000070: 893f b73c cd55 a33d aff4 013e e35f 0fbe
00000080: 5fee 9e3d aeac 14bb 82fe 3a3d 61e9 c63d
00000090: 3f37 bebc fe33 043e dffd d5bd e0da cabd
000000a0: ae00 c3bd dc4b 663d 8a17 1b3d b800 e5bd
000000b0: 3d7f 5ebd 12c2 c0bc cbfd 2d3d ee88 89bd
000000c0: 5d0e f93c d502 923d ce68 233d 2ee3 013e
000000d0: 87f6 493d ca10 b0bc 457c 91bb 4345 2e3e
000000e0: 1a65 f03b d66a 41bd fec8 0e3e 9dd4 51be
000000f0: 31a2 bd3d 2318 45bb 0218 dcbc 5ee4 46bd
00000100: f1f0 de3c 6844 cabd d8b0 52bd f01e 063d
00000110: df86 e2bd 6b51 473d 1ff7 67be d94f f63d
00000120: 0a61 b2bb 74c2 8d3e 4bfd 22be 2b0d 2cbe
00000130: 9c08 cb3d 2ad6 c2bd 35a4 e83d cefb 893d
00000140: d9dc 373e ff2e 123d fcbd 14bd a441 173e
00000150: a785 48bd 3c5a f43d 9507 1c3e 882e ba3d
00000160: 9666 22be 2751 64bd 6e14 963d acdc 0cbe
00000170: 8f84 52be d1bd 16bd dbac 1f3d f2e5 eeba
00000180: 22d5 613d 15ed 18be d521 9abd 40b7 ea3c
00000190: 8306 b43d 3e68 0f3c e49c ccbc c6df 853d
000001a0: ae98 02bd 82c1 80bc d5c3 3cbd a69f 2ebd
000001b0: 79ba 9a3c f6d7 98bd 2740 d83c a129 c0bc
000001c0: 720d cdbd b880 9dbd fcd6 753d 8b19 c73c
000001d0: 2b06 8bbd 1d2e aebd b488 20bd 3867 a23c
000001e0: 7e00 25bc 0961 44bd d4a0 fc3d 6891 d3bd
000001f0: 7830 e83c 1cba f8bc 5e14 0cbc 8d6e b2bc
00000200: 75f9 34bd 7b49 27bd ddcc d2bc be4f 82bd
00000210: 00ee 5ebc 97a9 46bb 8d59 dcbd a863 8d3c
00000220: 380d a4bd 7111 86bd b905 fa3d eb4b e1bd
00000230: 8f3d 003d 54df c43d 663d d8bd 8750 113d
00000240: 6201 52bd 9581 ecbd a9ba 0b3e a03f d63d
00000250: 7d76 df3d 4301 a13d 7dcd 98bb 2842 e73b
00000260: af0a a6bd 751f fcbd a5bc bebd ea89 60bd
00000270: 8eee 6ebd a0e6 75bd f6d4 f33b 1050 c63c
00000280: d0bf d4bd 8333 e63d 48d4 ec3d 647a 043e
00000290: fa53 9c3b 9d2b 0dbe bdc9 0bbe ce72 903d
000002a0: 4eb6 153e 6b6a 4e3d 98a5 b83d 40de 093e
000002b0: 9e56 083e 7a8e 00be f4b2 853d f305 d6bb
000002c0: 4868 e5bd 1a2e a2bd 0aee 363d c456 bebd
000002d0: c287 b8bd c92c e53b 6428 0c3e cef4 7fbd
000002e0: 8d27 0bbd 1487 9dbd bca4 1dbe fefa d43c
000002f0: bbd6 183e 48bc a5bd 8de4 f23c 75a8 01be
00000300: ebd8 8bbd 4ade 053e 7d8a 913b 3964 0e3c
00000310: 3325 1a3b a80c 4abc f13e 0ebd 0cbb 6a3c
00000320: 20cb b33d 1feb 8b3c 44f0 713d ab0e a33d
00000330: c479 993d f53a f33c c784 203e b55c 993d
00000340: d52c 45bd f7d3 ec3d d34c 0ebe 32c4 f5bd
00000350: 1018 1f3d ef6a c6bc 628b 0ebe 4588 3e3d
00000360: 5ae1 7cbc c576 a33d 03b1 e4bb 4294 b4bd
00000370: f653 dc3d aad8 2dbc d778 cabd 88cc c33d
00000380: ee7a 163e a523 9f3c 5186 82bd be00 cf3d
00000390: 1d9e 5abc 234f cd3d 030c da3d d380 07bd
000003a0: 2983 d4bd b6f5 803d 9b02 1dbd 0a45 9dbc
000003b0: 5c5d a4bd 7417 b83d 2b93 b43d e827 84bc
000003c0: 8a0b 7b3c 6a04 83bd dc41 e3bd a8d1 d13c
000003d0: 59dc a2bd d393 92bd 89dd 233e 0676 e93c
000003e0: 8ff2 713d b7dc 423d f3a2 b13d 4629 a0bd
000003f0: 583e fa3d d39b c0bd db2d 8fbd 36de a2bc
-0.13779478 0.0018470883 0.11143526 0.12635404 0.039826643 -0.014042057 0.093183875 0.1190674
0.00045561374 0.081551336 0.039775584 0.09605334 -0.095698304 0.1363625 -0.010093166 0.058514763
0.026188064 -0.11003007 0.03933995 0.07587549 0.061742555 -0.098017864 -0.21421719 -0.00614821
-0.0390938 0.03290653 0.10583621 0.12624365 0.022369163 0.079753496 0.12690996 -0.14001422
0.077603094 -0.0022685933 0.045652874 0.09712482 -0.023219703 0.12910458 -0.10448813 -0.09905028
-0.09521614 0.05622469 0.037864245 -0.11181778 -0.054320563 -0.02353004 0.042478364 -0.067155704
0.030402357 0.071294464 0.03989487 0.12684318 0.049307372 -0.02149238 -0.004439863 0.17018609
0.007336271 -0.047221027 0.1394386 -0.20491262 0.09259451 -0.00300742 -0.026866917 -0.04855763
0.0272145 -0.09876329 -0.051438183 0.032744348 -0.11060881 0.04866163 -0.22652863 0.120269485
-0.005443697 0.27687418 -0.15916936 -0.16801898 0.099137515 -0.09513505 0.11359445 0.06737481
0.1795534 0.03568935 -0.036313996 0.14771134 -0.048955586 0.11931273 0.15237267 0.090909064
-0.15859446 -0.055741455 0.073281154 -0.13756055 -0.2055838 -0.036802117 0.038983207 -0.0018226488
0.0551349 -0.1493419 -0.07525984 0.028651834 0.087903045 0.008752881 -0.024977155 0.06536822
-0.031883888 -0.015717272 -0.046085197 -0.04263272 0.018887745 -0.07463066 0.026397778 -0.02345735
-0.1001233 -0.07690567 0.06001948 0.024304172 -0.06788286 -0.08504889 -0.03919287 0.01982461
-0.010070918 -0.047944102 0.12335363 -0.103304684 0.028343424 -0.030362181 -0.008549778 -0.02178123
-0.044183213 -0.04084156 -0.025732452 -0.06362866 -0.013606548 -0.0030313486 -0.10759268 0.017259434
-0.08010334 -0.065462954 0.12208123 -0.11000808 0.031308707 0.09612909 -0.10558586 0.035477187
-0.05127085 -0.11548153 0.13645424 0.10461354 0.10911272 0.07861569 -0.004663168 0.007057447
-0.081075065 -0.123106875 -0.09313325 -0.054819025 -0.058332972 -0.060034394 0.0074411584 0.024208099
-0.10388148 0.11240294 0.11563927 0.12937313 0.004770753 -0.13786168 -0.13651176 0.07053147
0.14620325 0.050394457 0.090159595 0.13463688 0.13314292 -0.1255435 0.06528273 -0.006531471
-0.11201531 -0.079189494 0.044660605 -0.09293893 -0.09010269 0.006993864 0.13687283 -0.062489323
-0.033973265 -0.0769178 -0.15394872 0.025998589 0.14925663 -0.080925524 0.029649997 -0.12661918
-0.06828483 0.13073078 0.004441558 0.008690887 0.0023520708 -0.012332119 -0.034727994 0.014326822
0.087789774 0.017079888 0.059067026 0.07961782 0.07493928 0.029691199 0.1567565 0.074883856
-0.04813846 0.115638666 -0.13896494 -0.12000312 0.038841307 -0.024220912 -0.13920358 0.046516676
-0.015434587 0.07981638 -0.0069791093 -0.088173404 0.10758202 -0.010610739 -0.098863296 0.095604956
0.14695331 0.019426176 -0.06373275 0.101075634 -0.013343361 0.1002486 0.10646822 -0.03308184
-0.10376579 0.06296866 -0.038332563 -0.01919796 -0.080256194 0.08988848 0.088171326 -0.01613231
0.015322575 -0.06397326 -0.11096546 0.025612667 -0.07952184 -0.071571015 0.16002478 0.02849866
0.059069213 0.04757377 0.08673658 -0.07820372 0.122189224 -0.09404721 -0.06991168 -0.019881349

bias_ih_l0 f4 [200]
00000000: 4918 9cbd ec19 113e 51b3 a73b 1ef9 0c3e
00000010: 7955 fe3d 4c87 173e 1b1f 073e 3e0e e43c
00000020: f162 eebc 56a6 883d 40ac 17bd 3bbe 19bd
00000030: 5ac3 bd3d 4219 e33c d4cf 863c af28 abbd
00000040: 1554 2c3d 4f78 0e3c 6e32 a43b 7e9f 4bbc
00000050: dbd9 353e 32ff 353e edbf a83d 46a6 183e
00000060: c230 b33d cb37 76bd 3f33 c03d 9fbf 18bd
00000070: b22e d73d c70b 80bd 5542 ef3d 6c24 c0bd
00000080: 51fe ad3d 9ca8 c23d 1431 983c 84bb 4a3c
00000090: 8c3c 29bd dbfc 763e a554 1d3d 020c 183d
000000a0: e67f 253c d465 5cbd 3cce 583d bd19 843d
000000b0: 7ba4 cb3b d14f 913c 1c78 05bb a09f 8e3d
000000c0: 0725 4b3e 42f6 8e3d a116 833d 5e10 cabd
000000d0: 4a84 44bd 277f 9c3d dfb9 ffbd e859 05be
000000e0: 0ca9 6c3d 3e2f 8cbd b711 833d cc48 923d
000000f0: 13aa a03a ab8d a3bd 7dcb ca3d bbc8 fabc
00000100: 520c d33c 75e2 cf3d 69ed 5ebd 2985 fbbc
00000110: abee b3bd e797 b3bd 3436 c83c 3421 8f3d
00000120: 2ef0 563c 7825 23be 51ea 1fbd 2e20 b6bd
00000130: 5543 013d 5632 bdbd a52f 8abd 0e77 f2bd
00000140: 82d8 363b 5d90 ed3d e7c2 c23d 8b94 0bbe
00000150: 2609 2e3d 9fe7 d1bc a8f9 063d f04e 11bd
00000160: a9ab bdbd d913 05bd 3de5 f13d 6329 25be
00000170: 165a d4bd b26b 96bc 7e0e d93d 2b0e fd3c
00000180: fb24 c03b 0e69 973b bfd5 66bd 26ba cb3d
00000190: 593e 05bd 688c 463d 16f2 ddbd 4bdc 05be
000001a0: db4c b6bd 185f 3c3e fe62 6ebd 9892 023b
000001b0: 345a 163e 95f2 85bd 0ae7 a73d 8783 20be
000001c0: 49ca 07be 3d19 b33d bbb8 9f3c bfbf 43be
000001d0: 0283 95bd fbbb a0bc f31e a6bd c633 eb3d
000001e0: f032 893d 859c 06bc 2eda ebba 5933 eb3d
000001f0: b2cb e5bd c8c6 1ebd 478b 173e 11f2 353d
00000200: 5add a4bd 6d70 fd3c d7bc 18bd e6cd 473d
00000210: 3963 923b 5e13 0f3e cca2 243e 3720 063e
00000220: 2a8e 56ba 292b 7e3d feb4 abbc 0106 1cbe
00000230: a83e 933d 217d 87bd b41b e3bd 2485 333e
00000240: 40b1 133d 16d0 12bd c5af 13be 6000 97bd
00000250: 584c 39be 3a55 863d 0704 f43d 637a 163e
00000260: 85e0 323e b519 093e 2214 1abe 1b8d 7f3e
00000270: 5bf9 013e 7e7c 033e 60d5 1e3e 3976 3f3e
00000280: 0cac a2bd 1cf7 5d3d d425 9abd f2e2 8b3d
00000290: 5452 43bc 2dab b5bd 48b4 e93d b93c b3bb
000002a0: 776f f63d e57b 113e ddf4 113e 77d7 88bd
000002b0: dc1e e73d f273 7e3e 5929 07bd 0b05 94bc
000002c0: 3da9 193e b774 063e 8680 133e 941e b5bd
000002d0: 8e87 573d d835 91bd 2632 143d 15cd c83c
000002e0: dc3d 023e 1360 a9bb 8725 ae3d 9d16 8f3d
000002f0: 509f 0e3c 4a00 83bb 658f d43d 165f 7c3d
00000300: a1a4 293d de9d f63d 1ad6 5abd 4d6d 343e
00000310: 00df c93c 736a 503d 859e 323d 7b7c bc3d
-0.076218195 0.14170045 0.0051178117 0.13766906 0.12418646 0.14797705 0.1319546 0.027838822
-0.029099913 0.06672351 -0.037029505 -0.037534934 0.09265776 0.027722005 0.016456522 -0.08357369
0.042072374 0.008695676 0.0050108945 -0.012428163 0.17758887 0.1777313 0.08239732 0.14907178
0.08749534 -0.060111802 0.093847744 -0.03729212 0.10506953 -0.06252246 0.11682574 -0.09381947
0.08495773 0.09504816 0.01857809 0.012373809 -0.041317508 0.24119894 0.0384108 0.037120827
0.010101294 -0.05380805 0.052931055 0.06450222 0.006214676 0.017738255 -0.002036578 0.0696404
0.19838344 0.06980564 0.064008005 -0.09866403 -0.047977723 0.0764144 -0.12486624 -0.13022578
0.057778403 -0.06844948 0.06399863 0.07142791 0.0012257717 -0.079860054 0.099020936 -0.030613294
0.02576271 0.10150615 -0.05442563 -0.030703144 -0.08785757 -0.087692074 0.024439909 0.06988755
0.013118787 -0.15932262 -0.03904182 -0.088928565 0.031558353 -0.092381164 -0.06747369 -0.11839114
0.0027900045 0.11599801 0.09509831 -0.13630883 0.042489193 -0.02562314 0.032952935 -0.03547567
-0.09261257 -0.03248963 0.11811302 -0.16129069 -0.10368745 -0.0183619 0.10598467 0.030890545
0.0058637834 0.004620678 -0.056356188 0.09947614 -0.032530162 0.048473746 -0.1083719 -0.13072316
-0.08901378 0.1839565 -0.058199875 0.0019923802 0.14682847 -0.065404095 0.08198364 -0.15675174
-0.1326076 0.08745048 0.019497266 -0.19116114 -0.073003784 -0.019620886 -0.08111372 0.114844844
0.06699169 -0.008216028 -0.00179941 0.11484403 -0.112204924 -0.03876379 0.14799224 0.044420306
-0.08050032 0.030937398 -0.037289467 0.048780344 0.0044673947 0.13972232 0.16077727 0.13098226
-0.0008184636 0.06205288 -0.020960327 -0.15236665 0.07189685 -0.06615663 -0.11089268 0.17531258
0.03605771 -0.035842977 -0.1442252 -0.073731184 -0.18095529 0.065592244 0.11914831 0.14695124
0.1746846 0.13388713 -0.15046743 0.24956171 0.12692778 0.12840459 0.15511084 0.18697442
-0.079429716 0.05419074 -0.075267464 0.06830396 -0.011921484 -0.0887054 0.11411339 -0.005469885
0.12032979 0.14207418 0.14253564 -0.06681722 0.11285183 0.24848917 -0.032998417 -0.01806881
0.15005966 0.1313046 0.14404497 -0.08843723 0.05261951 -0.07090348 0.036180638 0.024511853
0.1271891 -0.0051689236 0.085032515 0.06986735 0.008704975 -0.003997837 0.10378913 0.06161412
0.041416768 0.120418295 -0.05342684 0.1761982 0.024642467 0.050882768 0.043608207 0.0920343

bias_hh_l0 f4 [200]
00000000: 1546 99bb 9ebf c0bb 57e2 ae3c b10a f53d
00000010: 93fa 603d 5efa 673e 0826 ac3d 410d b23c
00000020: 6c1e a6bd dcf1 87bb fa03 11be 1c2c 383d
00000030: f0e3 a3bd ae5e 863d 7161 2fbd 0dc1 ae3d
00000040: 4822 393d c3ba 683d 70c2 ac3d 020b a63d
00000050: da18 283d a561 413e d85c c23d ea11 f23d
00000060: f058 943d 7fd0 7cbd 673b 193d 570e 0dbe
00000070: 485d d33c fe08 89bc 73ca de3d fa9a 22bd
00000080: 4e65 c1bd 3346 bb3c 5b17 22bc 262c f9bd
00000090: 77a7 533e f700 633e 639b febb 855b 0b3e
000000a0: cbdd 8d3c 4f54 04be 0096 34bd 7e5a 26bb
000000b0: e5dc 163e 32e7 84bd 2f9c be3d acdd aa3c
000000c0: efbc c3bc f776 debc 685c 09bd ae5c a1bd
000000d0: 83ea efbd aea6 753d 46dd b03d 5d9a 07be
000000e0: e554 6f3d 62e2 ffbd 9c19 cfbd dc9b f6bd
000000f0: 7f2c 0dbe 4a85 903d b77e 943d fe6d a7bd
00000100: 18b1 953d dacd 833b 3a5b fd3c 4b91 37be
00000110: a414 0dbe decd 8cbd ea8a 3dbc cc2a e73b
00000120: 1f2f 453d e2ef a9bd 60bf 513d a922 e13d
00000130: 70fb e13d bc6c 16be 50c6 debd 185d d5bd
00000140: b5b1 00bd ab16 0abe dbc7 f2bd f9e5 b33d
00000150: a603 c9bd 0c7c 02bc 32b6 dabd ec81 9c3c
00000160: ec92 01bc 1174 c53d 4803 c13d c04a b83d
00000170: c18f 3fbd a89d 883d 614c 22be f96f 953c
00000180: 0f10 cfbc a790 c3bc d50d 823d 70c1 013e
00000190: 9216 243d e2c3 f33c 3214 88bc c69e 1fbe
000001a0: 0a00 363e 451d f83d 71ab 8e3d 2995 35be
000001b0: 7240 f43d 5a71 9f3c 1329 52bd c9bc ca3c
000001c0: 125f 0abc eb93 313d 291e 213d 5293 2ebe
000001d0: 319e efbd c691 953d cf40 8e3d e939 0d3e
000001e0: ef17 24be 443f db3d ec53 e9bd 6868 2b3e
000001f0: 508c 1cbe e1d7 8ebd 647b fc3b d751 a73d
00000200: 9842 b93c 1adc 183e 706a 3abd 0018 ba3c
00000210: 9fde b53d b84e 203e f08e 063e 95e2 c83d
00000220: c998 a63c e3b9 513e e4bc 143d a40f 8ebd
00000230: cd39 3b3e a129 613b 5b99 3ebe 09fd 323e
00000240: e828 2d3c 6a34 223e b8e7 13be 9ca9 08bd
00000250: 5fe4 87bc 3ebd 36be cda7 ac3d 88b2 ba3d
00000260: 65e4 ccbc 0b93 e13d dbf3 4a3d e697 923e
00000270: 509d 013e 83f8 c1bd b6e5 a5bd e5f8 b13d
00000280: 1e33 bebd 11d2 0ebe 8ea3 163e 6f94 bdbd
00000290: 8303 b2bd 2f21 963d 7043 ee3d 5889 2c3e
000002a0: 906b f5bd fe42 283e 1741 2cbc 66b9 2f3e
000002b0: 0777 2f3e 5f0e 213e fe65 043e 8ae2 03be
000002c0: 0d10 373e d0c6 8bbd db58 2dbd a58c 77bd
000002d0: 1efa e8bc 7a82 db3d 311e 1fbd 2cb2 bb3d
000002e0: f24c a63d e4c2 ec3d 92ae 543e 8b27 333d
000002f0: f4d8 f73d fde0 c5bd 6562 663d c5e3 95bc
00000300: 25f5 593c 396d b9bc cddc bbbd b5a1 c93d
00000310: e691 bf3d b3cb c23d e619 ff3d aa88 c33d
-0.004677544 -0.0058822175 0.021348162 0.1196493 0.054926466 0.22654101 0.084056914 0.021734836
-0.08111271 -0.004148705 -0.14161673 0.04496394 -0.0800246 0.065610275 -0.042817537 0.08532915
0.04519871 0.056818735 0.084355235 0.08107568 0.041039325 0.18884905 0.09490365 0.11819823
0.07243526 -0.061722275 0.037410166 -0.13775001 0.025801316 -0.01672792 0.10878458 -0.03969858
-0.094431505 0.022860622 -0.009893264 -0.12166624 0.20669352 0.22168337 -0.0077699884 0.1360913
0.017317673 -0.12922786 -0.044088364 -0.0025383527 0.14732702 -0.064894095 0.093071334 0.020857655
-0.023893801 -0.027156336 -0.03353539 -0.07879005 -0.117146514 0.05997341 0.086359546 -0.13242479
0.05843057 -0.12494351 -0.101123065 -0.120414466 -0.13786505 0.07056673 0.072507314 -0.08175276
0.073091686 0.004022342 0.03092729 -0.17926519 -0.13777405 -0.068752035 -0.011568764 0.0070546623
0.04814064 -0.08297707 0.0512079 0.10992939 0.11034286 -0.14689916 -0.10877669 -0.10418147
-0.031419475 -0.1348521 -0.11854526 0.08784098 -0.09815149 -0.007964145 -0.10679282 0.01910492
-0.007908564 0.096412785 0.09424454 0.089986324 -0.046767954 0.066706955 -0.15849449 0.01824187
-0.025276212 -0.023872687 0.063502945 0.12671447 0.040060587 0.02975649 -0.016611192 -0.15587911
0.17773452 0.12114958 0.069662936 -0.17732681 0.119263545 0.01946323 -0.051308703 0.024748223
-0.008445518 0.043353956 0.039335404 -0.17048386 -0.117000945 0.07303195 0.06945955 0.13791622
-0.16024755 0.10705426 -0.1139296 0.16739047 -0.152879 -0.069747694 0.007705139 0.081699066
0.022614762 0.14927712 -0.045511663 0.022716522 0.08880352 0.15655029 0.13140464 0.09808842
0.020336526 0.20481066 0.036312953 -0.06936577 0.18283768 0.0034357088 -0.18613188 0.17479338
0.010568835 0.15840307 -0.14443862 -0.033364877 -0.016588388 -0.17845628 0.08430443 0.091160834
-0.02501125 0.11014374 0.049548965 0.28631514 0.12657666 -0.09471228 -0.081004545 0.08690051
-0.092870936 -0.13947321 0.14710829 -0.09256827 -0.08692076 0.07330548 0.116339564 0.16849267
-0.119834065 0.16431805 -0.0105135655 0.17160568 0.17135249 0.15728138 0.12929532 -0.12879387
0.17877217 -0.0682503 -0.042321067 -0.060436863 -0.028439578 0.10718246 -0.038847152 0.09164843
0.08120145 0.1156061 0.20769718 0.043738883 0.121019274 -0.09662054 0.05624618 -0.018297086
0.013303076 -0.02263509 -0.09172974 0.09845296 0.09354 0.09511509 0.124561116 0.09547551

weight f4 [2, 50]
00000000: 5cbf ba3d 5e36 93bc f7a7 013d c801 ed3c
00000010: 88fa 7dbd fb79 25be 796d 673d a038 123e
00000020: d845 673d fec9 6a3e 3e89 4abc 2da1 953d
00000030: ca1e 123d 8413 21be bb2c 9abd a5af 1b3e
00000040: 8ce4 683d db98 2abe d3b4 cb3d 90ce d2bd
00000050: 6d04 873d d11f f0bd 1eaa d63d d5e6 25be
00000060: 4343 883d 0665 0b3d 07eb efbd 2c59 b73d
00000070: 3202 d53c 2701 d0bd c037 19be f39a f83b
00000080: b564 c5bb 4d6a 99bc b62a 7b3d 8073 7ebd
00000090: 8610 19be d31a 17be 9873 0e3d bbd1 be3d
000000a0: bead 08be 8562 8cbc f2d7 4b3e 653c 0ebe
000000b0: d755 5f3d 1c6b efbd 787a 3c3e e82c d0bc
000000c0: 42de 753d d145 263e 276a b9bd bf1a 04be
000000d0: 2e87 0ebe 6803 15be b020 8bbb 3ca1 983e
000000e0: 0144 a13d 7b20 20be 2571 383e 73a6 b3bd
000000f0: ade0 2ebd 7319 1abd a5db e7bd 360c a33d
00000100: f8a6 333c 4980 0abe f17f 3fbe 323b 023e
00000110: d50c d9bd af74 e6bb dd84 2ebe 8f25 ce3d
00000120: 0092 533d 7956 ef3d f3a5 c7bd 90d7 04bd
00000130: ca7d 063e e93b ecbd 19bf 78bd 8e14 b03d
00000140: 78f0 3b3e c708 b1bd c81a 183e 902a 9b3d
00000150: b7f6 413e 9f38 e03b 5d70 063e 90ab 99bc
00000160: ff3e aebd 25fe 453c 6796 273d d78c c1bd
00000170: 5937 0abe a1c5 0dbd 0bf0 92bd 3961 fa3d
00000180: b1df 0bbe fe38 30be 0132 76bd 0d0c 32bd
0.0911853 -0.01797026 0.031654324 0.028931513 -0.062006503 -0.16159813 0.056500886 0.14279413
0.056463093 0.22928616 -0.012361823 0.073061325 0.035673894 -0.15730101 -0.07528063 0.15203722
0.056858584 -0.16659872 0.09946599 -0.10293305 0.06592641 -0.117248185 0.10481666 -0.16201337
0.06653454 0.03403189 -0.1171475 0.08952555 0.026002023 -0.1015647 -0.14962673 0.0075868308
-0.006023968 -0.018727446 0.06132003 -0.062121868 -0.1494771 -0.14756326 0.034778208 0.09317347
-0.13347527 -0.017136822 0.19906595 -0.13890226 0.054525223 -0.11690351 0.18406093 -0.025412038
0.060026415 0.1623757 -0.0905345 -0.12900828 -0.13918754 -0.1455208 -0.00424584 0.29810512
0.07874299 -0.1563739 0.18011911 -0.08771982 -0.042694736 -0.037621927 -0.11321191 0.079613134
0.010965101 -0.135255 -0.1870115 0.12717894 -0.10598151 -0.0070329527 -0.17042871 0.100657575
0.05165291 0.11686415 -0.09748449 -0.03243214 0.13133922 -0.115348645 -0.06072912 0.085976705
0.1835345 -0.08644252 0.14853966 0.075764775 0.1894177 0.0068426873 0.131288 -0.018758565
-0.08508109 0.012084519 0.04091492 -0.09450691 -0.13497676 -0.0346123 -0.07174691 0.12225575
-0.1365955 -0.17209241 -0.06010628 -0.043468524

bias f4 [2]
00000000: 5342 873d 826c 203d
0.06604447 0.03916598
