models/BinStatsClassifier.pt (torch, 7258 bytes, 11 tensors)

weight f4 [4, 4]
0	0x3f82eef1	1.0229169
1	0xbffa6bb5	-1.956412
2	0xbe0ea74b	-0.13931005
3	0x3f3553a6	0.7083076
4	0xbf8d36c6	-1.103234
5	0xbfd3c23e	-1.6543653
6	0x3f44e60d	0.7691353
7	0x3dbb3201	0.09140397
8	0xbe4f04d3	-0.20216684
9	0x3f89ba7c	1.0760036
10	0x3e614f5f	0.22002934
11	0x3f6b725f	0.9197139
12	0x3f405c0f	0.7514047
13	0x3f2c1c3d	0.6723059
14	0x3f232374	0.6372597
15	0xbe48a532	-0.19594267

weight_ih_l0 f4 [16, 4]
0	0x3ebab441	0.36465648
1	0xbe514929	-0.20438065
2	0x3e78dad7	0.24302231
3	0xbe87096a	-0.2637437
4	0x3e2bf1f0	0.1679151
5	0xbedc057b	-0.4297293
6	0x3d5d2d8d	0.05399852
7	0x3eb1999f	0.34687516
8	0x3f09c707	0.53819317
9	0xbeb4bdec	-0.3530115
10	0xbea50ff8	-0.32238746
11	0x3c004a6c	0.007830244
12	0x3da7c065	0.08190993
13	0xbe81a74c	-0.2532295
14	0xbd2ad3a6	-0.04170575
15	0x3de583e7	0.11206799
16	0x3d25be47	0.040464666
17	0x3e99147f	0.2989845
18	0x3f07c43b	0.530338
19	0xbe6de255	-0.2323087
20	0x3e87cc5e	0.26523107
21	0x3e663b73	0.22483616
22	0xbb2aeb53	-0.0026080206
23	0xbdaff855	-0.085922875
24	0x3e64f45f	0.22358845
25	0x3db2de42	0.087337986
26	0xbd295892	-0.041344233
27	0x3da79119	0.08181972
28	0x3c03c73a	0.008043105
29	0xbe87a337	-0.2649171
30	0xbeac35d0	-0.33634806
31	0xbeceefb1	-0.40417245
32	0x3e709b97	0.23496853
33	0x3e8b63f5	0.272247
34	0xbf089c81	-0.53363806
35	0xbe6d28e7	-0.23160134
36	0x3cbc5cdc	0.022993498
37	0x3e67ee7d	0.2264957
38	0x3e993b59	0.2992809
39	0xbecf5293	-0.40492687
40	0x3eb2ffb8	0.34960723
41	0x3d3e50e1	0.04646385
42	0xbebc84f4	-0.36820185
43	0x3e2dcec2	0.16973403
44	0x3e37f654	0.1796506
45	0xbdee3c10	-0.1163255
46	0xbee5b731	-0.44866326
47	0x3e9ca8af	0.30597445
48	0x3df3e876	0.11909573
49	0x3eb07417	0.3446357
50	0xbe4b7a4b	-0.1987087
51	0xbe862094	-0.2619673
52	0x3e7eee5f	0.24895619
53	0x3db0d611	0.0863458
54	0x3bb30432	0.0054631466
55	0x3b07ce10	0.0020722188
56	0x3eb0f2e1	0.34560302
57	0xbeec2207	-0.4611971
58	0xbe8da8be	-0.27667803
59	0xbe10d855	-0.14145024
60	0xbeed7563	-0.4637862
61	0x3e4e54fa	0.20149603
62	0x3ed9753a	0.4247225
63	0x3e3c3937	0.183812

weight_hh_l0 f4 [16, 4]
0	0xbc9b6e5a	-0.018973518
1	0x3e5f3c99	0.2180046
2	0x3f133849	0.5750776
3	0x3efba69c	0.4915055
4	0x3eb25563	0.3483077
5	0x3e485d70	0.19566894
6	0x3e93311a	0.287484
7	0x3ef1e09f	0.47241685
8	0x3e3cd16f	0.18439268
9	0xbe9f78c7	-0.31146833
10	0x3ef067a2	0.46954066
11	0x3daf8704	0.08570674
12	0x3d6fb25c	0.058519706
13	0x3f08ac91	0.53388315
14	0xbce26f34	-0.027640916
15	0xbe2e6cf6	-0.17033753
16	0x3ea5ac77	0.32358143
17	0xbed09bbb	-0.40743813
18	0xbe3efed6	-0.186519
19	0x3e541193	0.20709829
20	0xbeb26308	-0.3484118
21	0xbdb35302	-0.08756067
22	0xbd794cc3	-0.06086422
23	0xbe909685	-0.28239837
24	0x3e21b8e2	0.15793183
25	0x3eb0cb8a	0.34530288
26	0x3e1e3e61	0.15453483
27	0xbd983269	-0.0743149
28	0xbedbb2f4	-0.42909968
29	0xbedbdacf	-0.42940375
30	0xbea5ac20	-0.32357883
31	0x3eb40b99	0.35165098
32	0xbda3e38d	-0.08002386
33	0x3f0332f1	0.51249605
34	0xbf105100	-0.56373596
35	0xbe7aee00	-0.24504852
36	0x3edfb268	0.436908
37	0x3e031be9	0.12803616
38	0xbd1c4559	-0.038152073
39	0xbdcf0be8	-0.10109693
40	0xbe42004b	-0.18945424
41	0xbe749709	-0.2388574
42	0xbe9d4eee	-0.3072428
43	0xbc36c0cc	-0.011154365
44	0x3e358afc	0.177288
45	0xbed91fbb	-0.4240702
46	0xbed5e0c2	-0.4177304
47	0xbe0f81ed	-0.14014407
48	0xbed95692	-0.4244886
49	0x3eaafb26	0.33394736
50	0x3edb1cc6	0.4279539
51	0xbea34af2	-0.31893116
52	0xbe9f464d	-0.31108323
53	0xbf0ec306	-0.5576633
54	0x3ea35c20	0.31906223
55	0x3e6e60d2	0.23279122
56	0xbcc29341	-0.023751857
57	0x3ebecf16	0.3726737
58	0x3ea19fa5	0.31567112
59	0x3e67eeb5	0.22649653
60	0xbdbdaa2b	-0.092609726
61	0xbe9b8bcd	-0.30380097
62	0x3e6dff62	0.23241952
63	0x3d6dc116	0.05804547

bias_ih_l0 f4 [16]
0	0x3b305252	0.0026904535
1	0x3dc54089	0.0963145
2	0x3e4936ed	0.19649859
3	0x3de8451e	0.11341308
4	0x3e8206ea	0.253959
5	0x3dcf6fb5	0.10128728
6	0xbea8ed49	-0.32993534
7	0xbde67f07	-0.11254697
8	0xbec58009	-0.38574246
9	0x3e533358	0.20625055
10	0x3e9782e2	0.29592043
11	0x3ebc6e7b	0.3680304
12	0xbd32990a	-0.04360298
13	0x3e585f61	0.21130134
14	0xbe22fcae	-0.15916702
15	0x3e99006f	0.29883143

bias_hh_l0 f4 [16]
0	0x3ea310cc	0.31848752
1	0x3dcae4e2	0.09906937
2	0x3e9694fc	0.2941054
3	0xbe97d798	-0.29656672
4	0x3dbe4509	0.09290511
5	0x3f02fff1	0.51171786
6	0xbeb200af	-0.34766147
7	0x3e3b5cfa	0.18297186
8	0x3e129788	0.14315617
9	0xbf080297	-0.5312895
10	0x3e93e46e	0.28885216
11	0xbed469fb	-0.41487107
12	0x3b9e61d8	0.004833441
13	0x3c843c45	0.01614202
14	0xbe24d6f2	-0.1609762
15	0xbde6d9b2	-0.11271991

weight_ih_l1 f4 [16, 4]
0	0xbe86d8d8	-0.26337314
1	0xbdb8fc52	-0.09032501
2	0x3db2904d	0.087189294
3	0x3dd50bf1	0.10402668
4	0xbeb3242f	-0.34988543
5	0xbe060dd7	-0.13091217
6	0x3f0cfcf7	0.55073494
7	0x3cde0b44	0.027104981
8	0x3e4da8db	0.20083944
9	0xbcecbc8b	-0.028898498
10	0x3c43035c	0.011902656
11	0x3ebf93d6	0.37417477
12	0x3ece5615	0.4030005
13	0xbf097231	-0.5368987
14	0xbde3d953	-0.11125436
15	0xbd575647	-0.052572515
16	0x3dc9b182	0.0984831
17	0xbe4430df	-0.19159268
18	0xbd1276b7	-0.035757747
19	0x3e6e4a0b	0.23270433
20	0xbf00790a	-0.5018469
21	0xbeb9d8ec	-0.3629831
22	0x3ec4105a	0.38293725
23	0x3eab6117	0.3347251
24	0x3ec465e3	0.38358983
25	0xbea61c85	-0.32443634
26	0xbd702a5c	-0.058634147
27	0xbdc32838	-0.095291555
28	0xbee35d7c	-0.4440726
29	0xbd752a51	-0.05985481
30	0x3e7c9606	0.24666604
31	0xbec17366	-0.37783355
32	0x3e42b160	0.19012976
33	0x3ec21519	0.3790672
34	0x3e93733c	0.28798854
35	0xbda0ed4e	-0.07857762
36	0x3efffec5	0.4999906
37	0x3e02d394	0.12776023
38	0xbf0344d2	-0.51276886
39	0x3e806a60	0.25081158
40	0xbda693a3	-0.08133628
41	0xbd8d7c6a	-0.06908496
42	0xbd9e6289	-0.07733638
43	0xbe210e59	-0.1572813
44	0x3e304526	0.17213878
45	0x3ed7bb42	0.42135054
46	0x3e1ff046	0.15619001
47	0x3edc3797	0.43011162
48	0xbea999c8	-0.33125138
49	0x3d620bbd	0.055186976
50	0xbd97cea3	-0.0741246
51	0xbccaf1c7	-0.024773492
52	0x3c224045	0.009903018
53	0x3dc4e784	0.096144706
54	0x3e0265f7	0.12734209
55	0x3e6a41e8	0.22876704
56	0xbed63012	-0.4183355
57	0xbf1be2b5	-0.608928
58	0x3c4ec0f9	0.01261925
59	0xbd95799a	-0.07298584
60	0x3ec538a7	0.38519785
61	0xbec191fb	-0.37806687
62	0x3e9ad171	0.30237916
63	0xbe979eb8	-0.2961328

weight_hh_l1 f4 [16, 4]
0	0x3eb69083	0.3565713
1	0xbcc565e0	-0.02409643
2	0x3f0e1535	0.5550111
3	0xbe41a7bd	-0.18911643
4	0x3d105b4d	0.03524332
5	0xbf0d45be	-0.55184543
6	0x3f068146	0.52541006
7	0xbeac24e9	-0.3362191
8	0x3e8e7004	0.27819836
9	0xbef0efa0	-0.4705782
10	0x3e29d5c0	0.16585445
11	0xbc8be180	-0.0170753
12	0xbe68f5e4	-0.2275005
13	0xbf0adb38	-0.5424075
14	0x3e45599d	0.19272466
15	0x3d1a67d9	0.037696693
16	0xbf0cd84a	-0.5501753
17	0x3e1b7bf0	0.15183997
18	0x3eb756df	0.35808465
19	0x3e43a5de	0.19106242
20	0xbd1336d5	-0.035940964
21	0xbe3c8ca2	-0.18413022
22	0x3f0a0c35	0.53924876
23	0x3ee58702	0.44829565
24	0xbf09db54	-0.53850293
25	0xbf150b83	-0.5822069
26	0x3e0e68f3	0.13907222
27	0x3e832fc7	0.2562239
28	0x3e47c4c6	0.19508657
29	0x3e9cff54	0.3066355
30	0x3eb58c85	0.3545877
31	0xbecf467f	-0.40483472
32	0x3ef7ebf8	0.48422217
33	0x3e5e9b15	0.21738847
34	0xbed6db62	-0.4196425
35	0x3db20388	0.0869208
36	0xbeca5844	-0.39520466
37	0x3e8eb0a0	0.2786913
38	0xbeac9e89	-0.33714703
39	0xba8ed779	-0.0010897956
40	0xbeea794c	-0.45795667
41	0xbec91add	-0.39278308
42	0xbe95c9a0	-0.2925539
43	0x3ef7251b	0.48270497
44	0x3eb74fd9	0.35803106
45	0xbec80cc4	-0.3907224
46	0x3de088db	0.10963603
47	0x3ef8ce5f	0.4859495
48	0xbe34d3cb	-0.17658918
49	0xbd994d46	-0.07485442
50	0x3eb366be	0.35039324
51	0x3f187dc9	0.5956693
52	0xbe64f7ee	-0.22360203
53	0xbedfb292	-0.43690926
54	0xbe85c659	-0.2612789
55	0x3f15cf91	0.58519846
56	0xbf0cc7e1	-0.5499249
57	0xbf0b56b5	-0.5442918
58	0x3e992ddd	0.29917803
59	0x3eaacac8	0.33357835
60	0x3e3ae186	0.18250093
61	0xbe0c3c17	-0.13694797
62	0x3f08c500	0.534256
63	0xbc8c1a90	-0.01710251

bias_ih_l1 f4 [16]
0	0x3d5bbae5	0.053645033
1	0xbec2f2ed	-0.38075963
2	0xbd98c086	-0.07458596
3	0x3ef18c27	0.4717724
4	0x3f034a16	0.5128492
5	0x3f0e03ef	0.5547475
6	0x3efcbc14	0.49362242
7	0x3da136d3	0.07871785
8	0xbe923e39	-0.28563097
9	0xbdfcd4b7	-0.1234526
10	0xbe9c50ba	-0.3053034
11	0x3edf3967	0.43598482
12	0x3e984b36	0.2974488
13	0xbdcad2db	-0.09903499
14	0xbe0a982b	-0.1353461
15	0xbca4d9c8	-0.020123377

bias_hh_l1 f4 [16]
0	0x3e49a0c6	0.19690236
1	0x3e896fe0	0.26843166
2	0x3e6d4735	0.23171695
3	0x3f08a145	0.5337108
4	0xbc6f2460	-0.014596075
5	0xbe8ab914	-0.27094328
6	0x3ec61d52	0.38694245
7	0x3ddfc006	0.109252974
8	0xbea45ace	-0.32100528
9	0xbe77d1c6	-0.24201116
10	0x3ec8149e	0.3907823
11	0x3edfd5ff	0.43717954
12	0xbe099206	-0.1343461
13	0x3f1648ae	0.5870465
14	0x3eb3db96	0.35128468
15	0x3eb019f8	0.34394813

weight f4 [2, 4]
0	0xbe98b095	-0.2982222
1	0x3cfc0288	0.030762926
2	0xbee4145d	-0.44546786
3	0xbe4e63f5	-0.20155318
4	0xbf1a503b	-0.6027867
5	0xbe963d0a	-0.29343444
6	0x3f173552	0.59065735
7	0xbe99b7b1	-0.30022958

bias f4 [2]
0	0xbe34f3f0	-0.1767118
1	0xbea5c09a	-0.32373506
