models/BinStatsClassifier.pt (torch, 7258 bytes, 11 tensors)

weight f4 [4, 4]
-0.18873505 -1.5339843 1.1754559 0.4508553 -1.376649 -1.2374842 1.6029549 -0.7674931
-0.17923915 -0.41681677 -1.0596555 -0.822235 -0.29566538 -0.0008302654 -0.03573633 0.16708644
00000000: c343 41be 9959 c4bf 5775 963f 82d6 e63e
00000010: 0936 b0bf e265 9ebf a02d cd3f 6e7a 44bf
00000020: 788a 37be 0269 d5be cba2 87bf fe7d 52bf
00000030: 7461 97be 2ba6 59ba 4260 12bd b518 2b3e

weight_ih_l0 f4 [16, 4]
-0.0029955157 0.050113942 -0.027578292 -0.13712946 -0.033996906 -0.045151092 -0.018980158 -0.20766287
0.34538895 0.16164178 0.043305237 0.12918746 -0.33100018 -0.24754846 -0.08126437 -0.13865177
-0.36624524 -0.28652346 0.04391694 0.022980362 -0.43573296 0.19743626 0.3889683 -0.008257693
0.5013966 -0.25929594 -0.2727125 -0.04285262 0.012147716 0.015068843 -0.05940267 0.015945148
0.47938186 -0.37418744 -0.0036057082 0.025356064 -0.10379452 -0.2622268 -0.08365061 -0.28195003
0.2939992 0.4016788 0.25991848 -0.18288445 0.060348667 0.07870132 0.4433478 0.22880225
0.4840669 0.014572098 0.3861759 -0.17334132 -0.3019683 0.5178197 0.32379162 0.43624562
0.39564556 -0.10069267 0.08944035 0.5004275 0.037681572 0.10916444 0.266478 -0.0034055999
00000000: 6a50 44bb 4744 4d3d dfeb e1bc aa6b 0cbe
00000010: 5740 0bbd 5af0 38bd 477c 9bbc 93a5 54be
00000020: d2d6 b03e 6c85 253e d560 313d b849 043e
00000030: db78 a9be 587d 7dbe ef6d a6bd bbfa 0dbe
00000040: 7f84 bbbe 34b3 92be 40e2 333d 5041 bc3c
00000050: 6418 dfbe bb2c 4a3e da26 c73e 464b 07bc
00000060: 875b 003f 70c2 84be f9a0 8bbe 3b86 2fbd
00000070: 3707 473c 4fe3 763c 3750 73bd 669f 823c
00000080: 8a71 f53e 7f95 bfbe bf4d 6cbb 85b7 cf3c
00000090: 3992 d4bd 9742 86be 0351 abbd c15b 90be
000000a0: 1087 963e d8a8 cd3e 0914 853e 1046 3bbe
000000b0: 2a30 773d 282e a13d 7cfe e23e 234b 6a3e
000000c0: 9ed7 f73e cfbf 6e3c d9b8 c53e 6380 31be
000000d0: 979b 9abe d58f 043f 04c8 a53e 965b df3e
000000e0: 0e92 ca3e f537 cebd 812c b73d 041c 003f
000000f0: fe57 1a3d 9b91 df3d ce6f 883e 7c30 5fbb

weight_hh_l0 f4 [16, 4]
-0.114942975 -0.23576438 0.4663409 -0.41857588 0.14615765 -0.022700438 0.22626361 -0.13595541
-0.112275586 0.108944565 0.08134238 0.44823453 0.0526478 0.23371772 -0.45603165 0.13757023
0.077481665 0.26577058 0.47064573 -0.26627448 -0.29494068 0.06168317 -0.21512945 -0.46479928
0.44104496 -0.48979086 0.04179583 -0.10924077 -0.38807857 0.25396132 0.28114983 0.30806875
-0.26902798 -0.022105025 0.29378042 0.018490963 0.26478338 0.34953701 -0.23340285 -0.4526743
-0.21729815 -0.025464289 -0.5103186 -0.25603548 0.3821863 -0.37772232 0.06274896 0.3549062
-0.18961795 0.14551947 0.012588188 -0.23655793 0.48982328 -0.0197116 -0.10082948 -0.40106672
-0.21335804 -0.17774247 0.44684502 0.0036802862 0.41375875 -0.3400605 0.010383864 -0.5165738
00000000: 3967 ebbd 386c 71be 3cc4 ee3e 944f d6be
00000010: 5aaa 153e 45f6 b9bc a6b1 673e e537 0bbe
00000020: bef0 e5bd 541e df3d d596 a63d ff7e e53e
00000030: 38a5 573d b353 6f3e fb7c e9be 36df 0c3e
00000040: b5ae 9e3d 1513 883e 7af8 f03e 2155 88be
00000050: 7702 97be 7ea7 7c3d e54a 5cbe 2cfa edbe
00000060: a5d0 e13e dec5 fabe 1b32 2b3d a0b9 dfbd
00000070: 3cb2 c6be 3807 823e dff2 8f3e 30bb 9d3e
00000080: 09be 89be 9915 b5bc 636a 963e 5c7a 973c
00000090: b091 873e 84f6 b23e 2801 6fbe edc4 e7be
000000a0: 6883 5ebe 7c9a d0bc 3da4 02bf 1517 83be
000000b0: ecad c33e d264 c1be 8782 803d 44b6 b53e
000000c0: 352b 42be 0e03 153e b03e 4e3c 3e3c 72be
000000d0: 1eca fa3e 397a a1bc b07f cebd 9e58 cdbe
000000e0: 887a 5abe 1f02 36be dfc8 e43e f530 713b
000000f0: 30d8 d33e 691c aebe 1521 2a3c 2e3e 04bf

bias_ih_l0 f4 [16]
-0.15428321 -0.44903228 0.28390017 0.3994777 -0.32125127 0.18445387 0.08651536 0.3585523
0.19515899 0.3425383 -0.23644342 -0.35060748 0.12754542 -0.2453039 -0.26210165 0.22818084
00000000: 6bfc 1dbe 8fe7 e5be 5d5b 913e 5788 cc3e
00000010: 0c7b a4be 7ae1 3c3e f72e b13d 2b94 b73e
00000020: c2d7 473e 2e61 af3e 391e 72be d382 b3be
00000030: 449b 023e f230 7bbe 3032 86be 3da8 693e

bias_hh_l0 f4 [16]
0.20587619 0.4039468 -0.20547765 0.022128137 -0.33995152 -0.28182495 0.14903098 -0.46275207
-0.3593357 -0.43378448 -0.38272494 0.4250138 -0.24022323 -0.28658885 0.20765276 -0.020381026
00000000: 35d1 523e 1dd2 ce3e bc68 52be 1146 b53c
00000010: 200e aebe 5c4b 90be 949b 183e d7ed ecbe
00000020: d9fa b7be 0019 debe 86f4 c3be 699b d93e
00000030: 14fd 75be c6bb 92be eda2 543e 1cf6 a6bc

weight_ih_l1 f4 [16, 4]
-0.056598146 0.26368594 -0.38933742 -0.37999654 0.24221213 -0.092165 -0.25069895 -0.16904041
0.18781243 0.34188005 -0.5019677 -0.1294102 -0.43202972 0.5333016 -0.19031149 -0.36373922
0.01061526 0.07155268 -0.15046565 -0.14027913 0.2933803 0.036009613 0.122548 0.0076967953
-0.024671294 -0.18867984 -0.26976192 0.04912349 0.2027401 0.36319083 0.311568 -0.14198864
0.08743998 0.33316088 0.14471787 -0.1937229 -0.34139833 -0.37822434 0.22605142 -0.41929552
-0.23976111 0.15920314 0.41954687 0.17480643 0.3809877 -0.24917865 0.43732738 0.078997165
-0.025535714 0.24110979 0.46912014 0.39325005 0.4151772 0.009536849 -0.09495757 -0.050486438
-0.28101274 -0.044603635 0.078792654 0.119799756 0.28962487 0.4102757 -0.1234218 0.33553687
00000000: 75d3 67bd d801 873e 3c57 c7be e88e c2be
00000010: 7506 783e 01c1 bcbd 9d5b 80be ee18 2dbe
00000020: e751 403e e70a af3e f580 00bf 1c84 04be
00000030: 0033 ddbe 7486 083f 04e1 42be 073c babe
00000040: a1eb 2d3c 368a 923d ab13 1abe 55a5 0fbe
00000050: f135 963e d17e 133d 72fa fa3d 6635 fc3b
00000060: 741b cabc 4a35 41be 3c1e 8abe b635 493d
00000070: 1a9b 4f3e 26f4 b93e d785 9f3e 7865 11be
00000080: bb13 b33d 1094 aa3e ec30 143e 4c5f 46be
00000090: c3cb aebe 9fa6 c1be 067a 673e e7ad d6be
000000a0: f083 75be 2606 233e d9ce d63e 7500 333e
000000b0: d210 c33e b028 7fbe 60e9 df3e 44c9 a13d
000000c0: 4630 d1bc 7ce5 763e 8430 f03e 1258 c93e
000000d0: 1b92 d43e 7240 1c3c 1d79 c2bd deca 4ebd
000000e0: e7e0 8fbe 4db2 36bd 0b5e a13d 9359 f53d
000000f0: b649 943e a80f d23e 92c4 fcbd 7dcb ab3e

weight_hh_l1 f4 [16, 4]
-0.096111305 0.036401097 0.25727066 0.34030056 0.0023578866 -0.065168 0.18750341 -0.14780651
0.22388496 0.31962994 -0.3864694 -0.36999142 0.19685218 0.10242223 0.41019756 0.20825939
0.19457988 0.020873323 0.41851428 -0.21851324 -0.24549451 -0.10535255 0.46237928 -0.43738237
0.43393955 0.45108643 -0.032203503 0.30969006 0.37000582 -0.354638 0.2535671 -0.045966323
-0.05351737 -0.024303656 -0.24742271 0.12469585 -0.13027763 0.06067255 -0.43680638 -0.27809298
0.42464563 0.13050865 0.38787764 -0.3048393 -0.50088793 0.19660877 -0.17404686 -0.34812656
0.10701868 0.074400075 0.20823528 -0.26929215 0.48517165 0.4282078 0.22407362 0.5159001
0.32314426 -0.043319207 0.23215261 0.24333225 -0.083945155 0.13463907 0.14927793 0.100447215
00000000: 01d6 c4bd 5119 153d fbb8 833e e03b ae3e
00000010: c686 1a3b cd76 85bd e500 403e 975a 17be
00000020: 1942 653e 89a6 a33e 51df c5be 846f bdbe
00000030: 9e93 493e bfc2 d13d 6a05 d23e f341 553e
00000040: f33f 473e 88fe aa3c 8147 d63e efc1 5fbe
00000050: ea62 7bbe 14c3 d7bd fabc ec3e 95f0 dfbe
00000060: 532d de3e cdf4 e63e d2e7 03bd b28f 9e3e
00000070: 6771 bd3e 1d93 b5be 8cd3 813e 2f47 3cbd
00000080: 0835 5bbd 7618 c7bc 615c 7dbe 8a60 ff3d
00000090: 8067 05be c883 783d 16a5 dfbe 3462 8ebe
000000a0: 276b d93e 0fa4 053e e697 c63e e613 9cbe
000000b0: 313a 00bf cf53 493e 5739 32be a53d b2be
000000c0: 9c2c db3d 115f 983d a13b 553e a9e0 89be
000000d0: 6b68 f83e 0e3e db3e 8e73 653e 0712 043f
000000e0: 2a73 a53e 7b6f 31bd 6ab9 6d3e 172c 793e
000000f0: 70eb abbd d3de 093e 50dc 183e 45b7 cd3d

bias_ih_l1 f4 [16]
-0.0383418 0.07928677 0.2425891 -0.062732264 -0.42603666 -0.1575607 -0.35486904 0.4704238
0.12448184 -0.199585 0.034801144 0.12629583 -0.06280322 0.20980507 -0.027517404 -0.25082153
00000000: 4b0c 1dbd 1a61 a23d 4769 783e c679 80bd
00000010: 7a21 dabe 9857 21be 65b1 b5be 63db f03e
00000020: 56f0 fe3d 0360 4cbe a58b 0e3d b253 013e
00000030: f99e 80bd 24d7 563e 2e6c e1bc ae6b 80be

bias_hh_l1 f4 [16]
0.49104714 0.29596952 0.51159245 -0.14828984 0.2045982 -0.14943284 -0.33089986 -0.33569345
-0.29331115 0.43820333 -0.35658747 0.5323976 0.3142654 -0.059685446 -0.14762425 0.20812243
00000000: 886a fb3e 5189 973e b9f7 023f 4bd9 17be
00000010: 3182 513e ec04 19be b56b a9be 03e0 abbe
00000020: e12c 96be 305c e03e a292 b6be 364b 083f
00000030: 65e7 a03e ba78 74bd d02a 17be 0c1e 553e

weight f4 [2, 4]
-0.43239298 -0.5050131 -0.34093428 -0.21447632 -0.4324068 -0.15042154 -0.4874099 0.20169362
00000000: 9d62 ddbe 8a48 01bf f08e aebe ae9f 5bbe
00000010: 6d64 ddbe 1b08 1abe ca8d f9be c688 4e3e

bias f4 [2]
0.37088603 -0.38307166
00000000: c6e4 bd3e f821 c4be
