models/BinStatsClassifier.pt (torch, 7258 bytes, 11 tensors)

weight f4 [4, 4]
00000000: e856 9e3c eac6 0cbe 1760 06bf 6d9d e2bf
00000010: d996 ae3f 9446 2cbf 1ba2 5dbe cf0d 33c0
00000020: 3dd5 d53d e503 1cbf d871 86be 1038 9cbf
00000030: 36a7 4dbf f206 49bf fb1f d53e 6fa6 29be
0.01932855 -0.13747755 -0.5249037 -1.7704293 1.3639785 -0.67295194 -0.2164387 -2.7977178
0.104410626 -0.6094344 -0.2625873 -1.2204609 -0.8033327 -0.7852622 0.41625962 -0.16567396

weight_ih_l0 f4 [16, 4]
00000000: 9354 d4bb f27b 73be ded3 23bd 1b89 63be
00000010: fd29 df3c 9d11 25bf f556 fbbe fcbc eebd
00000020: b27f f53e a4a2 04be 857d 0abf 9176 bbbe
00000030: 2f45 f4be 1682 8bbe ad03 18be 3db9 a0be
00000040: 8060 273e e930 0cbe 60d8 21bd cda6 513c
00000050: 586a e7bd 6583 5c3e 1787 3a3e d63b e5be
00000060: d0be efbe 2d17 883e e94d 973e d7b9 e5bd
00000070: 348c 4fbe 69ea 10be 5fff 9ebe c895 8f3c
00000080: 9a89 cfbd 0046 a1be 7569 00bf 5159 a83e
00000090: 2543 8c3d 611a 0e3f 959d 333e cf39 d8bd
000000a0: 6c12 96be 166f dcbe 98da c6bd 4182 13bf
000000b0: 2227 b1be edc0 bbbe d5fd 723e 57bc 95be
000000c0: a434 613c 3103 41bc 6d9e a83e 93a5 eabe
000000d0: 44b0 e73e 8757 9cba 3d34 b9be edbd c2bd
000000e0: cd3d a7be f2fc c8be fc88 763e 5d76 ecbe
000000f0: cb45 de3e 931b dfbe c0c4 913e f0a8 5c3d
-0.0064798086 -0.2377775 -0.039996974 -0.2222027 0.027241701 -0.6448 -0.4908978 -0.1165714
0.47948986 -0.12952667 -0.5409778 -0.36613896 -0.47709033 -0.27247685 -0.14845152 -0.31391326
0.16345406 -0.13690533 -0.039512992 0.012796116 -0.1129958 0.21534498 0.18215595 -0.44772214
-0.46825266 0.26580182 0.29551628 -0.11217087 -0.20268327 -0.1415192 -0.31054208 0.017527476
-0.10133667 -0.31498718 -0.50160915 0.32880643 0.06848744 0.55509 0.17540582 -0.10557901
-0.2931093 -0.43053502 -0.09709662 -0.57620627 -0.34600168 -0.36670628 0.23729642 -0.29245254
0.013745461 -0.011780546 0.3293337 -0.45829448 0.45251667 -0.0011927941 -0.36172667 -0.09508882
-0.32664338 -0.39255482 0.24075693 -0.46184054 0.43412623 -0.43575725 0.2847042 0.05387205

weight_hh_l0 f4 [16, 4]
00000000: 5678 9fbe b5be 8f3e 2225 873e 9e80 a03e
00000010: df8e ac3e e8d8 593e 32de 9ebe 79ea f0bc
00000020: 4c5c 243d 9f5b 27be 9ed7 893e 2ec6 1abe
00000030: db85 c6be 24a1 06bf 4edb a2be 9b5c 0b3e
00000040: 729a a73e a4d3 0f3e f579 e8be 741c 9f3e
00000050: 4ec5 263e da06 2bbf 6d17 d13c 530b 9a3d
00000060: 4c31 c13e 926a 0cbf ead5 1abb 85d6 cf3e
00000070: 3953 0fbf d4a4 8f3e cc74 1c3e b157 3cbd
00000080: 1450 a73e fe44 ab3e a68e cc3e edec 2abe
00000090: 47c8 b03d 6a6d 343d 6847 e1be c1b3 1dbf
000000a0: 63f1 2e3e 2ec7 33be 7f9a 0ebe 37d8 99bd
000000b0: 6d2b a4be e79a 863e bc5d 023e 03dc 843d
000000c0: 1f87 3bbe f665 ed3e 1418 743e 5ce8 91be
000000d0: ccd3 26be 3790 65be e10c e7bd 5269 f13d
000000e0: a326 ecbe 1318 2fbe 65ca 113f 83c2 2abd
000000f0: cfd9 913e 6251 8e3d 8e69 9f3e dac8 99be
-0.31146497 0.28075185 0.26395518 0.31348127 0.33702752 0.2127415 -0.31028897 -0.02940868
0.040127084 -0.16343544 0.26922315 -0.15114662 -0.38774 -0.5258963 -0.3180794 0.13609545
0.3273502 0.14045578 -0.45405546 0.31076396 0.16286203 -0.6680733 0.025523866 0.07521691
0.37732923 -0.54850113 -0.0023626038 0.40593353 -0.5598636 0.2805544 0.1527893 -0.045982067
0.32678282 0.33451074 0.39952582 -0.16691943 0.0863195 0.044049658 -0.4399979 -0.6160241
0.17084269 -0.1755645 -0.13926123 -0.07511943 -0.3206438 0.26290056 0.1273107 0.064872764
-0.18313263 0.46366853 0.2383731 -0.2849759 -0.16291732 -0.22418295 -0.11281753 0.117876664
-0.46123227 -0.17099027 0.56949455 -0.041689407 0.28486487 0.06949116 0.3113522 -0.3003605

bias_ih_l0 f4 [16]
00000000: 0e54 52be 65cd 79be 09f1 033f 20fd 973d
00000010: 5ff2 803d f235 5abe 1d1f c63d 0c83 88be
00000020: 3857 c8be ecaa 0cbf 919e 0a3e 78ac bf3c
00000030: 0747 d43e 42da 0a3f 3815 f1bd c096 e73c
-0.20539877 -0.24394758 0.51539665 0.07421327 0.062962286 -0.21309641 0.09673903 -0.2666248
-0.39129043 -0.54948306 0.13537051 0.02339767 0.4146044 0.54239285 -0.11771625 0.028270125

bias_hh_l0 f4 [16]
00000000: 9cac b2be b093 adbe 33e9 acbe 4b17 82be
00000010: ede6 063e a193 33be 98d7 96be 6d38 193f
00000020: 828d 803e f2e1 abbe 8699 19be b658 2a3e
00000030: fbe0 a1be 7563 e73c 5525 24be 9045 233f
-0.34897316 -0.3390174 -0.33771667 -0.25408396 0.13174029 -0.17536785 -0.2946136 0.59851724
0.25107962 -0.3357082 -0.14999971 0.16635403 -0.3161696 0.028245667 -0.16029866 0.6377802

weight_ih_l1 f4 [16, 4]
00000000: d9f0 b4be 55b0 bc3e 2e96 ea3e 1eee c43e
00000010: b8b4 363e 22cd bebe 9dbf 103e 0ba5 56be
00000020: 3505 a53e 3b48 bfbe ef2f d03e 60a6 87be
00000030: 40bf 57be 3b23 64bd 230b 95bd f054 1a3f
00000040: d9a1 93be 9c31 c73e c5fc 3a3e 2628 fbbd
00000050: 6bce 24bf 0fd7 2ebd 2460 19be 198c 84be
00000060: 6a0b a9bd 4893 f43d 0d51 ce3e 56e0 803d
00000070: 7bea 98be 0398 41be e3b9 a2bd 6fd8 673e
00000080: 0951 18be 27b3 83bd 7841 7d3e cdc1 0ebc
00000090: df91 ee3e fe9e 803e 5c0e 0cbf c992 1bbf
000000a0: 2fd0 a83e 49ed fdbe a0ec fd3e c788 333e
000000b0: 3bcb 9cbe fdb2 8dbe e699 743e ecc6 ec3e
000000c0: 92c4 dfbe a654 733e 96b8 c6be fa45 d1be
000000d0: 466a a83d 5f12 30bd cd35 663e 97c2 063f
000000e0: c475 b43e 3bdd c3bd 24c7 253f 76ff 58bd
000000f0: 272e 5bbe f1bd 29bf c0b0 98be 5a88 96be
-0.35340002 0.3685328 0.45817703 0.3846292 0.17842376 -0.3726588 0.14135595 -0.20961396
0.32230535 -0.37359795 0.4066157 -0.26494122 -0.2106905 -0.05569766 -0.07277515 0.60285854
-0.28834417 0.38905036 0.18260486 -0.12263517 -0.6437747 -0.042685565 -0.14978081 -0.25888136
-0.0825413 0.11942154 0.40296212 0.06292789 -0.29866394 -0.18905644 -0.07945611 0.22641157
-0.14874662 -0.06430655 0.24732006 -0.008713198 0.46595666 0.251213 -0.5470941 -0.6077085
0.3297133 -0.49595097 0.49594593 0.17532645 -0.30623803 -0.2767562 0.23886833 0.46245515
-0.4370466 0.2376276 -0.38812703 -0.408737 0.08223395 -0.04298627 0.22481461 0.5264067
0.35246098 -0.09563681 0.6475699 -0.052978 -0.21404324 -0.6630545 -0.2982235 -0.29400903

weight_hh_l1 f4 [16, 4]
00000000: 4096 a53e 3a5a 3a3b c91f 22be eb38 a13d
00000010: 0a07 4cbe 2088 31bd 7d36 d73d 3d75 b23e
00000020: d3e7 47be f2e0 92be 983f c03e 2b4f 103f
00000030: 9428 0f3e 5c2f 0cbf 3556 19bc 94d2 7a3e
00000040: 3c44 afbd 62ac 4e3c b2cf 2cbe 0798 613e
00000050: e4f4 f0bc 5a85 b63d d769 a53e 5119 963e
00000060: 633e aebe 0bb6 c6be 4ea6 dc3d 59df 2d3e
00000070: 9c8d 03be 4081 a0bd be7e 5e3e ea39 5c3e
00000080: 036f 5fbe 0cab bdbe 5efb ca3c fd2c 04be
00000090: 0ecf f7be b083 83bd fe29 5abe bdb9 18bd
000000a0: d631 c0be 4d1b 18bf e819 76be 3c37 c23e
000000b0: 9aec b43e db0e b8be 534d a3bb 150c 09be
000000c0: a38c 27be 8bff 17be 0dc4 ddbe 41d5 bcbe
000000d0: 864b 6ebd 32f3 17bf 70c4 76be 2ca8 1a3f
000000e0: 8964 f1bd f763 1d3e 951a 53be 8643 7d3e
000000f0: 1e42 80be 5072 773e 8223 2e3f ebd0 e03e
0.32341194 0.0028435127 -0.15832438 0.07872184 -0.1992456 -0.04334271 0.1050844 0.3485507
-0.19522028 -0.28687245 0.37548518 0.563708 0.13980323 -0.54759765 -0.009358932 0.24494392
-0.085579365 0.012614341 -0.16876104 0.2203065 -0.029413648 0.089121535 0.32307312 0.2931619
-0.34031972 -0.38810763 0.107739076 0.16979732 -0.12846988 -0.078371525 0.21728036 0.21506467
-0.21819691 -0.3704456 0.024778064 -0.12907787 -0.48400158 -0.06421602 -0.21305081 -0.03728651
-0.37538022 -0.5941666 -0.2403332 0.37932765 0.35336763 -0.35948834 -0.004983583 -0.13383515
-0.16362242 -0.14843576 -0.43313637 -0.3688145 -0.058177494 -0.5935546 -0.24098372 0.6041286
-0.11786754 0.15370165 -0.20615609 0.2473279 -0.25050443 0.241647 0.6802293 0.43909392

bias_ih_l1 f4 [16]
00000000: 9469 38bd 9baf 22be 4d92 e93e 0bf6 80be
00000010: a2db ca3e 351b d5bd 8b98 063f 05a9 573e
00000020: 0dd3 853e 6cf1 883e 1ddb 123f 0a77 463e
00000030: 326b 8ebd dd71 fc3d 07e4 db3e 4b97 bc3e
-0.045022562 -0.158873 0.4561943 -0.25187716 0.39620692 -0.1040558 0.5257651 0.2106057
0.2613758 0.2674669 0.5736559 0.19381347 -0.0695404 0.12326405 0.4294741 0.36834177

bias_hh_l1 f4 [16]
00000000: a11e 75be cff3 52be be8f 2abd 4b49 83be
00000010: 1662 c5be db30 043e a96f 073e 1ab4 3d3e
00000020: 7a12 94bd af79 43be a18e b7bd 2114 1b3f
00000030: 3d1e d93e 57b5 ee3e 48c7 ed3e 2c00 e1bb
-0.23937465 -0.20600818 -0.04164099 -0.25641856 -0.38551396 0.12909262 0.13226189 0.18525735
-0.072300866 -0.19089387 -0.08962751 0.6057759 0.42405882 0.46622726 0.46441102 -0.0068664756

weight f4 [2, 4]
00000000: 9e65 9d3c 6d28 4f3e 8dc4 9ebe 6795 02bf
00000010: d1a0 273e 0114 dabe c009 163f 4589 383e
0.019213494 0.20230265 -0.3100933 -0.5100922 0.1636994 -0.42593387 0.5860863 0.18021114

bias f4 [2]
00000000: 2b2c 1c3e f775 bcbe
0.15251224 -0.3680875
