models/Regressor.pt (torch, 19219 bytes, 10 tensors)

weight f4 [4, 8]
0	0x3e74740b	0.23872392
1	0x3f8645f4	1.0490098
2	0x3f703297	0.93827194
3	0x3f86d082	1.0532382
4	0x3f2dceda	0.67893755
5	0x3e2b3092	0.16717747
6	0x3fb0cbb2	1.3812163
7	0xbf13f05f	-0.5778865
8	0x3e37f36e	0.17963955
9	0xbea4bf92	-0.32177407
10	0xbfa86625	-1.3156172
11	0x3f96f865	1.1794554
12	0x3e238efc	0.15972513
13	0x3ef57092	0.47937447
14	0x3f316df6	0.6930841
15	0xc01ac6fe	-2.4183955
16	0x3f443e08	0.7665715
17	0x3f91feaa	1.1405842
18	0xbe3068c7	-0.1722747
19	0xbee1deaa	-0.44115192
20	0x3f70f0dd	0.9411753
21	0xbf9fd275	-1.2486101
22	0xbfabc5d6	-1.341975
23	0xbf2f022c	-0.6836269
24	0xbe6a3514	-0.2287181
25	0xbe09bf32	-0.13451841
26	0x3fa08109	1.2539378
27	0x3d858cef	0.065210216
28	0xbfeef8e4	-1.8669705
29	0xbfad7b40	-1.3553238
30	0xbf0f99f2	-0.56094277
31	0xbfec0eee	-1.8442056

weight_ih_l0 f4 [60, 8]
0	0x3d49ca92	0.04926545
1	0x3d4c0e25	0.049818177
2	0x3e519387	0.20466433
3	0xbd6d78aa	-0.057976402
4	0xbd9907c2	-0.07472183
5	0xbe30a75b	-0.17251341
6	0xbd852b45	-0.06502394
7	0x3c7f0f3d	0.015567598
8	0x3e8b21f0	0.2717433
9	0x3e3d1a6c	0.1846711
10	0xbe6774ca	-0.22603145
11	0x3dcf24f3	0.101144694
12	0xbe02c322	-0.1276975
13	0xbe526146	-0.2054492
14	0xbd90b8b4	-0.07066479
15	0xbe59fbac	-0.21287411
16	0xbc40a683	-0.0117584495
17	0x3e4a5b10	0.197613
18	0xbdddba4a	-0.108265474
19	0x3d920ced	0.07131372
20	0xbdb47b1b	-0.08812543
21	0xbe9fe5bd	-0.31229964
22	0x3c78298e	0.015146626
23	0x3d8b5346	0.068029925
24	0x3e5d996d	0.21640559
25	0x3e24ccc1	0.16093732
26	0x3dcefab2	0.1010641
27	0xbc22c182	-0.009933831
28	0x3e0fbb1e	0.14036223
29	0x3d116a03	0.03550149
30	0x3da30069	0.079590626
31	0xbe9915c0	-0.29899406
32	0x3de25c8f	0.110528104
33	0x3e990c2a	0.29892093
34	0xbd9a9c77	-0.075493746
35	0xbdbe6f7d	-0.092986085
36	0xbe0785c9	-0.13234629
37	0xbe931484	-0.2872659
38	0xbe3826e3	-0.17983584
39	0x3da2e560	0.07953906
40	0xbdf7f379	-0.121069856
41	0x3d838978	0.064227045
42	0x3e34d3b5	0.17658885
43	0x3da02fd2	0.07821621
44	0xbe04d96f	-0.1297357
45	0xbe195989	-0.14975561
46	0xbc2c0590	-0.010499373
47	0xba6b15b5	-0.0008967773
48	0x3e9021c0	0.2815075
49	0xbcdbf160	-0.026848495
50	0x3d16ee80	0.036848545
51	0xbd5bac73	-0.053631257
52	0x3e28f308	0.16498959
53	0xbe839389	-0.25698498
54	0xbe9c13af	-0.30483767
55	0xbe843bb2	-0.25826794
56	0x3e443ba0	0.1916337
57	0x3e9a5bc3	0.30148134
58	0x3dde88f3	0.10865965
59	0x3e12c0ca	0.14331356
60	0xbe0bdc5e	-0.13658282
61	0xbe4f06a5	-0.20217378
62	0x3e2ea289	0.1705419
63	0xbbe167aa	-0.006878813
64	0xbdbf65db	-0.09345599
65	0xbdd7e347	-0.105413966
66	0xbceb3829	-0.028713303
67	0xbe08b7c1	-0.13351347
68	0x3d35b08a	0.044357814
69	0x3b4b5a53	0.003102918
70	0xbeb56fc9	-0.35436848
71	0xbe5f0fb3	-0.21783333
72	0x3b0b9ab1	0.002130192
73	0x3e1e05fe	0.15431973
74	0xbd532017	-0.051544275
75	0x3eafac42	0.3431111
76	0xbdd47a8f	-0.10374939
77	0xbd5c32b8	-0.053759307
78	0x3c0e1123	0.008671078
79	0x3dcd0312	0.10010351
80	0x3dcc1fbd	0.09966991
81	0x3da94de0	0.082668066
82	0x3e57a753	0.21059923
83	0x3d03e71c	0.032202825
84	0x3e4dc09e	0.20093009
85	0x3ccfe894	0.025379457
86	0xbe1fa89e	-0.15591666
87	0xbe51c9bf	-0.20487116
88	0x3d96b519	0.073587604
89	0xbdb29e73	-0.08721628
90	0xbe44164b	-0.19149129
91	0xbe44393a	-0.19162455
92	0x3e1db22d	0.154
93	0x3de22c11	0.11043561
94	0xbda0f11f	-0.0785849
95	0x3d007f6f	0.03137153
96	0x3e2667de	0.1625056
97	0xbe12d916	-0.14340624
98	0x3ea53786	0.32268924
99	0x3e7ada53	0.24497347
100	0xbd5fcdf3	-0.054639768
101	0x3d734077	0.05938765
102	0x3d03520c	0.032060668
103	0xbe4e8c68	-0.20170748
104	0x3cb09a4d	0.021557951
105	0x3e53631f	0.2064328
106	0x3e0fbd23	0.14036994
107	0x3dbf3acf	0.09337389
108	0x3e9e6671	0.30937532
109	0x3d11989b	0.035545927
110	0xbe91b5b6	-0.28458947
111	0xbe22ea7d	-0.15909763
112	0x3d4fd6e8	0.05074206
113	0xbe8ebbc7	-0.27877638
114	0x3e5df880	0.21676826
115	0x3c41d51b	0.011830593
116	0x3d70bed9	0.058775757
117	0x3d5af40a	0.05345539
118	0x3d748b88	0.05970338
119	0xbe0c22d4	-0.13685161
120	0xbd4fe885	-0.050758857
121	0xbdca5e73	-0.09881296
122	0x3e405a74	0.18784505
123	0xbe0ac623	-0.13552146
124	0xbca1350b	-0.019678613
125	0x3d85e051	0.065369256
126	0x3e16ad2b	0.14714496
127	0xbea95546	-0.3307287
128	0xbd1d42c8	-0.038393766
129	0x3dccd8d3	0.100022934
130	0x3dc059b1	0.09392107
131	0x3e55e118	0.20886648
132	0xbc907623	-0.017634457
133	0x3d8c2371	0.068426974
134	0xbda016b8	-0.07816833
135	0xbe7805a9	-0.24220909
136	0x3d9e30b0	0.0772413
137	0x3e34d65a	0.17659894
138	0xbdfc133a	-0.12308355
139	0xbdd43f09	-0.103635855
140	0xbdb667e7	-0.089065365
141	0xbe782575	-0.24233039
142	0x3da03b15	0.07823769
143	0xbe96b114	-0.29431975
144	0x3e7773a8	0.24165213
145	0xbe17300a	-0.14764419
146	0x3e9224a9	0.28543594
147	0x3b0d87c3	0.0021595813
148	0x3e48c980	0.19608116
149	0xbe6f1d87	-0.23351108
150	0xbddabf7c	-0.10681054
151	0xbdf80039	-0.121094175
152	0xbdcddef0	-0.100522876
153	0x3d8fb2af	0.07016503
154	0x3e482a94	0.19547492
155	0x3e04bb82	0.12962154
156	0xbcf06cfb	-0.029348841
157	0x3ba2a84e	0.004963911
158	0xbd8a8db6	-0.067653105
159	0xbea854c5	-0.32877174
160	0xbd63be6d	-0.055601526
161	0x3de79b03	0.11308863
162	0xbe0c10e6	-0.13678321
163	0x3e952385	0.29128662
164	0x3d363a1a	0.044489004
165	0xbd89a328	-0.06720573
166	0xbd88a548	-0.0667215
167	0xbd372db0	-0.044721305
168	0x3e981cf0	0.29709578
169	0x3ca3ec9d	0.020010287
170	0x3da71223	0.08157756
171	0x3e6e2162	0.23254922
172	0x3daa9cfa	0.08330722
173	0x3dc10821	0.094253786
174	0xbd7da85f	-0.06192815
175	0xbe794f31	-0.24346615
176	0x3e288685	0.16457565
177	0x3e75e9b6	0.24014935
178	0x3e541ca4	0.2071405
179	0x3e96c2ea	0.29445583
180	0xbdcc2135	-0.09967271
181	0xbe55b80c	-0.2087099
182	0xbc3097d8	-0.01077839
183	0xbea253cd	-0.3170456
184	0x3c8325cc	0.016009234
185	0x3ea6fd38	0.32615066
186	0x3e2de627	0.16982327
187	0x3ea74c1c	0.32675254
188	0x3c917f6b	0.017760953
189	0x3d13faae	0.03612774
190	0xbde0f620	-0.109844446
191	0x3e1ecbdd	0.15507455
192	0x3e153aa5	0.14573152
193	0xbdcb1dbd	-0.099177815
194	0x3e3e61a2	0.18591931
195	0xbd9381dc	-0.07202503
196	0xbb1c3d27	-0.002384016
197	0xbd87ec96	-0.06636922
198	0xbe3fad55	-0.18718465
199	0x3d9ac23d	0.07556579
200	0x3d8f505b	0.069977485
201	0x3eb10c8a	0.3457988
202	0x3d338af2	0.04383368
203	0xbc291c7f	-0.010321735
204	0x3cf5f7ea	0.030025441
205	0x3df3e3dd	0.11908696
206	0x3d6f8215	0.058473665
207	0xbcba4b20	-0.0227409
208	0x3d8a39f2	0.067493334
209	0x3e92c9fe	0.28669733
210	0x3ea35f55	0.3190867
211	0x3cb9df0d	0.022689367
212	0xbe059ddc	-0.130485
213	0x3dce6101	0.10077096
214	0x3c381136	0.011234572
215	0xbeb09815	-0.3449103
216	0xbda14882	-0.07875158
217	0x3e720cc8	0.23637688
218	0x3e0f42d0	0.1399033
219	0x3e12e53d	0.1434526
220	0x3e0d728d	0.13813229
221	0x3dc43e20	0.09582162
222	0x3e3e4149	0.18579592
223	0xbd3c1b86	-0.045924686
224	0x3e95232a	0.2912839
225	0xbdea37b6	-0.11436407
226	0x3e7efa31	0.24900128
227	0x3e717350	0.23579144
228	0xbc54b613	-0.012982863
229	0x3e0267ca	0.12734905
230	0xbdc456eb	-0.09586891
231	0x3c8242c4	0.015900977
232	0xbc597759	-0.013273084
233	0x3e0fbe50	0.14037442
234	0xbcf08d48	-0.029364243
235	0x3de36a3a	0.111042455
236	0xbe2775a1	-0.16353466
237	0x3cf38a2b	0.02972897
238	0xbdca5155	-0.09878794
239	0xbdea3de9	-0.1143759
240	0x3ea95de7	0.33079454
241	0xbe1fdea5	-0.15612276
242	0x3e9852b8	0.2975061
243	0x3e81fe83	0.2538949
244	0x3dfa1420	0.1221087
245	0xbe1b1952	-0.15146378
246	0xbe8a2a5f	-0.26985452
247	0xbea335f8	-0.31877112
248	0x3eac01cd	0.33595124
249	0xbd05e01b	-0.032684427
250	0xbe24ac80	-0.16081429
251	0x3e50c6a8	0.20388281
252	0x3ce7b21a	0.028283168
253	0xbde0bf08	-0.10973936
254	0xbe0bf7d8	-0.13668764
255	0xbe4465d2	-0.19179466

weight_hh_l0 f4 [60, 15]
0	0x3d2460bc	0.040131316
1	0x3d968fc3	0.07351639
2	0xbe1cd3bd	-0.15315147
3	0x3e9b90d2	0.30383927
4	0xbd8ad234	-0.06778374
5	0xbc8b76fa	-0.017024506
6	0xbc277dc4	-0.010222856
7	0xbdea272c	-0.11433253
8	0xbeb42bbd	-0.3518962
9	0x3ebb6ce4	0.36606514
10	0xbe0f45ac	-0.13991421
11	0x3e0c4966	0.13699874
12	0x3db09892	0.086228505
13	0xbe0d5ce4	-0.13804966
14	0x3e23076b	0.15920798
15	0x3db80afb	0.08986469
16	0x3d8c4508	0.06849104
17	0xbdbf25ce	-0.093333825
18	0x3e311eff	0.1729698
19	0x3e099126	0.13434276
20	0x3dc632d9	0.09677667
21	0x3e2881d5	0.16455777
22	0x3df4a4c9	0.11945493
23	0xbe16f325	-0.1474119
24	0x3eaa5f29	0.33275726
25	0x3e900bec	0.28134096
26	0x3e9cd75c	0.30633056
27	0x3e44a6b8	0.19204223
28	0xbe00fce2	-0.12596467
29	0x3ea043ea	0.31301814
30	0x3d41b977	0.047296014
31	0xbba81d27	-0.0051304284
32	0x3df45620	0.119304895
33	0xbd5bd500	-0.05366993
34	0xbb8ca565	-0.0042921775
35	0x3be24325	0.006904977
36	0xbeba1988	-0.36347604
37	0xbd9db11b	-0.07699796
38	0xbe49f2e3	-0.1972156
39	0x3dc3ed3e	0.09566735
40	0x3e697f5a	0.22802487
41	0x3e58e89b	0.21182482
42	0x3c985ed2	0.018599901
43	0xbeb7bd5e	-0.35886663
44	0x3dd355f4	0.10319129
45	0x3e295620	0.1653676
46	0x3d40d969	0.04708234
47	0xbe9ec39f	-0.31008622
48	0xbd34d071	-0.044144098
49	0xbd968a97	-0.07350653
50	0xbc22a2be	-0.009926496
51	0x3e0711d7	0.13190399
52	0xbdfe1734	-0.124067694
53	0xbe93cc4e	-0.2886681
54	0x3ea93eee	0.33055824
55	0xbcf5fff6	-0.030029278
56	0x3d873ed8	0.06603783
57	0x3e919ed5	0.28441492
58	0xbb9e41a6	-0.0048296032
59	0x3dbcee6e	0.09225164
60	0x3e1c6fd2	0.15277031
61	0x3e0c5701	0.13705064
62	0xbea8356e	-0.32853264
63	0x3db6c5f2	0.08924474
64	0x3ea9b738	0.33147597
65	0x3e9f8dd0	0.31162882
66	0xbea0ee8a	-0.3143199
67	0xbc44846a	-0.011994461
68	0xbd864f92	-0.065581456
69	0x3eacd052	0.33752686
70	0xbcb6b093	-0.022300994
71	0xbdd1eaee	-0.102498874
72	0x3d868461	0.06568218
73	0x3d07cf48	0.033156663
74	0x3d1b7362	0.037951834
75	0xbd6dde3b	-0.058073264
76	0x3e414486	0.18873796
77	0xbd09d5df	-0.03365123
78	0x3dd284ad	0.10279212
79	0x3e0555d3	0.1302102
80	0x3d38a6f4	0.045081094
81	0xbe30eb30	-0.17277217
82	0xbe1d6e05	-0.15374
83	0xbdc1279c	-0.09431383
84	0x3e25135d	0.16120668
85	0x3c4674a4	0.01211277
86	0x3e6ef2f1	0.23334862
87	0x3df492da	0.11942072
88	0xbeab8402	-0.3349915
89	0x3e3c7ec1	0.18407728
90	0x3e4a1814	0.19735748
91	0xbdaaa2cc	-0.08331832
92	0x3dbb3073	0.091401
93	0x3c85c0bc	0.016327254
94	0xbce4219b	-0.027848056
95	0x3e6a1713	0.22860365
96	0xbdcafc8f	-0.09911453
97	0xbdc592ec	-0.09647164
98	0xbdca7e6e	-0.09887396
99	0x3e95f006	0.29284686
100	0x3d49b0d2	0.049240895
101	0xbc881880	-0.016613245
102	0x3e63743d	0.2221231
103	0xbdbb2a3a	-0.091389135
104	0x3ea631b7	0.32459804
105	0x3eb098c0	0.3449154
106	0xbdefe7ad	-0.117141105
107	0xbe9351a0	-0.28773212
108	0xbe1c5f17	-0.15270649
109	0x3e9aaa1a	0.30207902
110	0x3da6c025	0.081421174
111	0x3d779ae0	0.060450435
112	0xbe2b8139	-0.16748513
113	0xbda8131b	-0.08206769
114	0x3dc91c57	0.098198585
115	0xbd7d13a5	-0.061786313
116	0xbc3003fd	-0.010743138
117	0xbe590ab5	-0.2119549
118	0xbe2b2e5f	-0.16716908
119	0x3eb4f8ce	0.35346073
120	0xbd42a52c	-0.0475208
121	0xbe2a1de1	-0.1661296
122	0xbea6dfa5	-0.32592502
123	0x3dae92dd	0.08524106
124	0x3d4219e5	0.047387976
125	0xbdb76e25	-0.08956555
126	0xbe9b3238	-0.3031175
127	0x3d843592	0.0645553
128	0x3b7fda90	0.0039040186
129	0xbe06f3d4	-0.1317895
130	0xbe0d420a	-0.13794723
131	0xbe2540c3	-0.16137986
132	0x3e536b8b	0.20646493
133	0x3d1f0703	0.038825046
134	0x3e1ac0d2	0.15112618
135	0xbda0678b	-0.07832249
136	0x3dee8c4a	0.11647852
137	0xbea202d4	-0.31642783
138	0xbde16530	-0.11005628
139	0x3ce2dcab	0.027693113
140	0x3d3f2a83	0.0466714
141	0x3de7abdb	0.11312076
142	0xbe308bbd	-0.17240806
143	0x3df8d708	0.12150389
144	0x3e3bbf66	0.18334731
145	0x3ea8cdda	0.32969552
146	0xbbb17a69	-0.0054162038
147	0xbdad9f9e	-0.0847771
148	0xbe41173e	-0.18856522
149	0xbde6a5dc	-0.11262104
150	0x3eba6634	0.364061
151	0x3dbb7f2b	0.09155115
152	0xbe89329c	-0.26796424
153	0xbdfad260	-0.12247157
154	0x3ea07753	0.31341037
155	0x3d84cfcd	0.06484947
156	0xbe8daea3	-0.276723
157	0x3d6a8ab9	0.057261202
158	0x3dddabf5	0.10823814
159	0xbd2ce42f	-0.0422098
160	0x3d57b617	0.05266389
161	0x3e97f5dc	0.29679763
162	0xbe116e50	-0.14202237
163	0x3dc39feb	0.09551986
164	0x3db6665b	0.089062415
165	0x3e8060c5	0.2507383
166	0x3e81b128	0.25330472
167	0xbe519e51	-0.20470549
168	0xbd8a040d	-0.06739054
169	0x3de39dec	0.111141056
170	0x3e635001	0.22198488
171	0xbd35da29	-0.044397507
172	0xbc50702c	-0.012722056
173	0xbde5ddd1	-0.11223949
174	0x3e62d87f	0.22152899
175	0x3d4382f2	0.0477323
176	0x3db4f1be	0.08835171
177	0x3e54a1f1	0.207649
178	0xbe9832e6	-0.29726332
179	0x3e4c4a87	0.19950305
180	0x3e91a7c2	0.28448302
181	0xbe4e67c4	-0.20156771
182	0xbdb24df6	-0.08706276
183	0xbe0dceee	-0.13848469
184	0x3dec53ba	0.11539407
185	0xbdb43c13	-0.08800521
186	0xbe767d3b	-0.24071209
187	0xbe8f6097	-0.2800338
188	0xbe2979ea	-0.16550413
189	0xbd226274	-0.039644673
190	0x3d3ee04a	0.046600617
191	0x3e41743f	0.18892
192	0xbe0513fe	-0.12995908
193	0xbd8c04a7	-0.06836825
194	0xbc16b676	-0.0091987755
195	0x3e89ff04	0.26952374
196	0x3bd0f31b	0.0063766367
197	0xbeaace41	-0.33360484
198	0x3e289282	0.16462138
199	0x3e8b3e80	0.2719612
200	0x3d83ac67	0.064293675
201	0xbd34a20f	-0.044099864
202	0x3df7e5b8	0.12104362
203	0xbd3c2bf5	-0.04594036
204	0x3e83072a	0.25591403
205	0xbe01ada0	-0.12663889
206	0xbe01bc78	-0.12669551
207	0x3ce95f19	0.028487729
208	0x3cffabe6	0.031209897
209	0x3e90dbf7	0.2829282
210	0xbe1b85c4	-0.15187746
211	0x3dd92b27	0.10603934
212	0xbe21f5c4	-0.15816408
213	0xbde94107	-0.11389356
214	0x3ea3521f	0.3189859
215	0x3e6c697e	0.23087117
216	0xbd2a5a1d	-0.041589845
217	0xbeadb244	-0.33925068
218	0xbde5f72d	-0.11228786
219	0xbdde44a6	-0.108529374
220	0x3ded1074	0.11575404
221	0x3e6f0486	0.2334157
222	0x3e6325e4	0.22182423
223	0xbe3384aa	-0.17531076
224	0xbe4bfc3b	-0.19920437
225	0x3e6f2e12	0.23357418
226	0x3e99fa44	0.3007375
227	0xbe8470b9	-0.2586725
228	0x3cf68f99	0.03009777
229	0x3e9c5852	0.30536133
230	0xbdef1fd4	-0.116759926
231	0xbe83b790	-0.25725985
232	0xbde40419	-0.11133594
233	0xbe11947c	-0.14216799
234	0xbcd2fb3f	-0.02575457
235	0x3db1d446	0.08683066
236	0xbd8bbd31	-0.06823195
237	0xbe326060	-0.17419577
238	0x3df95258	0.12173909
239	0xbdecccdf	-0.115625136
240	0x3dc598ea	0.09648307
241	0xbdf942b1	-0.121709235
242	0xbc96eaaa	-0.018422443
243	0x3d0d1fbc	0.034454092
244	0xbc56ac63	-0.013102624
245	0xbb41924c	-0.0029536663
246	0xbd196b0b	-0.0374556
247	0xbd47f733	-0.048819732
248	0xbe6316f3	-0.22176723
249	0x3e175199	0.14777221
250	0xbe03bcbc	-0.12864965
251	0xbd577844	-0.05260493
252	0x3e47f911	0.19528605
253	0xbd4340e3	-0.047669303
254	0x3e97b08a	0.29626876
255	0xbd80dcf7	-0.06292146

bias_ih_l0 f4 [60]
0	0x3e293657	0.16524635
1	0x3e9e7fa4	0.30956757
2	0xbbbf3ad4	-0.0058358703
3	0x3ddef4b6	0.10886519
4	0xbd431360	-0.0476259
5	0x3d1e6294	0.03866823
6	0x3dab0e5d	0.08352349
7	0x3eb5fbad	0.35543576
8	0x3dfa9b1c	0.12236616
9	0x3e5ba39c	0.21449131
10	0x3ca51b53	0.02015463
11	0x3dae5c26	0.0851367
12	0xbd407c33	-0.046993446
13	0x3d10a9ba	0.035318114
14	0x3dacf495	0.08445088
15	0x3e497207	0.19672404
16	0xbdba8595	-0.0910751
17	0x3e57090b	0.20999543
18	0xbd8dbb0d	-0.06920443
19	0x3e8cc953	0.27497348
20	0x3cdcdee0	0.026961744
21	0xbc84f7f8	-0.016231522
22	0xbdf9cfc8	-0.12197834
23	0x3e545f77	0.20739542
24	0xbdc5cc4b	-0.096581064
25	0xbd4a30b5	-0.049362857
26	0xbde7bc02	-0.113151565
27	0x3d42a1c0	0.047517538
28	0x3d1965e2	0.03745068
29	0x3e9aa39b	0.30202946
30	0x3da15897	0.07878225
31	0x3ddf0242	0.108891025
32	0xbe91a962	-0.2844954
33	0x3cfcd6b3	0.030864095
34	0x3c5ab005	0.01334763
35	0x3e817001	0.25280765
36	0xbe393a38	-0.18088615
37	0xbd44c670	-0.048040807
38	0x3d848b61	0.06471897
39	0x3d6e0d0d	0.058117915
40	0x3e93c9c0	0.2886486
41	0x3e11e14c	0.142461
42	0xbe2d73f2	-0.16938761
43	0xbe8a35dc	-0.26994216
44	0x3e9a23f7	0.30105564
45	0x3ddf53f1	0.109046824
46	0x3e90567c	0.28190982
47	0x3e5e650b	0.21718232
48	0x3de6166e	0.11234747
49	0x3de5d7a2	0.11222769
50	0xbd675676	-0.05647894
51	0xbe011c61	-0.12608482
52	0xbb49b325	-0.0030776944
53	0x3e8dd3ba	0.27700597
54	0x3b0de8d6	0.0021653674
55	0x3c0c5370	0.008564815
56	0x3ea7a27a	0.32741147
57	0x3e302225	0.17200525
58	0x3d86cad1	0.06581653
59	0x3b8101db	0.003936989

bias_hh_l0 f4 [60]
0	0x3eb59ac0	0.35469627
1	0x3db11291	0.086461194
2	0xbdca4de5	-0.098781385
3	0x3e589af0	0.21152854
4	0xbe2e9d70	-0.17052245
5	0xbdec8291	-0.11548341
6	0xbe1a1a0f	-0.15049003
7	0xbd050a85	-0.032480735
8	0x3e77c509	0.24196257
9	0x3ead3018	0.33825755
10	0x3e643024	0.22283989
11	0x3e2adcbb	0.16685764
12	0xbd025e61	-0.031828288
13	0x3ea7eecd	0.32799378
14	0x3df65688	0.12028223
15	0xbdd0b7ca	-0.10191305
16	0x3e522bfa	0.20524588
17	0xbe11c604	-0.14235693
18	0x3df06253	0.11737504
19	0x3d606a53	0.0547889
20	0x3e65a283	0.22425275
21	0x3e2c920a	0.16852584
22	0xbde1a0bf	-0.11016988
23	0xbd1b84ce	-0.03796845
24	0xbd32326f	-0.04350513
25	0x3eb747e2	0.3579703
26	0x3b3f465d	0.0029186227
27	0x3e748618	0.23879278
28	0x3e9f25d9	0.31083563
29	0xbe0e7904	-0.13913351
30	0xbe15bbf8	-0.14622486
31	0x3e87e2cd	0.26540223
32	0xbde0827d	-0.10962389
33	0xbc9218e1	-0.017834129
34	0x3e98f2b2	0.29872662
35	0x3eb5adbb	0.35484108
36	0xbe8cc1f9	-0.2749174
37	0xbdc29026	-0.095001504
38	0xbde3cf08	-0.111234725
39	0x3e5063f1	0.20350625
40	0x3e516259	0.20447673
41	0x3e2ae9b1	0.16690709
42	0x3e3a0202	0.18164828
43	0xbea5ebdb	-0.32406506
44	0xbdc4558f	-0.095866315
45	0x3eb0ce93	0.34532604
46	0x3eacb4d8	0.33731723
47	0x3e12c596	0.14333186
48	0xbcdf4b14	-0.02725748
49	0xbd6418a4	-0.05568756
50	0x3e9176e4	0.2841102
51	0x3e982075	0.29712263
52	0xbdeaf4bd	-0.114724614
53	0x3eae161e	0.3400125
54	0x3e50b123	0.20380072
55	0x3e29e0bb	0.16589634
56	0x3eace3ab	0.33767447
57	0xbdd52359	-0.10407133
58	0x3e41984f	0.18905757
59	0x3e75a6eb	0.23989455

weight_ih_l1 f4 [60, 15]
0	0x3e45d8cf	0.19320987
1	0x3e031c7f	0.12803839
2	0x3db121f5	0.08649055
3	0x3e88fa38	0.26753402
4	0x3e7b8ac5	0.24564655
5	0xbcfe854f	-0.031069426
6	0x3de2cade	0.1107385
7	0xbe3f57c4	-0.18685824
8	0x3d9c740c	0.07639322
9	0x3baaa532	0.005207681
10	0x3d02047e	0.031742565
11	0xbca7253f	-0.020403503
12	0x3e71a660	0.23598623
13	0xbe86e8cb	-0.26349482
14	0x3e2319d8	0.15927827
15	0xbd8a10a2	-0.06741454
16	0xbce5c24d	-0.028046751
17	0xbe7598fa	-0.23984137
18	0x3dd911a0	0.10599065
19	0x3e5067f2	0.20352152
20	0xbde6786a	-0.11253436
21	0xbe985ea9	-0.2975972
22	0xbe7c8258	-0.24659097
23	0xbe335ecd	-0.17516632
24	0x3d0a68c1	0.033791307
25	0x3e0e9a2d	0.13926001
26	0x3e862691	0.262013
27	0xbdde76ef	-0.108625285
28	0xbd94ef14	-0.07272163
29	0x3e89f961	0.26948074
30	0x3d22434a	0.039614953
31	0xbe18a023	-0.14904837
32	0xbe48228b	-0.19544427
33	0x3e12d389	0.14338507
34	0x3e257b99	0.1616043
35	0x3e9dabfa	0.3079527
36	0xbe4f6365	-0.2025276
37	0x3d1af735	0.03783341
38	0x3cba0848	0.022709027
39	0x3e24ac5b	0.16081373
40	0xbcb282ba	-0.02179085
41	0x3e068421	0.1313634
42	0xbcd12826	-0.02553184
43	0x3d154600	0.03644371
44	0x3de041fa	0.10950084
45	0x3dcf70c5	0.10128931
46	0x3e090ed0	0.13384557
47	0xbea31f1b	-0.3185967
48	0x3e604efe	0.21905133
49	0xbcf1c323	-0.029511994
50	0x3e153307	0.14570247
51	0x3df8b60b	0.12144097
52	0xbe336485	-0.17518814
53	0x3e30c861	0.17263938
54	0xbdee0023	-0.1162112
55	0x3e985df6	0.29759187
56	0xbdccf38b	-0.1000739
57	0xbdbf2f88	-0.09335238
58	0xbdad5fe3	-0.084655546
59	0x3e1d2128	0.1534468
60	0x3e2d6446	0.16932783
61	0x3e175ed9	0.14782275
62	0xbe688b8d	-0.22709484
63	0x3e036863	0.12832789
64	0x3d0eadf9	0.034833882
65	0x3e5afea6	0.21386203
66	0xbdee8a2c	-0.11647448
67	0xbe1307a4	-0.14358383
68	0xbeb15f5e	-0.34643072
69	0xbd9b3b2a	-0.07579644
70	0x3d8f382f	0.06993138
71	0xbdc93abd	-0.098256566
72	0x3cf475d4	0.029841341
73	0xbcad0331	-0.021119686
74	0x3cf9dbd2	0.030500326
75	0x3e9bf6dc	0.30461776
76	0xbe0577dc	-0.13034004
77	0x3dbdbb7d	0.09264276
78	0x3d13a8ea	0.03604976
79	0xbccc068a	-0.024905462
80	0xb9efe1c9	-0.00045753855
81	0x3c052f1d	0.008128908
82	0x3de501bb	0.11181971
83	0x3ba927f0	0.0051622316
84	0xbcd9a70e	-0.026568916
85	0xbdde253a	-0.10846944
86	0x3e8330fa	0.25623304
87	0xbdafe682	-0.08588888
88	0xbe7ad2c9	-0.2449447
89	0x3e6bbbb0	0.23020816
90	0x3eb70672	0.35747105
91	0x3cae26d3	0.021258747
92	0xbe388f54	-0.18023425
93	0x3de8bedc	0.113645285
94	0x3ea6fdd9	0.32615545
95	0x3e4bd8b3	0.19906883
96	0xbe9c7639	-0.30558947
97	0xbe33e6a3	-0.1756845
98	0xbe864c6c	-0.2623018
99	0x3d6d9e50	0.058012307
100	0x3e888ec7	0.2667143
101	0x3e944d4c	0.28965223
102	0xbe353ad4	-0.17698222
103	0xbeac5991	-0.33662084
104	0x3e1540ec	0.14575547
105	0x3e884c08	0.26620507
106	0x3e815049	0.25256565
107	0xba85c4ea	-0.001020578
108	0xbd01aed1	-0.03166086
109	0x3d5c94be	0.05385279
110	0x3e0831cd	0.13300247
111	0xbd819c7e	-0.06328677
112	0xbea864c4	-0.32889378
113	0xbe40c291	-0.18824221
114	0x3dbb0377	0.0913152
115	0xbde2b1d7	-0.110690765
116	0xbe2bf6b3	-0.16793327
117	0x3ceb597d	0.028729195
118	0x3e27fec4	0.16405779
119	0x3d2816e8	0.04103747
120	0x3e23a0cf	0.15979312
121	0x3e1e4fb2	0.15460089
122	0x3d662d44	0.056195512
123	0xbe0acf94	-0.13555747
124	0xbe1fa012	-0.15588406
125	0x3ea17ae8	0.31539083
126	0xbe451327	-0.19245587
127	0xbeaa9067	-0.33313295
128	0xba8e510f	-0.0010857898
129	0x3ca8418d	0.02053907
130	0x3e7967fa	0.2435607
131	0x3ea5aeb5	0.32359853
132	0x3be8740d	0.0070939125
133	0xbde2276c	-0.110426754
134	0x3de46871	0.11152733
135	0x3e661f6f	0.22472928
136	0x3d0827f4	0.033241227
137	0xbe93db31	-0.28878167
138	0x3e8259f0	0.25459242
139	0x3e9a3b87	0.3012354
140	0x3e2967be	0.16543481
141	0x3d4513ca	0.048114575
142	0x3d933cc9	0.07189328
143	0xbd8dc255	-0.069218315
144	0xbc82616b	-0.015915593
145	0x3e08e7bb	0.13369648
146	0x3e7cd1b6	0.24689373
147	0x3ea219f9	0.3166044
148	0x3e191304	0.1494866
149	0x3e0e0cb4	0.13872033
150	0x3c357536	0.011075309
151	0x3e172277	0.14759241
152	0x3d3f0a89	0.046640906
153	0x3e2c0f33	0.16802673
154	0xbdb8e40b	-0.09027871
155	0xbe22ed17	-0.15910755
156	0xbdd2ec1f	-0.10298943
157	0x3d386007	0.045013454
158	0xbe887b44	-0.26656544
159	0x3e11ab10	0.14225411
160	0x3e9da7fc	0.30792224
161	0x3e551df8	0.20812213
162	0xbda46500	-0.08027077
163	0xbe2ac96e	-0.16678402
164	0x3eb68b89	0.35653332
165	0xbe08fec0	-0.1337843
166	0x3d870051	0.06591857
167	0xbe9633d5	-0.2933642
168	0xbd9942ae	-0.07483421
169	0x3e9585e4	0.29203713
170	0x3e5dad2e	0.21648094
171	0xbe3a79c1	-0.18210508
172	0xbe34c75b	-0.17654173
173	0xbe6499f8	-0.2232436
174	0x3e851b87	0.25997564
175	0x3e680121	0.2265668
176	0x3ccf80bd	0.025329942
177	0x3d37fc94	0.04491861
178	0xbe7654b5	-0.2405575
179	0xbd80935b	-0.06278106
180	0x3eab4326	0.33449668
181	0x3c8c6464	0.017137714
182	0xbcddbd46	-0.027067792
183	0x3c5fffc2	0.013671817
184	0x3e510649	0.20412554
185	0xbcec4236	-0.028840166
186	0xbdcfd1cf	-0.1014744
187	0xbd3fd874	-0.046837285
188	0x3cc522a0	0.024064362
189	0x3e028b7e	0.12748525
190	0x3e6bfc78	0.23045528
191	0x3e52c8b5	0.20584376
192	0x3d2f8cd5	0.042858917
193	0xbe5d4e7c	-0.2161197
194	0x3e8400cb	0.25781855
195	0x3e88df8e	0.2673306
196	0x3abd0d71	0.0014423562
197	0xbe3c6a0c	-0.18399829
198	0x3c1b2332	0.00946884
199	0x3e862b4c	0.26204908
200	0x3e899106	0.26868457
201	0xbe8315bc	-0.2560252
202	0x3d7ee984	0.062234417
203	0xbda3e96b	-0.08003505
204	0xbc382e3c	-0.011241492
205	0x3d76056d	0.06006377
206	0x3dd77f1d	0.10522292
207	0xbe2d57ec	-0.16928071
208	0xbe76da89	-0.24106802
209	0x3e55698a	0.20841041
210	0xbd2d0015	-0.042236406
211	0x3dd47c9b	0.10375329
212	0xbea36bcf	-0.3191819
213	0x3e7879bb	0.24265186
214	0x3d0eda0d	0.03487592
215	0xbe10cf7e	-0.14141652
216	0xbd36295c	-0.044473037
217	0xbd240fa7	-0.04005399
218	0xbea2a3ce	-0.31765598
219	0xbc968b0c	-0.01837685
220	0x3ea4dc26	0.3219921
221	0x3e90b7c8	0.28265214
222	0x3e458faa	0.19293085
223	0xbdf5a29b	-0.11993905
224	0x3df21a10	0.11821377
225	0x3ca62e23	0.020285672
226	0x3e103d32	0.14085844
227	0xbe908a03	-0.28230295
228	0x3e88677f	0.2664146
229	0x3e9d0c65	0.3067352
230	0x3db81eaa	0.08990224
231	0xbe81cdba	-0.2535227
232	0xbe955d79	-0.29172876
233	0xbdcf0a9e	-0.10109447
234	0x3e2dc566	0.16969833
235	0xbe1dede7	-0.15422784
236	0xbe234e27	-0.15947782
237	0x3e8bb051	0.27282956
238	0x3d84013c	0.06445548
239	0xbd0d0d01	-0.03443623
240	0x3e922d18	0.2855003
241	0xbd6969b5	-0.056985576
242	0xbdb71dc0	-0.08941221
243	0x3e257b5c	0.16160339
244	0x3d4d2d1e	0.050091855
245	0x3d05b428	0.032642514
246	0xbe6021ec	-0.2188794
247	0xbe0b0e2a	-0.13579622
248	0x3d761a24	0.060083523
249	0xbe0dfbfe	-0.13865659
250	0x3d0c5212	0.034257956
251	0x3e8ae2ae	0.27126068
252	0xbe2f4dda	-0.17119542
253	0xbe81e8fe	-0.2537307
254	0x3e4b29ef	0.19840215
255	0x3dd89802	0.10575868

weight_hh_l1 f4 [60, 15]
0	0xbe164e88	-0.14678395
1	0x3cff5384	0.031167753
2	0x3dfec154	0.12439218
3	0xbd06a18f	-0.032868918
4	0x3de1a5e3	0.110179685
5	0xbe005ff2	-0.125366
6	0x3ddbdd70	0.10735595
7	0x3aed6d07	0.0018114158
8	0x3e390d97	0.1807159
9	0x3ea149fd	0.3150176
10	0xbcd406bb	-0.025882116
11	0xbdd9adcb	-0.106288515
12	0x3db8cb61	0.090231664
13	0xbdd43836	-0.10362284
14	0x3e966476	0.2937352
15	0x3db4dabb	0.08830782
16	0x3e902a29	0.28157166
17	0xbe1a93fb	-0.15095513
18	0xbe184f4e	-0.14874002
19	0x3dc4f446	0.09616904
20	0xbd93af12	-0.072111264
21	0xbe1326a6	-0.14370212
22	0x3de756c5	0.11295847
23	0x3d9c612a	0.0763572
24	0x3e9b7d92	0.3036924
25	0x3ea85db2	0.32883984
26	0xbc8af944	-0.016964562
27	0x3e41a8c5	0.18912037
28	0xbe250bb7	-0.1611775
29	0xbcec7957	-0.028866453
30	0xbe6132b4	-0.21991998
31	0x3ea06651	0.3132806
32	0x3e37e21f	0.17957352
33	0xbd5d41b6	-0.054017745
34	0x3e482304	0.19544607
35	0x3d1fcd1d	0.03901397
36	0x3ea7f848	0.3280661
37	0x3e209205	0.15680702
38	0xbd4a4fec	-0.049392626
39	0x3e5fe46e	0.21864483
40	0x3e1d293a	0.15347758
41	0x3df846f4	0.12122908
42	0x3ca5009f	0.020141898
43	0x3e9ed020	0.31018162
44	0xbdb3cdd9	-0.08779497
45	0xbdb962d7	-0.09052055
46	0xbdb438cc	-0.08799896
47	0xbbc96abc	-0.006146757
48	0x3dfa25bf	0.12214231
49	0xbe096ee9	-0.13421215
50	0x3d75eb0c	0.06003861
51	0xbe09f842	-0.13473609
52	0xbea488a3	-0.32135496
53	0xbc878f27	-0.016547753
54	0x3ea80265	0.32814327
55	0x3cfc6d37	0.030813796
56	0xbe51ab3b	-0.20475475
57	0xbdb6b797	-0.08921736
58	0x3e96dc88	0.29465127
59	0x3e1db762	0.15401986
60	0x3e41a235	0.18909533
61	0x3e1186aa	0.14211527
62	0x3c353306	0.011059528
63	0xbd379b0d	-0.044825602
64	0x3e06b99a	0.13156739
65	0xbe379aaa	-0.17930093
66	0x3ddaa96f	0.10676848
67	0xbe786697	-0.24257885
68	0xbdc3135e	-0.095251784
69	0x3e4dd234	0.20099717
70	0xbde684e4	-0.112558156
71	0xbdfa97b0	-0.12235963
72	0x3e29cb2f	0.16581415
73	0x3e708cf2	0.23491266
74	0x3e949d7a	0.29026395
75	0xbe2e8413	-0.1704257
76	0xbcb0604f	-0.021530299
77	0xbe179d23	-0.14806037
78	0x3d1f190f	0.038842257
79	0xbdd4e039	-0.103943296
80	0x3e65d4d1	0.22444464
81	0x3e9039c3	0.2816907
82	0xbd5612cb	-0.052264016
83	0xbe7c2983	-0.2462521
84	0x3e603447	0.21894942
85	0xbb17d08b	-0.0023165073
86	0xbe8a35a8	-0.2699406
87	0x3eb2312f	0.3480315
88	0x3d0fd0f0	0.035111368
89	0x3db8ed9a	0.09029694
90	0x3e887f75	0.26659742
91	0x3c9b86f6	0.018985253
92	0x3e647dcc	0.22313613
93	0x3c0b3547	0.008496589
94	0x3e618188	0.22022069
95	0x3c844ab6	0.016148906
96	0xbd890c56	-0.06691806
97	0xbe834968	-0.25641942
98	0xbe525749	-0.20541109
99	0x3e6deb9f	0.23234414
100	0x3c0bea12	0.008539693
101	0xbdac52f3	-0.08414259
102	0x3e4be5ff	0.19911955
103	0x3d412caf	0.047161754
104	0x3c9c641b	0.019090703
105	0xbdee273a	-0.116285756
106	0x3de059ce	0.10954629
107	0xbe007994	-0.12546378
108	0xbe6be007	-0.23034678
109	0x3db7086f	0.089371555
110	0x3ea52283	0.32252893
111	0xbdaa8970	-0.083269954
112	0xbca13dcc	-0.019682787
113	0x3e2ee563	0.17079692
114	0x3d3737d2	0.04473097
115	0x3d83b3d8	0.06430787
116	0x3dee316d	0.11630521
117	0x3e1885ec	0.14894837
118	0x3e9ec300	0.31008148
119	0x3e070e9e	0.1318917
120	0xbe0fa276	-0.14026818
121	0xbe4c28a3	-0.19937377
122	0xbd97a681	-0.07404805
123	0x3b612fac	0.003436069
124	0xbcfd895d	-0.030949289
125	0xbe722250	-0.23645902
126	0x3b5db2f8	0.0033828598
127	0xbe8af222	-0.27137858
128	0xbe9a8ad1	-0.30184034
129	0xbe32c267	-0.17456971
130	0x3e215023	0.15753226
131	0xbe7a3629	-0.24434723
132	0x3e83d57d	0.25748816
133	0x3dcf9e24	0.10137585
134	0x3ddd019a	0.10791321
135	0x3de8af53	0.113615654
136	0xbc70258b	-0.014657388
137	0xbc9ab718	-0.018886134
138	0xbe07819b	-0.13233034
139	0x3e53e6ed	0.2069356
140	0x3df88d46	0.12136321
141	0x3d65032f	0.05591124
142	0x3dfc4fac	0.12319884
143	0xbcfc8d3c	-0.030829065
144	0xbdf37cb7	-0.11889022
145	0xbe026a08	-0.1273576
146	0xbe8efd12	-0.27927452
147	0xbe075f95	-0.13220055
148	0x3d8d81fa	0.06909557
149	0x3ba0d242	0.004907877
150	0xbd84833c	-0.064703435
151	0x3e8372b8	0.2567346
152	0xbd883147	-0.06650024
153	0x3d18e4bf	0.037327524
154	0x3e7005c6	0.23439702
155	0xbcce4fed	-0.025184596
156	0x3d3585b2	0.044316955
157	0xbe86dc27	-0.26339838
158	0x3e0338d1	0.12814642
159	0xbd18d016	-0.03730782
160	0x3ea0e2ef	0.31423137
161	0xbdc04ac6	-0.09389262
162	0x3e006a3d	0.12540527
163	0x3e08aa56	0.13346228
164	0x3d8ad444	0.06778768
165	0x3de85c25	0.113457
166	0x3d4fd8d0	0.050743878
167	0x3e28c276	0.16480431
168	0xbde0211a	-0.109438136
169	0x3e16fdf2	0.1474531
170	0x3db4f76c	0.088362545
171	0x3e3fc712	0.18728283
172	0xbdfbc5b9	-0.12293572
173	0xbe3a310e	-0.18182775
174	0x3d84313c	0.06454703
175	0x3e8cbe34	0.27488863
176	0xbb99d3c9	-0.004694436
177	0x3e83869b	0.25688633
178	0x3d246833	0.040138435
179	0x3e910081	0.28320697
180	0x3e748e94	0.23882514
181	0x3d0b3e30	0.033994853
182	0xbe105907	-0.14096461
183	0xbe4acac3	-0.1980391
184	0xbd79b49e	-0.060963266
185	0xbdec93a5	-0.115515985
186	0x3e91fb7c	0.2851218
187	0xbe6d0aad	-0.23148604
188	0xbda2aef7	-0.07943528
189	0x3e5f2347	0.21790801
190	0xbd161da2	-0.036649354
191	0x3d921733	0.07133331
192	0x3dc60bc6	0.09670214
193	0xbdf57800	-0.11985779
194	0x3e9cc091	0.30615667
195	0xbdab2577	-0.08356755
196	0x3e9990b2	0.29993206
197	0xbd82de5a	-0.063900664
198	0xbe274505	-0.16334923
199	0x3eac5b8e	0.336636
200	0xbe828784	-0.25494015
201	0xbe01125d	-0.12604661
202	0xbe10072d	-0.14065237
203	0xbeb215fa	-0.34782392
204	0xbda9269d	-0.08259318
205	0xbe2a9270	-0.16657424
206	0xbe548a26	-0.20755824
207	0xbdec05fb	-0.11524578
208	0xbcfb0869	-0.030643659
209	0xbd084254	-0.03326638
210	0xbd23746c	-0.03990595
211	0x3e49d5e6	0.19710502
212	0xbdf5acb1	-0.11995829
213	0xbe8360d7	-0.2565982
214	0x3e1d7e36	0.15380177
215	0xbd9455ed	-0.072429515
216	0x3db3b6f1	0.08775128
217	0x3d0006ea	0.031256594
218	0xbe136d60	-0.14397192
219	0x3dca60cb	0.09881743
220	0x3e2ecb67	0.1706978
221	0xbda90b70	-0.08254135
222	0x3bc1b59f	0.0059115435
223	0x3ea4c0c9	0.32178333
224	0x3c85f256	0.016350906
225	0xbddb366e	-0.10703741
226	0xbcd19795	-0.025584975
227	0x3d7c8c5d	0.0616573
228	0xbdc60f50	-0.096708894
229	0xbdec9230	-0.115513206
230	0x3d4bca56	0.04975351
231	0xbe098914	-0.13431197
232	0xbe7b74b9	-0.24556245
233	0x3e122a1c	0.14273876
234	0x3df00436	0.11719553
235	0x3d9c3443	0.07627156
236	0xbda2acfd	-0.07943151
237	0xbda9b7d6	-0.08287017
238	0xbe4377b8	-0.19088638
239	0x3dfcbafc	0.12340352
240	0xbdf7f684	-0.12107566
241	0x3d2160b5	0.039398868
242	0x3e80589d	0.25067607
243	0x3d28b62d	0.04118936
244	0xbd6f4c63	-0.058422457
245	0x3d375e49	0.04476765
246	0xbd83d83d	-0.064377286
247	0xbe9d76d6	-0.30754727
248	0xbe39f1a2	-0.18158582
249	0xbe1a5aee	-0.1507375
250	0x3e2af985	0.16696747
251	0xbe8c78a7	-0.274358
252	0x3e8444ea	0.25833827
253	0xbe31d920	-0.17367983
254	0xbdbcc127	-0.092165284
255	0x3dbf9aed	0.093557216

bias_ih_l1 f4 [60]
0	0x3e1fe72d	0.1561553
1	0x3e0e8726	0.13918743
2	0xbd194c04	-0.03742601
3	0xbdc2edd6	-0.0951802
4	0x3d24794f	0.04015475
5	0xbe38275a	-0.17983761
6	0x3dba60b3	0.09100475
7	0xbe35bf9f	-0.17748879
8	0x3e813f03	0.25243387
9	0x3e1cb8b1	0.15304829
10	0xbe0f3da3	-0.13988356
11	0x3ea46bb7	0.3211343
12	0x3ea16c37	0.31527874
13	0x3dfbe01b	0.12298604
14	0xbc891974	-0.01673577
15	0x3e8e632b	0.27810034
16	0x3dbbf315	0.091772236
17	0xbd8762a1	-0.06610609
18	0x3da8a736	0.08235018
19	0x3e96885b	0.29400906
20	0x3e2f1891	0.17099215
21	0x3d963fca	0.073363855
22	0xbdb92159	-0.09039564
23	0x3e9e6011	0.30932668
24	0x3bbe4a41	0.0058071916
25	0x3e987e55	0.29783884
26	0xbdbe8ff2	-0.09304799
27	0xbcc4bda4	-0.024016209
28	0x3e7b1049	0.24517931
29	0x3b9bc657	0.0047538686
30	0x3dcb8474	0.09937373
31	0xbe1ee5af	-0.15517305
32	0x3de7dff2	0.11322011
33	0x3ce0b880	0.027431726
34	0x3d8a5c0f	0.0675584
35	0xbdfaa47a	-0.12238403
36	0x3e887beb	0.26657042
37	0xbdcfbe0a	-0.10143669
38	0xbe3d7f1c	-0.1850552
39	0xbe26d268	-0.16291201
40	0x3dd2c07f	0.10290622
41	0xbe524322	-0.20533422
42	0xbc7bb5bc	-0.015363153
43	0x3e20746b	0.1566941
44	0x3e88b463	0.26700124
45	0x3e6dc22d	0.23218603
46	0x3e9d482e	0.3071913
47	0x3e77a5ba	0.24184313
48	0xbd821620	-0.06351876
49	0x3e45bf4e	0.19311258
50	0x3e52d740	0.20589924
51	0x3e221229	0.1582724
52	0x3e252efa	0.16131201
53	0x3d869020	0.065704584
54	0x3e6303c4	0.22169405
55	0x3e894026	0.26806754
56	0x3e981fb9	0.29711702
57	0x3e7c3018	0.24627721
58	0x3d9b18dd	0.07573102
59	0x3e909910	0.28241777

bias_hh_l1 f4 [60]
0	0x3d7e9df3	0.06216235
1	0x3e8b740e	0.2723698
2	0x3e212ad1	0.1573899
3	0x3e8972a9	0.2684529
4	0x3e8b54c1	0.272131
5	0xbd37401c	-0.044738874
6	0x3e673d4d	0.22581978
7	0x3e9716f1	0.2950969
8	0x3ea6b09a	0.3255661
9	0xbd7384d5	-0.05945285
10	0x3e7bb069	0.24579014
11	0xbe04e731	-0.12978818
12	0x3d0a6880	0.033791065
13	0x3da55de4	0.08074549
14	0xbc9db761	-0.019252481
15	0xbe319948	-0.17343628
16	0x3e8057e0	0.25067043
17	0x3dac6c1e	0.08419059
18	0xbda5c522	-0.08094241
19	0x3dda7fd7	0.10668915
20	0xbe5c5bc6	-0.21519384
21	0xbcd04dc5	-0.025427708
22	0x3de12db0	0.10995042
23	0x3ceea20c	0.029130004
24	0x3e0a5540	0.13509083
25	0x3da7cdac	0.08193526
26	0x3dca6b71	0.09883774
27	0x3d7ed122	0.062211163
28	0x3e826d76	0.25474137
29	0x3d9f9d8a	0.0779372
30	0x3d7c27b2	0.061561294
31	0x3e4b0278	0.1982516
32	0xbcf25998	-0.029583737
33	0xbe58f71d	-0.21188016
34	0x3e8f93e9	0.28042534
35	0xbe32aa23	-0.17447715
36	0xbcd6ab8f	-0.026204852
37	0xbdbdbfbe	-0.092650875
38	0xbdf7ac92	-0.12093462
39	0x3e5018c8	0.20321953
40	0xbde12e4e	-0.1099516
41	0xbe6b8891	-0.23001315
42	0x3dc4b099	0.09603996
43	0xbd8b8aea	-0.06813605
44	0x3e48868e	0.19582579
45	0x3e979ecc	0.2961334
46	0x3e91d065	0.28479305
47	0xbd8cf075	-0.06881801
48	0x3e006052	0.12536743
49	0xbc78d6fc	-0.015187975
50	0x3cb0a430	0.021562666
51	0x3de33ea7	0.11095934
52	0x3dab4003	0.08361819
53	0xbdf4802c	-0.11938509
54	0xbd84cbb6	-0.06484167
55	0x3ddc8fb6	0.10769598
56	0x3dbc6509	0.091989584
57	0x3e264ccc	0.16240233
58	0xbd108496	-0.035282694
59	0x3e7d9995	0.24765618

weight f4 [1, 15]
0	0xbe57c42c	-0.21070927
1	0x3e209e98	0.15685499
2	0x3e7157ed	0.23568697
3	0xbe77d120	-0.24200869
4	0x3e597cb3	0.21238975
5	0x3e927ca6	0.28610724
6	0x3e5304bf	0.20607279
7	0xbe9a4a32	-0.30134732
8	0xbec7027d	-0.38869086
9	0x3ea812ec	0.32826936
10	0x3eb630c8	0.35584092
11	0xbe4202ac	-0.18946332
12	0x3e613de1	0.21996261
13	0x3e7b1343	0.24519067
14	0x3ec18358	0.3779552
