models/Regressor.pt (torch, 54426 bytes, 6 tensors)

weight f4 [5, 10]
000000 00 00 00 00 00 00 00 00 00 00 00 00 00 00 00 00
       0.0 0.0 0.0 0.0
000010 00 00 00 00 00 00 00 00 00 00 00 00 00 00 00 00
       0.0 0.0 0.0 0.0
000020 00 00 00 00 00 00 00 00 1c 89 3a bf 63 33 03 bf
       0.0 0.0 -0.7286546 -0.51250285
000030 5d 20 a4 be c5 a2 64 3f e4 8a 74 3e 6a 5a d6 3e
       -0.3205594 0.89310867 0.23881108 0.41865855
000040 95 e7 7a bf e1 5d c9 be 19 4f 1f 3e 56 3e d4 be
       -0.98009616 -0.39329436 0.15557517 -0.4145381
000050 5d 2e 5c 3d da 34 78 3f 50 dc d3 3e c2 8b f5 bf
       0.053755153 0.96955645 0.41379023 -1.9183276
000060 3c 06 cf 3e 9b 23 c0 3b 9b 76 cd 3f 23 60 0b c0
       0.40434444 0.0058636195 1.605182 -2.1777427
000070 2e f7 b5 3e d2 0a 6d 3e 84 8d 4d 3f fa b9 93 be
       0.35540146 0.23148659 0.8029406 -0.28852826
000080 38 ec 2b be 9b fe d3 3f 37 cf 12 bd 77 a0 ce bf
       -0.16789329 1.6562074 -0.035842147 -1.614272
000090 7b 0c cd be dd 21 b8 3d 86 3d 2b 3e ee e2 4b 3f
       -0.40048584 0.08990834 0.16722688 0.7964314
0000a0 4e 3c aa 3f e5 4a b9 bf 86 c6 1e c0 35 e5 0b c0
       1.3299654 -1.4475981 -2.480867 -2.1858647
0000b0 52 a9 36 40 d9 c1 b3 bc 32 3a bd bf 73 56 6b bf
       2.8540845 -0.02194302 -1.4783385 -0.91928786
0000c0 59 aa 41 3f 37 fb b5 3e
       0.75650555 0.35543224

weight_ih_l0 f4 [200, 10]
000000 d9 11 10 3e ea 26 33 be c3 ae 01 be da 2b 12 3d
       0.14069308 -0.17495313 -0.12664323 0.03568635
000010 dd 41 7c bd 11 80 80 3d 78 7e 24 be a9 70 86 bd
       -0.06158625 0.06274427 -0.16063869 -0.06564457
000020 d7 40 0c bd 19 58 56 3d 0a 4d 53 3e 7b bc cc bd
       -0.034241524 0.05233011 0.20634857 -0.09996887
000030 e0 8f 90 3d 4b 91 e7 3c 88 d9 45 bd 3a 12 c5 bd
       0.07058692 0.028267523 -0.048303157 -0.09622617
000040 eb 16 93 3c e9 cd 51 bd ce 29 ac 3c 11 2f 2b 3e
       0.017955264 -0.05122176 0.021016028 0.16717173
000050 45 3a 92 3c 58 97 12 be c3 e2 3c be 22 ac 1c bc
       0.01785005 -0.14315546 -0.18445878 -0.009562524
000060 52 cd f2 3d bd da 3f bd c0 19 04 be 73 be 13 3d
       0.11855568 -0.046839464 -0.12900448 0.0360703
000070 b1 88 28 bd d8 80 b1 3d 01 aa 4a 3e 7e 63 d7 bd
       -0.041145984 0.08667153 0.19791414 -0.105170235
000080 ec 00 4b 3d c8 c7 81 3e 30 c4 4c 3d 11 e8 d7 bc
       0.049561426 0.25347733 0.049991786 -0.026355775
000090 a4 95 8b 3d 79 b3 08 3d d0 59 ce 3d 06 93 0e 3e
       0.06815651 0.033374283 0.10075724 0.13923272
0000a0 b5 ee c6 3d 0e fc ae bd d2 d9 13 be 7c d5 65 3e
       0.097134985 -0.08544169 -0.1443856 0.22444719
0000b0 f0 ec 00 bd d4 22 24 be fa 7f a4 bd b4 a0 48 be
       -0.03147596 -0.16028911 -0.08032222 -0.19592553
0000c0 07 46 8d 3c e1 4e f1 3d 3a 65 72 bc 7d 44 b9 3b
       0.017245306 0.11782623 -0.014794642 0.0056539164
0000d0 5e 6e 82 3d 81 51 16 3e 5a e5 ff 3d c2 1d 4f be
       0.06368707 0.14679529 0.12494917 -0.20226195
0000e0 74 70 a2 3c 4c 22 22 bd b7 94 e0 3d 8f 89 3d 3d
       0.019829012 -0.03958349 0.10965865 0.046273764
0000f0 85 3c 08 3e e4 57 38 3d 3b 75 92 3d 03 1d d3 bd
       0.13304336 0.045005694 0.07151266 -0.10308268
000100 22 25 eb 3c 34 7c d6 bd 54 89 67 bd ff 50 c4 bd
       0.02870423 -0.104729086 -0.05652745 -0.09585761
000110 4a f1 a9 39 4b 84 05 3d 30 46 fd b9 06 6d f6 bd
       0.00032413966 0.032596868 -0.00048308214 -0.12032513
000120 92 df 41 3b 34 f2 ab bc 22 a5 72 3d 00 9b 30 be
       0.0029582721 -0.020989515 0.059239514 -0.17246628
000130 da eb 3e be af 6a ec bc e6 e3 9a 3a 4f 8a e3 3d
       -0.18644658 -0.028859464 0.0011817187 0.11110365
000140 25 19 3e 3e a8 da 5a bd d3 61 c7 bd af 86 4e 3d
       0.1856428 -0.053431183 -0.09735455 0.050421413
000150 9a 30 2a 3e c3 43 22 bc 73 60 34 be 08 fc 14 3d
       0.16620103 -0.009903851 -0.17614917 0.03637317
000160 d1 8e 9c bc c4 65 0b 3e 26 44 87 3d 20 93 d4 3c
       -0.019111069 0.1361304 0.06604795 0.02594906
000170 63 f1 9c bd 02 38 15 be bd f7 9b bd 3d f9 70 be
       -0.07663228 -0.14572147 -0.07615612 -0.23532577
000180 08 4a 0c 3d a8 31 5c be 31 7e f3 3d 70 39 46 3e
       0.03425029 -0.21503317 0.118893035 0.19357848
000190 bd e6 58 3d d1 2b 02 bd 59 48 93 bd cc 75 dc 3c
       0.052954424 -0.031780068 -0.071915336 0.026911639
0001a0 19 63 ad 3d 85 ab e3 bc 8c 90 5a 3d b8 49 75 3d
       0.08466167 -0.027791748 0.053360507 0.059884757
0001b0 50 3a 29 3e 16 ed 06 3e 7d 49 8f 3d a4 2b 39 be
       0.1652615 0.13176379 0.06996439 -0.18083054
0001c0 f5 cb e7 3c 2f bf 0c bd d1 e6 04 3c 92 d8 88 bd
       0.028295496 -0.034362014 0.008111672 -0.066819325
0001d0 52 18 5e bd 62 76 ef bb 40 2f 92 bc 5c 57 93 bc
       -0.054222412 -0.0073078135 -0.017844796 -0.017985992
0001e0 87 20 5b bb ec 4e db bd 44 c1 0b bd 13 2d 08 3e
       -0.0033436136 -0.107084125 -0.03411986 0.13298444
0001f0 1d 8f 3b 3e 9a ab 6f bc 4a 4c 13 bc f9 b8 0f be
       0.18316312 -0.014628315 -0.008990357 -0.14035405
000200 39 23 16 3c e7 1a 10 3e 92 ac 28 bd ef f4 db 3c
       0.009163671 0.14072762 -0.0411802 0.026850192
000210 df 5b d8 ba d4 2f 71 bd 82 1b 35 3e 4d 60 02 be
       -0.0016506872 -0.058883503 0.17686275 -0.12732048
000220 e2 34 ee bd 29 96 57 be 29 cb 34 3e 39 fa f7 3d
       -0.1163118 -0.21053375 0.17655624 0.12108273
000230 b0 2e 19 3e 83 5e f3 bc 0b 1e 6a 3d fb c3 06 bd
       0.14959216 -0.029708153 0.057157557 -0.032901745
000240 d5 db 3d 3e 5b c0 31 be ae de 75 bd d9 f8 39 3d
       0.1854089 -0.17358534 -0.060026817 0.045403335
000250 cd 78 20 3e cf 0b 6f 3e ca db f7 3d 6e aa 5a be
       0.15671082 0.23344348 0.12102468 -0.21354076
000260 2d 92 e4 bc 82 05 94 bd 63 64 8c bd 48 23 9b bd
       -0.027901733 -0.07227613 -0.06855085 -0.07575089
000270 6a 2d 9f 3c 22 f7 93 bd 59 8b d6 bd 39 85 11 3e
       0.019430835 -0.07224871 -0.10475797 0.14210977
000280 fa 2c 6d 3b 4f 72 34 bd b8 0b b3 bd 55 67 0d bc
       0.0036190138 -0.044054326 -0.087424695 -0.008630593
000290 34 5c 1d 3e 43 dc 1f bd 52 d3 85 bd 67 e7 fd 3c
       0.15367204 -0.039028417 -0.06534447 0.03099413
0002a0 28 20 5d 3d 6c 63 27 3e af b8 ab 3d 2e f2 7f 3d
       0.053985745 0.1634652 0.08384835 0.06248682
0002b0 a1 87 78 3d 29 bc 53 3d be 9c a0 3c b2 38 45 bd
       0.06067622 0.051693115 0.01960599 -0.048149772
0002c0 59 ef f4 bd df ba 26 3d 4d d6 85 3d 6f e9 a9 3d
       -0.119597144 0.040705558 0.06535015 0.08296477
0002d0 07 ad ca bc d3 de d9 bd d1 1e 65 3d e4 b8 73 3e
       -0.024740709 -0.106382035 0.055937592 0.23800999
0002e0 30 fa 38 b8 60 2d fb 3c 02 18 0f 3d 96 a7 3f be
       -4.4102024e-05 0.030661285 0.034935005 -0.18716273
0002f0 e0 70 8f 3d 1e d3 43 3e 29 f6 2f 3e 5b a5 2e bc
       0.07003951 0.19123504 0.17183746 -0.010659541
000300 bd b8 d7 bd 2f 4a 88 3d 30 79 8c bd f1 8d 31 bc
       -0.10533283 0.066547744 -0.06859052 -0.010837064
000310 f0 eb 46 be ca 0e 03 be e9 cd 6b 3b 5f 6c 2c 3e
       -0.1942594 -0.1279861 0.0035980886 0.16838215
000320 39 90 7b 3a 9d 1f 80 bd 63 9b 78 3d 75 b3 8a 3d
       0.0009596381 -0.0625603 0.060695063 0.0677251
000330 92 8f 91 bd 47 8a 0f be 40 64 57 3d 4e 51 22 be
       -0.07107462 -0.14017592 0.05258584 -0.15851328
000340 17 dc 1c 3e 24 cc 7a bc 81 67 35 3e 88 2f 28 bd
       0.15318333 -0.01530746 0.17715265 -0.041060954
000350 fc fe 15 bd eb 3b f6 3d 4b 23 32 3e 50 4c fd bd
       -0.036620125 0.12023147 0.17396276 -0.12368071
000360 3f fb 84 3d e1 48 04 be 03 e9 5e 3e 5e 90 4f 3d
       0.06493234 -0.12918426 0.21768574 0.05067479
000370 9b f6 97 3d 5b 6f 67 bd ba 57 99 3b c9 37 81 3d
       0.07420083 -0.05650268 0.0046796473 0.06309468
000380 0f 85 9c bd 55 e1 25 be a8 bb cb bc d3 e8 f2 bc
       -0.076425664 -0.16199239 -0.024869755 -0.029652035
000390 8a 77 22 bb 95 18 d0 3d f7 79 01 3e 09 0a f3 bd
       -0.002479049 0.10160939 0.12644182 -0.118671484
0003a0 de ad 42 be de 54 3f 3e 36 e4 00 3c 2a ba 48 bb
       -0.19011638 0.18684718 0.00786691 -0.003062854
0003b0 f1 24 e2 bb 7f a4 e5 bd c9 dc 1e 3e ca 73 99 3c
       -0.0069013764 -0.11213016 0.1551391 0.01873197
0003c0 aa 11 1b 3e 96 07 fc bc 94 d9 ca bd 5b 3a 8f bd
       0.15143457 -0.030765336 -0.09904781 -0.06993552
0003d0 8a 52 0c 3e ad b9 eb 3d 23 fd 16 3d e4 b3 8d bd
       0.13703361 0.11510024 0.036862504 -0.06919077
0003e0 8d 1b 49 bd e2 d7 15 bc ff ae 1a 3e 2d 2f 88 3b
       -0.04909854 -0.009145709 0.15105818 0.0041560144
0003f0 f0 6c 1e 3d 65 ae 0d 3e b8 20 a8 3d 85 a8 44 be
       0.03867811 0.13836057 0.082093656 -0.1920491

weight_hh_l0 f4 [200, 50]
000000 7f 44 58 3e 11 21 bb 3d 2a 4c 03 bc 0c 67 03 be
       0.21119879 0.09137166 -0.008013764 -0.12832278
000010 c1 4c 0d bc 6b 37 ab 3d da b6 a1 3d e6 87 29 3d
       -0.008624257 0.083601795 0.07896204 0.04138937
000020 ce d4 f1 bd 0e 40 c6 bd ea c5 df bd 28 96 73 b9
       -0.118081674 -0.09680186 -0.10926421 -0.00023230223
000030 64 34 96 3c 36 3b 97 ba c3 10 07 bd db 35 b2 3d
       0.018335529 -0.0011538032 -0.03297497 0.08701678
000040 5f 77 c4 bd 73 88 1e 3e 6d af eb 3d 28 5b 2c 3e
       -0.09593081 0.15481739 0.11508069 0.16831648
000050 62 80 00 3e cc d3 82 3d b5 f1 d6 bd 02 89 89 bd
       0.12548974 0.06388053 -0.10495321 -0.06715585
000060 06 bb 1f 3e 0e bd 44 3e 6d d3 27 3d 2a c4 1e 3e
       0.15598688 0.19212744 0.040973116 0.15504518
000070 ca 18 7f 3c 31 d0 37 3d 91 3a 24 3e 64 ce 4f bd
       0.015569875 0.04487628 0.16037966 -0.05073394
000080 cd d8 55 be cd 36 19 3e 2f ef 09 3e fb 1d 3e be
       -0.20883484 0.14962311 0.13470148 -0.18566124
000090 fe 54 bf 3c 82 0c c0 bd b4 b0 27 bd 79 04 0d 3d
       0.023355957 -0.09377386 -0.04094 0.034428094
0000a0 23 8d 23 be 81 76 34 be 12 1f 13 3e 31 d6 0d be
       -0.15971808 -0.1762333 0.14367321 -0.13851239
0000b0 fc 11 19 3c c6 33 26 bd 63 89 83 3d 4b a9 59 3e
       0.009342667 -0.04057672 0.06422689 0.21255986
0000c0 91 72 bc bc 53 f3 11 3e 9f 7a c0 3c e5 d7 5f bd
       -0.023003848 0.14252977 0.02349597 -0.054649252
0000d0 93 64 f0 bd 9f ea aa bd 68 9e 22 be 12 7f 3d 3e
       -0.11737933 -0.08345532 -0.1588074 0.18505505
0000e0 6f a7 a0 bb 55 83 3d 3e d4 34 42 be 13 15 4e bd
       -0.004902772 0.1850713 -0.18965465 -0.050313067
0000f0 ee 8d b2 bd a5 aa 73 bd 0b 76 29 3e d2 e5 80 3c
       -0.08718477 -0.05948891 0.16548936 0.015734587
000100 7b 46 e8 bb 9a d7 84 3c a4 56 c5 bd b3 c3 9a 3d
       -0.00708848 0.016216088 -0.09635666 0.07556858
000110 73 9c d7 3a fc a8 56 bc e7 f2 19 3e 5b c0 42 3c
       0.0016449824 -0.013101812 0.15034066 0.011886681
000120 c1 d1 bd bd 40 36 a7 3d 1b 2d 1e 3d ae 08 44 3e
       -0.09268523 0.08164644 0.038617235 0.19143936
000130 d4 13 50 3d aa 83 46 bd 3f 47 2c 3e f6 ff ea 3b
       0.05080016 -0.04846541 0.16824053 0.007171626
000140 fd 82 b4 3c b3 5d 3b 3e aa 83 20 3d 81 44 d7 3d
       0.022035116 0.18297462 0.039188065 0.10511113
000150 94 35 17 3e 52 74 1a be e4 80 34 be 37 ee f9 3d
       0.14766532 -0.15083435 -0.17627293 0.12203639
000160 01 ff 22 3d 5c 49 92 bd 2b 84 1c be 46 d5 7e bd
       0.039793972 -0.071428984 -0.15284793 -0.062215112
000170 48 4f b3 bc f1 00 10 be 4f 7f 26 3e 1d ad 7f 3d
       -0.02188839 -0.14062859 0.16259502 0.062420953
000180 e6 98 dc bd 57 d8 b2 3d 81 d9 05 3d 62 4b 93 bd
       -0.107713506 0.0873267 0.03267813 -0.071921125
000190 85 61 36 3e bb b9 36 3e e3 62 08 bd 13 d6 a3 bc
       0.17810638 0.17844288 -0.03329743 -0.01999954
0001a0 ef db 62 bd 18 93 16 3e 05 6e c4 3c a4 02 56 3d
       -0.055385526 0.1470455 0.023978243 0.052248612
0001b0 7c 62 d8 bd 85 ec 4b bc f3 41 9d bd ee 5b 50 be
       -0.105656594 -0.012446527 -0.076785944 -0.20347568
0001c0 de b9 bf 3c a1 16 87 bd 11 b6 e2 3c d6 93 25 bd
       0.023404058 -0.06596113 0.027674707 -0.04042419
0001d0 56 a8 16 be f7 13 37 bd e8 92 ab 3d 10 0b a6 3d
       -0.14712653 -0.044696774 0.083776295 0.08107579
0001e0 7c 85 06 bd e3 dc da bc d1 1f 1d be ce 4a 89 3d
       -0.032842144 -0.026716655 -0.15344168 0.06703721
0001f0 27 53 26 bd 4d 4f 22 3e b0 6d 72 3d 0c 2d 24 3e
       -0.040606644 0.15850563 0.059186637 0.16032809
000200 49 31 66 bc b6 9a 14 be 47 2d c9 3d 4f 6e 07 3e
       -0.014049836 -0.14512143 0.09823089 0.13225673
000210 3e 7b 2f be 43 81 4b 3e 1f c0 89 ba a4 32 9d 3c
       -0.17136857 0.19873528 -0.0010509527 0.019189186
000220 a7 4f 3c bd cc d2 0d 3d c2 93 3f 3e f4 07 83 bd
       -0.0459744 0.03462486 0.18708709 -0.06398001
000230 a4 02 a4 3d 47 90 76 bd 0c c8 92 3d 60 d6 17 be
       0.08008316 -0.060196187 0.07167062 -0.14827871
000240 14 a3 aa bd ac 56 c5 bd 6b ed 2c be 38 e7 14 bd
       -0.08331886 -0.09635672 -0.16887443 -0.03635332
000250 0c 65 4e be eb fc 9b 3c dc fd 40 3e 2a 00 8c 3d
       -0.20155734 0.0190415 0.1884684 0.06835969
000260 d0 2d 43 bc ce ae 49 bd e8 39 02 be 7d 39 93 bb
       -0.011912778 -0.049238972 -0.12717402 -0.004492937
000270 36 d0 08 be 12 fe 1e 3e a1 5f 87 bc e1 04 7d bd
       -0.13360676 0.15526608 -0.016525092 -0.06177223
000280 76 e8 f7 bb 24 b3 44 be 1d b8 16 3e 15 64 16 be
       -0.0075655533 -0.19208962 0.14718671 -0.14686616
000290 22 5d 3f be f4 fc c4 bc d1 c2 39 be 3d a7 84 3d
       -0.18687871 -0.024046399 -0.18140723 0.06477211
0002a0 3a 1f f1 3b 50 96 3c 3e a2 ea 49 3e 33 a8 f3 3d
       0.007358459 0.18416715 0.19718412 0.11897316
0002b0 ec ea 53 3d 04 5d d8 bd a9 47 4b 3e 88 a5 0a 3e
       0.05173771 -0.10564616 0.19851555 0.13539708
0002c0 14 f2 ce bd 21 f4 90 3d 51 0c bc bd 0a 25 59 3a
       -0.101047665 0.07077814 -0.09182037 0.00082834123
0002d0 9c 44 f8 3b 2e 52 14 bd b0 0b f0 bc 66 35 5d 3d
       0.0075765382 -0.036211185 -0.029302448 0.054006003
0002e0 ee aa c8 bc b5 b4 e5 3c 5a a5 82 bd 59 9b 18 3e
       -0.024495568 0.02804027 -0.063791946 0.1490301
0002f0 16 cc 5c bd a2 e3 6a 3c 2c 36 76 bd fd 09 fe bc
       -0.05390557 0.014336498 -0.060110256 -0.031010622
000300 ce fa 90 bc 20 9d 20 be 9f 56 f6 ba 71 0d 33 be
       -0.017697718 -0.15684938 -0.0018794126 -0.17485596
000310 e5 da 1f 3c 18 86 d0 3d f7 8a 9c 3d 0f 39 e6 3d
       0.009756778 0.10181826 0.07643693 0.11241352
000320 98 f2 4f bd 58 3f 0c 3e c5 9f 25 bd a1 65 a1 3b
       -0.050768465 0.13696039 -0.04043557 0.004925445
000330 95 c2 b7 bd 61 25 67 3d cc f8 41 bd 4d 8d 4a 3e
       -0.089726605 0.05643213 -0.04735641 0.19780464
000340 de 71 04 be fd cf 0b be a2 7c 9c 3d 44 78 61 3d
       -0.12934062 -0.1365356 0.07640959 0.055046335
000350 53 b2 5b 3d c1 17 60 3d 02 0a bc 3c 09 d8 21 3e
       0.05363686 0.054710153 0.02295399 0.15805067
000360 28 2b 63 be 5d 54 b6 3d 1e 72 1f 3e a2 26 39 bc
       -0.22184432 0.0890281 0.15570876 -0.011300715
000370 25 dd a5 bd dc dd 00 3e d9 b9 40 3d e2 6e 9c bd
       -0.080988206 0.12584633 0.047052238 -0.07638337
000380 b0 ef cb bc 20 31 81 3d 87 54 39 bd bf e1 32 bd
       -0.024894565 0.06308198 -0.045246627 -0.04367232
000390 6b c6 69 3b a9 03 e5 bd 27 2c b0 bc 10 a1 69 bd
       0.0035671245 -0.11182339 -0.021505428 -0.057038367
0003a0 9d 1c cf bd d9 a6 67 3c a1 e5 8f bd 15 ce 3a bd
       -0.101128794 0.014138901 -0.0702622 -0.04560669
0003b0 cb 92 40 be c1 6e 1a 3e 60 94 fd bc 8a 4d 10 3e
       -0.18805997 0.15081312 -0.03095454 0.14092079
0003c0 4f 00 50 be da 8e 05 bd a0 d6 0f 3d 6e 62 c5 bd
       -0.20312618 -0.032606937 0.03511679 -0.096379146
0003d0 78 10 38 3d 39 6f fa bd 2b 0d e0 bd 8f b5 19 3e
       0.04493758 -0.12228245 -0.109400116 0.15010665
0003e0 19 d5 d7 3c ef 31 10 bd d8 7e e5 3c b9 3e fb bc
       0.02634673 -0.03520387 0.028014585 -0.030669557
0003f0 d1 41 2c be 3a bb 5b be c9 39 54 bd 88 fa 4a 3c
       -0.16821982 -0.2145814 -0.05181292 0.012388833

bias_ih_l0 f4 [200]
000000 67 f3 e2 3d c5 4c af 3d 25 cc b8 3c b0 95 d0 bc
       0.110815816 0.085595645 0.022558281 -0.025462002
000010 29 b1 06 3e 46 9b 5d 3e ed 32 4a 3d a3 d2 4e 3e
       0.13153519 0.21641263 0.049364973 0.20197539
000020 20 9f 1e 3d 88 2b 20 3e 2b 30 c4 bc ae 38 04 3e
       0.038725972 0.15641606 -0.02394875 0.12912247
000030 f2 83 d5 3d 14 36 05 3e 97 e8 0d bd 6c 16 da bc
       0.10425557 0.1300891 -0.034645643 -0.02662202
000040 53 d1 3c 3e b1 ff 1c bd 7a 44 c7 3d b8 6c db 3d
       0.18439226 -0.038329784 0.09729858 0.10714096
000050 07 7c 62 3e a4 12 7a 3d e4 a4 09 3c 03 7b 25 bc
       0.22117625 0.061052933 0.008401129 -0.010100129
000060 e5 ed ac 3d 49 8d e2 3d 5b b4 df 3c f5 f2 3f 3c
       0.08443812 0.11062104 0.02730768 0.01171564
000070 0c c1 0c 3d c8 89 6c 3d 39 66 b8 3d 1e 81 0a 3e
       0.03436379 0.057748586 0.090038724 0.13525817
000080 2c ff 24 3e 6b b1 c8 3d f7 74 05 3e b1 3f 32 bd
       0.16112965 0.09799465 0.130329 -0.043517772
000090 82 05 c8 3d fa 29 91 3d 96 02 fe 3d e1 09 63 3e
       0.097666755 0.070880845 0.12402837 0.22171737
0000a0 99 ba 01 3e 88 03 47 3d e2 d3 d2 3c 5e 15 57 3e
       0.12668838 0.048587352 0.0257358 0.21004245
0000b0 7b aa 3f 3e 12 62 98 3c 87 d1 86 3d 17 33 21 3e
       0.18717377 0.018601451 0.06582933 0.15742145
0000c0 a2 10 3f 3d 46 22 1c 3e 23 02 19 3e ab a7 8c 3d
       0.04664672 0.1524745 0.14942221 0.068679176
0000d0 a3 b8 1c 3c e8 74 af 3d db 75 84 3c b0 ab 23 3e
       0.009565505 0.0856722 0.01616948 0.15983462
0000e0 d9 ed 0b 3e 1b b1 19 3c 52 08 cc 3c 36 72 c3 bc
       0.1366495 0.009380604 0.024906311 -0.023858171
0000f0 1f ea 6b bd d1 49 02 3e 87 ab 3d 3e 10 f5 c5 3d
       -0.057596322 0.12723471 0.18522464 0.096658826
000100 aa 93 b4 3d c6 21 0a 3e db 72 d1 3b 03 3e 0d 3e
       0.08817227 0.13489446 0.0063918657 0.13793187
000110 01 cb 89 bd 92 92 1b 3e 6a ca 65 3c 26 ae ab 3d
       -0.06728173 0.15192631 0.01402531 0.083828256
000120 0b 71 49 bc 46 c5 e5 3d 8d ab 27 bd 5e e0 7e 3d
       -0.012295018 0.112192675 -0.040935088 0.062225692
000130 41 a3 af 3d c1 6b 25 3e e2 00 d5 3d 00 8b a5 3d
       0.0857606 0.16154386 0.10400559 0.08083153
000140 7e 27 87 bd 6a a6 a5 3b 11 01 57 3d 31 a6 6c ba
       -0.065993294 0.0050552385 0.05249125 -0.000902745
000150 43 01 29 3e a6 83 8b 3d 27 04 98 3d 2e 4a b7 bc
       0.16504388 0.06812219 0.07422667 -0.022374239
000160 43 d5 43 3d 58 e0 a3 3d 91 71 0d 3e 6f 3c 65 bd
       0.047810804 0.080017745 0.13812853 -0.055965837
000170 9a f9 6e 3d d8 24 95 3d 21 10 b9 bd 72 f3 2a 3e
       0.058343507 0.07282418 -0.090362795 0.1669443
000180 1f 39 86 bb 0d 79 15 3e 3a 37 94 bd eb 04 98 3c
       -0.004096165 0.14596958 -0.07237096 0.018557033
000190 d2 53 52 3e 3b c4 20 bd 19 6f ac bd 53 d1 20 be
       0.20539787 -0.03924964 -0.08419628 -0.15704851
0001a0 c0 86 32 be b8 71 cc 3d 11 e9 ce bd 1c 2d 1d bd
       -0.17434216 0.09982628 -0.10103048 -0.038373098
0001b0 ad 3c e3 bd 8b 27 3a be 50 dc 11 be 21 71 e6 bd
       -0.11095557 -0.18179147 -0.14244199 -0.112520464
0001c0 c3 53 00 3e f4 54 2c bd 69 1c 0e be 59 53 72 bd
       0.12531953 -0.042073205 -0.13878025 -0.059161518
0001d0 2b 1f 40 be 66 4f 97 3c 5f 47 4b 3e 5b da 0b bd
       -0.1876189 0.018470477 0.19851445 -0.034143787
0001e0 16 90 27 3e 36 05 da 3d a3 c5 d4 bd 22 8b 14 be
       0.16363558 0.10645525 -0.10389259 -0.145062
0001f0 ee 51 9d 3c 66 8f 43 3e 06 ac b9 bd c1 b7 91 3d
       0.019204106 0.19097671 -0.09066014 0.071151264
000200 02 33 98 bc 95 e6 8e bc 3e 9d f1 3d 53 a4 3f 3d
       -0.01857901 -0.017443934 0.1179757 0.04678757
000210 f6 b1 83 3d 5d 0d 50 3e 69 b9 08 3d 10 38 7f bd
       0.06430428 0.20317598 0.033379946 -0.062309325
000220 33 c7 18 3a bd 79 30 3e 70 b7 3d 3e 8a c7 1a 3e
       0.0005828023 0.1723394 0.18527007 0.1511518
000230 fe 46 ca 3c 36 63 88 bd 87 ef dd 3d 7e 1c 98 3c
       0.024692055 -0.06659548 0.10836702 0.018568274
000240 77 31 cb 3c bf b4 5b bb 30 9d 6b bd 08 43 e5 3d
       0.02480386 -0.003352448 -0.057522953 0.11194426
000250 58 7a 7b bd 7d 62 9f 3d 78 9e 91 3d 21 af d1 3d
       -0.061395973 0.07782457 0.07110304 0.10238481
000260 7a 78 76 3e 28 8e 2d 3e 4c c0 1b 3e 61 e9 27 3e
       0.24069396 0.1694876 0.15210074 0.1639762
000270 d0 3f ac 3d 06 cd 20 3e fa ca a5 bb 4c cd 8b 3d
       0.08410609 0.1570321 -0.005059597 0.06826267
000280 d4 1b b0 3d cc d5 a3 3c ba 78 17 3e ba 7b c9 bc
       0.08599058 0.019999407 0.14792147 -0.02459513
000290 17 93 85 bc c3 d8 22 3d 2a f9 65 3e 18 57 9f 3c
       -0.01630549 0.0397575 0.2245833 0.01945071
0002a0 6b 78 09 bd 79 55 bd 3d e5 f0 05 3e ab 44 56 3e
       -0.033562105 0.09244818 0.13080175 0.20924632
0002b0 84 a7 0b bd 8d 96 eb 3d af 09 e8 3c e8 dd 1b 3e
       -0.034095302 0.11503325 0.02832493 0.1522137
0002c0 42 92 c2 bb 22 c4 99 3d 52 95 e0 3d 58 b5 19 3e
       -0.0059378454 0.075081125 0.109659806 0.15010583
0002d0 ca 3c 2d 3e 0e df 88 3d 9f 78 73 3d 4a 4e 02 3e
       0.1691772 0.06683169 0.059441205 0.12725177
0002e0 e8 65 8f bc d7 7f 64 3d ef d5 f4 bc bf 70 45 3d
       -0.017504647 0.05578598 -0.029887168 0.048203226
0002f0 c6 3b 83 3d 29 78 f9 3d 9f 73 06 3e bd 2c 97 bb
       0.06407885 0.12181122 0.13130043 -0.0046134875
000300 f7 72 54 3e 5a 63 1a 3e 0b 20 d8 3d 1f 18 70 ba
       0.2074698 0.15076962 0.10552987 -0.0009158868
000310 17 9c 50 3e a8 ab 73 3e 94 b6 17 3d fc 0f 19 3e
       0.20372044 0.2379595 0.037039354 0.14947504

bias_hh_l0 f4 [200]
000000 88 8c dc 3d 0a 60 dc 3d 66 7a 5d bc 07 f1 ce 3c
       0.10768992 0.107605055 -0.013517952 0.025261415
000010 f3 b0 43 3e 8e b9 21 bd 74 4f 65 3d 73 e2 e9 3c
       0.1911047 -0.0394836 0.055983976 0.028550362
000020 3b 9d 35 3d 78 f6 ff bc 56 21 b6 3d 86 8f 2e 3d
       0.0443394 -0.031245455 0.08893077 0.042617343
000030 8f 75 70 3c 31 f2 5f 3d 94 44 16 3e 9d 7f 8f bd
       0.014676466 0.05467433 0.14674598 -0.07006762
000040 16 3c b6 3d 09 fc 82 3c 0c 56 0e bd 19 86 55 3e
       0.08898179 0.01598932 -0.03475003 0.20851935
000050 52 e5 ac 3d 2a a0 ba bc 96 ec 68 3e dc d3 6c 3b
       0.08442177 -0.02278145 0.227465 0.003613702
000060 b8 fe c1 bc a2 dd e7 3b 06 a0 63 3e 98 2a 90 3d
       -0.02368103 0.0070759812 0.22229013 0.07039374
000070 36 77 7e bd f3 80 53 bd d0 14 22 3e 0c e4 16 3e
       -0.062125407 -0.051636647 0.15828252 0.1473543
000080 22 4d 93 3d 86 79 2f 3e cd 61 96 3c 72 3a be 3d
       0.07192446 0.17136201 0.018357182 0.09288491
000090 ae 65 48 3e bf aa e9 3d f2 b0 87 3d d3 81 02 3e
       0.19570038 0.1140952 0.066255465 0.12744837
0000a0 89 12 4a bc e6 a2 7d 3e 95 c2 8f 3d 5a 99 cc 3d
       -0.012333521 0.24769172 0.070195355 0.09990187
0000b0 97 33 ae bd 3c f2 db bb 6b b2 c9 3d 11 1c 30 3e
       -0.08505934 -0.006712226 0.09848484 0.17198206
0000c0 2b 6d 24 bd 43 27 49 3e f7 3d df 3d dd 9b 28 3a
       -0.040143173 0.19643883 0.10900491 0.0006431917
0000d0 8c d3 35 3e 9c 40 99 bd ca 8f 33 3d 7b 94 0b 3e
       0.1775648 -0.074830264 0.0438383 0.1363086
0000e0 b1 89 88 3d 19 b2 1f 3e be 77 8d 3d da 8c 7b 3c
       0.066668876 0.15595283 0.06907605 0.015353406
0000f0 3b cd bc 3d d8 9d 58 bd af 68 8c 3d 8a 5e b4 bd
       0.09218832 -0.052884907 0.06855904 -0.088070944
000100 9f 22 1f ba 25 c4 12 3e ae 0a 34 3d 9d e5 3c 3e
       -0.00060705276 0.14332636 0.043955497 0.18446966
000110 21 b3 25 3e 91 5b ab 3d a5 8e aa 3d 5d 58 af 3d
       0.16181614 0.08367074 0.083279885 0.08561776
000120 6d d1 c6 3d 1f c7 13 3e b6 6e 2e 3c 35 b0 e8 3d
       0.097079135 0.14431427 0.010646513 0.11361734
000130 78 46 15 bd 73 88 21 3e aa 0c 34 3d 7f eb 43 3e
       -0.036444157 0.15774707 0.04395739 0.19132803
000140 c7 71 16 3d a5 85 43 3e 8c b6 93 3c 66 5b 04 bd
       0.0367296 0.1909395 0.018031381 -0.032313727
000150 64 1e d5 3d e6 9e 6e 3d a4 d1 a0 bb 1e e7 35 3e
       0.10406187 0.058257006 -0.0049078036 0.17763945
000160 4c 6a 34 3d d9 54 f5 3c cb 1f 16 bd 17 a4 53 3e
       0.044046685 0.029947685 -0.036651414 0.20668064
000170 8a 4e c2 3d 8e 39 92 3d 8b 4d 3d bd e6 df 6c bd
       0.094876364 0.07139884 -0.04621653 -0.057830714
000180 ff 1e aa 3d 18 d9 9d 3d 52 ba f0 3d eb d7 35 3e
       0.08306693 0.07707423 0.11754288 0.17758147
000190 ed 82 99 bc 12 f5 1a 3e 9c e0 29 be 92 a4 43 be
       -0.018739188 0.1513255 -0.16589588 -0.19105747
0001a0 e9 97 31 be 90 82 dd 3d 87 f7 56 be e8 c0 48 3e
       -0.17343105 0.108159184 -0.20992862 0.19604838
0001b0 3c ee e8 3c 0a 4f 42 be b7 b9 40 be f4 32 8e ba
       0.028433912 -0.18975464 -0.18820845 -0.0010848925
0001c0 cf b5 cc 3d 32 eb 63 3d 50 f9 0a bd da 1f 0b bd
       0.09995615 0.05564422 -0.03392917 -0.033965923
0001d0 97 3d 56 3c a9 6d 4f 3e f7 ef 25 3e fb d3 7b 3d
       0.013076208 0.20256676 0.1620482 0.061481457
0001e0 54 eb 18 3e e2 0d 4e 3e f8 a4 17 be 32 ea d0 3c
       0.1493352 0.20122483 -0.14809024 0.025502298
0001f0 11 6a 1f bd 07 8a 1a bd d8 1e 0d be 8b ac c4 bc
       -0.038919512 -0.03772929 -0.13781297 -0.024008056
000200 18 92 47 3e f2 6c 49 be 4a 40 f9 3c 40 13 8e 3d
       0.19489324 -0.19670466 0.030426163 0.069372654
000210 be fe 00 be 92 29 9f 3d 36 99 0b bc 9e 3d b4 bd
       -0.12597176 0.07771601 -0.008520415 -0.08800815
000220 cb 7f 05 bd 79 e5 f3 3d 19 a4 18 bc 8a 3f f2 3d
       -0.032592576 0.11909003 -0.009316468 0.11828525
000230 53 58 de bd f4 8a 17 be 21 81 d4 3d e4 60 db bd
       -0.1085669 -0.147991 0.10376192 -0.1071184
000240 8e 62 91 bd 89 35 b7 bd ef 66 08 bd 69 dc ee 3d
       -0.07098876 -0.08945758 -0.03330129 0.11663134
000250 16 60 b2 bd 26 94 ed 3d 6c 0c 33 bd b5 cf c4 3d
       -0.08709733 0.11600523 -0.04371302 0.096099295
000260 66 8f 72 3e 02 29 4a 3d 8a 3a 3b 3e 50 b6 7b 3e
       0.23687515 0.049355514 0.1828405 0.24581265
000270 5d 22 bb 3c e6 9f 93 3d 44 ba 96 3d 77 67 0c 3e
       0.022843534 0.072082326 0.07359746 0.13711344
000280 bc 9f fa 3d 99 35 1e 3e 92 30 38 3e eb 93 5a 3e
       0.12237498 0.15450133 0.17987278 0.21345489
000290 18 07 04 3e b4 9e 3b 3e c8 14 e2 3d 03 46 07 bd
       0.12893331 0.18322259 0.1103912 -0.033025753
0002a0 f4 5e 11 3e e0 90 26 bc f9 c4 c9 3b 3f df a0 bb
       0.14196378 -0.010166377 0.006157514 -0.0049094255
0002b0 74 4a 97 3d 36 b7 3c 3b 71 5d 46 3e 61 5c 16 3e
       0.07387248 0.0028795726 0.19371583 0.14683677
0002c0 3f bd 40 3d e4 c7 0c bd 1a fb bd 3d 44 49 51 3c
       0.04705548 -0.034370318 0.092764094 0.012773816
0002d0 b4 73 de 3d c6 05 84 bc da cc cb bc 36 62 7a 3d
       0.10861912 -0.016116034 -0.024877954 0.061128817
0002e0 43 df 5c 3e cc 7a 60 bd ad 74 20 3c 93 ee 29 3e
       0.21569543 -0.05480461 0.009793443 0.16594915
0002f0 69 f4 76 3e 13 99 90 3c 1c 25 31 3e 08 4c 40 3e
       0.24116673 0.017651116 0.17299312 0.18779004
000300 98 e2 24 3e 77 24 32 3e 3c fd c4 3d 2c 39 f4 3d
       0.16102064 0.17396723 0.09618613 0.11924967
000310 97 f2 24 3e a7 b7 48 3e 65 fd e2 3d 89 79 11 bd
       0.16108166 0.19601308 0.110834874 -0.035516296

weight f4 [1, 50]
000000 62 90 81 3e 1c ad 3e 3e 9a 6b 4f be cd 5f 1c be
       0.25305468 0.18620723 -0.2025589 -0.1527092
000010 1e 60 13 be 50 49 48 3e 66 4e 91 be ab ef a1 3e
       -0.14392135 0.19559216 -0.28380126 0.31628165
000020 df aa 3c be 39 ea 44 be c4 0c 4b be 5b cb 21 be
       -0.18424557 -0.19229974 -0.19829088 -0.1580023
000030 2e 38 64 3e 7c 2b 84 be 41 06 7e be 00 b7 73 3e
       0.22287056 -0.25814426 -0.24807073 0.23800278
000040 35 de 39 be ca 16 90 3e a8 64 a8 3e a9 54 44 3e
       -0.18151172 0.28142387 0.32889295 0.1917292
000050 cf 6f 92 3e c2 f9 20 3e c5 64 72 be 3a 52 9f be
       0.28600928 0.15720275 -0.23671253 -0.3111742
000060 2d 64 67 3e 19 76 60 3e 82 94 3f be 6f f5 8d 3e
       0.22596808 0.2192005 -0.18708995 0.27726313
000070 df cf 46 3e d3 82 6d be 45 55 92 3e 88 20 8a 3e
       0.19415234 -0.23194437 0.2858068 0.26977944
000080 d7 57 90 be 45 e2 82 3e 82 d0 96 3e 03 58 81 be
       -0.28192016 0.25563255 0.29455954 -0.2526246
000090 ba f3 9e be 97 27 5d 3e 2f d0 88 3e 80 df 64 3e
       -0.31045324 0.21597134 0.2672133 0.22350883
0000a0 05 e0 4f be e0 38 0f be b7 2c 73 3e ef d9 45 be
       -0.203003 -0.1398654 0.23747526 -0.19321416
0000b0 43 97 98 3e d6 b8 40 be cf 5a a4 be 66 53 37 3e
       0.29802904 -0.1882051 -0.3210053 0.17902908
0000c0 1b 06 43 be a8 e4 6c 3e
       -0.19045298 0.231341
