models/Regressor.pt (torch, 19219 bytes, 10 tensors)

weight f4 [4, 8]
0	0x3fc6965f	1.551464
1	0x3e892522	0.26786143
2	0x3f70e166	0.9409393
3	0x3fb7ef16	1.4369838
4	0xbf662368	-0.89897776
5	0xbf8cc155	-1.09965
6	0xbdf9616f	-0.12176787
7	0x3f83e72a	1.0304921
8	0x3f9518a3	1.1648144
9	0x3f4770b8	0.7790637
10	0xbf1c2b7e	-0.61003864
11	0xbf43f188	-0.7654042
12	0x3f7be7da	0.9840065
13	0x3f56559c	0.8372438
14	0xbfde2e2c	-1.735784
15	0x3f06e96c	0.52699924
16	0x3f16283f	0.5865516
17	0xbf599686	-0.84995306
18	0xbfc3cf17	-1.5297574
19	0x3e8596a2	0.26091486
20	0x3f5dec1a	0.8668839
21	0xbed74386	-0.42043704
22	0x3f64f2c1	0.89432913
23	0xbf4859bb	-0.7826192
24	0x406a06e6	3.656671
25	0x3fa8ad13	1.3177818
26	0xbe99351e	-0.29923338
27	0x3e84b590	0.2591977
28	0xbecee3b7	-0.40408108
29	0xbf7d22b5	-0.98881084
30	0xc02639b4	-2.597272
31	0x3e4b079a	0.19827119

weight_ih_l0 f4 [60, 8]
0	0x3d8e8487	0.06958871
1	0xbdebef1b	-0.11520215
2	0x3e1d1826	0.15341243
3	0x3d1f57e1	0.038902167
4	0xbe2b5717	-0.16732441
5	0x3b773c29	0.0037725067
6	0xbe852f49	-0.26012638
7	0xbdd2cb3a	-0.10292669
8	0x3e3594ca	0.1773254
9	0xbe577bd1	-0.21043326
10	0xbe9fa47e	-0.31180185
11	0x3e891f65	0.26781765
12	0x3dbd4791	0.09242166
13	0xbd21f463	-0.039539706
14	0xbe1b9e66	-0.15197143
15	0xbe8b247e	-0.2717628
16	0xbddc93b9	-0.10770363
17	0x3e3f1da3	0.1866365
18	0xbdd75bf0	-0.105155826
19	0x3ea2f5d4	0.31828177
20	0x3db19b5a	0.08672209
21	0xbeb6b3a1	-0.3568392
22	0xbd093b38	-0.03350374
23	0xbe36ef85	-0.17864807
24	0x3d001ee8	0.031279474
25	0xbb75ed10	-0.0037525333
26	0xbcc1e2a4	-0.023667641
27	0x3e5e3c5b	0.21702711
28	0x3e04ecbb	0.1298093
29	0x3e1517ff	0.14559935
30	0xbe17da89	-0.14829458
31	0x3e5abdd7	0.2136148
32	0x3e2f9f69	0.17150654
33	0xbdf1d305	-0.11807827
34	0xbdba8f5a	-0.091093734
35	0x3e3fefc9	0.18743815
36	0x3e939863	0.288272
37	0xbd59f8c6	-0.053215764
38	0x3d5677bd	0.052360285
39	0xbda9203c	-0.08258101
40	0x3d363fbd	0.04449438
41	0x3de970f2	0.11398496
42	0xbe36c3b7	-0.17848097
43	0x3e600c3c	0.21879667
44	0xbdc56365	-0.096380986
45	0xbea52371	-0.32253602
46	0xbe8738c1	-0.26410487
47	0x3e24ea35	0.16104968
48	0x3eb70824	0.35748398
49	0xbdf69b5a	-0.1204135
50	0x3e2822f9	0.16419591
51	0x3eb0962a	0.34489566
52	0x3db8b7c0	0.090194225
53	0xbdf1dd8a	-0.11809833
54	0x3db1661e	0.086620554
55	0x3e3710b4	0.17877465
56	0x3e3d67ee	0.18496677
57	0xbdce00e2	-0.10058762
58	0xbe027b84	-0.1274243
59	0x3e80fd5b	0.25193295
60	0x3de16cd4	0.110070854
61	0xbea3a78e	-0.31963772
62	0x3e58b37a	0.21162215
63	0xbe3b697b	-0.18301956
64	0xbcb2c15f	-0.021820722
65	0xbdbe16fe	-0.09281729
66	0xbe83981d	-0.2570199
67	0x3db881c4	0.09009126
68	0x3ea8911d	0.32923213
69	0xbe223edb	-0.1584429
70	0xbe9202dd	-0.2851781
71	0x3d80f765	0.06297187
72	0x3e57043d	0.2099771
73	0xbde59fc0	-0.112121105
74	0xbdf29116	-0.11844079
75	0xbd94e9ab	-0.07271131
76	0x3d818689	0.06324489
77	0x3b68b06c	0.0035505546
78	0xbe8319cc	-0.2560562
79	0xbe3c1aa7	-0.18369542
80	0xbdd260cf	-0.10272371
81	0x3e735fc2	0.23766997
82	0x3db58c6e	0.088646755
83	0x3e4abb6a	0.19798055
84	0x3e1c9b4c	0.15293616
85	0x3db937cb	0.09043845
86	0xbe9030b5	-0.2816216
87	0xbea01d3a	-0.31272298
88	0x3c20aee0	0.009807318
89	0x3e7eaf78	0.24871624
90	0xbe38c62e	-0.1804435
91	0xbd5624a2	-0.05228103
92	0xbda4c2d2	-0.080449715
93	0x3db983ef	0.090583675
94	0xbe484b0f	-0.19559883
95	0x3da8956f	0.08231627
96	0x3e7f005a	0.24902478
97	0x3de77e8e	0.11303435
98	0xbe954a43	-0.2915822
99	0xbe027b45	-0.12742336
100	0x3e3123cd	0.17298813
101	0xbe958f4f	-0.29210898
102	0xbdec18bc	-0.11528155
103	0x3e272f8b	0.1632673
104	0xbd1f6ee8	-0.038924128
105	0xbd81b202	-0.063327804
106	0x3d36ec43	0.04465891
107	0x3d0c776b	0.034293573
108	0x3eb3c0ed	0.35108128
109	0xbca7be7d	-0.020476574
110	0x3de985ad	0.1140245
111	0xbdef7ad3	-0.11693349
112	0xbdb354f5	-0.08756439
113	0x3e824df6	0.25450104
114	0x3d3dd7f7	0.04634854
115	0x3ddaa051	0.10675109
116	0x3ec6fa64	0.38862908
117	0xbd9a3626	-0.07529859
118	0x3dc998e1	0.098436125
119	0x3d6ed8f6	0.05831238
120	0xbd54260a	-0.05179409
121	0xbd9ee3e4	-0.077583104
122	0x3c9dfffd	0.019287104
123	0xbe4735ab	-0.19454066
124	0xbd822d78	-0.06356329
125	0xb94f8c00	-0.00019793212
126	0x3cc7a37b	0.024369946
127	0x3df10571	0.11768616
128	0x3d478042	0.0487063
129	0x3d1c1c75	0.038113076
130	0xbd44a5e8	-0.048009783
131	0x3d9e4ee3	0.0772989
132	0x3e635978	0.22202098
133	0xbe90e6a3	-0.28300962
134	0x3e0a7154	0.13519794
135	0x3e2a3662	0.16622308
136	0x3e9da204	0.3078767
137	0x3e727165	0.23676069
138	0x3d032642	0.032018907
139	0xbda4d6d6	-0.08048789
140	0x3d6d33c3	0.057910692
141	0xbea9af91	-0.3314176
142	0x3df7244f	0.12067472
143	0x3d8e3d33	0.069452666
144	0xbda2d0c1	-0.07949973
145	0xbd51aa84	-0.051188007
146	0xbd94c520	-0.07264161
147	0x3e2a2685	0.16616257
148	0x3e18bf5a	0.14916745
149	0xbe9f1a5a	-0.31074792
150	0xbd98acaa	-0.07454808
151	0x3d83842f	0.064216964
152	0x3e9150c2	0.28381926
153	0xbe356bdf	-0.17716931
154	0x3d8f741d	0.07004569
155	0x3e25d6d8	0.16195238
156	0xbc559734	-0.013036538
157	0xbe0a29f2	-0.13492563
158	0xbe44be73	-0.19213276
159	0x3e03e8c8	0.12881768
160	0xbddfc03f	-0.1092534
161	0x3e2891a7	0.16461812
162	0xbe62ae14	-0.22136718
163	0x3e7c7621	0.24654438
164	0xbe2beda5	-0.16789873
165	0x3a8ba6ec	0.0010654605
166	0x3c137a9c	0.0090014
167	0x3d21e77a	0.039527394
168	0x3e311822	0.17294362
169	0x3e4ee4c0	0.20204449
170	0xbe494ffc	-0.19659418
171	0x3e49b526	0.19698009
172	0x3c1b795f	0.009489386
173	0xbe36147f	-0.17781256
174	0x3db2612c	0.0870994
175	0x3d898fb8	0.06716865
176	0x3e629d34	0.2213028
177	0x3d6d7744	0.05797507
178	0xbc285289	-0.010273584
179	0xbc634f11	-0.013873831
180	0xbd487cb7	-0.048947062
181	0xbe9c6de0	-0.30552578
182	0xbd916bf6	-0.0710067
183	0x3e36e773	0.17861728
184	0x3e056594	0.1302703
185	0xbe085313	-0.1331294
186	0xbd99328b	-0.074803434
187	0xb8af0956	-8.346389e-05
188	0xbc3c1227	-0.011478937
189	0xbd90208a	-0.07037456
190	0x3d08cd03	0.03339864
191	0x3e102720	0.14077425
192	0xbd4a5c8c	-0.049404666
193	0x3d41aef9	0.047286008
194	0x3e03443a	0.12818995
195	0x3e9bad7a	0.3040579
196	0xbcf7ab4f	-0.030233053
197	0xbe9be281	-0.30446246
198	0x3de2df17	0.11077707
199	0x3e612422	0.2198644
200	0x3e7c7162	0.24652627
201	0x3df47542	0.11936428
202	0xbda4c8b1	-0.08046091
203	0xbe0daae7	-0.13834725
204	0xbdc43eb3	-0.095822714
205	0xbe27d80f	-0.16391014
206	0xbd4303f7	-0.047611203
207	0xbddb4746	-0.10706954
208	0x3e603616	0.21895632
209	0xbd057270	-0.03257984
210	0xbddcbcc2	-0.1077819
211	0xbde9f295	-0.11423222
212	0x3e8525d8	0.26005435
213	0x3a58cbbf	0.00082701066
214	0x3dcee30f	0.10101902
215	0x3db2fe7d	0.08739946
216	0x3e25a735	0.16177066
217	0x3e2b2aee	0.16715595
218	0x3da4b8e4	0.080430776
219	0xbcb34e88	-0.021888033
220	0xbe09d645	-0.13460644
221	0xbd37df6b	-0.044890802
222	0x3d4f21b1	0.05056924
223	0x3c26786a	0.010160545
224	0x3eb309f4	0.3496853
225	0x3df25cdb	0.11834117
226	0xbe3ffb52	-0.18748215
227	0x3d9b2f67	0.07577401
228	0x3e928fe0	0.28625393
229	0xbe4b3b22	-0.19846776
230	0xbcb171cc	-0.021660708
231	0xbdce3842	-0.10069324
232	0xbd8c0583	-0.06836989
233	0xbba48a84	-0.005021395
234	0xbe95bd10	-0.29245806
235	0x3dde0d13	0.108423375
236	0xbe1bcf75	-0.15215857
237	0xbe6b723f	-0.229928
238	0xbdc0c703	-0.094129585
239	0xbdd71db0	-0.10503709
240	0x3d1e1060	0.038589835
241	0x3cd66cc6	0.026174914
242	0xbdaf9688	-0.085736334
243	0xbe38455f	-0.17995213
244	0x3e2ecfd0	0.17071462
245	0x3e785455	0.2425092
246	0x3ea391df	0.31947228
247	0x3d4246d0	0.047430813
248	0xba493c68	-0.0007676543
249	0xbdabc130	-0.08386457
250	0xbea414d3	-0.32047138
251	0x3e9c4638	0.30522323
252	0x3e6f85c1	0.23390867
253	0xbe4ee34b	-0.20203893
254	0xbde23dd4	-0.11046949
255	0x3e4203f8	0.18946826

weight_hh_l0 f4 [60, 15]
0	0xbbdd5f9b	-0.006755782
1	0x3e369950	0.17831922
2	0x3e305788	0.1722089
3	0x3e9078e0	0.2821722
4	0xbe9777ed	-0.29583684
5	0xbe508e2d	-0.20366736
6	0xbe164a5d	-0.14676805
7	0x3e827ba2	0.2548495
8	0xbdd2e89d	-0.10298274
9	0x3e00bf04	0.12572867
10	0x3ea22113	0.3166586
11	0xbd598ac0	-0.053110838
12	0x3dc8164a	0.09769876
13	0x3d7954ad	0.06087177
14	0x3e8b549d	0.27212992
15	0xbe1d158d	-0.15340252
16	0x3e3b7982	0.1830807
17	0x3e9bea3e	0.3045215
18	0xbda9bfd9	-0.08288545
19	0xbd91c71c	-0.07118055
20	0xbe569539	-0.20955361
21	0xbe9babe8	-0.30404592
22	0xbdff3119	-0.124605365
23	0x3dd0d849	0.10197503
24	0x3e7988f2	0.24368647
25	0x3de52efc	0.11190602
26	0xbd870058	-0.065918624
27	0xbe6596cf	-0.2242081
28	0xbe0d1285	-0.13776596
29	0x3e4f6944	0.20255
30	0xbe30b181	-0.17255212
31	0x3ea457c7	0.3209822
32	0xbd319902	-0.04335881
33	0x3e8a9f95	0.27074876
34	0x3dec313a	0.11532827
35	0xbbd49612	-0.0064876163
36	0x3dd3ce33	0.10342064
37	0x3d4879bf	0.04894423
38	0xbeabfd2f	-0.335916
39	0x3e6c1beb	0.23057525
40	0x3ea1ef74	0.31628
41	0x3cf4bf3f	0.02987635
42	0xbeaffa59	-0.34370688
43	0xbd8afcf9	-0.06786532
44	0x3ea54ec8	0.32286668
45	0xbe50aab0	-0.20377612
46	0x3e2edbaa	0.17075983
47	0xbd92451a	-0.07142086
48	0xbcde090c	-0.027103923
49	0xbdfa14d5	-0.12211005
50	0xbea7f521	-0.32804206
51	0xbe79590e	-0.24350378
52	0x3ecac6d3	0.39604816
53	0xbdcaaca6	-0.09896211
54	0x3c164f28	0.009174146
55	0xbc997823	-0.018734043
56	0x3e829137	0.25501415
57	0xbcc1252e	-0.023577299
58	0xbea06887	-0.31329748
59	0x3e925d2e	0.28586715
60	0x3e59dd28	0.2127577
61	0x3e996723	0.299615
62	0x3db9d1ee	0.09073244
63	0x3e599607	0.21248637
64	0xbe8dcb06	-0.27693957
65	0xbc0a4c74	-0.008441079
66	0xbe2e1149	-0.16998781
67	0xbb9c00f8	-0.0047608577
68	0xbde90f4b	-0.1137987
69	0x3e6273d0	0.22114491
70	0x3dfafb0e	0.12254916
71	0x3e3b55df	0.18294476
72	0xbea0627e	-0.31325144
73	0xbea1449b	-0.31497654
74	0x3e4f0ab4	0.20218927
75	0xbe139ce8	-0.14415324
76	0xbd2b44de	-0.041813724
77	0x3db634c8	0.08896786
78	0x3d97ef76	0.074187204
79	0xbe8a2c7e	-0.2698707
80	0xbe4dc20f	-0.20093559
81	0xbe01284c	-0.12613028
82	0xbdd88baa	-0.10573514
83	0xbe73b857	-0.23800789
84	0x3d830bf3	0.063987635
85	0xbd52bb38	-0.051448077
86	0xbc55687c	-0.013025399
87	0xbe485f10	-0.19567513
88	0xbe9e3bbe	-0.30904955
89	0x3ea33961	0.31879714
90	0xbdf6b478	-0.120461404
91	0x3e04bd52	0.12962845
92	0xbe135208	-0.14386761
93	0x3d60474a	0.054755487
94	0xbe677d42	-0.22606376
95	0x3e115446	0.14192304
96	0xbe96aade	-0.29427236
97	0x3e9e8340	0.3095951
98	0xbe763ec7	-0.24047385
99	0x3d996d5a	0.0749156
100	0x3dae35c7	0.08506351
101	0x3dfbc5fe	0.122936234
102	0xbd1e2fb1	-0.0386197
103	0xbe48d819	-0.19613685
104	0x3e913547	0.2836096
105	0xbb7f870a	-0.0038990402
106	0x3e9a9fd9	0.3020008
107	0x3dbad5b5	0.09122793
108	0xbe4984cd	-0.19679566
109	0xbd489523	-0.048970353
110	0xbe51e74f	-0.20498393
111	0x3d5e4fff	0.05427551
112	0xbc4a8782	-0.012361409
113	0x3d960cb4	0.07326642
114	0x3da8974e	0.08231984
115	0xbd1739f3	-0.0369205
116	0xbdec4ef3	-0.11538496
117	0xbe4225d0	-0.18959737
118	0xbeaca4ec	-0.33719575
119	0xbdeff6a4	-0.11716965
120	0xbdcf7eae	-0.10131584
121	0xbcf37071	-0.029716702
122	0x3e8c1116	0.27356786
123	0x3e5b3880	0.21408272
124	0xbe789b3f	-0.24277972
125	0xbe593540	-0.2121172
126	0x3cb870fd	0.022514815
127	0x3e9665b6	0.29374474
128	0xbe433bcb	-0.19065778
129	0xbe119a91	-0.14219119
130	0x3e46b43a	0.19404688
131	0x3d4e1741	0.050315145
132	0x3e065630	0.13118815
133	0xbc44cb74	-0.012011398
134	0xbdaef3c5	-0.08542589
135	0xbdac4426	-0.08411436
136	0xbd9368f4	-0.071977526
137	0x3e87dec4	0.26537144
138	0xbd6a034d	-0.057132054
139	0xbdd953c5	-0.10611681
140	0xbe419046	-0.18902692
141	0x3e11f00b	0.14251725
142	0xbe0243ff	-0.12721251
143	0xbc29c1cb	-0.010361145
144	0xbdaee270	-0.08539283
145	0x3dc2f442	0.09519245
146	0x3ea1b058	0.31579852
147	0xbe8d40c3	-0.27588472
148	0xbe7e70e5	-0.24847753
149	0x3c9b0747	0.018924369
150	0x3d53c468	0.05170098
151	0x3e1a0720	0.1504178
152	0x3e148573	0.14504032
153	0x3e183814	0.14865142
154	0xbe99361a	-0.2992409
155	0x3c0dcc71	0.0086547
156	0xbe5647b6	-0.20925793
157	0xbdd909ee	-0.10597597
158	0xbe5d87ec	-0.21633881
159	0x3eb60762	0.35552508
160	0x3e83a1ae	0.2570929
161	0x3e80dab6	0.25166863
162	0x3df687ba	0.120376065
163	0xbe805a9d	-0.25069132
164	0x3e41dbcf	0.18931507
165	0x3e0fd7af	0.1404712
166	0xbe0f092b	-0.13968341
167	0x3e315f41	0.17321493
168	0x3eb78a79	0.35847834
169	0x3da24a20	0.079242945
170	0x3c3f718f	0.011684789
171	0x3e192f20	0.14959383
172	0xbd12f82d	-0.03588121
173	0xbe5e2ae4	-0.21696049
174	0x3c8a835c	0.01690834
175	0xbcb82cd0	-0.022482306
176	0x3ea3c4d7	0.31986114
177	0xbe9fa05e	-0.31177038
178	0xbe897953	-0.26850376
179	0xbdd877b8	-0.105697095
180	0x3d9d03c6	0.07666735
181	0x3e7d94d3	0.24763803
182	0x3d434596	0.047673784
183	0x3e92007f	0.28516003
184	0xbe26e85d	-0.16299577
185	0xbe857392	-0.26064736
186	0xbe961ea1	-0.29320243
187	0x3e700241	0.2343836
188	0x3e1d7217	0.15375553
189	0x3e0e8788	0.13918889
190	0x3deeecce	0.11666261
191	0xbe02c623	-0.12770896
192	0x3de2f0b1	0.110810645
193	0xbdab7a7b	-0.08372971
194	0xbd8a27da	-0.06745882
195	0xbe50470a	-0.20339599
196	0x3e8df6b0	0.2772727
197	0x3ea4a058	0.32153583
198	0x3d9b2b3c	0.07576606
199	0xbd6ee05e	-0.058319442
200	0x3d3a26f7	0.045447316
201	0xbe24e425	-0.16102655
202	0x3ce4e219	0.027939843
203	0xbd3749d9	-0.04474816
204	0xbde00259	-0.10937948
205	0xbe06c1a6	-0.13159809
206	0xbd406acd	-0.046976853
207	0x3cb32337	0.021867378
208	0xbebaf914	-0.36518157
209	0xbe21a24b	-0.15784566
210	0xbe3d39c9	-0.18479075
211	0x3e7aba4a	0.24485126
212	0x3d27faf2	0.041010804
213	0x3e0e7118	0.1391033
214	0xbdda219a	-0.1065094
215	0x3c1d6b42	0.009608092
216	0x3daace46	0.08340125
217	0xbd2c8c91	-0.042126242
218	0xbc6e2269	-0.014534571
219	0xbcca16ba	-0.02466904
220	0x3e2d99be	0.16953179
221	0x3e7c501d	0.24639936
222	0xbe782eb3	-0.24236564
223	0x3d750582	0.059819706
224	0x3ea21704	0.31658185
225	0x3dabe89c	0.08393976
226	0x3d8c6091	0.06854356
227	0x3cd4b2f5	0.02596424
228	0x3e431606	0.1905137
229	0xbe412f42	-0.18865684
230	0x3db1609d	0.08661006
231	0xbc677f9b	-0.014129545
232	0x3db3bc14	0.087761074
233	0x3c81bc91	0.015836986
234	0xbca41f07	-0.020034326
235	0xbd2d4e08	-0.042310745
236	0x3e7df57f	0.2480068
237	0xbe8091ea	-0.25111324
238	0xbd2422e1	-0.040072326
239	0x3da511d7	0.08060043
240	0xbdc98485	-0.09839729
241	0x3e7ad8b0	0.24496722
242	0x3a8247a4	0.0009939563
243	0xbe0ecd20	-0.13945436
244	0xbe862c26	-0.26205558
245	0xbe8e9466	-0.27847594
246	0xbc1ed11c	-0.00969341
247	0x3e2b7145	0.16742428
248	0x3e3a31c5	0.18183048
249	0x3df6d9a4	0.120532304
250	0x3e43b8cc	0.19113463
251	0x3e8210b0	0.25403357
252	0x3de4c22d	0.111698486
253	0x3e19c03e	0.15014741
254	0x3dd9f131	0.10641707
255	0x3e28a9e2	0.16471055

bias_ih_l0 f4 [60]
0	0x3d4814dc	0.048848018
1	0x3d28882d	0.041145492
2	0x3d76e2e2	0.060274966
3	0x3dbf8928	0.09352332
4	0x3e837bce	0.25680393
5	0x3d549a4f	0.051904973
6	0xbb1dfa9e	-0.0024105678
7	0xbde1c0a8	-0.110230744
8	0x3dbac07b	0.09118744
9	0x3ea797b3	0.32732925
10	0x3e0a8e1d	0.13530774
11	0xbdd742cc	-0.10510787
12	0x3e93f420	0.2889719
13	0x3e26b4cf	0.1627991
14	0x3e9b6aae	0.30354828
15	0xbe1a0773	-0.15041904
16	0x3e862b30	0.26204824
17	0xbc4209d8	-0.011843167
18	0x3e46fa71	0.19431473
19	0x3d13a94f	0.036050137
20	0x3e8e1efa	0.27758008
21	0xbd872a64	-0.06599882
22	0x3ca0948a	0.019602079
23	0xbd72e00a	-0.05929569
24	0x3e4fb4da	0.20283833
25	0xbe1b344b	-0.15156667
26	0xbd4a80bf	-0.049439188
27	0xbe24e5f5	-0.16103347
28	0xbddba420	-0.10724664
29	0x3e94fb21	0.29097846
30	0x3e159ed5	0.14611371
31	0xbe3df4a4	-0.18550354
32	0x3e854875	0.26031843
33	0x3e9b6638	0.30351424
34	0xbe8b8ec0	-0.27257347
35	0x3c8abe52	0.016936455
36	0xbe87202e	-0.2639174
37	0xbd71bad4	-0.059016064
38	0xbdaf79db	-0.08568164
39	0x3e894c93	0.26816234
40	0x3c8d4aa4	0.017247505
41	0x3e429cf3	0.19005184
42	0xbe7594bf	-0.23982523
43	0xbe9762bc	-0.29567516
44	0x3e84a476	0.25906724
45	0x3e6616ed	0.22469683
46	0x3e8b4894	0.2720381
47	0x3deaafea	0.11459334
48	0x3e9e5188	0.30921578
49	0x3e35d530	0.17757106
50	0x3e08089f	0.13284539
51	0x3e913cb0	0.28366613
52	0x3e16efcf	0.14739917
53	0x3e650130	0.22363734
54	0x3e992b23	0.29915723
55	0x3ea4c999	0.32185057
56	0xbd0f007a	-0.034912564
57	0x3e801716	0.25017613
58	0x3db0b978	0.08629125
59	0x3e525e51	0.20543791

bias_hh_l0 f4 [60]
0	0x3e29d170	0.165838
1	0x3e448323	0.1919065
2	0x3c93ee9c	0.018058114
3	0x3d246199	0.04013214
4	0xbdb2fe0b	-0.08739861
5	0xbdc14184	-0.09436324
6	0xbc7d719a	-0.015468979
7	0xbba89c23	-0.005145566
8	0x3dc3e7a3	0.095656656
9	0xbdae9f60	-0.08526492
10	0xbc97ca05	-0.018528948
11	0xbe182d8a	-0.14861122
12	0x3e664998	0.22489011
13	0x3e5bf0f9	0.21478643
14	0xbdb2ef51	-0.08737052
15	0x3dc5a973	0.096514605
16	0x3e057bc6	0.13035497
17	0x3e571659	0.21004619
18	0xbcab509f	-0.020912467
19	0x3df05e0d	0.11736689
20	0xbd48b167	-0.04899731
21	0x3e849876	0.25897568
22	0xbe2b0c0f	-0.16703819
23	0x3eab912b	0.33509192
24	0x3eb190f4	0.34680903
25	0x3e615453	0.22004823
26	0x3e9c864a	0.30571204
27	0x3d5c8dfe	0.05384635
28	0x3c50bb9e	0.012740044
29	0x3d91aff1	0.07113636
30	0x3e0a5418	0.13508642
31	0x3e5a245b	0.21302931
32	0x3bb871ea	0.005628814
33	0x3e9a5eb2	0.30150372
34	0x3c7430ed	0.014904243
35	0xbe87d373	-0.2652851
36	0xbdb48bb0	-0.08815706
37	0x3d766f75	0.060164887
38	0xbe04b119	-0.12958182
39	0x3e4a02c3	0.19727616
40	0x3e7265fd	0.23671718
41	0x3e6263f3	0.2210844
42	0x3dfc8916	0.123308346
43	0xbe9ea71c	-0.3098687
44	0x3ea388cb	0.31940302
45	0xbd8aa44a	-0.06769617
46	0x3e417909	0.18893827
47	0xbdbb5b36	-0.091482565
48	0x3ebdfcd7	0.37106964
49	0x3e0744b9	0.1320981
50	0x3dfb28b1	0.12263621
51	0xbc809b11	-0.015698941
52	0x3e17d31b	0.14826624
53	0x3ea392e9	0.3194802
54	0x3cd72f48	0.026267663
55	0x3d1e487d	0.03864335
56	0x3daec576	0.085337564
57	0x3dd58183	0.10425093
58	0x3da47298	0.080296695
59	0xbd39b0a5	-0.045334477

weight_ih_l1 f4 [60, 15]
0	0x3c40dc0e	0.011771215
1	0xbc57b2be	-0.013165174
2	0x3eac076f	0.3359942
3	0x3da16147	0.07879882
4	0xbca88e40	-0.020575643
5	0xbeb37b43	-0.3505498
6	0xbc904d6c	-0.017615043
7	0x3c86a4a7	0.016435934
8	0xbe8a3a71	-0.26997712
9	0x3da6948e	0.08133803
10	0x3e508dcc	0.20366591
11	0xbdec260b	-0.115306936
12	0xbe668f63	-0.22515635
13	0xbe0d473c	-0.13796705
14	0x3e9aff43	0.30272874
15	0x3deef93c	0.116686314
16	0xbdae30b2	-0.08505382
17	0x3d554df2	0.052076288
18	0x3e2efde8	0.17089045
19	0xbd5c525e	-0.05378949
20	0xbe047070	-0.12933517
21	0xbd8d677f	-0.06904506
22	0xbd86a43e	-0.065742955
23	0xbe6b5da0	-0.22984934
24	0x3e757602	0.23970798
25	0x3d2086b1	0.03919095
26	0x3dd86b2e	0.10567318
27	0x3e229e11	0.1588061
28	0xbb4d9cd2	-0.003137399
29	0xbc856d66	-0.016287517
30	0x3e4aee2e	0.19817421
31	0x3ea788ae	0.32721466
32	0x3e3e9bac	0.18614072
33	0x3e1b79bb	0.15183155
34	0xbe9a4a41	-0.30134776
35	0xbe70738a	-0.23481575
36	0xbe16258f	-0.14662765
37	0xbaf262c4	-0.0018492569
38	0x3bc58e9b	0.006028963
39	0x3e9847cd	0.2974228
40	0x3e93d8c6	0.28876323
41	0xbafde056	-0.0019369225
42	0xbe63cc1c	-0.2224583
43	0x3de6ee48	0.11275917
44	0x3ea327e9	0.31866387
45	0xbdec25c0	-0.11530638
46	0xbce3abd3	-0.027791893
47	0x3e25dda9	0.16197838
48	0x3e14c773	0.14529209
49	0xbc7f1b28	-0.015570439
50	0xbdeadaf3	-0.114675425
51	0x3ce2390b	0.02761509
52	0x3d75723d	0.0599234
53	0xbb81b91e	-0.0039588353
54	0x3d7e2e70	0.062056005
55	0x3e800481	0.25003436
56	0x3c41a70c	0.011819612
57	0x3dfe0166	0.124026105
58	0x3d29e9e1	0.04148281
59	0x3e94ee37	0.29087994
60	0xbdbd194a	-0.09233339
61	0x3c2030f2	0.0097772945
62	0xbe2fe26b	-0.17176215
63	0x3e5c543a	0.21516505
64	0x3d50dd0b	0.050992053
65	0x3db297a2	0.08720328
66	0x3e3a2c02	0.1818085
67	0x3e17a90b	0.14810579
68	0xbe179c11	-0.14805628
69	0x3e876dae	0.26450866
70	0x3db8e5fd	0.09028242
71	0x3e143145	0.1447192
72	0xbe75784f	-0.23971675
73	0xbdd8b3fb	-0.105812036
74	0x3e40b1eb	0.1881787
75	0xbe1d6806	-0.15371713
76	0x3e044a08	0.12918866
77	0x3e9e24a1	0.3088732
78	0x3dc03893	0.09385791
79	0x3d181a4d	0.037134457
80	0xbdbdbdee	-0.09264742
81	0x3e00ae3c	0.12566465
82	0x3e1ba9c9	0.15201487
83	0xbdcb45e6	-0.099254414
84	0x3d47a63c	0.048742518
85	0x3e6b1ef9	0.22961034
86	0x3d2745d2	0.04083807
87	0x3d0506a1	0.032477025
88	0xbe420845	-0.18948467
89	0xbda0d82a	-0.0785373
90	0xbdc3b0f4	-0.095552355
91	0xbdb39471	-0.08768547
92	0x3e9f932d	0.31166974
93	0xbe1c0953	-0.15237932
94	0x3cebd9a4	0.028790303
95	0xbe7a7ca9	-0.24461617
96	0xbded932a	-0.11600335
97	0x3c066b87	0.008204347
98	0x3de50336	0.11182253
99	0x3dc66f48	0.09689194
100	0x3e02eaf9	0.12784947
101	0xbd48c796	-0.049018465
102	0xbe5081e2	-0.20362046
103	0xbe19b8f7	-0.15011965
104	0x3c5b3091	0.013378278
105	0xbe6738be	-0.22580239
106	0xbd9285c0	-0.07154417
107	0x3de769dd	0.11299489
108	0x3eb14de9	0.34629753
109	0xbdb2d285	-0.0873156
110	0x3e16e714	0.14736587
111	0xbdc80563	-0.097666524
112	0xbe17c15e	-0.14819857
113	0xbe8fb037	-0.2806413
114	0x3e406a16	0.18790469
115	0x3e14b935	0.14523776
116	0x3e8cfe81	0.2753792
117	0xbcde31ea	-0.02712341
118	0x3dc6be15	0.09704224
119	0xbe3979ad	-0.18112822
120	0xbcad036a	-0.021119792
121	0xbd6c10ef	-0.057633337
122	0xbd5b0a1e	-0.053476445
123	0x3e09ba17	0.13449894
124	0xbea5f298	-0.32411647
125	0xbb9755af	-0.0046183686
126	0xbe8e44d6	-0.27786893
127	0x3ea14852	0.3150049
128	0x3e32d2ee	0.17463276
129	0x3e7ffd1d	0.24998899
130	0x3e58c054	0.21167117
131	0x3e9f6968	0.31135106
132	0xbe9daf8d	-0.30797997
133	0x3dc3114a	0.09524782
134	0xbe14f2c3	-0.14545731
135	0xbd8b1ce1	-0.067926176
136	0x3e98abb2	0.29818493
137	0x3b662e8a	0.0035122954
138	0x3e5e8c04	0.21733099
139	0xbcfe3778	-0.031032309
140	0x3c76f505	0.015073066
141	0xbd013f6b	-0.03155462
142	0x3de344fe	0.110971436
143	0xbe93e4b4	-0.28885424
144	0xbcbc9978	-0.023022398
145	0x3e193160	0.14960241
146	0x3e9c5d5b	0.30539975
147	0xbe34d62a	-0.17659822
148	0x3e2ca82c	0.16861027
149	0xbe24cf66	-0.16094741
150	0xbe36f5db	-0.17867224
151	0xbdb27f71	-0.08715714
152	0x3d8418f0	0.06450069
153	0x3e9cb660	0.3060789
154	0xbe602672	-0.21889666
155	0x3da42a98	0.080159366
156	0x3e27a26d	0.16370554
157	0x3e09c9e6	0.13455924
158	0x3d431a74	0.04763265
159	0x3e9d7ba9	0.30758408
160	0xbce8ad95	-0.028403083
161	0xbe1b0609	-0.15139021
162	0xbe1a7ccb	-0.15086667
163	0x3e0b9bd0	0.13633657
164	0x3d7e0f29	0.062026177
165	0xbc51c67b	-0.012803669
166	0x3e8485c9	0.2588332
167	0xbc1ca45f	-0.0095606735
168	0x3e7c5c91	0.24644686
169	0xbea2cf52	-0.31798798
170	0xbde8effc	-0.113738984
171	0xbe97cf44	-0.2965032
172	0xbd0290b0	-0.031876266
173	0xbeb56a95	-0.35432878
174	0x3e1f1d00	0.15538406
175	0xbdc6e9a8	-0.09712535
176	0xbe24b09e	-0.16082999
177	0xbdd25701	-0.10270501
178	0x3e2b05f6	0.16701493
179	0x3e9471ba	0.28993016
180	0xbdf34b5e	-0.118796095
181	0x3df2fed3	0.1186501
182	0x3e59d4c0	0.21272564
183	0x3eaf43fa	0.3423155
184	0xbd9a098c	-0.07521352
185	0xbeb44ddc	-0.35215652
186	0x3dc52e5e	0.096279845
187	0xbd7588bf	-0.059944864
188	0xbc94b0be	-0.018150683
189	0xbd3e9d1f	-0.04653656
190	0x3e957796	0.291928
191	0xbe21c28b	-0.15796869
192	0xbe099241	-0.13434698
193	0x3dcb5af7	0.099294595
194	0xbca38cc9	-0.019964593
195	0xbdbb800e	-0.09155284
196	0x3d438c82	0.04774142
197	0x3eb12a75	0.34602705
198	0xbdd44140	-0.10364008
199	0xbe54fddb	-0.20799963
200	0x3ddb0a76	0.10695355
201	0x3de60e67	0.11233216
202	0x3e9dd28a	0.3082469
203	0xbea24a45	-0.31697288
204	0xbde65d16	-0.112482235
205	0xbd904f41	-0.070463665
206	0xbdfef1fa	-0.12448497
207	0xbda59cc0	-0.08086538
208	0x3dec5cd9	0.11541147
209	0xbd07b5aa	-0.033132233
210	0x3dd7d856	0.1053931
211	0xbc8e04ee	-0.017336335
212	0x3d929c0a	0.07158668
213	0xbc73371e	-0.014844684
214	0xbd7a8f30	-0.06117171
215	0xbe272fcc	-0.16326827
216	0xbe822e9b	-0.25426182
217	0x3dc88a42	0.097919956
218	0xbe283ded	-0.16429873
219	0xbda68665	-0.081311025
220	0x3e2e94f2	0.17049006
221	0xbde2a936	-0.11067431
222	0x3decfc0b	0.11571511
223	0xbe94cca0	-0.29062366
224	0x3d0a960d	0.033834506
225	0x3e3fcc94	0.18730384
226	0xbcb7cede	-0.02243751
227	0x3d929a5b	0.07158347
228	0xbdb17b32	-0.08666076
229	0xbe9392b8	-0.28822875
230	0xbe5464fe	-0.2074165
231	0x3de20c7f	0.1103754
232	0x3e8be6f3	0.27324638
233	0xbe897183	-0.26844415
234	0x3e841984	0.25800717
235	0x3e2ee3a5	0.17079027
236	0x3e67ff0c	0.22655886
237	0x3e134356	0.14381155
238	0x3e1203d1	0.14259268
239	0x3dfafce5	0.12255267
240	0x3dc10303	0.094244026
241	0xbcac2cff	-0.02101755
242	0x3c10216b	0.00879703
243	0x3e971be7	0.29513475
244	0x3c1e68dd	0.009668556
245	0x3d81429b	0.06311532
246	0xbeb2d06b	-0.34924635
247	0x3c6b751a	0.014371181
248	0xbdc59408	-0.09647375
249	0xbcc381a7	-0.023865534
250	0x3e4e2d4a	0.20134464
251	0x3caf4747	0.021396292
252	0x3e14dba9	0.14536919
253	0xbdb197f3	-0.0867156
254	0xbd5bf9d6	-0.05370506
255	0xbdd673af	-0.10471284

weight_hh_l1 f4 [60, 15]
0	0x3ca7ea1f	0.02049738
1	0x3e32f3bf	0.17475794
2	0xbdab5c25	-0.083671845
3	0x3e33b7ab	0.17550533
4	0x3ea8977b	0.3292807
5	0xbe90d4e5	-0.28287426
6	0x3c1275da	0.008939231
7	0x3dc08b56	0.09401576
8	0x3e78f0b0	0.24310565
9	0x3d9efa1a	0.07762547
10	0x3de8bab0	0.11363733
11	0xbc3cf349	-0.011532613
12	0x3e734c72	0.2375963
13	0x3d920f49	0.07131822
14	0x3e7f7830	0.24948192
15	0xbe56c0b5	-0.2097195
16	0xbdb695db	-0.089153014
17	0x3dd8bcd0	0.10582888
18	0xbdcdc973	-0.10048189
19	0x3cc36269	0.023850637
20	0x3dea830a	0.11450775
21	0x3d333d7c	0.043759808
22	0xbc2a1299	-0.010380411
23	0x3c054f26	0.008136546
24	0x3eba4267	0.36378786
25	0xbe18041a	-0.14845315
26	0xbd22501d	-0.039627183
27	0xbd0d914f	-0.034562405
28	0x3c782765	0.015146111
29	0x3d9c4f52	0.07632317
30	0x3ccfb023	0.025352543
31	0x3eae3c84	0.34030545
32	0x3eadc4f8	0.33939338
33	0xbda285fd	-0.079357125
34	0xbd3936fa	-0.045218445
35	0xbe4f6e39	-0.2025689
36	0x3dc6f07c	0.097138375
37	0x3de15881	0.11003209
38	0x3e320b7c	0.17387193
39	0x3e3eddda	0.18639317
40	0x3e9a9f99	0.30199888
41	0xbe083200	-0.13300323
42	0xbd949c18	-0.07256335
43	0xbdedb737	-0.11607211
44	0xbe1dec3e	-0.1542215
45	0xbdb6cb62	-0.08925511
46	0xbd91ab50	-0.071127534
47	0x3e86f0f0	0.26355696
48	0xbd823bc1	-0.063590534
49	0x3df036f1	0.11729229
50	0xbe642ce3	-0.22282748
51	0x3d79a858	0.06095156
52	0xbcf0b691	-0.02938393
53	0x3e9dfd08	0.3085711
54	0xbde086d0	-0.109632134
55	0x3e73087d	0.23733707
56	0xbe9026ae	-0.2815451
57	0xbd50f4e1	-0.051014785
58	0x3d255193	0.040361
59	0xbc8a9f70	-0.016921729
60	0xbeb2192a	-0.34784824
61	0x3e8f74ae	0.28018707
62	0xbe257ec4	-0.16161638
63	0x3e1c4c06	0.15263376
64	0x3deff62f	0.11716878
65	0xbe14264d	-0.14467736
66	0xbe649310	-0.22321725
67	0x3e957719	0.29192427
68	0x3e03cea1	0.12871791
69	0xbe08dfa4	-0.13366562
70	0x3e6582c2	0.22413161
71	0x3d9d09e8	0.07667905
72	0xbd83fce5	-0.0644472
73	0x3dd04b9e	0.10170673
74	0xbd95ce3e	-0.07314728
75	0x3dc6e66d	0.09711919
76	0x3e827bbd	0.2548503
77	0x3d84dd8a	0.06487568
78	0xbe1c9b1c	-0.15293545
79	0x3c76f0b9	0.015072041
80	0xbe5a7dc1	-0.21337034
81	0x3d8e41f0	0.0694617
82	0x3dd2efb5	0.10299627
83	0x3e5bdbac	0.21470517
84	0x38cce1a8	9.76951e-05
85	0x3e725402	0.23664859
86	0xbb8dec03	-0.0043311133
87	0x3e64745a	0.2231001
88	0x3c0ac9a2	0.008470925
89	0x3eaf4d3b	0.3423861
90	0xbcc2b8cc	-0.023769759
91	0x3dcdd7bf	0.10050916
92	0x3e431f32	0.19054869
93	0xbbd2a95e	-0.0064288815
94	0x3e3e74fa	0.1859931
95	0xbe70d0c2	-0.23517135
96	0xbd80110a	-0.0625325
97	0x3dbe92a8	0.09305316
98	0xbe212b67	-0.15739213
99	0x3dcfc4ec	0.10144982
100	0xbe54e1fb	-0.2078933
101	0xbe848b6a	-0.25887614
102	0x3e9d8c3c	0.30771053
103	0xbe996135	-0.29956976
104	0xbc79c54a	-0.015244791
105	0xbe83f5c9	-0.25773457
106	0xbe207bca	-0.15672222
107	0x3e5e52fa	0.2171134
108	0x3c9a2f29	0.018821316
109	0x3d54c2c5	0.05194356
110	0xbeadc273	-0.33937415
111	0xbe12dffb	-0.14343254
112	0x3e3c43a0	0.18385172
113	0x3e3e3f48	0.18578827
114	0xbda8473a	-0.082167104
115	0x3cea4ed5	0.028602043
116	0xbcf0793b	-0.029354682
117	0x3e6eec53	0.23332338
118	0xbd57a207	-0.052644756
119	0x3e3cb848	0.18429673
120	0xbc2a3133	-0.010387707
121	0xbd4614bb	-0.048359614
122	0xbd0ef001	-0.034896854
123	0xbdaf12b4	-0.08548489
124	0x3cd9a804	0.026569374
125	0x3df70b24	0.12062672
126	0xbe13e41f	-0.1444249
127	0x3e371f16	0.17882952
128	0x3d30e17c	0.04318379
129	0x3dc3d417	0.09561937
130	0x3dddcca4	0.10830048
131	0xbe8b5a75	-0.2721745
132	0x3e1c2d2e	0.1525161
133	0xbe9a09c3	-0.30085573
134	0x3de4bd6b	0.11168941
135	0xbe5dc210	-0.2165606
136	0x3de397e5	0.11112956
137	0x3e980f5e	0.29699224
138	0x3e908592	0.28226906
139	0xbd5bacad	-0.053631473
140	0x3db5b318	0.0887205
141	0xbeadf7f3	-0.33978233
142	0x3e2f1f04	0.17101675
143	0xbc4f749c	-0.012662079
144	0x3e06f25a	0.13178387
145	0xbe25416c	-0.16138238
146	0xbd42f8a8	-0.04760042
147	0x3e830bc2	0.25594908
148	0xbe61d83d	-0.22055145
149	0x3ea8e1ef	0.32984874
150	0xbe992ca0	-0.2991686
151	0xbdcdd7d7	-0.10050934
152	0xbe05c2ca	-0.13062587
153	0x3e459d20	0.1929822
154	0x3e9b958e	0.3038754
155	0xbda6d642	-0.08146335
156	0xbe55ba08	-0.20871747
157	0xbd3a8f3f	-0.045546766
158	0xbe00dea2	-0.12584928
159	0x3da052f6	0.078283235
160	0x3e6ff9e2	0.23435166
161	0x3c9e81de	0.019349035
162	0xbe144be0	-0.14482069
163	0xbdaaf636	-0.08347742
164	0x3e4095bf	0.18807124
165	0xbdf67c0b	-0.12035378
166	0xbdf6515a	-0.12027235
167	0x3dcd8a2a	0.10036118
168	0xbd9b21fa	-0.0757484
169	0xbdfdc14b	-0.12390383
170	0x3cb75598	0.022379681
171	0x3d41b304	0.047289863
172	0x3dce05e4	0.10059717
173	0x3ebd5145	0.36976066
174	0xbd214c5e	-0.03937947
175	0xbe12a621	-0.14321186
176	0x3dc3b38e	0.09555732
177	0x3d5fe6b3	0.05466337
178	0xbd9e9f5f	-0.077452414
179	0x3db477c7	0.08811908
180	0xbea10c04	-0.3145448
181	0x3e1c6225	0.15271814
182	0x3e441827	0.19149838
183	0xbe0c810a	-0.137211
184	0x3eb8a40d	0.3606266
185	0xbe41697b	-0.18887894
186	0xbbb0f626	-0.005400437
187	0x3e226b8b	0.15861337
188	0xbe0161c4	-0.12634951
189	0x3e8d1a88	0.27559304
190	0xbc8f1522	-0.017466132
191	0x3d2f9aa9	0.042872105
192	0x3da603ae	0.081061706
193	0xbe1484c5	-0.14503773
194	0x3de95649	0.11393411
195	0xbcefa3e7	-0.02925296
196	0x3e1f0c57	0.15532051
197	0x3e3e3b53	0.18577318
198	0xbd982063	-0.07428052
199	0x3e9e430f	0.30910537
200	0xbd5b4642	-0.0535338
201	0xbebf542f	-0.37368914
202	0x3e54d666	0.20784912
203	0x3e78b3bc	0.24287313
204	0x3e43dd09	0.19127287
205	0xbe24e17a	-0.16101637
206	0x3e08331f	0.13300751
207	0xbe024b15	-0.12723954
208	0xbe224381	-0.15846063
209	0xbdfa82fd	-0.12232015
210	0xbea37646	-0.31926173
211	0x3e5e9015	0.2173465
212	0x3e99a860	0.30011272
213	0x3da479c5	0.08031038
214	0x3dfce940	0.123491764
215	0x3de00c57	0.10939854
216	0x3d191bc6	0.037380002
217	0x3d037400	0.032093048
218	0xbdfa031e	-0.12207626
219	0x3df61a1f	0.12016701
220	0xbcf072ad	-0.029351557
221	0xbe4f5752	-0.20248154
222	0xbdade49b	-0.08490869
223	0xbdb36e4c	-0.08761272
224	0x3d321d6b	0.043485086
225	0xbba49366	-0.005022454
226	0x3e7fd339	0.24982919
227	0x3dad66b7	0.08466857
228	0x3e345b64	0.17612988
229	0x3e514c78	0.20439327
230	0xbe8add5f	-0.27122018
231	0x3dfdd731	0.1239456
232	0x3d47507e	0.048660748
233	0x3e028939	0.12747659
234	0xbdd14461	-0.1021812
235	0x3e3fe699	0.1874031
236	0xbe7b6da7	-0.24553548
237	0x3db4b547	0.088236384
238	0xbe092008	-0.13391125
239	0x3d966556	0.07343547
240	0xbd2f8ec1	-0.04286075
241	0x3df8c5cc	0.12147102
242	0x3ea61a33	0.32441863
243	0x3e858406	0.26077288
244	0x3d6041a6	0.054750107
245	0xbd194642	-0.03742052
246	0xbd835572	-0.06412782
247	0x3d38e0ad	0.045136143
248	0x3e4857a3	0.19564681
249	0x3e9303b4	0.28713763
250	0x3d959645	0.07304052
251	0xbcd73147	-0.026268614
252	0x3d3767fd	0.044776905
253	0x3d92f4fb	0.071756326
254	0xbd4f23f8	-0.05057141
255	0xbdc2c14d	-0.095095254

bias_ih_l1 f4 [60]
0	0x3de58495	0.11206929
1	0x3ea1c219	0.31593397
2	0x3e44b627	0.1921011
3	0xbddb1d72	-0.106989756
4	0x3d8467b0	0.06465089
5	0x3e8004c1	0.25003627
6	0x3de204d2	0.11036076
7	0x3e638c1b	0.22221415
8	0x3e817061	0.2528105
9	0x3e8fde68	0.2809937
10	0x3e422f3c	0.18963331
11	0xbe13ab39	-0.14420785
12	0x3e97b32c	0.29628885
13	0x3cfc4ddf	0.03079885
14	0x3e44fdeb	0.19237487
15	0x3e930796	0.28716725
16	0x3d78ce94	0.060743883
17	0x3e83db7e	0.25753397
18	0x3dab90cb	0.083772264
19	0x3e699d48	0.22813904
20	0xbe4f2684	-0.20229536
21	0xbdcea96b	-0.10090908
22	0x3d246b37	0.04014131
23	0x3e1faa49	0.15592302
24	0xbd292c2c	-0.04130189
25	0xbde4f97a	-0.111803964
26	0x3d18fcaf	0.037350353
27	0xbd16cd32	-0.036816783
28	0xbda8ae07	-0.08236318
29	0x3bb1f126	0.0054303585
30	0x3c903d1b	0.017607262
31	0x3e3bde06	0.18346414
32	0x3e916071	0.2839389
33	0xbe0bb6a8	-0.13643897
34	0x3e65284e	0.22378656
35	0x3d05da94	0.032679155
36	0x3d255856	0.040367447
37	0x3d1f0636	0.038824283
38	0x3e8500d2	0.25977188
39	0xbe24c2c9	-0.1608993
40	0x3dda0f6d	0.106474735
41	0xbcf4d53c	-0.029886834
42	0xbd45b363	-0.04826678
43	0xbdea521e	-0.11441444
44	0xbe1d74cd	-0.15376587
45	0x3ebb937e	0.36635965
46	0x3e8ea1ce	0.27857822
47	0x3bb5134f	0.0055259834
48	0x3b616285	0.0034390998
49	0x3eaad30d	0.33364144
50	0xba77a7d5	-0.0009447311
51	0xbc36163a	-0.011113698
52	0x3e560a78	0.20902431
53	0x3e9d5f18	0.30736613
54	0x3eacee2f	0.3377547
55	0x3d62e034	0.055389598
56	0x3e03361a	0.12813607
57	0x3d577bb4	0.052608207
58	0xbdba953f	-0.09110498
59	0xbdef367c	-0.11680314

bias_hh_l1 f4 [60]
0	0x3e3efe09	0.18651594
1	0x3e945a76	0.28975266
2	0x3dbc085e	0.091812834
3	0x3d21833b	0.03943179
4	0x3db8bf85	0.090209045
5	0xbddad25c	-0.10684654
6	0xbd6e1b4a	-0.058131494
7	0x3e5ca871	0.2154863
8	0x3e8fdefc	0.2809981
9	0x3e350b86	0.17680177
10	0x3e0cbbd4	0.13743526
11	0xbe1ff414	-0.15620452
12	0x3dc25d3f	0.094904415
13	0x3e810c4e	0.252047
14	0xbe00c6c9	-0.1257583
15	0x3da240ed	0.0792254
16	0x3ca90ca8	0.020635918
17	0x3d1975e9	0.037465964
18	0x3d01d109	0.031693492
19	0xba89076f	-0.0010454486
20	0x3e9929d5	0.29914728
21	0xbe0c3b65	-0.13694532
22	0x3df70764	0.120619565
23	0xbd8f8625	-0.07008008
24	0xbe35002b	-0.17675845
25	0x3dc41069	0.095734425
26	0x3d8f17fd	0.06986997
27	0x3e234fea	0.15948454
28	0x3e5feec9	0.21868433
29	0x3e07804f	0.1323254
30	0xbea1435f	-0.31496713
31	0x3e38ff6d	0.18066187
32	0x3e0c2dc2	0.1368933
33	0x3c35afd2	0.011089282
34	0xbc83f55d	-0.01610821
35	0x3d2db4ca	0.042408742
36	0xbe56493a	-0.20926371
37	0xbe3228d4	-0.17398387
38	0xbd852da8	-0.06502849
39	0x3e1c24dd	0.15248437
40	0x3e3b7255	0.18305333
41	0xbded2949	-0.1158014
42	0x3e344f62	0.17608407
43	0x3d6b6ed8	0.057478756
44	0x3de0b8bd	0.10972736
45	0x3d39cb80	0.04536009
46	0x3e6c3df9	0.23070516
47	0x3e26e61c	0.16298717
48	0x3d515b66	0.051112555
49	0xbda4c80d	-0.08045969
50	0x3e841b5c	0.25802124
51	0x3e13979e	0.14413306
52	0x3e94ef36	0.29088753
53	0x3e272bb9	0.16325273
54	0xbe0a7d50	-0.13524365
55	0x3bbba4cf	0.005726434
56	0xbde2d23e	-0.11075257
57	0x3e0716f3	0.13192348
58	0x3e51a88b	0.2047445
59	0x3db3386c	0.08750996

weight f4 [1, 15]
0	0xbea5bbe8	-0.32369924
1	0x3e020b1d	0.12699552
2	0x3e994345	0.29934135
3	0x3e8d436b	0.27590498
4	0x3e9f16c5	0.3107206
5	0xbe93da50	-0.28877497
6	0xbe51eb95	-0.20500024
7	0x3e878613	0.26469478
8	0x3e98b341	0.2982426
9	0x3e996555	0.29960123
10	0x3e9b88fe	0.30377954
11	0xbe2a42f3	-0.16627102
12	0x3eae608f	0.34058043
13	0xbed2dfc4	-0.41186345
14	0x3e96043e	0.29300112
