models/Regressor.pt (torch, 19219 bytes, 10 tensors)

weight f4 [4, 8]
00000000: e557 95bf 9099 8fbf 4b1e 58be 3e25 cabe
00000010: 4140 513f 5392 293f 7a04 8dbe d099 09c0
00000020: 52fa 8f3e 00ff 9dbf b566 c13e d977 b13e
00000030: 64fe b43d 5705 9a3f 4b27 943f bc68 93be
00000040: f262 b2bf 4fd4 d6bf fbd8 163f 13cb 543f
00000050: b12f 123f 3091 cabf 7cc8 99be 0912 e83f
00000060: d07d 353f b62d 0ebf 7c46 0ebe fdd0 633e
00000070: 9532 ad3f c7af c63f f795 7c3f 7769 62bf
-1.1667448 -1.1218739 -0.21105306 -0.3948154 0.8173867 0.662389 -0.27542478 -2.150013
0.28120667 -1.2343445 0.37773672 0.3466175 0.08837584 1.203288 1.1574491 -0.28790843
-1.3936446 -1.6783541 0.58924836 0.83122367 0.5710402 -1.5825558 -0.3003577 1.8130504
0.708951 -0.555385 -0.13894075 0.22247691 1.3531061 1.5522393 0.9866633 -0.88442177

weight_ih_l0 f4 [60, 8]
00000000: 8795 35be f29d eebd 5cff 37be ed6a 79be
00000010: 502d 24be b0e1 543e 2a73 c73d a485 0a3e
00000020: 35bf dbbc 151d 31be 6837 a73d 9d2d 50be
00000030: db5b 15be afca 26be 3645 1a3e 3a36 343e
00000040: c81d 1fbe 398f 4fbd 9528 523e 6617 983e
00000050: 63df 123e bc2d 1d3c f690 5b3e fce8 ecbd
00000060: 8a24 893c ccd5 5ebe b0a2 5bbe 27a3 26be
00000070: 8c13 223e c461 143e 2a6d 18be 73a5 1a3d
00000080: 0632 383e 893a d1bc bdff d8bc 83d5 ed3c
00000090: e2a3 2f3e 4cc1 933e fbed 21be 4c93 0abe
000000a0: 9ee8 7a3d d5a9 313e db50 873e 5209 893e
000000b0: 8dbc bc3d ad55 3cbe a592 823d a5d3 04be
000000c0: cae2 50be 27cd 443e 30b5 233e 6c62 94be
000000d0: 7112 b73d 7e93 68bb 488b 0abb eae1 21be
000000e0: 07de 703d ac3b 34be b5d4 093e 967f 2f3e
000000f0: c656 2e3e 90ad 7c3d db30 8fbe 249f 06be
00000100: c431 2a3e 3d01 df3c f899 26be 1caf e0bd
00000110: 689d 733e 68c4 223e 1e93 95bd 4aa3 e1bc
00000120: 39c8 92be d748 3cbd 315e 1dbe 43f7 21be
00000130: d2e0 88bc fa2b b73a f792 00be aaae 443e
00000140: dac9 4abe 26e1 453e 461c 493e 7deb 35be
00000150: 3fee bebc 2f13 573d 6bf3 a03d e7ec a63c
00000160: b3a9 ed3d 15fb 043c 1631 13be 0e22 d43d
00000170: c516 70be 0d53 0dbe 6660 52bd 0245 11be
00000180: be5b 04be 4b32 81be ae9a 72bc 3460 c33d
00000190: 3282 0bbe ab0d 4abd 985f 193e 97c3 633b
000001a0: 3a47 0abd 643f 81bd 2387 bf3d fb3c 523e
000001b0: f815 923e c95c 4e3e 1754 923e 2030 66bd
000001c0: 4643 81be 6d33 12be 77c5 453e cca4 793c
000001d0: 06fe d9bd bd19 5abe 681e 83be 259b 55be
000001e0: 10ee 19bd b0ea 213e af0e f43d 1b35 8abe
000001f0: 5660 143e b73e 46be 30f1 87bd 36ef efbd
00000200: 05b2 b9bd fb94 bbbd 3a86 43be 13b9 3abe
00000210: a06f b839 12a7 323d d9a9 9dbd ab7d 6a3d
00000220: 8e33 8cbe 18ac 71bd 4862 893e e8f2 82bd
00000230: 2ca6 8c3e 0a24 0a3e fe2e 44be 01f1 f93d
00000240: c3b9 88bd 8eb4 1bbe 69b3 783e 04ca 30be
00000250: 8494 833d c46c a9bc 3431 613e c7d7 343d
00000260: b8bf de3d 0433 993d 99c8 2ebd eaf5 0dbd
00000270: 3b62 49be bc55 1d3e b11a 653e 9269 323e
00000280: 8956 64be 89eb efbc de6f 10be f732 cfbd
00000290: 0d97 e0bd d2c5 033e fe99 e7bd bbc6 3cbd
000002a0: 06be f8bc f221 003e f297 1dbe 5137 0bbe
000002b0: 386c debd 0c9e 613e c9bd 52bd a042 443e
000002c0: acff c53d d057 0f3d 016c d5bb bea0 61bd
000002d0: 6a04 fd3c a04d 4abd 09a2 aeba b8c0 2139
000002e0: 075c 4dbe e73b 0ebe f245 5c3e 12dd 4ebe
000002f0: 6c9b 6abc 128b 863e c4f0 d33d 8c69 d93b
00000300: 5d7a 7abe ca39 d73d f3fc 24be 90a9 50bd
00000310: 4095 82bd 315a cfbb 1c55 f53c e320 3b3e
00000320: d6f7 0ebc b1ce 423e a122 4b3e 4d22 fbbd
00000330: ee9c 203e babb 10be 4e0e 8cbd 565f 0f3d
00000340: 6cf4 8a3d 48d9 373e cdf9 8bbd c42b 723c
00000350: 1c5e 163e c0b4 79be 5d2d 493e acaf 5ebe
00000360: c417 18bd 575f aebd a1d0 c2bd b01d 9a3d
00000370: 9c74 823e 1101 0fbd 036a e6bd 78c1 0abe
00000380: 1105 98be 52dc 9a3d 48ef a9bd 156f 06be
00000390: ccca dcbd 3261 413e d403 363e fc04 393e
000003a0: 338d 8b3d 1f4d dbbd bd77 64bd e334 bf3d
000003b0: 7d88 6f3e e972 bb3d 1d73 d5bd dc47 20be
000003c0: f698 7cbe f0fe 303d 4eea 07be 7458 5dbe
000003d0: 4cc5 753e 5f6c 06be 5621 fe3b a9f2 583d
000003e0: a916 463d 1fad 08be 1dd6 7ebe 7faa 293e
000003f0: 81eb ec3a 0dde 353e 1eda 01be 8816 6a3d
-0.17732821 -0.116512194 -0.17968506 -0.24357195 -0.1603291 0.20789218 0.09738763 0.13527542
-0.026824573 -0.1729625 0.08164865 -0.203299 -0.14585821 -0.16288255 0.15065464 0.17598811
-0.15538704 -0.050673697 0.20523293 0.29705352 0.14343028 0.009593423 0.21442017 -0.11567876
0.016741056 -0.21761245 -0.21448779 -0.16273175 0.15827769 0.1449042 -0.14885393 0.03775544
0.17987832 -0.025540607 -0.026489133 0.029032474 0.1715236 0.2885841 -0.15813439 -0.13532752
0.061256997 0.17349942 0.26428875 0.26764923 0.09215651 -0.18392058 0.063756265 -0.12971361
-0.20399013 0.19218884 0.15987086 -0.2898134 0.08939064 -0.0035488303 -0.0021140147 -0.15808836
0.05880549 -0.17600888 0.13460048 0.17138514 0.17025289 0.06168896 -0.2796696 -0.13146645
0.16620547 0.02722227 -0.16269672 -0.109708995 0.23790514 0.15895236 -0.07303451 -0.027543683
-0.28668383 -0.045967903 -0.15367962 -0.15816979 -0.016708765 0.0013974898 -0.12556063 0.19207254
-0.19803563 0.19324169 0.19639692 -0.17765613 -0.023306964 0.05250853 0.07858928 0.020376636
0.11604633 0.008116503 -0.14374194 0.10358058 -0.23446186 -0.13801213 -0.051361464 -0.1418648
-0.12925622 -0.25233683 -0.014807386 0.09539834 -0.13623884 -0.04932944 0.14977872 0.0034754032
-0.033759333 -0.06310919 0.09351947 0.20531075 0.28532386 0.20152582 0.2857978 -0.05619824
-0.25246638 -0.1427743 0.19313608 0.015237045 -0.10644154 -0.21298881 -0.25609136 -0.20859964
-0.03758055 0.15812182 0.11916863 -0.2699364 0.14489874 -0.19359861 -0.066378 -0.11715548
-0.09067158 -0.09159275 -0.19094172 -0.18234663 0.00035178382 0.043616362 -0.076984115 0.057248753
-0.27383083 -0.059002012 0.26832795 -0.06393987 0.2747053 0.1349031 -0.19158551 0.12204171
-0.06676056 -0.15205595 0.2428719 -0.17264563 0.064248115 -0.020681746 0.21991426 0.044151094
0.10876411 0.074804336 -0.042671774 -0.03465835 -0.19666378 0.15364736 0.22373463 0.17423084
-0.22298636 -0.029287117 -0.14105174 -0.10117143 -0.10966311 0.12868431 -0.113086686 -0.04608796
-0.030364048 0.12512949 -0.15389994 -0.1359532 -0.10860485 0.22032946 -0.051450524 0.1916604
0.09667906 0.034995854 -0.006513119 -0.055084936 0.030885894 -0.049390435 -0.0013323437 0.0001542595
-0.20054637 -0.13890038 0.21511057 -0.20201519 -0.014319282 0.26277977 0.10348657 0.0066348966
-0.2446074 0.10509069 -0.16112117 -0.050942957 -0.063761234 -0.0063278903 0.02994781 0.18274264
-0.008726081 0.19024159 0.19837429 -0.12262402 0.15684864 -0.14134112 -0.06838666 0.03500303
0.06784901 0.1795398 -0.06834755 0.014780942 0.14684337 -0.24385357 0.19646211 -0.21746701
-0.03713204 -0.085142784 -0.09512449 0.07525194 0.2547959 -0.034913126 -0.11250689 -0.13550365
-0.29691365 0.07561554 -0.082975924 -0.13128312 -0.10780868 0.18884733 0.17774898 0.18068308
0.06814041 -0.10708069 -0.055778254 0.09336259 0.2339191 0.09152777 -0.10422347 -0.15652412
-0.24667725 0.043211877 -0.13272974 -0.21615773 0.24001044 -0.13127278 0.007755439 0.052965794
0.048361454 -0.1334729 -0.24886365 0.16568945 0.0018075557 0.17760487 -0.12680861 0.057150394

weight_hh_l0 f4 [60, 15]
00000000: df0c a9bd 7df5 afbd 47bf 973d 42e7 b33d
00000010: 44fa 17be f263 4e3c 9eb5 103e ee18 4fbd
00000020: 7f9e e43d a7f7 92bd 960f cf3d 1c2d 47be
00000030: 1dde 28be 1a96 f6bd ecec 7d3e 3c9d 90bd
00000040: 8e4c 26bd c405 29be 2f38 6f3e 3ed8 5f3e
00000050: c228 1ebe 3080 2fbe 9cf7 4fbe ecc6 0d3d
00000060: 4413 d8bc fff3 55be 29a9 5dbd 2697 a33d
00000070: c592 33be 77e4 863c e5ea 84bd 5bdd 29be
00000080: 51e5 b1bb 3f8b 373e 4a20 5cbe f3bf 5a3d
00000090: 13ec 5bbd 626e 813e d42f 6abe 5549 66be
000000a0: b540 5a3e 6bfd f9bd ba43 983d ecdc 82bd
000000b0: 9b6b c4bd a5c6 8abd 74d5 1b3e 1e5b b03b
000000c0: 09c4 95be 6655 45be fd14 83bd 1589 2f3e
000000d0: 9376 1fbe 18bb 633e 6e93 87bd b5c6 acbd
000000e0: ac66 793e 4ad9 223e de1a 3b3e cdbc 013e
000000f0: fb21 5dbd 3ab2 3dbe 8760 e8bc 5af1 493e
00000100: e99d c6bd cc11 6dbe 63bd dc3d 7cfb 5b3e
00000110: 8a37 9ebd 7e8f 41be 160c 78be 1381 863d
00000120: 4ea6 523c b2c6 0ebe 1ba5 293d 47fe 0c3e
00000130: b7c1 273e 99e2 223e a505 93bd 0ae9 78be
00000140: 3465 44be 629e 903e ad88 d93d fa6d e73d
00000150: fe71 3abe 5c4d 4a3e 624f 923e 308c 8c3e
00000160: c191 84be 52be 0dbe b5f2 0ebe 39f0 4f3e
00000170: 938b 1bbe a85c 1cbe 4437 ea3d 7c72 9fbd
00000180: 4dd4 afbd ea66 e1bc 3a67 f1bc eeb6 27be
00000190: f1f6 313e 627c 95bd 8acf 073e 7173 3b3e
000001a0: 1aed b53d fae3 903d 5608 4f3e 383d 113a
000001b0: f10c edbd 1dde 763e 8082 8a3d c617 84be
000001c0: d979 e2bd 10a3 0ebe 52bf 883e ef78 39bd
000001d0: 13a8 7abe 7218 e5ba 4ffd 213e 2f52 703d
000001e0: cf10 a93d bc4a 8f3b b8fd 983d abe5 b0bd
000001f0: 3c0a 08be 29e8 64be b04a 35be 5999 a93d
00000200: eafa f5bd 40da 873d 1113 843d ee08 083d
00000210: 1b8d 1dbe 0791 6a3e d2ad 29be 93bc 463e
00000220: f1f5 60be cd96 b0bd 50ad e13d 1d6c 15be
00000230: 19a3 783e 9b0d 0ebe 7949 62be cf3d a1bd
00000240: 929c 403d 3c87 593e bdde b1bd aade cc3d
00000250: fdba b3bd 057e 90bd f6b4 6b3e 638a 76be
00000260: 87ab 01bc 86b5 4f3e bfab 66bd 9e2b 773e
00000270: 1eea 1dbd 64dd 503e 86dd 82be b675 ddbb
00000280: 809f b0bd c903 003e da99 113e 08e9 203e
00000290: e766 a3bd e076 45bb 9cf2 263e 686e aabd
000002a0: d41c 483e dfc3 4bbe 69fd 72bc 148c f6b9
000002b0: 18ca ae3d 38c1 4d3e 96b5 afbc 2714 69be
000002c0: f30b 0f3e bdb4 c13d d87f ba3d 2a45 2fbe
000002d0: 40ec 4f3e 128e 503e e023 7abc 10c5 8fbe
000002e0: 193a 273e 5ee2 19be 5816 cd3d 0c53 073d
000002f0: 691c 02be af9e ee3d 4255 8bbe cd23 cc3d
00000300: d98c fbbd ecbc 8dbd b0ad 05bc 92ae 843e
00000310: c89a 28be be0d fe3d 015d 82bd 7dc4 14be
00000320: 03b3 3bbe 1923 48be dc67 7c3e 1d6a 71bd
00000330: 8840 5c3d 6c6a e93c 3ef9 5d3e 93d8 853e
00000340: 7a38 2c3e 9928 6ebe 4718 a2bc 041d 34be
00000350: a9db 2bbe 43f1 b03c 3119 563e 064b 3dbe
00000360: 11cf 373e 2f29 1dbe 24af 4ebd cc3a 693e
00000370: 243b a8bd 69e1 3a3d 183c 12be fb4a 4a3e
00000380: a4e6 60bd 886e 34be 09ba 963d 9f27 2ebe
00000390: 2d55 5fbe 0f2c ee3c 98c0 383e 3c20 adbd
000003a0: 3a5d c73d ea53 563e b60c 393e 62ae e9bd
000003b0: 63ae 37bd 4060 92bd 8827 41be f13c 3fbb
000003c0: 0312 713e 5383 353e 903e 5bbc b581 023d
000003d0: 4a46 f5bd c2d1 703e c830 9ebd d6bb 4dbe
000003e0: fdbd 0c3d 3e77 473e 61bc 8bbe ab0b 8c3e
000003f0: a7ca 083e 5bf8 62be 92e1 c5bd 649d 863e
-0.08254408 -0.08591745 0.0740953 0.08784343 -0.14841563 0.012597071 0.14131781 -0.050560884
0.11163043 -0.07176142 0.10110395 -0.19450802 -0.1649098 -0.12040348 0.2479741 -0.0706124
-0.040600352 -0.16506106 0.23361276 0.21859834 -0.15445235 -0.17138743 -0.20309299 0.034613535
-0.026376374 -0.20893858 -0.0541164 0.07987814 -0.17536457 0.016466362 -0.06490115 -0.16588347
-0.005428948 0.17924212 -0.21496692 0.053405713 -0.053691935 0.25279528 -0.22869807 -0.22488911
0.21313746 -0.12206539 0.07434793 -0.06389794 -0.095908366 -0.0677617 0.15218145 0.0053819558
-0.29251125 -0.19270858 -0.064004876 0.17142136 -0.15572576 0.2223934 -0.06619917 -0.08436338
0.24355572 0.15903202 0.18271968 0.12669678 -0.053987484 -0.1852502 -0.02836634 0.19720975
-0.09698088 -0.2315132 0.1077831 0.21482652 -0.07725437 -0.18902394 -0.2422336 0.06567588
0.012857033 -0.13942984 0.041417222 0.13768874 0.1638249 0.15906753 -0.07178811 -0.24307647
-0.19179231 0.28245836 0.10621772 0.11300273 -0.18207547 0.19756073 0.2857619 0.27450705
-0.2589245 -0.13842133 -0.13959773 0.20306481 -0.15189962 -0.1526972 0.11436322 -0.07785508
-0.08585415 -0.027514894 -0.029468168 -0.16378376 0.17379357 -0.07299115 0.13262764 0.18305756
0.08883114 0.07074733 0.20218024 0.00055404333 -0.11574734 0.24108167 0.06763172 -0.25799388
-0.11058397 -0.13929391 0.26708466 -0.045281347 -0.24478178 -0.0017478599 0.15819286 0.058672126
0.08255159 0.0043729227 0.07470268 -0.08637556 -0.13285154 -0.22354187 -0.17704272 0.08281202
-0.12010749 0.06633425 0.06448949 0.03321164 -0.15385859 0.22906886 -0.16570213 0.19407873
-0.21968819 -0.08622513 0.11019385 -0.14592023 0.24280967 -0.13872378 -0.2209834 -0.07873117
0.047024317 0.21242994 -0.08685062 0.10003407 -0.087758996 -0.07055286 0.2301825 -0.24076228
-0.00791443 0.2028409 -0.056316134 0.24137732 -0.03855335 0.20396954 -0.25559634 -0.006758417
-0.08624172 0.12501444 0.14218846 0.15713894 -0.079786114 -0.003013067 0.16303486 -0.083218396
0.19542247 -0.19898938 -0.0148309255 -0.00047025143 0.0853464 0.20093238 -0.021448892 -0.22761594
0.13969402 0.09458301 0.091064155 -0.17116228 0.20304966 0.20366696 -0.015267342 -0.28080034
0.16330756 -0.15027758 0.10014027 0.033038184 -0.1270615 0.1165136 -0.27213484 0.09967766
-0.12282724 -0.069207996 -0.008159086 0.25914437 -0.16465294 0.12404965 -0.06365395 -0.1452808
-0.18330006 -0.19544639 0.24648994 -0.058939088 0.05377248 0.028493129 0.2167711 0.26141796
0.16818419 -0.23257674 -0.019786967 -0.17589194 -0.16783012 0.021599418 0.20908047 -0.1848565
0.17950083 -0.15347742 -0.050459996 0.22776335 -0.08214405 0.045625124 -0.14280736 0.19755165
-0.054907456 -0.1762029 0.07359702 -0.17007302 -0.21809836 0.029073743 0.18042219 -0.08453414
0.097345784 0.20930448 0.18071255 -0.11410214 -0.044844043 -0.071472645 -0.18862736 -0.002918061
0.23542027 0.17725877 -0.013381615 0.03186198 -0.11976297 0.23517516 -0.07724148 -0.20091185
0.034360874 0.19479081 -0.2729216 0.27352652 0.13358556 -0.22165053 -0.09662165 0.26291955

bias_ih_l0 f4 [60]
00000000: ad5f 2d3e 9465 883e a615 883e 676d 303d
00000010: 3315 233e 79a1 5ebe e585 e1bd 73d2 4d3d
00000020: 1e4c 9c3c adac 38be b10a 96bd f6b4 debd
00000030: 44d2 5bbe f9fb 853d d4c6 493e 5657 b53d
00000040: ff91 a7bd aa33 48be c6b4 2fbe ad70 ac3c
00000050: 71b0 5f3e b978 81bd aeaa 11be 17d9 08be
00000060: cc3b 403a 750b 51be 1325 5bbe fb44 973e
00000070: b74b a8bd f615 d1bc 34c3 61bd 31c7 88be
00000080: e796 aebd d077 223d f63f 14be fa97 e43c
00000090: 9551 1c3d 20f6 96be d456 663e b31f 7f3e
000000a0: 5d34 0b3e e50a 8ebd 78d0 313e 9240 90be
000000b0: 918c acbd dcad 9dbd 99f2 4ebd 4ca2 193e
000000c0: 3875 a3bd b333 4bbc 10a6 0abd e8ed 4dbe
000000d0: c346 41bd 48a4 5bbe 7b55 353e 154e 373e
000000e0: 5016 823e 41c7 39bd dc3a 5e3d 75b8 943d
0.16931029 0.26639998 0.26579016 0.043073084 0.15926056 -0.21741284 -0.110118665 0.05024953
0.019079264 -0.1803462 -0.07326258 -0.10874359 -0.21466929 0.065422006 0.19704753 0.08854549
-0.081821434 -0.19550958 -0.17158803 0.021049822 0.21844651 -0.06321854 -0.14225265 -0.13364063
0.0007333129 -0.20414527 -0.21400861 0.29544815 -0.082175665 -0.025523167 -0.0551178 -0.2671447
-0.08524876 0.039665043 -0.14477524 0.0279045 0.03816374 -0.29484653 0.2249406 0.24914436
0.13594194 -0.06935672 0.17364681 -0.28174263 -0.084252484 -0.07699177 -0.050524328 0.15003318
-0.07981342 -0.012402463 -0.033849776 -0.20110285 -0.047186624 -0.21449387 0.1770839 0.1790088
0.25407648 -0.04535604 0.05425535 0.07261745

bias_hh_l0 f4 [60]
00000000: 9122 7c3e 69f7 8d3e 9599 bcbd 06c3 40be
00000010: 4d20 67be 0792 abbd de50 843e 89ff b93d
00000020: 3495 883e f6de 5a3e d758 373d 76bb 17be
00000030: 3d28 963e fcdd 7d3e 0b02 083e 5011 21be
00000040: 961f 7a3e a34b 853d f76d 543e 5200 fe3d
00000050: 4934 363e e4a9 3dbe 4a66 14be c7c5 223e
00000060: e48c fbbc a2fa 3bbe 649c 7e3e eb35 123d
00000070: fa3a 7f3e bd1a 39be 6aa8 d23d 5edf 0cbe
00000080: 04f2 17be 7aed bebd 44c1 0abe 94b8 383e
00000090: 9f3f 1ebc fac0 213e ee0e c53d e6f4 323a
000000a0: d4c6 41be 4d4b 62be c1ea 15bd fecf 8ebe
000000b0: dfb3 8bbd 57f4 a5bc ebc3 c43c 6293 aebd
000000c0: 9c40 5e3e c0d8 263e 1eaa bbbc b16a 78bd
000000d0: fc90 213e 3f75 6a3e 5aed 56be ac13 72bc
000000e0: 1bbc 40bc 678c 55bd 28ea 853e 92e4 83bc
0.24622561 0.2772782 -0.09208981 -0.18824396 -0.22570916 -0.08377462 0.25842947 0.090819426
0.26676333 0.21374115 0.04476246 -0.14817604 0.29327574 0.24791712 0.1328203 -0.1572926
0.24426112 0.06508567 0.20745073 0.12402405 0.17793383 -0.1852184 -0.14492145 0.15895759
-0.03070683 -0.18357328 0.24864346 0.03569595 0.24924842 -0.18076606 0.10286029 -0.13757083
-0.14838415 -0.09322639 -0.13550287 0.18039161 -0.009658723 0.15796271 0.09621988 0.0006826654
-0.18923503 -0.22099037 -0.036600832 -0.2789306 -0.06821417 -0.020258112 0.024019202 -0.08524205
0.21704334 0.16293621 -0.022908267 -0.060648624 0.15777963 0.22896288 -0.2098898 -0.014775198
-0.011763598 -0.05213585 0.2615521 -0.016100202

weight_ih_l1 f4 [60, 15]
00000000: 50de 833e 8412 24bd ae2f 8ebd 8123 2fbe
00000010: 9e9a e2bd ab71 ff3d dfff 1e3e e415 18bd
00000020: 5b0a 933e 19c9 0cbe 812b 6c3d df4a 8c3e
00000030: e62f 75bb 839c 273e d091 18bd 9d19 4cbe
00000040: 5424 14be e644 c13d a4eb 13be 4f0e 273d
00000050: 3fbf 813e 9195 ba3d 5e14 4fbd 31fe 973d
00000060: 335b 14be 78cc 61be 86ed 44be de09 49be
00000070: 92a0 783d 112c 4f3d dab1 ffbd 297f 96be
00000080: e8d6 d93d 5972 3abe f607 93bd d60c 33be
00000090: 3869 d5bd 470b cb3d e030 84be a77d 08be
000000a0: 8599 1b3e 24ac babd e957 87bd 372f e9bd
000000b0: 5166 9b3d e51b 39be 1dfd 22bc 3309 ba3d
000000c0: 6c84 74bd 1665 033d 8c43 2dbe 8110 223e
000000d0: 4fbc b13d 9664 b33b 8fd9 3bbe e8bf 7f3d
000000e0: bb4f 563e 6671 c8bc 1025 a43d 3fda 743d
000000f0: 90c0 9dbd 410e 72bd e017 5d3e 78a9 fdbc
00000100: 213f 6fbe c2fb b23c d5e6 2c3e a56d abbd
00000110: 0646 00be 5bba 7f3e fa9f c33d b637 a8bb
00000120: bf4a 5c3d 2f42 88bd 960c af3c f633 26bc
00000130: 9144 0ebe 482f 403d 51d9 fcbc 9ab6 3ebc
00000140: 2252 cdbd 832b 7f3d f02c 70be fadd 4f3d
00000150: 2b80 353e 6934 c7bc 2d4e 26be 1a6e 203d
00000160: 6d9b 84bc d89e 81be e85a 15be 4959 603e
00000170: abc0 1c3e 8da7 2f3e cd84 4b3e 445d c13d
00000180: 267b ef3d dccd 103e 314c f9bc 5ad7 e43b
00000190: 93ae 593e b012 f6bc 062e 1fbe 8cf7 3cbe
000001a0: 301c 293e c921 3d3e cf33 763e 765f aa3d
000001b0: f49f 503e 275d 6abe a74a 67be e831 80be
000001c0: 719b 7d3e 5550 1e3c eecc 21be 4cae 023e
000001d0: e907 b7bd da39 50be bb00 0b3e 682f ad3d
000001e0: 6950 33be 6592 19be be50 023e 7d4e 523e
000001f0: 2df5 f63c 5bba 15be 2523 c43d c897 8a3c
00000200: 9bad 53be f82e 0abe 1254 a03d b2ba 073e
00000210: 4bea d0bd b8f7 173e 4020 0abe c5bd 643e
00000220: a752 283e bf76 fc3b c5b3 c43d b6b4 483d
00000230: fa67 e5bd da12 203d fa14 813d 4ac6 8bbc
00000240: 2306 933e 07dd 0ebe 5f91 41be 7250 07be
00000250: 66e1 8fbe 1c73 3a3e f948 9ebd 95a5 64be
00000260: 53d0 8dbd bf45 54be fb31 20be e16f 313e
00000270: e400 1cbe 06e6 e83d 43ab 453e 14c3 143d
00000280: b784 953d 9482 d4bd d5b6 783e ad81 563e
00000290: 9825 a73c c3a5 843e f571 85be eff4 3abd
000002a0: 551a 293c a7b3 87be 7712 113e 6084 85bd
000002b0: 970d edbd 8965 2bbe 3cd1 dd3d e94c 54be
000002c0: 7030 5abc 4cbc 1d3e 2aa5 1c3e c908 1e3d
000002d0: 4c71 6bbd 498b 1dbe cf56 d43d d312 e43c
000002e0: e31e 4e3e 272d 0e3e b845 7e3e f443 7ebe
000002f0: 386d 7d3e a4fb 9dbd 4675 e2bd 7722 203d
00000300: 9977 e2bb de74 203c d37e 413e af9f 13be
00000310: f7b6 e83d fa7f 35be a722 c13c 29bf 6b3e
00000320: 640b 113e 3b08 573e 73b9 173e 6731 71bd
00000330: 4223 103d 7b8c a9bd 192f 473e 2669 f53d
00000340: b4d7 21be 2243 783e 8a51 043d ca27 51bc
00000350: a765 9dbd df91 dbbd 90bf 6c3b 0647 e4bd
00000360: c237 6cbe 78b8 05be 431a 9bbd 062d 6d3e
00000370: 4c90 343e e71f 21be 720d 003d 3f3b edbd
00000380: 61e7 ffbd df98 f0bb 6cfe 05be e734 d33d
00000390: 9fb0 1dbe f3bf 6c3c 3a68 d5bd 1259 20bd
000003a0: 7c98 4a3e df47 f7bd cd34 ca3c 8325 523e
000003b0: 0607 053e 43c3 b9bd 802f 49be a04e 07be
000003c0: 4910 b1bd 627e e03d 754e 6ebd 860f 3d3e
000003d0: b49f 28be 7fea a6bd af73 c73d ab87 3a3e
000003e0: fce2 873e 27c1 383d e8a0 093c 37c0 eabd
000003f0: fd97 1a3e 355c 17be 9168 87bd e1b6 37be
0.25755548 -0.04005672 -0.06942688 -0.17103387 -0.11064647 0.12472852 0.15527295 -0.03713025
0.28718838 -0.13748588 0.057658676 0.27400872 -0.0037412583 0.16368298 -0.037248433 -0.19931646
-0.14466983 0.094369695 -0.14445359 0.04078513 0.25341222 0.09110559 -0.050556533 0.0742153
-0.14487915 -0.22050655 -0.19231233 -0.1963267 0.060700007 0.050579134 -0.12485094 -0.2939389
0.10636693 -0.18207683 -0.07179253 -0.17485365 -0.104204595 0.0991426 -0.2581854 -0.13329183
0.15195282 -0.091148645 -0.066085644 -0.11385959 0.07587875 -0.18077047 -0.009948042 0.09083786
-0.0596966 0.032078825 -0.16920298 0.15826608 0.08678495 0.0054746373 -0.18344711 0.062438875
0.20928852 -0.024468135 0.080148816 0.05977845 -0.07702744 -0.059095625 0.21591139 -0.030964598
-0.23363926 0.021848563 0.1688493 -0.083705224 -0.12526712 0.24973433 0.095519975 -0.0051335944
0.05378222 -0.066532485 0.021368306 -0.010144224 -0.13893344 0.04692009 -0.030865343 -0.011640215
-0.10025431 0.062297355 -0.23454642 0.050748803 0.17724673 -0.024316983 -0.16240759 0.0391675
-0.016187394 -0.253165 -0.14585459 0.2190906 0.15307872 0.1715376 0.19874878 0.09441617
0.116934106 0.14141029 -0.030431839 0.0069836797 0.21258001 -0.030038208 -0.155449 -0.18453807
0.16514659 0.1846992 0.24043201 0.08318989 0.20373517 -0.22887097 -0.22587071 -0.25038075
0.24766327 0.009662707 -0.1580083 0.12761801 -0.089370556 -0.20334569 0.13574497 0.08456308
-0.17511143 -0.14997251 0.12726113 0.20537753 0.030146206 -0.1462187 0.09577016 0.016918078
-0.20671694 -0.1349448 0.07828535 0.13254812 -0.10200938 0.14840591 -0.13488865 0.22338016
0.1643778 0.0077045853 0.09604601 0.049000464 -0.112014726 0.03908048 0.06302829 -0.017062325
0.2871562 -0.13951503 -0.18903111 -0.13214281 -0.28101653 0.18207973 -0.07728762 -0.2232879
-0.069245 -0.20729731 -0.15644066 0.17327835 -0.15234715 0.113719985 0.19303612 0.036318853
0.07300704 -0.10376468 0.24288495 0.20947905 0.020403668 0.25907716 -0.26063505 -0.045643743
0.010321219 -0.2650425 0.141672 -0.06519389 -0.11574858 -0.16737951 0.10830924 -0.20732464
-0.013317212 0.15403861 0.1529738 0.038582597 -0.057481095 -0.15385164 0.1036812 0.027841007
0.2012897 0.13884412 0.24831283 -0.2483061 0.24748695 -0.07714012 -0.110575244 0.03909537
-0.00691123 0.009793488 0.18896036 -0.14416383 0.11363023 -0.177246 0.023576094 0.2302214
0.14164501 0.20999233 0.14816837 -0.058885004 0.035189874 -0.08278748 0.1945156 0.11982946
-0.1580494 0.24244359 0.032304324 -0.012765834 -0.07685404 -0.10721182 0.0036124922 -0.11146359
-0.23068145 -0.1305865 -0.075733684 0.23161706 0.1763317 -0.15734826 0.031262822 -0.11583566
-0.12495304 -0.0073424424 -0.13085335 0.10312825 -0.15399407 0.014450061 -0.1042027 -0.039147444
0.1978473 -0.12074255 0.02468338 0.20522122 0.1299096 -0.09070446 -0.19647026 -0.13213587
-0.08645684 0.109616056 -0.05818029 0.18462953 -0.16467172 -0.08150195 0.09738862 0.18215816
0.26540363 0.04510608 0.008400179 -0.11462443 0.15097041 -0.14781268 -0.06611741 -0.17940857

weight_hh_l1 f4 [60, 15]
00000000: 4a0a 61bd 5197 c33d 0a70 953e 61ee 7f3e
00000010: 8bc7 453e 8dff b6bd 1891 93bd f4ce 4f3c
00000020: 706b ca3d b36e 143e af3c 84bd 901d 42be
00000030: fcb4 71be 8000 8f3e 9013 a0bd 798c 15bd
00000040: fdca 1bbe bbd9 01be 85b3 873d c472 dd3d
00000050: 8aaf 02be d61c e6bd b394 513e 27b3 18be
00000060: c7f9 3fbe 4cec 27bd a28b 5e3e 7dbf 5a3d
00000070: d41b af3c 5dfd 6cbd 9c38 f53d 13c2 2bbe
00000080: 60d0 5d3e 8743 cf3d 067e 53bc c845 0e3d
00000090: 26d4 11be aab2 6e3e 5190 213e 5201 25be
000000a0: 8268 90be 66f5 b4bd 3c2e 053e 5e40 c9bd
000000b0: 80dd 6d3e af50 29be 7e5e 8cbe fcc2 1d3e
000000c0: 5c19 edbd 4e2b a6bd 7be9 a6bd fef9 42bb
000000d0: c7d6 4dbe 6818 5cbe de3e 1b3e 92cd 83bd
000000e0: c340 32be d57d 1abd 5d13 57be 953e 813d
000000f0: 3853 a73d 4a9f 5b3e dccf 2dbe cc22 173c
00000100: 5130 cc3d b237 723e 09d5 27be 79cb 193e
00000110: 252c 053e f7aa 493e b934 60be 824a 253e
00000120: a67c 1dbe f7de 04be e636 393d 0b7c 643e
00000130: 959d 23be a8fc 0c3e 7375 f4bc 340e b13d
00000140: 90b7 303e 98a9 5c3d 0a23 5fbe 2c59 c4bd
00000150: 09e8 3a3d ac4e 5cbe 0895 873c bc22 0bbe
00000160: 5d05 93bd 2754 823d e4b4 43be 5929 18be
00000170: 9f3e cc3d 6297 8bbe 9170 473e 314e 60be
00000180: 612c e9bc e63d 0c3d 922d a23d 7484 36be
00000190: 3dc3 513d 4c74 ed3d e285 733e 427b 5dbe
000001a0: c0ed 12be 5b93 ec3d fbbb e13c 6854 5bbe
000001b0: a0ee 7fbe 12ec 41be 87a2 38be c6f4 03be
000001c0: 0094 5fbe 2e64 80be bdc1 4ebc db73 443e
000001d0: 2229 c8bd a882 883d 908e 06bd 28eb 073e
000001e0: 3a4a 21be 3fb3 073d 3f46 603e de25 273e
000001f0: 1c14 70be b217 7abd 8e40 a4bc 3fb9 dbbd
00000200: 7727 44be 496d 4dbe 57c8 443e a381 adbd
00000210: 1606 9b3b e5f9 593d 94c5 37be fdaa 8fbc
00000220: 6ecb e53d 1e0f e2bd 801e eb3d 78d5 4abd
00000230: 1296 113e 2935 403e 5562 d33d 8f4f f03c
00000240: 7728 3abe e0d2 7f3d 0e35 003e b1c7 08be
00000250: cbad 66be ec3a 4d3e e972 d1bd 03cd 443c
00000260: e782 fdbc a6e8 4e3e fb3d 573e b05a 243e
00000270: ecc2 87bd afd2 633e d6c0 163e f279 873d
00000280: 3e98 7fbe 80df 08be f713 98be 0bbc 4e3e
00000290: b31a 7c3e 1824 023e 4ec7 713d 3b15 b23d
000002a0: 6c0d 8b3e 1603 1fbe 15e3 e6bd fedd 6dbe
000002b0: b8ae 8abb f458 af3c 0fa7 b73d acde 50be
000002c0: d011 68bd 54bd 71be 4641 50be 77cc 1a3c
000002d0: ba51 96be 289e e63c 5601 49be 0998 14be
000002e0: 54eb c2bd fc19 7ebe 9867 653e 2e8a 813e
000002f0: 2c6a e7bd 69b5 c03d ca42 b93d 6e75 743d
00000300: 4595 9bbd c58d 5abe 089c 363e 5a0a 4bbe
00000310: b808 bebc 0e6e 3abc 5c86 e8bd 1772 89bd
00000320: 7323 79be 1aac f9bb c563 6dbd 7c7f 4f3e
00000330: d9a1 e9bd 27ae 673e b704 9d3c 638a b3bd
00000340: 47cc b1bd ba0e 44bd fc26 84bb 42be 2ebd
00000350: f64a ac3d f51b 6a3e d4cd 093d ca64 793d
00000360: 99f3 123e f50a 823d 5287 d43d 7f7e 113e
00000370: 6dce 6f3e b850 89be 8674 a33d 2d82 d9bc
00000380: 5425 a0bd 1361 10be 5d23 ea3d 5e24 8e3e
00000390: 2a21 2fbe 53ab c83d 948b 333e faae 7a3d
000003a0: 74b4 353d 8f7d 623e c194 463d 2df6 d8bd
000003b0: 6aac 3abd 3e59 2a3d 0a62 c33d 1226 c8bc
000003c0: 260a a33d f525 983d 07e0 54be 03f1 933d
000003d0: a0ff 203e ca3c aa3b 295f 25bd 3c07 4b3e
000003e0: 55d9 77be 5b1f e6bd 97a9 f0bd 6b86 463e
000003f0: b970 81be 1e55 413c f2e2 8bbe 7d24 4dbd
-0.054941453 0.09550346 0.29187042 0.24993278 0.19314401 -0.08935461 -0.07205409 0.012683619
0.09883773 0.14495353 -0.06456887 -0.1895659 -0.23604196 0.2793007 -0.07816231 -0.03651092
-0.15214153 -0.12680714 0.066260375 0.108129054 -0.12762275 -0.11235969 0.2046688 -0.14912091
-0.18747626 -0.040996835 0.21732953 0.053405274 0.021375574 -0.057858814 0.11973688 -0.16773252
0.2166152 0.10120302 -0.012908464 0.034734517 -0.14241084 0.23310342 0.15777709 -0.16113785
-0.28204733 -0.088358685 0.13005918 -0.0982673 0.23229027 -0.16534685 -0.27415842 0.15406412
-0.115771025 -0.081137285 -0.081500016 -0.0029751058 -0.20101462 -0.21493685 0.151607 -0.06435694
-0.17407517 -0.03771766 -0.2100348 0.06310765 0.081701696 0.21447483 -0.16973823 0.009224605
0.09970153 0.23654059 -0.1638986 0.15019025 0.13005121 0.19694124 -0.21895112 0.16141704
-0.15379581 -0.1297568 0.04521837 0.22312944 -0.15978082 0.13768256 -0.02984116 0.08645287
0.17257524 0.053872675 -0.2179071 -0.09587321 0.045631442 -0.21514386 0.016550556 -0.13587469
-0.07178757 0.06363707 -0.19111973 -0.14859523 0.099728815 -0.27263933 0.19476534 -0.21904828
-0.028463544 0.03423872 0.07918848 -0.17823964 0.051211584 0.115944475 0.23781541 -0.2162905
-0.14348507 0.11551543 0.027555456 -0.21418917 -0.24993372 -0.1893771 -0.1803075 -0.12886342
-0.21833801 -0.2507643 -0.012619433 0.1918482 -0.097734705 0.06665546 -0.032850802 0.13273299
-0.15750971 0.033129927 0.21901797 0.16323039 -0.23445171 -0.061057754 -0.020050313 -0.10728692
-0.1915568 -0.2006122 0.19217049 -0.08471992 0.00473095 0.053216834 -0.17946464 -0.017537588
0.11220442 -0.110380396 0.11480427 -0.049519986 0.14217404 0.18770279 0.1032149 0.029334811
-0.18179499 0.062456965 0.12520239 -0.13357426 -0.22527234 0.20042008 -0.102269955 0.012011769
-0.030946208 0.20205936 0.21019737 0.1605022 -0.06628975 0.22248338 0.14721999 0.06615056
-0.2496042 -0.13366508 -0.29702732 0.2018892 0.2461956 0.12709081 0.059027962 0.08695456
0.27158678 -0.15528521 -0.11273781 -0.23229215 -0.004232254 0.02140472 0.08967411 -0.20397443
-0.056657612 -0.23607379 -0.203374 0.009448162 -0.29359227 0.028151587 -0.19629416 -0.14511122
-0.095175415 -0.248146 0.22402799 0.25300735 -0.112995476 0.09409601 0.09045942 0.059682302
-0.0759683 -0.21343143 0.17832959 -0.19828168 -0.023197517 -0.011378778 -0.11353752 -0.06711214
-0.24329929 -0.007619393 -0.057956476 0.20263475 -0.11407823 0.22625028 0.019167287 -0.087666295
-0.08681541 -0.047865607 -0.0040329676 -0.042661913 0.08412735 0.22862227 0.03364356 0.060887136
0.14350738 0.06349746 0.10377373 0.1420841 0.23418589 -0.26819396 0.079812095 -0.02655133
-0.0781962 -0.14099531 0.11432526 0.2776212 -0.17102495 0.097983025 0.17533714 0.061202027
0.044361547 0.2211821 0.048481707 -0.10593829 -0.045574583 0.041589014 0.09540184 -0.024432216
0.0796092 0.07429115 -0.20788585 0.07223704 0.15722513 0.005195235 -0.040373955 0.19826978
-0.24204 -0.11236449 -0.11751097 0.19387214 -0.25281313 0.011800079 -0.27321583 -0.050083626

bias_ih_l1 f4 [60]
00000000: 6d83 533d df13 81be c4eb 59be bec5 a3bc
00000010: 93dd 353e 6b8f 37be e0a8 513d 76f9 36be
00000020: 0bf3 403e cb5d d9bc 3e98 54bc 19b1 4fbe
00000030: ad94 42be 5abf 0fbc 6143 3a3d a729 393e
00000040: c9a4 6abe 60a5 b03d 102c 593b 1ec8 423e
00000050: 5e64 febd 54d9 6b3d 2821 8a3d cd5d dc3d
00000060: 47c5 42bd 8587 fe3d 6aae edbc cf4a e33d
00000070: 9267 3dbe 9d77 4dbe 2709 80be eae3 26be
00000080: 39ec 90bd af2f 9c3d 5f50 b9bd b291 34be
00000090: c033 04bd 19f8 e2bd fade ff3d 6c2e 30be
000000a0: dbad 09be a2ac 50be 3e1d bebb 2a84 a9bc
000000b0: cdf3 4dbd d968 983e b577 cdbd 921d 7c3b
000000c0: e4b5 db3d a096 823e be2a 413e 546d 253c
000000d0: c064 0abe 96bc 803d 8e73 503e ecf7 103d
000000e0: b0b5 273e 8875 813e 9a88 28be 8d30 58bd
0.05163901 -0.25210473 -0.21281344 -0.019991752 0.17760305 -0.17925803 0.051186442 -0.178686
0.18842714 -0.026533982 -0.0129757505 -0.20282401 -0.19002028 -0.008773649 0.045474414 0.18082295
-0.22914423 0.08625293 0.0033137836 0.19021651 -0.12421487 0.057580307 0.06744605 0.107600786
-0.04755142 0.12428192 -0.029013831 0.11098253 -0.1849654 -0.2006516 -0.25006983 -0.1629788
-0.07076306 0.076262824 -0.09048533 -0.17633703 -0.032275915 -0.11082477 0.12493701 -0.17205209
-0.13445227 -0.20378354 -0.005801826 -0.020692904 -0.050281335 0.29767492 -0.10032598 0.0038469774
0.10728052 0.25505543 0.18863961 0.010096867 -0.13514996 0.0628597 0.2035658 0.035392687
0.16377902 0.25284982 -0.1645836 -0.052780677

bias_hh_l1 f4 [60]
00000000: 04de 43be 6f92 6b3d fb4e 663e 1ccc 41bc
00000010: 76a8 a23d f43a 9a3d 43eb c3bc 9816 273e
00000020: 1ee4 823c 0bc7 59be 8385 30be e4bf 6dbe
00000030: dd88 543d 1124 e83d 3188 f8bc 1d05 8c3e
00000040: 590e 4cbd 381a c03d 8600 8c3e 2f7f 2d3e
00000050: 0495 76bc 19dd 6a3e 1a72 43be 4ab2 973d
00000060: c6f7 503e 8410 f3bd 6c40 62be 3b0a fe3d
00000070: 7045 febd 12cd 00be e0a4 4c3c ec7b 40be
00000080: 499e 8a3e b40e 703c 8dfe eebd 8af9 3e3e
00000090: 7963 193d 7612 a33c 3776 21be 52c8 923e
000000a0: e43a f1bd 0e24 353e 6e00 68bd ac08 c23d
000000b0: c59f 153e 425b 1abe 7917 32be 1382 5bbe
000000c0: d53e 683e 58f1 853e 0fbc cfbd 475c 15be
000000d0: 1d88 bc3b 91b5 ef3d 29b8 d63d 007d 53bc
000000e0: b8a0 11be 8754 863e de1a 46be c314 7bbe
-0.19127661 0.057512697 0.22491066 -0.011828449 0.079422876 0.07530776 -0.023915892 0.16317213
0.015977915 -0.21267335 -0.1723843 -0.23217732 0.051888335 0.11335004 -0.030338379 0.2734765
-0.04981837 0.09380001 0.2734415 0.16943048 -0.0150501765 0.22935905 -0.19086495 0.07407053
0.20407018 -0.118683845 -0.22094887 0.12404295 -0.12415588 -0.12578228 0.012490481 -0.18797272
0.27073887 0.014651943 -0.116696455 0.18649879 0.03744838 0.019906264 -0.15767752 0.28668457
-0.117788106 0.17689535 -0.056641035 0.0947431 0.14611728 -0.15073875 -0.17391767 -0.21436338
0.22680219 0.26160693 -0.10143291 -0.14585982 0.0057535307 0.11704553 0.104843445 -0.01290822
-0.14221466 0.26236364 -0.19346187 -0.24519639

weight f4 [1, 15]
00000000: 24e5 12be 5c15 9a3c ac02 0b3e 53e2 0f3e
00000010: cb8c 41be 5e3e c7bd 43bd c3bd 48fe adbd
00000020: 3a0b 48be 18df c03d 4cdd ebbd 54a1 8abe
00000030: c688 44be ab49 03be 802b eebd
-0.14345223 0.018809013 0.13575238 0.1405118 -0.18901365 -0.097286925 -0.09557583 -0.08495766
-0.19535533 0.09417552 -0.115168184 -0.2707621 -0.191928 -0.12821071 -0.11629391
