models/Regressor.pt (torch, 23834 bytes, 6 tensors)

weight f4 [4, 8]
00000000: 0000 0000 0000 0000 0000 0000 0000 0000
00000010: 0000 0000 0000 0000 0000 0000 0000 0000
00000020: 2ca3 fd3e d054 1cbf 71ad 5cbf d27a 06be
00000030: be0b 3ac0 0b68 f1bf f131 153e 40ff 0fbb
00000040: 6309 f6bf 91ec d3bd 0dea 4ebf 2199 04c0
00000050: 55b5 803f 7400 21bf 81ed 9bbf 39fd 93bf
00000060: d378 fd3f a680 cabe cfe7 ccbf a0f4 08bf
00000070: 94c5 e93f ed44 733e b718 9abd 60f4 37be
0.0 0.0 0.0 0.0 0.0 0.0 0.0 0.0
0.49538553 -0.61066914 -0.8620215 -0.1313279 -2.9069667 -1.8859876 0.14569832 -0.002197221
-1.9221615 -0.10347856 -0.80825883 -2.0718462 1.0055338 -0.62891316 -1.2181855 -1.1561652
1.9802498 -0.39551276 -1.6008242 -0.5349827 1.8263421 0.23756762 -0.07524245 -0.17964315

weight_ih_l0 f4 [120, 8]
00000000: 92e2 0fbc 10ca 65bd 354c d1bd 97c4 48be
00000010: 9699 533e 7ef7 95bd 225f 93be 118b 4b3d
00000020: d276 90bd e65e ecbd 4065 88be 628a 67be
00000030: ced7 20bd 6686 4abe 43b2 56be 8ea1 7bbd
00000040: 8095 66be c1ac 413e 0aec 89bd dd97 1ebd
00000050: 7b1e 0b3e a593 09bd f94b 6f3d ac30 903d
00000060: 9fad 2abe 4cf6 3ebe f78a 0ebe 4537 5dbe
00000070: 5f82 69bd 7bc2 4f3e 7b19 95be 38cb dbbb
00000080: db82 5abd 0fb9 353c cf33 83be e96a cc3c
00000090: 0976 2e3e 502b 9abc b169 88be 255d 22be
000000a0: 5cfa 49bd 7772 f3bd 1f1e 45bd 59a6 b4bd
000000b0: fe03 7fbd 6a95 cabd 7695 5dbe b6c3 ecbc
000000c0: 7cf0 81bd 899d 413e 8238 7bbe c867 f4bc
000000d0: ae9a 913e cd98 a93c 61e5 81bc 0b3a 17bd
000000e0: e793 7c3d f02a 84be 2446 eebd d615 42bb
000000f0: ff8f 2f3e 9a47 83bd fb10 82bd d73a 89be
00000100: 30ab 8a3d 2c94 aabd a5ad 8abd 8918 22be
00000110: ec63 b5bd d61d 19be 58c6 2cbe c00e 1c3e
00000120: 8dea adbd 563b d5bd 29cc 64be 6541 d9bc
00000130: 4cfb 233e baea 3f3d a5cb 39be 8618 3ebe
00000140: d270 debd 6651 1dbe 7dbe 84be fb86 b4bd
00000150: 91e2 b13d 8ed8 2cbd 9001 b9bd e633 4dbd
00000160: 1bea 85be 5838 6abe 7c18 f6bc 6bd8 27be
00000170: 4f71 80be 094b a0bd 22f9 2abe ce67 a4bd
00000180: 4628 883c 95ae 78be 3152 65bd d8c0 d3bc
00000190: 1e86 1bbe 99d5 a3bd a548 45be e765 34be
000001a0: 529a 69bc 6a05 76be 8e5b 34be aec2 0abd
000001b0: 1895 72bd d189 91be 3f69 6fbe 0270 36be
000001c0: bb17 80be f362 02be 89a7 083e 1676 07be
000001d0: 6ca9 f6bd 4c99 04be 2deb 8fbe 33d6 d9bc
000001e0: d9d2 16be a4a0 b5bc 11d8 cabd a239 ae3c
000001f0: a723 0c3e e0a1 8ebd 8a4e 793d 0045 ebbd
00000200: dec5 18be 9e6a 8abd 33a2 68be 3218 e93c
00000210: 2288 583e 1a05 483c e89e 2dbe a2ca 3d3d
00000220: e309 34be 690a 8ebd f7b8 f0bd bf2f d8bd
00000230: 8c96 4dbb 96de 00be 9fd8 0e3d 7062 27bd
00000240: 81a6 073d e38f e0bd 4572 c9bd c776 3e3c
00000250: 36cf 843e d2a5 17be 7d68 18be 74bc 9fbd
00000260: b287 b63c 85c7 31be ef9a 893d f654 a83d
00000270: 0f43 733e f284 843d bba9 60be cdb7 3dbe
00000280: 88d7 18be 9986 77be 6e28 83be e9b5 12be
00000290: d1b2 ca3a e38d adbe 8422 aebe 8257 8abe
000002a0: f173 21bd f6b6 5fbe 5170 8abe dcbd 4cbe
000002b0: 42fd 253e f005 61be f951 c6bd 0a21 73be
000002c0: 23c5 80be 33c6 11be 360f 903d a1b9 68be
000002d0: a45a 41be 11bc 78be b0a1 7abc 0d82 59be
000002e0: 0308 49bd c806 d93c 7b56 82be 23c1 eabd
000002f0: c617 573d 701f 803d 0d94 0dbe 9472 f1bb
00000300: 644a 6b3c 11b3 93bd e62d 90be 4c95 04bd
00000310: c247 d6bd b785 12be fa3e 70bc b604 d8bb
00000320: 72c1 a13d fef7 c43c 0796 8dbe fcb2 12be
00000330: 3aee 3fbd 251e 20be e791 21be bc1a 9cbd
00000340: 933c 80bd 1ca9 81be 6d1a e4bc df35 aebd
00000350: 446d 893e d0cd bfbd 7553 e83d 31b3 e7bd
00000360: 2002 cdba f701 92bd 1a2f 7a3d 1cdc 643d
00000370: 6223 813e d757 d8bd 1938 14bb 20f8 83be
00000380: a006 553e 9985 e3bc bb99 8ebd 4247 91be
00000390: 1a04 053e c533 04be 145e 7fbe 6b05 94be
000003a0: 8c0b 01be 5970 9cbd b81d d2bc 3e5d 68bc
000003b0: bfc1 0d3c e870 b1bc fa2a 97bd 5ff9 74be
000003c0: 918f e43c 990a 64be 0c18 45be 2b54 32be
000003d0: 3c2d 6b3d 3a58 8abe 5791 083b 0397 d0bd
000003e0: b7c5 c9bd 7f31 afbb 37fc 88bc 521e 66bb
000003f0: 58e9 07be a41b 29be d3f4 74bd 5b79 abbe
-0.008782046 -0.056100905 -0.102196135 -0.19606243 0.20664057 -0.07322596 -0.28783518 0.04969317
-0.07053913 -0.11541538 -0.26639748 -0.22611383 -0.039268307 -0.19777831 -0.20966439 -0.061433367
-0.22517967 0.18913557 -0.06734474 -0.038719047 0.13585846 -0.03358807 0.058422063 0.070405334
-0.16667794 -0.18648642 -0.13920198 -0.21603115 -0.057009097 0.20289032 -0.29121003 -0.006707575
-0.05334745 0.011091485 -0.25625464 0.024953322 0.17037214 -0.018819481 -0.26643136 -0.15855844
-0.049311027 -0.11887067 -0.04812443 -0.08820791 -0.062259667 -0.0989178 -0.21639046 -0.028901916
-0.06344697 0.18907751 -0.24533275 -0.029834643 0.28438324 0.020702744 -0.015856447 -0.03692059
0.06166449 -0.2581401 -0.11634472 -0.0029615066 0.17144774 -0.06410141 -0.06350895 -0.26802704
0.06770933 -0.08329043 -0.06771401 -0.15829672 -0.08856949 -0.14952788 -0.16872537 0.15240002
-0.08492003 -0.10411708 -0.22343506 -0.02652044 0.16013831 0.046854712 -0.1814409 -0.18564042
-0.108613625 -0.15363082 -0.2592658 -0.08814808 0.08685792 -0.04219871 -0.09033501 -0.050098322
-0.2615517 -0.22873056 -0.030040972 -0.1639115 -0.25086448 -0.07826812 -0.16696599 -0.08027612
0.016620766 -0.24285348 -0.055986587 -0.025848791 -0.1518788 -0.07999725 -0.19265993 -0.17616998
-0.014257984 -0.24025503 -0.1761305 -0.033877067 -0.059224218 -0.28425458 -0.23379992 -0.17816165
-0.25018105 -0.12733059 0.1334516 -0.1322864 -0.120440334 -0.12949103 -0.28109112 -0.026591396
-0.1472887 -0.022171326 -0.09904493 0.021267716 0.13685475 -0.06964469 0.060865916 -0.1148777
-0.1491923 -0.06758617 -0.22718124 0.02845392 0.2114568 0.012208248 -0.16955149 0.046335824
-0.17581896 -0.06935579 -0.11754029 -0.10555982 -0.003137025 -0.1258491 0.034874555 -0.04086536
0.033117775 -0.10964944 -0.09836248 0.011624998 0.2593934 -0.14809349 -0.14883609 -0.077996165
0.022281501 -0.17361267 0.06719004 0.0821933 0.2375605 0.0647067 -0.21939747 -0.18527146
-0.14925969 -0.24172439 -0.25616783 -0.14327206 0.0015464668 -0.33897313 -0.34010708 -0.27019888
-0.03941721 -0.21847138 -0.27038816 -0.199943 0.16209891 -0.21974921 -0.09683604 -0.23743072
-0.25150403 -0.14235763 0.07034151 -0.22727062 -0.18882233 -0.24290492 -0.015297338 -0.21241017
-0.049079906 0.026492491 -0.25456604 -0.11462619 0.052512906 0.06255996 -0.13826008 -0.007368395
0.014360998 -0.072118886 -0.28160018 -0.032368943 -0.104629055 -0.1430882 -0.014663452 -0.0065923585
0.07898225 0.024044033 -0.27653524 -0.1432609 -0.04685805 -0.15636499 -0.15778314 -0.07622287
-0.062615536 -0.25324333 -0.027844632 -0.08506369 0.26841176 -0.093654275 0.11344043 -0.11313475
-0.0015640892 -0.07129281 0.061080076 0.055873975 0.25222307 -0.10563629 -0.0022616445 -0.25775242
0.20803308 -0.027773665 -0.069629155 -0.28374678 0.12989846 -0.12910374 -0.24938232 -0.28910384
-0.12602061 -0.07638616 -0.025648937 -0.014182387 0.00865215 -0.021660283 -0.07381244 -0.23923253
0.027900489 -0.22269668 -0.19247454 -0.1741492 0.057416186 -0.27020437 0.0020838582 -0.10185053
-0.09852164 -0.0053464766 -0.016721828 -0.0035113287 -0.13272607 -0.1651445 -0.059803795 -0.33491024

weight_hh_l0 f4 [120, 30]
00000000: 2482 383e 72ed 7c3e e4cd d6bd f9c5 803e
00000010: 9528 56bd c405 7abd 889b 8fbe 3700 dcbd
00000020: 1b7c 0f3e c1f2 5f3e b0ad 1dbe 73b9 073e
00000030: 6418 773e ee4c 99bd 4cfe b83d b682 533e
00000040: 31ea 113d d7a8 923d 95f3 33bd e52e 8c3d
00000050: fadc 05be d447 12be f99c 6e3e 0430 30bd
00000060: 36ab cbbd e9c8 283d 9ce2 9cbb deae 82be
00000070: 67d6 533e 4d43 babd 4c16 c1bd 746e db3d
00000080: 0b56 d0bc 2867 ccbd d912 253e 563a 31bc
00000090: a63d 0e3d e744 5dbe 1cdd 9fbd 2391 083e
000000a0: 4c76 ebbd b869 cd3d b807 073d ae03 38be
000000b0: 4af8 16bd de7a a23d da99 31be 0f97 233e
000000c0: b360 bbbd 3433 1fbc fb27 96be 4b5b 8e3d
000000d0: 7cd9 bc3d 8a71 41bb 5e1d 88bd 1c0d dd3d
000000e0: 5604 2abe 9d9c a23d 3175 b93c 7c78 96bd
000000f0: b8fc 003e e8ac b43c cfb1 d3bc 9e1a 523e
00000100: 843e 173e 594d 0d3e 6ce9 1fbd fcdd 4ebc
00000110: 37c0 683e dee6 6f3e 8e05 50bd 574e fe3d
00000120: 73c2 83bc 9409 0ebe 7132 3abd 452b 313d
00000130: 37f8 75bb 2fa9 d63d 5b66 433e a61f 92bd
00000140: c091 e23c 2419 40be 6ef6 28bd b91f 2dbe
00000150: 2e61 b83d 765a 193e 795f 39bd 18b4 e73d
00000160: d6bd 953c 8873 1ebe 3f99 403e 208c f93d
00000170: e201 15bd 301a 123d 2c92 5c3d b3e6 8b3e
00000180: bdef 40be 7144 91be 1031 0d3e 1e92 0a3e
00000190: 46e6 c6bd d673 a03d ed15 093e 9443 19be
000001a0: 1530 fe3d 9c73 653e d569 22be af3c f0bc
000001b0: 7fbb f73c 5d20 a6bc f69c d23c a436 5ebe
000001c0: 1bb4 963e 42bd 9fbd 99fa f8bd 1038 78bb
000001d0: 00d6 6bbe 1e7b 64be 72d5 623d f5e4 4fbe
000001e0: ff0c cb3d 0b61 683d d1f3 87bd 087f 47bd
000001f0: 6f0c fa3d 3778 8f3c 865f 15be 8894 98bc
00000200: e0e5 043e 8201 143d 748a 85bc 377e 60bd
00000210: 3648 b93c 8375 9d3d f8c0 23bc 72a1 c53d
00000220: 2e35 33be de27 94bd e617 eebd 7898 1f3e
00000230: 3a7f 3fbe 4d1b 1bbe 011c ce3d 7845 b23d
00000240: 61e3 2e3d b931 6b3e cf60 bb3c 4fdb 89bd
00000250: e2f9 1d3e f183 75be 8616 6cbd 7ba0 51bd
00000260: 49c7 583e 30a3 4b3e 2a26 773e 10f3 123c
00000270: b208 2fbd dde3 34bd 3156 8dbd 3a1c 733e
00000280: a4fd 63be f23e 9ebc 7dd4 f03b 788e ebbd
00000290: 187b 67bd fc15 723d 3805 2ebe 3227 383d
000002a0: 23c7 663d 033d 64bb 242a d2bd 482c 87bd
000002b0: 7eec 1f3e a2c7 b73c 17b7 68bd 3ce6 553e
000002c0: 09bc 1abe 4d70 113d 8c79 a33d 69e3 b4bc
000002d0: e104 003e f48f 333e 7e7b 05be 3da4 593e
000002e0: b898 4c3e f23d 683e b6ba 66bd 4381 6cbe
000002f0: f8d5 e53d bfd7 773e a9d8 09be ace3 023e
00000300: db14 50bd 1d1f f5bb a890 eabd dcfb 9bbd
00000310: 30e1 39bd 4313 85bd 5b20 263e cfe2 febc
00000320: 58e5 27be 511d 63bd be8f 0b3d 48f5 60be
00000330: a905 12be de6b a63d 8156 afbd 95cb 4dbb
00000340: a14e 463e 0f08 83be 2865 673e 9439 ccbd
00000350: 7aa8 ad3b 9cdd 0b3e 9d9b 343d 3646 0b3d
00000360: 60e8 dc3b 96cf 213b 7e98 3f3e c929 8a3e
00000370: 1714 92be 15ab 813e b738 82bc eaf8 96bc
00000380: cbc5 a13d 2268 193e 9b01 af3c 5651 3ebd
00000390: 7420 313d 647d 10bb 1d7b 8fbe f6f3 ce3b
000003a0: b7e6 7e3e b60d fcbd b710 78be 1cb5 303d
000003b0: f474 5cbe 50d2 88be cdc1 12bd 3921 253c
000003c0: f650 f93d 99d4 fb3d bcc6 ec3d 82c7 253e
000003d0: e196 de3d 45a9 233e 96fa e8bd c3e5 6fbe
000003e0: fa20 133e ca3b ed3d 0e16 de3d 66a4 3c3e
000003f0: 7619 433e 07bb 743c 3768 3e3d ae72 503e
0.18018395 0.24699953 -0.10488489 0.2515104 -0.052284796 -0.061040655 -0.28048348 -0.107422285
0.14012186 0.21869947 -0.15398288 0.13254337 0.24130398 -0.07485376 0.09032878 0.20655331
0.035623733 0.0716111 -0.04393347 0.06844882 -0.13072577 -0.14285213 0.23302068 -0.04301454
-0.09944765 0.041207228 -0.004787756 -0.25524038 0.20687257 -0.09094868 -0.09428081 0.10714427
-0.025431653 -0.09980613 0.16120471 -0.010817131 0.03472676 -0.21608315 -0.07805845 0.13336615
-0.11497173 0.1002993 0.032966346 -0.17970154 -0.03685788 0.07933591 -0.17343846 0.15975593
-0.09149303 -0.009716798 -0.29327378 0.069510065 0.09221169 -0.0029517137 -0.06646226 0.10793516
-0.16603217 0.07940028 0.022638889 -0.07347199 0.12596405 0.022055104 -0.025841622 0.20517966
0.14769942 0.13799037 -0.039040968 -0.012626167 0.22729574 0.23427913 -0.050786547 0.12417286
-0.016083932 -0.13870841 -0.04545826 0.043254156 -0.003753198 0.10481488 0.19082014 -0.07134943
0.02765739 -0.1875959 -0.04125064 -0.16906632 0.090029106 0.14975914 -0.045257065 0.11313647
0.018278997 -0.15473759 0.18808459 0.1218493 -0.03637875 0.035669506 0.053850338 0.27324447
-0.18841453 -0.2837253 0.13788247 0.13532302 -0.0971189 0.07834594 0.1338727 -0.14967185
0.12411515 0.22407383 -0.15860684 -0.029325811 0.030240772 -0.020279104 0.02570961 -0.21700531
0.29434285 -0.0779977 -0.12157173 -0.0037875213 -0.23030853 -0.2231259 0.05537934 -0.20302184
0.09914588 0.056733172 -0.06638301 -0.04870513 0.12209403 0.017513378 -0.1458722 -0.018625513
0.12978315 0.03613425 -0.016301371 -0.054807868 0.02261744 0.07688429 -0.009994738 0.09649934
-0.17500755 -0.072341666 -0.11625652 0.15585506 -0.18700877 -0.15147133 0.10063935 0.08704656
0.042697314 0.22968186 0.02287331 -0.06731283 0.15427354 -0.23976113 -0.057638668 -0.051178437
0.21169771 0.1988647 0.24135652 0.008969083 -0.042732902 -0.04416262 -0.06901205 0.23741236
-0.22264725 -0.019317124 0.0073495493 -0.11501783 -0.056513876 0.059102997 -0.16994178 0.044959255
0.056342255 -0.0034826405 -0.10261944 -0.06600243 0.15617558 0.02243406 -0.056815233 0.20888609
-0.15110792 0.03550749 0.079821676 -0.022081094 0.12501861 0.17535383 -0.1303539 0.21254058
0.19980133 0.2267988 -0.056330405 -0.23096184 0.11222452 0.24203394 -0.13461556 0.12782162
-0.05080114 -0.0074805156 -0.11453372 -0.07616398 -0.04538077 -0.064978145 0.1622328 -0.03111401
-0.16396081 -0.05544788 0.03407263 -0.21968567 -0.14259972 0.08126043 -0.08561421 -0.0031401862
0.19365932 -0.25592086 0.22597182 -0.0997192 0.005299625 0.13658756 0.044093717 0.034002505
0.0067415684 0.0024690381 0.18710515 0.26985005 -0.28530952 0.25325838 -0.015896184 -0.018429238
0.07899054 0.1498113 0.02136307 -0.046464287 0.04324384 -0.0022047395 -0.28023615 0.0063157035
0.24892698 -0.12307303 -0.24225126 0.04314147 -0.21528989 -0.26722956 -0.035829354 0.010078722
0.12173645 0.12296409 0.11561343 0.16189387 0.108686216 0.1598254 -0.113759205 -0.23427491
0.14368048 0.115836695 0.1084405 0.18422088 0.19052681 0.014937169 0.046486106 0.20356247

bias_ih_l0 f4 [120]
00000000: 8d5d 0c3e bf77 8abd bcb1 8b3d 33f0 2d3e
00000010: eebf f7bd 0014 503e a29b 11be c2d7 ef3d
00000020: eec1 fcbd 3156 423c 0b5a 463d 48bc ed3c
00000030: 1bd9 95bd cccc 2f3e 8112 1c3e ae3f 9bbd
00000040: 7328 13be 2770 c83c e2b0 13be 5806 313e
00000050: 8ab1 26bd 5165 d23d 6c01 e8bb 7abe e8ba
00000060: 83ad babd 7e25 153e 05a4 b8bc f237 3c3e
00000070: 3b7d de3d 5713 073e 4b92 57bd b06e 87bd
00000080: 1e38 433e c141 cc3d 654f 163e 091f 0d3e
00000090: 2328 0abe 0c6f 3d3e 4841 db3c 529c 4c3e
000000a0: 2587 e53c 767f b2bc cea2 183e 91c5 a5bc
000000b0: 6c50 b1bd b45d 5e3c 7853 033e d9bb 25bd
000000c0: 7f94 dabd 9275 44bc 2e97 cbbd dad8 bebd
000000d0: 4545 e03c 7274 963d fb97 8b3d 5bde 69bd
000000e0: 9eb8 5e3e 6576 e8bd e793 0fbe b1fb 6e3e
000000f0: 2e50 103e c7ed d33d d5ab 29be 4862 46bd
00000100: 15ec 213e dc9f cbbc 856b c3bd 1a9e 3dbe
00000110: e78e 903c a755 84bb 9bd9 fbbc 9cbc 21bc
00000120: 9ed1 d63d 6051 18be 7099 27be 2adc 293e
00000130: dd5d 863d 59b7 10be 0ccd 2a3e 12f7 33be
00000140: 186a 3abd bdaa 3abe a682 d2bd 1c7b 9c3d
00000150: 8870 c43d 5475 ed3c 1292 d5bd f5b3 02be
00000160: de14 2fbd 0081 edbd 8d07 6a3e e3c6 3b3d
00000170: 0efb c7bc 9f67 bfbc 78de 00be 67d8 cb3d
00000180: 1615 8f3e d0bc 0d3e 4a0a dc3d d6f6 7ebd
00000190: baab 2f3e ddcf 6d3e 0966 12bd bbb6 013e
000001a0: 41bc 623c cd95 a1bd 358e 9ebd 292d 463e
000001b0: 39a1 323e ecc6 1e3e 0e92 753e 3784 4ebd
000001c0: a135 d7bc dd59 c53d 8c3e c4bd 2177 f63c
000001d0: 7ae0 113d 1e21 2d3d 8875 b43d 92fc 15bd
0.13707562 -0.06761121 0.068210095 0.1698616 -0.120971546 0.2032013 -0.14219525 0.117110744
-0.12341677 0.01186137 0.048425715 0.029020444 -0.073168 0.17167968 0.15241434 -0.07580505
-0.14370899 0.02446754 -0.14422944 0.17287576 -0.04069666 0.10273231 -0.0070802476 -0.0017756962
-0.09115126 0.14565083 -0.022539148 0.18380716 0.108637296 0.13190971 -0.05262975 -0.06612909
0.19064376 0.09973479 0.14678724 0.1378137 -0.13491873 0.18499392 0.026764527 0.19981506
0.028018543 -0.021789294 0.14905855 -0.020235809 -0.086579174 0.013572145 0.1282481 -0.04046235
-0.10672855 -0.011990922 -0.099409446 -0.09318705 0.02737678 0.07346429 0.06816097 -0.05709682
0.21750113 -0.11350707 -0.14021264 0.233382 0.14093086 0.10348087 -0.16569455 -0.048433572
0.15812714 -0.0248565 -0.09541992 -0.18517342 0.017646266 -0.004038531 -0.03074341 -0.009871628
0.104892 -0.14874792 -0.16367126 0.16587892 0.06560872 -0.14132442 0.16679782 -0.17574719
-0.045511335 -0.18229194 -0.102788255 0.07640669 0.09591776 0.02898661 -0.10428251 -0.1276396
-0.04274451 -0.115968704 0.22854443 0.04584397 -0.024411704 -0.02336484 -0.12584865 0.09953385
0.27945775 0.13841558 0.1074415 -0.06224712 0.17155352 0.23223825 -0.03574184 0.12667362
0.013838829 -0.078899 -0.077419676 0.19353165 0.17444314 0.1550557 0.23981497 -0.05041906
-0.02627069 0.09636281 -0.09582242 0.030086102 0.03561447 0.04226791 0.0881148 -0.036617823

bias_hh_l0 f4 [120]
00000000: a086 813e 2e6f c73c ce68 243e 161f 4f3e
00000010: 9ec3 b3bd 301e 513e 5edf 1d3e 54eb 373e
00000020: c1d3 6cbd 8d42 303d b916 303b 66c3 a4bc
00000030: fa41 7a3d d456 303e 9e9d 493d 0fe1 cb3c
00000040: d93b 333e d7f0 3a3e 1719 153e d80e 4c3e
00000050: 2573 073e e1e9 1fbe 1d45 c9bd 6add c53d
00000060: 88c3 f1bc 7cf0 083e 4841 02be e903 033e
00000070: a026 e1bd c5d5 793e 0038 643d 09bc 0a3e
00000080: 09dc c03b 3390 92bc 3737 1dbe 4b06 153e
00000090: 9593 a13d bde2 033e 59dc b13d 311b cabd
000000a0: 6034 ec3d 4008 9f3d bf0a d83d 4436 f1bd
000000b0: 6e3f cbbd 587d 9b3d 7418 2b3e 5781 073e
000000c0: c666 20be 8b62 b03d 950a 4c3e 9077 9d3d
000000d0: e0a3 0ebd bbc9 373e 0840 ccbd 7a31 48bc
000000e0: 8063 8fbd 2b6b cabc 3e58 473e 12d1 d13d
000000f0: 7880 a33d 8c4b 323e 03df 243d 38a2 2e3e
00000100: b0f2 a93d c20f 653d dcc4 0b3d 6dfb ee3d
00000110: fae5 f7bd 9112 a03d f22b eabd b060 08be
00000120: b79f 183e 065f b53d dff5 c53d 9841 1cbc
00000130: 3e32 4d3c f64e 5f3e 3236 b83d 42c6 e3bd
00000140: 9185 253d c660 c0bc d6fa e43d b130 103e
00000150: ad36 0b3e 7516 86bd afe6 8cbc d48e 18be
00000160: 3a6b 123e bf7b e43d b1b3 5f3e 2db5 093e
00000170: 304a ad3b 7c63 28bd 6392 5d3e 5700 f33d
00000180: d22d 83bd 46c3 84bc 61ce a5bd 1416 423c
00000190: 9a1d 7abd 15e8 15bc 45af 4a3e 431b debd
000001a0: e36a 833e a91e 3b3e 668e 003e 4173 483e
000001b0: b4f2 0bbd e9cb ffbd fbaa e53d 4d18 1e3c
000001c0: 42b9 4f3e dc95 823c e796 f73d 7c9b 42bd
000001d0: 9871 e5bc fc1b f83d f7c7 c83d 2cd9 633e
0.25298023 0.024345007 0.16055605 0.20226702 -0.087775454 0.20421672 0.15417239 0.17960864
-0.05781913 0.043032218 0.0026869013 -0.020112704 0.061098076 0.17220622 0.04922258 0.02488759
0.17503299 0.18255936 0.14560352 0.19927537 0.13227518 -0.15616561 -0.098276354 0.09661372
-0.029512182 0.13372988 -0.12720215 0.1279446 -0.10993695 0.24397953 0.05571747 0.13548292
0.0058856052 -0.017891025 -0.15353094 0.14553182 0.07889477 0.12879463 0.08684606 -0.098684676
0.11533427 0.077652454 0.10548925 -0.117779285 -0.09924208 0.07592267 0.16708547 0.13232933
-0.15664205 0.086125456 0.19925912 0.0768882 -0.034824252 0.17948048 -0.099731505 -0.012218827
-0.070014 -0.024709305 0.19467255 0.10244955 0.07983488 0.17411631 0.040251743 0.17054069
0.08298242 0.05592323 0.034123287 0.116690494 -0.121044114 0.07816041 -0.11434163 -0.13318133
0.14904676 0.08856015 0.09666037 -0.009537123 0.012524186 0.21807465 0.08994712 -0.11121799
0.040410582 -0.023483645 0.11180656 0.14081074 0.13595076 -0.06547252 -0.017199842 -0.14898235
0.14298716 0.11156415 0.2184589 0.1344802 0.005288385 -0.0411105 0.21637873 0.11865299
-0.06405224 -0.016206395 -0.08096004 0.011846084 -0.061063386 -0.009149571 0.19793423 -0.108450435
0.25667486 0.18273415 0.1255432 0.19575216 -0.034167007 -0.12490065 0.112142526 0.009649348
0.20285514 0.0159406 0.12089329 -0.047511563 -0.028008267 0.121147126 0.09803765 0.22250813

weight f4 [1, 30]
00000000: 5241 363e 81e8 da3d a46d 7d3e a4c4 833e
00000010: 0812 1e3e ac34 333e bc19 acbe c74d 81be
00000020: 5276 733e d5a1 3f3e 346a a6be fe80 4c3e
00000030: a18c 0d3e 209a 59be 62da 673e a7a8 4a3e
00000040: 5ece 4fbe 96ea 153e 495e 333e 04ec 5dbe
00000050: f097 45be 239d 8cbe a447 223e fb17 94be
00000060: 225a 31be dc8c 563e 9cca 43be 08c2 51be
00000070: c9ee 8b3e 4888 a9be
0.17798355 0.10688878 0.24748856 0.25735962 0.15436566 0.17500561 -0.33613384 -0.25254652
0.23775604 0.18714078 -0.32502902 0.19971082 0.13823177 -0.212502 0.226419 0.19790898
-0.20293567 0.14640269 0.17516436 -0.21672064 -0.19296241 -0.27463636 0.15847641 -0.28924546
-0.17319539 0.20952171 -0.19120258 -0.20484173 0.27330616 -0.33111787
