models/Regressor.pt (torch, 19219 bytes, 10 tensors)

weight f4 [4, 8]
000000 69 63 96 bf cb 51 8f bf 32 2e 50 be fa 4b c6 be
       -1.1749088 -1.1196836 -0.20330122 -0.3872984
000010 cf a5 51 3f c7 94 2a 3f 86 db 88 be c7 76 09 c0
       0.8189363 0.66633266 -0.26729983 -2.1478746
000020 6f c6 8b 3e 2f ef 9d bf 8d c9 c1 3e 27 46 b5 3e
       0.2729983 -1.2338618 0.37849084 0.35405084
000030 2b ed b9 3d f1 d4 99 3f 4c 3a 95 3f ce 46 97 be
       0.09078439 1.201811 1.1658416 -0.29546207
000040 e7 6e b3 bf 22 9a d7 bf 0b 64 15 3f da bd 56 3f
       -1.401822 -1.6843913 0.5835578 0.8388344
000050 65 5f 13 3f 50 f0 c9 bf d7 78 95 be 4d 18 e7 3f
       0.57567436 -1.5776463 -0.29193756 1.8054291
000060 14 60 33 3f 64 0a 0e bf f6 70 07 be 95 af 6b 3e
       0.7006848 -0.55484605 -0.13226685 0.23016198
000070 e2 d3 ac 3f 06 a7 c6 3f 08 b3 7e 3f 2b 53 64 bf
       1.3502162 1.5519722 0.9949193 -0.89189404

weight_ih_l0 f4 [60, 8]
000000 8a 56 3e be 03 07 00 be e9 52 2f be 43 bc 70 be
       -0.185877 -0.12502675 -0.17121471 -0.23509316
000010 00 9a 1b be 25 64 4c 3e ac b6 b6 3d f4 c7 12 3e
       -0.15195465 0.19960077 0.08921561 0.14334089
000020 2c 12 0e bd 41 a1 39 be 35 7f b7 3d 6c c8 47 be
       -0.0346853 -0.1812792 0.0895981 -0.19510049
000030 2a a7 0c be 68 b6 20 be 87 c1 22 3e d7 5e 2d 3e
       -0.13735643 -0.15694582 0.15894137 0.1693071
000040 b8 f4 27 be 04 c2 72 bd 32 80 5a 3e c7 52 9c 3e
       -0.16401947 -0.05926706 0.21337965 0.30531904
000050 b3 bd 1b 3e 97 da 82 3c be 5f 64 3e 94 1d e6 bd
       0.15209083 0.015973372 0.22302148 -0.1123611
000060 31 fb 04 3c de b2 67 be 9c 0a 5d be e4 92 21 be
       0.008116529 -0.22626826 -0.21586078 -0.1577869
000070 36 d7 2a 3e 28 eb 1c 3e 9a a1 0f be 88 d0 f3 3c
       0.16683659 0.1532408 -0.1402649 0.029762521
000080 0c 5f 3e 3e a3 23 0b bd 79 62 f0 bc 47 0b 08 3d
       0.18590945 -0.033969533 -0.02934383 0.03321388
000090 e0 80 38 3e 15 1e 98 3e 3b 26 19 be 88 5d 13 be
       0.18017912 0.2971045 -0.1495599 -0.14391148
0000a0 45 84 59 3d 76 06 2a 3e b9 e8 8a 3e 14 af 8c 3e
       0.053104658 0.16604027 0.27130678 0.27477324
0000b0 86 56 cc 3d 8a ae 34 be 74 2f 91 3d d7 88 04 be
       0.099774405 -0.17644706 0.07089129 -0.12942825
0000c0 63 86 4d be 3a e8 3b 3e 34 86 21 3e 3f 6b 92 be
       -0.20070796 0.18350306 0.1577385 -0.28597447
0000d0 bc 78 c8 3d 14 fd 8d 3b d4 14 c8 3b 1a dd 29 be
       0.09788653 0.004333148 0.0061059985 -0.1658825
0000e0 34 05 50 3d 8a e2 3c be a4 c3 11 3e d3 d4 37 3e
       0.050786212 -0.18445793 0.14234787 0.1795228
0000f0 75 20 36 3e 22 14 6e 3d 9e 59 8c be d1 cf 01 be
       0.17785819 0.05812467 -0.27412122 -0.12676932
000100 a3 11 30 3e 84 e9 9a 3c 07 4c 1f be 83 ee d1 bd
       0.17194228 0.018910177 -0.15556346 -0.102505706
000110 2c a8 7b 3e d5 9d 28 3e 08 9a 86 bd cb 93 ad bc
       0.24575871 0.16466458 -0.06572348 -0.021188637
000120 de e4 96 be 47 76 5f bd 3f 40 15 be 82 9d 19 be
       -0.29471487 -0.054556157 -0.14575289 -0.1500149
000130 da 97 05 bc 04 ab 1d ba 5e 2f f1 bd fd ba 49 3e
       -0.00815388 -0.0006014558 -0.11776613 0.19700237
000140 df 7d 53 be c8 51 3d 3e fe eb 51 3e 69 21 2d be
       -0.20653485 0.18488228 0.2050018 -0.16907276
000150 d5 e4 75 bc 8f 66 78 3d 6c 03 b2 3d 57 fe 49 3c
       -0.015008171 0.060644682 0.08692059 0.012328706
000160 a0 51 f5 3d ce 6b 01 ba 6d 34 1a be 45 22 c9 3d
       0.11978459 -0.00049370236 -0.15059061 0.098209895
000170 6e 43 67 be 7d bf 04 be a7 70 2f bd f1 ce 19 be
       -0.22584316 -0.12963672 -0.042832043 -0.15020348
000180 78 e1 0a be 56 1c 85 be 9d 76 f1 bb b2 28 d4 3d
       -0.13562572 -0.2599818 -0.007368876 0.103593245
000190 0a 0a 03 be 89 c6 58 bd 84 23 17 3e cc 44 2a 3b
       -0.12796798 -0.052923713 0.14759642 0.0025980948
0001a0 2f 50 2a bd de fe 90 bd 9c 22 d0 3d 9f 93 5a 3e
       -0.041580375 -0.07079862 0.10162851 0.21345375
0001b0 2b fb 95 3e b2 9c 52 3e 81 2a 96 3e f3 ca 78 bd
       0.29293188 0.20567587 0.29329303 -0.060740422
0001c0 49 64 84 be 57 4c 19 be a3 71 4c 3e 87 b0 b4 3c
       -0.25857762 -0.14970528 0.19965224 0.022056831
0001d0 bc e9 ca bd 38 a9 5c be 96 4e 81 be 12 8c 53 be
       -0.099078625 -0.21548927 -0.2525527 -0.20658901
0001e0 12 d7 3a bd 50 95 19 3e 53 0e 02 3e 68 30 86 be
       -0.045615263 0.14998364 0.12700777 -0.26208806
0001f0 14 bd 1c 3e e8 00 3e be e4 58 6f bd 28 7e 00 be
       0.15306503 -0.18555033 -0.058434382 -0.12548125
000200 eb e7 ca bd bf f5 cc bd 3b dc 3a be d5 03 32 be
       -0.09907516 -0.1000781 -0.18248074 -0.17384274
000210 54 36 11 3c 44 ba 55 3d ff 1e 8c bd b9 74 47 3d
       0.0088630505 0.05217959 -0.068418495 0.0486953
000220 8a 9b 90 be 26 8e 8a bd fb d0 8d 3e 72 64 62 bd
       -0.28243667 -0.06765394 0.27698502 -0.055271573
000230 ca 14 91 3e 8c 03 13 3e d2 4b 3b be c6 3d e8 3d
       0.28336173 0.14356822 -0.18290642 0.11339907
000240 ff 7f 9a bd 7e 98 24 be 2d cc 80 3e e1 e3 27 be
       -0.075439446 -0.16073796 0.25155774 -0.16395523
000250 17 5b 95 3d 88 ee 46 bc a4 11 6a 3e 94 8c 13 3d
       0.07292765 -0.012141831 0.22858292 0.036022738
000260 05 17 cd 3d e6 74 87 3d 75 5d 0b bd b5 f6 d4 bc
       0.10014156 0.066140935 -0.034024674 -0.025996545
000270 0e 82 40 be d4 f5 25 3e da f0 6d 3e 1b ef 29 3e
       -0.18799612 0.16207057 0.23236409 0.16595118
000280 ef 69 6c be bd 8b 17 bd 01 65 08 be 0e 29 bf bd
       -0.23087285 -0.0369985 -0.1331978 -0.093340024
000290 ac d9 d0 bd 7f 68 0b 3e c4 da d7 bd c7 d3 5b bd
       -0.101977676 0.13614081 -0.10539773 -0.053668763
0002a0 06 ad 1f bd 94 9c ee 3d 5f bb 14 be 35 58 02 be
       -0.038983367 0.11650959 -0.14524601 -0.12728961
0002b0 98 c5 cc bd fb 43 6a 3e ad 50 2f bd 6e 5a 3c 3e
       -0.099986255 0.22877495 -0.042801548 0.18393871
0002c0 17 10 b5 3d a6 8a da 3c 54 26 dd 3a 1b c4 3f bd
       0.088409595 0.02667744 0.0016872385 -0.04681788
0002d0 b7 c5 20 3d 8d 8d 27 bd 14 d0 e8 3b bc 68 08 bc
       0.039251056 -0.040906478 0.007104883 -0.008325752
0002e0 69 d1 55 be 38 b0 16 be cf ad 64 3e 0b 74 46 be
       -0.20880665 -0.1471566 0.22331928 -0.19380204
0002f0 c7 4d c7 bb 04 a6 8a 3e a1 93 e4 3d db 66 c1 ba
       -0.00608227 0.27079785 0.111609705 -0.0014755385
000300 ae a9 81 be cb 72 c5 3d d7 21 1c be 26 21 2d bd
       -0.25324768 0.09641036 -0.15247284 -0.04226794
000310 12 95 61 bd 18 a0 18 3b 3c 3b 1e 3d 1d 53 32 3e
       -0.055073805 0.0023288783 0.03863071 0.17414518
000320 fb b7 8c bc 3a 22 3a 3e 2e d9 53 3e 1c a9 e9 bd
       -0.017177572 0.18177119 0.20688316 -0.11409208
000330 ee 4b 29 3e 47 0b 08 be 8a 19 75 bd c6 b9 d9 3c
       0.16532871 -0.13285552 -0.05983881 0.026577841
000340 27 63 72 3d c7 f9 2e 3e 6f 79 74 bd 5f 17 c0 3c
       0.05917659 0.1708747 -0.05968612 0.023448644
000350 3e 3d 1f 3e 42 40 71 be 58 02 52 3e 12 12 64 be
       0.15550706 -0.23559669 0.20508707 -0.22272518
000360 ca 18 38 bd f0 e0 be bd 4b 00 b2 bd 1e f9 aa 3d
       -0.044945516 -0.09320247 -0.08691462 0.083482966
000370 ca 94 86 3e 7e 59 db bc ea 7b d5 bd e5 b6 12 be
       0.26285392 -0.026776072 -0.10424025 -0.14327581
000380 f8 16 9c be f2 d0 8a 3d 34 c5 99 bd 03 b1 fc bd
       -0.30486274 0.067781344 -0.07508317 -0.1233845
000390 1c c2 cc bd d5 2c 49 3e 02 14 3e 3e 56 55 32 3e
       -0.09997961 0.19646008 0.1856232 0.17415366
0003a0 f3 8e 7b 3d 10 d6 e9 bd cb 72 47 bd bb e1 cd 3d
       0.061415624 -0.11417782 -0.04869346 0.1005282
0003b0 62 da 76 3e 02 b4 ca 3d 28 3b c6 bd a4 ed 27 be
       0.24106744 0.09897615 -0.09679252 -0.16399246
0003c0 46 8a 82 be c8 3b 0e 3d 48 48 fe bd 06 92 54 be
       -0.2549612 0.03472498 -0.1241613 -0.20758829
0003d0 48 72 7e 3e 3b 6c fb bd 8d f3 85 3c 3a d3 36 3d
       0.24848282 -0.12276503 0.016351486 0.044635035
0003e0 93 4c 64 3d f5 ef 00 be 1b 3d 83 be 00 eb 21 3e
       0.05573709 -0.12591536 -0.25632557 0.15812302
0003f0 a6 c5 bf bb 1e 87 2d 3e a2 f6 09 be fd 7a 82 3d
       -0.005852419 0.16946074 -0.13472989 0.063711144

weight_hh_l0 f4 [60, 15]
000000 43 a3 98 bd a8 e5 c0 bd e5 a9 86 3d 02 20 a3 3d
       -0.07453015 -0.094188035 0.065753736 0.079650894
000010 f8 6a 20 be c9 2d ab 3c 20 40 19 3e 65 ae 70 bd
       -0.15665805 0.020895856 0.14965868 -0.058760066
000020 b8 8c f5 3d e4 0b 82 bd 40 21 be 3d bd b6 3e be
       0.119897306 -0.06349924 0.09283686 -0.18624397
000030 74 67 20 be a2 d8 03 be f6 72 75 3e 92 94 7e bd
       -0.15664464 -0.12875608 0.23969635 -0.062153406
000040 3b d2 49 bd 00 e3 31 be d8 5e 66 3e 52 fd 56 3e
       -0.049272757 -0.1737175 0.22497118 0.20995072
000050 7d 48 15 be 8e a5 26 be fa c4 58 be f0 21 31 3d
       -0.14578433 -0.16274092 -0.2116889 0.043245256
000060 e5 16 91 bc c0 d5 5e be ae 23 3a bd 00 4d b5 3d
       -0.017711112 -0.21761227 -0.045444183 0.08852577
000070 c8 56 3c be 82 14 00 3c 20 67 67 bd 01 b5 32 be
       -0.1839248 0.007817389 -0.056494832 -0.1745186
000080 f8 b9 66 bc e8 c5 2e 3e e8 eb 64 be 46 3e 7e 3d
       -0.014082424 0.17067683 -0.22355616 0.062071107
000090 05 62 38 bd 26 29 7a 3e 6f 74 61 be 37 78 5d be
       -0.045015354 0.2442976 -0.22017072 -0.2162789
0000a0 98 65 51 3e ca 41 e8 bd a8 f6 a9 3d 02 a3 94 bd
       0.20448911 -0.11340673 0.08298999 -0.07257654
0000b0 5f 35 d6 bd 8a bc 73 bd b8 0d 13 3e 78 51 53 bb
       -0.104593985 -0.059505977 0.14360702 -0.0032244604
0000c0 79 2e 9a be c6 29 4e be 9f b3 62 bd 44 71 38 3e
       -0.3011358 -0.20133123 -0.05534708 0.18011957
0000d0 77 02 28 be a5 c0 6b 3e b3 c4 6c bd 99 84 be bd
       -0.1640719 0.23022707 -0.057804774 -0.09302635
0000e0 c0 27 81 3e 10 b4 2b 3e 9f 35 32 3e 71 b8 f1 3d
       0.2522564 0.16767907 0.17403267 0.118027575
0000f0 54 52 3a bd b9 6e 46 be d4 2f 17 bd 44 5e 41 3e
       -0.04548867 -0.19378175 -0.036910847 0.18883616
000100 71 be d7 bd 47 55 64 be c5 25 ee 3d ad 4e 53 3e
       -0.10534371 -0.22298156 0.11628298 0.20635481
000110 f8 7a 8d bd d7 d2 38 be 8a 60 80 be 1b bf 97 3d
       -0.0690822 -0.18049179 -0.25073653 0.07409497
000120 b7 b1 af 3c 6b 9b 17 be e9 67 06 3d d1 b2 15 3e
       0.021447046 -0.14805381 0.03281394 0.14618994
000130 2e 26 1f 3e 77 5a 1a 3e 19 96 a4 bd 25 d4 80 be
       0.15541908 0.15073572 -0.08036441 -0.25161853
000140 25 db 3b be 27 e5 94 3e c6 22 c8 3d 95 c8 f8 3d
       -0.18345316 0.2908108 0.097722575 0.12147633
000150 62 d3 31 be cd ab 41 3e 50 a5 96 3e b2 c9 90 3e
       -0.17365792 0.18913193 0.29422998 0.2827888
000160 60 9b 88 be 3a 03 16 be c0 30 06 be 66 0d 47 3e
       -0.26681042 -0.14649668 -0.13104534 0.19438705
000170 d5 71 24 be ee 2b 25 be d2 95 d8 3d b6 a1 8d bd
       -0.16059048 -0.16130039 0.10575451 -0.069156095
000180 f2 01 9e bd 1f c0 13 bd 0b 8e ac bc dd d9 1e be
       -0.07715215 -0.036071893 -0.021063825 -0.15512796
000190 3f 12 29 3e a2 b1 83 bd 66 b7 10 3e 2e 8f 32 3e
       0.16510867 -0.06430365 0.14132461 0.17437431
0001a0 97 16 a4 3d a3 9b a2 3d ed 31 46 3e 9e 31 04 bc
       0.08012121 0.079398416 0.19354983 -0.00806847
0001b0 ed 74 fe bd 95 2b 6e 3e a9 1e 9c 3d 23 89 7f be
       -0.124246456 0.23258813 0.076230355 -0.24954657
0001c0 6a 1f f4 bd 3f d6 05 be b6 2d 8d 3e a2 97 5c bd
       -0.11920054 -0.1307001 0.27573937 -0.053855546
0001d0 6c 27 72 be 01 af e0 3b 99 42 19 3e 1b 1d 4d 3d
       -0.23647851 0.0068567996 0.14966811 0.050076585
0001e0 eb 21 ba 3d 7f 6f 89 bb 96 85 87 3d a9 75 c2 bd
       0.090885006 -0.0041941996 0.06617276 -0.09495098
0001f0 62 cf 10 be 8d 28 5c be 06 93 2c be 3e 1d 98 3d
       -0.1414161 -0.21499844 -0.1685296 0.074274525
000200 73 7c e4 bd af 66 99 3d fb 0e 65 3d 8a 08 2b 3d
       -0.11156549 0.074902885 0.05592249 0.04175619
000210 17 d5 14 be 68 f3 61 3e dd 62 32 be 5d fe 4e 3e
       -0.14534412 0.22065508 -0.17420526 0.2021422
000220 69 be 69 be f5 3d c2 bd fa 34 d0 3d f7 34 1e be
       -0.22826542 -0.094844736 0.101663545 -0.15449892
000230 a5 bd 80 3e f8 2b 05 be c6 ec 6a be b6 d1 8f bd
       0.25144687 -0.13005054 -0.22941884 -0.07022421
000240 89 82 63 3d 04 b4 50 3e e9 26 a0 bd 69 78 de 3d
       0.05554441 0.2038117 -0.078199215 0.1086281
000250 ef 80 c5 bd 62 32 a2 bd bf 8f 74 3e 9d 73 7f be
       -0.09643733 -0.07919766 0.2388296 -0.24946447
000260 4b f3 87 bc 2b d1 46 3e 7a 18 85 bd 62 08 80 3e
       -0.016595503 0.19415729 -0.06498809 0.25006396
000270 54 ea f4 bc e8 08 48 3e f6 06 7d be d2 fc fd 3a
       -0.029896893 0.19534647 -0.24709687 0.0019377714
000280 08 70 c2 bd 5d e9 08 3e e0 7c 1a 3e d3 2d 18 3e
       -0.094940245 0.13370271 0.15086699 0.1486123
000290 37 16 b5 bd f1 4b ae 3b 5f 2b 1e 3e 55 0d bc bd
       -0.08842128 0.0053191115 0.15446232 -0.091822304
0002a0 8a 68 3f 3e 55 82 54 be 7e bf cb bb 2c c7 05 3c
       0.18692222 -0.20752843 -0.006217896 0.008165162
0002b0 77 74 9d 3d 43 60 56 3e 34 87 53 bc e9 e0 71 be
       0.076882295 0.20935158 -0.012910653 -0.23620953
0002c0 b8 db 17 3e 39 54 d3 3d 25 c5 a8 3d 49 1c 38 be
       0.1482991 0.103187986 0.08240727 -0.1797954
0002d0 95 bf 58 3e 2a bd 47 3e fd 0a c3 bc 32 33 94 be
       0.21166833 0.19505754 -0.02380895 -0.2894531
0002e0 8e 66 1e 3e 45 1e 11 be 44 7b de 3d 68 4a c8 3c
       0.15468809 -0.14171703 0.10863355 0.024449542
0002f0 2e e4 f2 bd 2e 21 00 3e e5 bb 8f be 79 b1 dd 3d
       -0.11859928 0.12512657 -0.2807304 0.10824866
000300 f1 12 ea bd 64 b6 9e bd b6 17 88 bc d3 1a 89 3e
       -0.11429394 -0.07749632 -0.016612869 0.26778278
000310 8c 53 31 be 60 ca ec 3d de 0e 94 bd 50 93 1d be
       -0.17317027 0.115620375 -0.07229398 -0.15388227
000320 80 11 33 be f1 8d 3f be 54 a1 73 3e 88 59 4e bd
       -0.17487144 -0.1870649 0.2379201 -0.050378352
000330 73 3a 7f 3d e0 b3 a3 3c 37 aa 66 3e 56 2a 8a 3e
       0.0623116 0.019983232 0.2252587 0.26985425
000340 3f 05 24 3e 2c 9b 76 be 5f 05 3b bc bb 73 3c be
       0.16017626 -0.24082631 -0.011414855 -0.18403523
000350 05 10 34 be ad a5 5a 3c ce a4 4d 3e 53 1c 35 be
       -0.17584236 0.013345164 0.20082399 -0.17686586
000360 4c d1 3f 3e 51 a0 25 be e8 50 2d bd 4b a8 71 3e
       0.18732184 -0.16174437 -0.042313486 0.23599355
000370 45 c1 b8 bd ca 61 5b 3d d1 16 0a be e4 9d 42 3e
       -0.09021238 0.053560056 -0.13485266 0.19005543
000380 ec 5b 80 bd 97 90 2b be 96 ac 85 3d e1 80 36 be
       -0.06267533 -0.16754375 0.06527059 -0.17822601
000390 73 a3 67 be 24 fd c8 3c 14 b6 40 3e 61 4d 9f bd
       -0.22620945 0.02453477 0.18819457 -0.07778431
0003a0 e7 56 b6 3d 94 11 54 3e 6c af 41 3e 44 e1 f9 bd
       0.08903294 0.2070983 0.18914574 -0.12201169
0003b0 8a 15 1f bd ef df 80 bd 94 6a 49 be 68 a9 3a bc
       -0.0388389 -0.06292712 -0.19669563 -0.011392929
0003c0 48 fa 79 3e 6c 9f 2c 3e 6b a1 b4 bc c7 75 be 3c
       0.24411881 0.1685769 -0.022049626 0.02324952
0003d0 ae 6a 03 be c9 b4 79 3e 31 77 8c bd 27 95 56 be
       -0.12833664 0.2438537 -0.068586715 -0.20955335
0003e0 39 6e 2f 3d db 5a 50 3e 36 2d 90 be b4 77 90 3e
       0.042829726 0.20347159 -0.28159493 0.28216326
0003f0 6b ab 11 3e 91 ca 6b be 0d a0 d7 bd 92 f9 8a 3e
       0.14225547 -0.23026492 -0.10528574 0.27143532

bias_ih_l0 f4 [60]
000000 5a df 35 3e 0b b6 8c 3e 1f 81 8c 3e 7b db 53 3d
       0.17760983 0.27482638 0.27442262 0.051722985
000010 b1 ec 2b 3e 0b f2 56 be dc ea cf bd c3 65 70 3d
       0.1678951 -0.2099077 -0.10152218 0.058690798
000020 22 2d e0 3c aa cd 2f be 88 f7 84 bd 6d 03 cd bd
       0.027365271 -0.17168298 -0.06492525 -0.10010419
000030 68 97 53 be dc a3 95 3d f6 29 51 3e 27 0f c6 3d
       -0.20663226 0.07306644 0.20426163 0.09670859
000040 1b 27 96 bd ef 55 3f be d9 d0 26 be f8 6c f3 3c
       -0.073316775 -0.18685125 -0.16290607 0.029715046
000050 a5 95 67 3e b3 9f 5f bd 01 1d 09 be b9 63 00 be
       0.22615679 -0.05459566 -0.1338997 -0.12538041
000060 14 4f 1a 3c dc 5b 48 be 31 46 52 be 23 68 9b 3e
       0.009418268 -0.19566292 -0.20534588 0.30352888
000070 78 3b 98 bd 16 72 96 bc bb f5 3e bd 49 af 8c be
       -0.07433218 -0.018364947 -0.046621066 -0.27477482
000080 5a 81 be bd c1 64 02 3d 81 b5 1c be 0c c1 0c 3d
       -0.093020156 0.031834368 -0.15303613 0.03436379
000090 0b d5 3b 3d 25 65 9a be 78 e0 6c 3e 90 9a 83 3e
       0.04585747 -0.30155292 0.23132503 0.2570386
0000a0 7d 97 03 3e 22 40 79 bd b0 61 38 3e 97 c2 93 be
       0.12850757 -0.060852177 0.18006015 -0.28859398
0000b0 db b5 b9 bd a1 2c 8e bd 91 fa 2b bd 19 8c 22 3e
       -0.09067889 -0.06942106 -0.041987006 0.15873756
0000c0 96 b4 91 bd 64 34 74 bb de ad d5 bc 1e 1c 45 be
       -0.07114522 -0.0037262673 -0.026083883 -0.19249007
0000d0 cd 88 1f bd b7 3c 53 be 26 3d 3e 3e 87 d4 3f 3e
       -0.038948823 -0.2062863 0.18578014 0.18733416
0000e0 7c 83 86 3e a3 79 17 bd 18 4e 7f 3d c0 af a3 3d
       0.2627219 -0.036981236 0.062330335 0.07992506

bias_hh_l0 f4 [60]
000000 1f 51 82 3e e0 47 92 3e af eb aa bd 81 e7 37 be
       0.25452515 0.2857046 -0.08345734 -0.17959405
000010 cf 48 5e be 2b 33 9c bd a0 b7 88 3e 32 49 cb 3d
       -0.21707462 -0.07626947 0.26702595 0.0992607
000020 45 d3 8c 3e f9 bd 63 3e 2b 7f 59 3d b1 e2 0e be
       0.27504936 0.22240438 0.053099792 -0.13953663
000030 ab 45 9a 3e f7 d8 82 3e 2d 65 0f 3e 66 b5 18 be
       0.30131277 0.25556156 0.14003439 -0.14912948
000040 85 6a 81 3e 1a 07 97 3d e4 51 5d 3e b2 df 07 3e
       0.2527658 0.073744014 0.2161327 0.13268927
000050 7d 19 3e 3e 75 d5 34 be 9d d8 0b be 25 3b 2b 3e
       0.1856441 -0.17659552 -0.1365685 0.1672178
000060 38 67 b4 bc 09 4b 33 be a3 bd 83 3e 31 4f 33 3d
       -0.022021875 -0.17509092 0.2573062 0.043776695
000070 8d a1 83 3e 42 c6 31 be 26 0f e4 3d 8c af 14 be
       0.2570919 -0.17360786 0.11135702 -0.14520091
000080 3f e7 1f be 03 f7 ce bd cf 36 13 be d8 55 3f 3e
       -0.15615557 -0.101057075 -0.14376377 0.1868509
000090 18 c7 00 bb f1 e2 1a 3e 36 22 d2 3d 28 86 0c 3c
       -0.001964992 0.15125634 0.102604315 0.008576907
0000a0 b4 63 49 be e2 95 59 be b7 4b f7 bc 03 52 92 be
       -0.1966694 -0.21248582 -0.03018747 -0.28578195
0000b0 29 dd 98 bd d4 de 4f bc fe 59 05 3d c7 bf 9c bd
       -0.07464058 -0.012687404 0.032556526 -0.07653766
0000c0 ed 20 67 3e 29 bb 2f 3e b9 17 78 bc 8d 23 55 bd
       0.22571154 0.1716124 -0.015142375 -0.052035857
0000d0 79 00 2a 3e d0 dc 72 3e af 05 4e be 1a 59 d3 bb
       0.16601743 0.23717046 -0.20119356 -0.0064498307
0000e0 4c 5a 4c bb c9 3e 33 bd 8f 0c 8a 3e c6 0e 10 bc
       -0.003118175 -0.04376105 0.26962706 -0.008792585

weight_ih_l1 f4 [60, 15]
000000 f9 47 88 3e 7b c5 46 bd 45 5f 9f bd 9e eb 37 be
       0.2661741 -0.048528176 -0.07781843 -0.17960975
000010 0a 19 f4 bd cf 48 08 3e 9d 8e 27 3e 9c 2c 3b bd
       -0.11918838 0.13309024 0.16362996 -0.04569684
000020 e7 69 97 3e 83 0f 04 be 4e 79 49 3d d0 99 90 3e
       0.29572985 -0.12896542 0.04918795 0.2824235
000030 b4 39 97 3b e6 81 1f 3e fa 59 3a bd fc 2c 44 be
       0.004615033 0.15576896 -0.045495965 -0.19157785
000040 ad 96 1c be 29 40 b0 3d 8e 40 1c be 26 68 05 3d
       -0.15291853 0.086059876 -0.15259 0.032570027
000050 80 f9 85 3e 56 9f cb 3d 9c 51 70 bd 6e e7 a8 3d
       0.26166916 0.099425 -0.05867158 0.08247267
000060 68 f6 0b be dd 4a 6a be 42 7c 3c be a7 cc 40 be
       -0.13668215 -0.2288012 -0.18406776 -0.18828069
000070 1e 90 5c 3d b5 83 2d 3d 1b 03 ef bd ad f4 9a be
       0.05384838 0.042361934 -0.11670514 -0.30264798
000080 ad 01 c8 3d 55 52 43 be c6 ca a4 bd 18 23 2a be
       0.09765945 -0.19074376 -0.080464885 -0.1661495
000090 dd 9c c3 bd d5 66 b9 3d 59 2f 80 be 46 47 ff bd
       -0.09551404 0.09052817 -0.25036123 -0.12464766
0000a0 a1 ac 12 3e 77 da a8 bd 6c 0b 6b bd 6e c0 fa bd
       0.14323665 -0.08244794 -0.05738394 -0.12243734
0000b0 94 93 89 3d c1 b5 30 be 61 84 98 bc b8 5b a8 3d
       0.067176014 -0.17256834 -0.01861781 0.08220619
0000c0 45 dc 8b bd 8d c3 c0 3c 5e 63 24 be 15 f9 2a 3e
       -0.068291225 0.023530746 -0.1605353 0.1669658
0000d0 9b 42 a0 3d 47 30 66 3c 8e ff 32 be 48 2d 5c 3d
       0.07825204 0.014049596 -0.17480299 0.05375412
0000e0 7a 35 5f 3e c0 63 81 bc 37 67 92 3d 72 2f 51 3d
       0.21797743 -0.015794635 0.07148593 0.051070638
0000f0 f6 a5 8c bd 55 ce 88 bd f5 5a 55 3e a6 15 20 bd
       -0.06867592 -0.0667998 0.20835479 -0.039083146
000100 a4 76 77 be 06 9f ef 3c b3 43 34 3e ab 91 bb bd
       -0.24166352 0.029250633 0.1760395 -0.09158643
000110 0c d9 ef bd ba ea 83 3e 98 ed b3 3d 3e 5f 07 3b
       -0.1171132 0.2576502 0.08785552 0.0020656134
000120 6e 0a 7b 3d 78 57 95 bd 8e d2 6f 3c 82 0c 9d bb
       0.061289243 -0.07292074 0.0146376025 -0.004792751
000130 c2 0d 16 be bb 58 1e 3d d0 dc 1f bd a9 97 a1 bc
       -0.14653686 0.03865884 -0.039028943 -0.019725638
000140 b7 84 bc bd c1 57 90 3d ce 6d 78 be 1e 0c 61 3d
       -0.09205001 0.07047988 -0.24260637 0.054943196
000150 53 09 3e 3e 91 d6 04 bd ca c5 1d be 4e 24 43 3d
       0.18558244 -0.03243119 -0.15407482 0.047642045
000160 04 6f ca bc b0 f9 85 be e8 29 0d be 99 77 57 3e
       -0.02471114 -0.2616706 -0.13785517 0.21041717
000170 47 d9 13 3e 54 e4 28 3e d6 c9 43 3e 77 a9 d2 3d
       0.14438353 0.1649335 0.19119963 0.10286229
000180 bf c3 f8 3d 5f af 08 3e 81 93 bd bc 6f 25 80 3c
       0.121467106 0.13348149 -0.023141624 0.01564285
000190 9f d8 53 3e 96 51 f8 bc 8c 5c 16 be 04 6f 44 be
       0.20688103 -0.03031234 -0.14683741 -0.19182974
0001a0 cc 7c 23 3e 6e 0c 39 3e ee 2f 7d 3e 22 79 b8 3d
       0.15965575 0.18071148 0.24725315 0.09007479
0001b0 99 b4 58 3e b7 49 62 be ff 38 6e be 0b bb 83 be
       0.21162643 -0.22098432 -0.2326393 -0.2572864
0001c0 45 b7 82 3e ce 54 6d 3b e2 cd 28 be 18 03 0a 3e
       0.2553045 0.0036213878 -0.16484788 0.13477743
0001d0 21 2c c3 bd fc 54 56 be da e3 0f 3e 86 03 b9 3d
       -0.09529901 -0.20930856 0.14051762 0.09033875
0001e0 d0 c7 2a be b6 82 21 be a2 3e f3 3d ed ed 49 3e
       -0.16677785 -0.15772519 0.11877181 0.19719668
0001f0 3e 20 b8 3c 9c b5 0d be ac 38 cc 3d c9 30 12 3c
       0.022476312 -0.1383881 0.09971747 0.008922764
000200 63 8e 4c be 5c 6d 01 be 21 3c 91 3d 81 ce 09 3e
       -0.19976191 -0.12639374 0.07091547 0.13457681
000210 4d be c0 bd f7 19 13 3e d9 51 0d be f4 a7 6c 3e
       -0.09411297 0.14365374 -0.13800754 0.23110944
000220 b1 8d 1f 3e 74 ca 79 ba d9 39 b3 3d 27 7f 25 3d
       0.15581395 -0.0009528764 0.08751268 0.040404465
000230 64 ba d3 bd 81 a0 43 3d 4a 50 5f 3d e4 cd 09 bc
       -0.103382856 0.04776049 0.05451993 -0.008410905
000240 89 71 97 3e 42 b3 17 be 1f aa 38 be bf 6e fd bd
       0.29578808 -0.14814475 -0.18033646 -0.12374639
000250 db 51 94 be 08 94 31 3e 10 9b 8c bd c8 78 6d be
       -0.289687 0.17341626 -0.06865513 -0.23190606
000260 c1 7a 9f bd 39 23 5d be 3a 06 29 be 94 32 3a 3e
       -0.07787085 -0.21595468 -0.16506281 0.18183357
000270 90 34 13 be 1c 45 d7 3d de 72 4e 3e d8 42 38 3d
       -0.1437552 0.105112284 0.20161006 0.044985622
000280 5a d4 83 3d fb f2 c2 bd 81 b7 80 3e 40 f0 4d 3e
       0.06436987 -0.09519001 0.25140002 0.2011118
000290 70 83 43 3c 63 00 89 3e 91 d3 89 be ab 63 5e bd
       0.011933193 0.26758108 -0.26919225 -0.05429427
0002a0 f3 23 de 3a 92 20 8c be 81 ef 19 3e 73 79 67 bd
       0.001694797 -0.273686 0.1503277 -0.056512307
0002b0 d1 86 fe bd d0 96 22 be fd 52 ef 3d 61 28 5d be
       -0.12428058 -0.15877843 0.11685751 -0.21597435
0002c0 0b 89 97 bb e1 9c 26 3e b7 d8 13 3e 0c f8 f4 3c
       -0.004624491 0.16270782 0.14438139 0.029903434
0002d0 4f 28 48 bd a2 51 26 be ed c2 c2 3d 53 50 9d 3c
       -0.048866566 -0.16242078 0.095098354 0.01920334
0002e0 6a 4b 45 3e 70 ed 16 3e 35 7e 83 3e a5 8a 83 be
       0.1926705 0.14739013 0.25682226 -0.25691715
0002f0 a5 1f 83 3e 5f 60 8c bd 25 05 f4 bd 2d 58 43 3d
       0.2561008 -0.06854319 -0.11915044 0.047691513
000300 60 18 d1 3a ce 46 dc 3a 5e e8 38 3e ff 2c 0b be
       0.0015952699 0.0016805769 0.18057391 -0.13591383
000310 10 19 e1 3d e4 19 3b be 93 3d 7d 3c 1b 51 65 3e
       0.109911084 -0.18271595 0.015456575 0.2239422
000320 95 6e 13 3e 6b 7e 5f 3e bc 5f 14 3e e4 7b 7a bd
       0.14397652 0.21825568 0.14489645 -0.061153308
000330 5d a9 26 3d a2 e0 b7 bd 2f db 4b 3e 96 27 03 3e
       0.04068886 -0.08978392 0.1990783 0.1280807
000340 fd 6a 22 be 0f 59 71 3e 48 73 27 3d a8 44 ae bc
       -0.15861125 0.2356913 0.040881425 -0.021272972
000350 d2 03 af bd e6 16 ed bd dc 74 9e bb 10 8c d2 bd
       -0.085456505 -0.11576633 -0.004835708 -0.10280621
000360 83 62 63 be c4 3d 0e be 2e 4b 8c bd 80 03 76 3e
       -0.22205548 -0.13890749 -0.06850277 0.24024773
000370 a9 ba 2b 3e 58 85 18 be 97 b7 23 3d 97 dc fe bd
       0.16770424 -0.14894617 0.039970007 -0.12444418
000380 ae e8 07 be 17 3e aa 3a b2 d0 0e be 0e a5 c1 3d
       -0.13272354 0.0012988475 -0.13946798 0.0945531
000390 41 8d 26 be 5e 90 be 3b b9 dc c3 bd 8c f3 fa bc
       -0.16264822 0.0058155498 -0.09563584 -0.03063371
0003a0 8c c7 41 3e bf b2 e5 bd df 80 08 3d a4 52 49 3e
       0.18923777 -0.11215734 0.033326026 0.19660431
0003b0 f4 ce 0d 3e 21 3f a8 bd ce a3 51 be 21 f9 0f be
       0.13848478 -0.08215166 -0.20472643 -0.14059879
0003c0 57 55 a1 bd 08 bd cf 3d 68 0b 88 bd 48 c0 34 3e
       -0.078776054 0.10143477 -0.066428006 0.17651474
0003d0 32 f8 30 be 11 22 96 bd 50 7a d8 3d 64 4d 32 3e
       -0.17282179 -0.073307164 0.10570204 0.17412335
0003e0 1e 05 8c 3e b7 1a 5a 3d 60 0b 46 39 9d fe d9 bd
       0.27347654 0.053248134 0.00018886989 -0.10644267
0003f0 70 0d 23 3e be c1 1f be ff 02 98 bd c4 05 2f be
       0.15923095 -0.1560125 -0.074224465 -0.17092043

weight_hh_l1 f4 [60, 15]
000000 f7 a9 81 bd aa 11 b3 3d 3a c7 99 3e 00 5f 84 3e
       -0.06331246 0.087436035 0.3003481 0.2585373
000010 75 5c 3d 3e a1 98 c8 bd 84 3a a4 bd e8 2b a8 3c
       0.18492301 -0.09794737 -0.080189735 0.020528749
000020 ac ef ba 3d cc 3e 1d 3e 03 c6 95 bd 29 f3 4a be
       0.09127745 0.15355986 -0.07313158 -0.1981932
000030 6e 65 7a be b8 f1 8b 3e f8 b8 b1 bd af b1 37 bd
       -0.24452755 0.27332854 -0.08677858 -0.044847187
000040 e5 63 23 be 72 d2 f2 bd 04 71 98 3d 12 53 cc 3d
       -0.15956075 -0.118565455 0.07443431 0.09976782
000050 fd c8 0a be 34 0d f5 bd a3 44 5a 3e 44 bd 1f be
       -0.13553233 -0.11965409 0.21315245 -0.15599543
000060 4e 9b 37 be b5 64 49 bd de 4c 56 3e de cd 38 3d
       -0.17930338 -0.049168307 0.2092776 0.045118205
000070 82 62 76 3c 6f b2 86 bd 00 64 e3 3d 79 69 34 be
       0.0150381345 -0.06577002 0.11103058 -0.1761836
000080 91 bc 66 3e 71 05 e1 3d 2d bb b0 bc 14 21 d7 3c
       0.2253287 0.10987366 -0.021573627 0.02626089
000090 c3 0f 1a be 64 66 77 3e 7f d3 19 3e 2c 23 1c be
       -0.15045075 0.24160153 0.15022086 -0.15247792
0000a0 e3 dc 94 be 1a 8a c6 bd a2 87 f8 3d a0 fa d6 bd
       -0.29074773 -0.096943095 0.12135245 -0.10497022
0000b0 0a 29 65 3e d2 37 32 be b5 d0 90 be 49 a5 26 3e
       0.22378936 -0.17404106 -0.2828423 0.16273989
0000c0 7f 84 db bd d1 ff b7 bd bd 0d b8 bd 5d 76 35 bc
       -0.10718631 -0.0898434 -0.08986995 -0.011075583
0000d0 b2 fd 44 be 2d 25 64 be cb 06 24 3e b6 75 95 bd
       -0.19237402 -0.22279806 0.16018216 -0.07297842
0000e0 be ef 3a be ff ef 3d bd 59 74 5e be 79 22 60 3d
       -0.18255517 -0.046371456 -0.2172407 0.054720376
0000f0 60 2b 98 3d 83 b3 55 3e dc 2c 26 be eb c8 8d 3c
       0.07430148 0.2086926 -0.1622805 0.01730772
000100 2a cb bd 3d 68 be 69 3e 03 39 2d be 24 84 20 3e
       0.09267266 0.2282654 -0.1691628 0.15675408
000110 08 25 01 3e b8 f4 51 3e 31 39 68 be 2c c1 1c 3e
       0.12611783 0.20503509 -0.22678067 0.15308064
000120 cf 71 25 be b6 03 07 be a9 e5 16 3d 8e 1c 5c 3e
       -0.16156696 -0.1318501 0.036840115 0.21495268
000130 69 d6 2a be 62 52 15 3e e4 b0 b2 bc b4 32 a0 3d
       -0.16683353 0.14582208 -0.021812864 0.07822171
000140 b4 a2 28 3e 05 74 3e 3d 1b 8b 56 be aa f3 d2 bd
       0.16468316 0.046497364 -0.20951502 -0.103003815
000150 66 8a 5b 3d 04 90 64 be 69 c8 0c 3c c3 79 13 be
       0.053598784 -0.22320563 0.008592703 -0.14401917
000160 f6 31 a1 bd 65 68 64 3d bf d7 4b be de b6 1d be
       -0.078708574 0.05576362 -0.1990652 -0.1540179
000170 13 0f dc 3d 08 78 87 be 8f 94 3f 3e e2 6c 68 be
       0.10745063 -0.26458764 0.18709014 -0.22697785
000180 92 f2 0e bd e1 f5 2a 3d 83 3a 96 3d 1f 4d 2e be
       -0.0348993 0.041738395 0.07335379 -0.17021607
000190 8e 71 31 3d bd 19 dd 3d 12 3b 6b 3e f6 07 63 be
       0.043321185 0.10795925 0.22971752 -0.22171006
0001a0 42 13 1b be 1f bf fa 3d 4f 67 05 3d ac 7b 62 be
       -0.15144065 0.12243485 0.032569226 -0.2211749
0001b0 e3 fc 83 be dc 40 3b be 99 3d 30 be 4d 4c fc bd
       -0.25778875 -0.1828646 -0.17210998 -0.12319241
0001c0 4b 7c 65 be 0d 0a 7d be 5f 49 a8 bc 65 17 4c 3e
       -0.22410695 -0.24710865 -0.020542799 0.199308
0001d0 57 43 b7 bd 04 ad 97 3d 3a 09 00 bd c5 7f 10 3e
       -0.08948391 0.07406047 -0.0312588 0.1411124
0001e0 c0 ce 28 be 4b 59 f4 3c 1e 86 67 3e 58 2f 2f 3e
       -0.16485119 0.029827734 0.22609755 0.17107904
0001f0 67 0c 77 be f1 30 8d bd 2d 4c d1 bc b4 7c cd bd
       -0.24125825 -0.068941005 -0.025549019 -0.10033551
000200 4a 0e 49 be a9 60 45 be 64 2d 3d 3e 4c d4 bd bd
       -0.19634357 -0.19275154 0.18474346 -0.09269008
000210 f6 01 44 bb 38 4d 46 3d c3 f0 3f be 02 a8 d6 bc
       -0.0029908395 0.048413485 -0.18744187 -0.02620316
000220 ff f5 d3 3d 07 5a d0 bd 69 a3 fc 3d 79 64 6e bd
       0.103496544 -0.10173421 0.123358555 -0.058201287
000230 ad 0a 09 3e da d1 37 3e 01 10 e5 3d e8 ff ae 3c
       0.13382979 0.17951146 0.11184693 0.02136226
000240 48 65 31 be ae a5 5c 3d 53 15 ef 3d 54 9b 11 be
       -0.17323792 0.053868942 0.11673989 -0.14219409
000250 89 e0 6d be 92 a6 44 3e 66 02 e3 bd 73 84 73 3b
       -0.23230185 0.19204167 -0.11084442 0.0037157803
000260 ce bc b6 bc 24 ca 57 3e 04 8f 4e 3e 13 97 1b 3e
       -0.022306826 0.21073204 0.20171744 0.15194349
000270 2a 45 98 bd 4b 39 6c 3e d4 07 0f 3e 38 39 99 3d
       -0.07435067 0.2306873 0.1396783 0.07481617
000280 e2 3b 84 be 77 b7 11 be a6 7e 9c be 13 3c 48 3e
       -0.25826937 -0.14230143 -0.30565375 0.19554166
000290 99 4e 73 3e 6d 84 f2 3d 3a 21 4e 3d 4d d8 c3 3d
       0.23760451 0.118416645 0.050324656 0.095627405
0002a0 96 73 8f 3e 77 e5 27 be 45 25 f8 bd a4 47 76 be
       0.28017873 -0.16396128 -0.121164836 -0.24050766
0002b0 63 db 8e 3b e3 f5 5b 3c 7a 35 c9 3d 69 b4 59 be
       0.004359649 0.013425323 0.09824653 -0.21260227
0002c0 63 74 85 bd 27 97 7a be 87 e0 57 be 5f be 85 3a
       -0.0651634 -0.24471723 -0.21081744 0.001020383
0002d0 3f af 9a be 58 96 a2 3c 40 31 40 be 4a ba 0b be
       -0.30211827 0.01984708 -0.18768787 -0.13645282
0002e0 a4 28 d4 bd 4e 71 83 be f7 00 5d 3e 13 b1 85 3e
       -0.10359314 -0.25672382 0.215824 0.2611166
0002f0 64 29 f7 bd 25 6e d2 3d ee 8e a7 3d c9 13 51 3d
       -0.120684415 0.10274915 0.081815585 0.05104426
000300 54 2d ad bd 8f 19 61 be c1 cb 2d 3e 90 36 51 be
       -0.08455911 -0.21982406 0.16972257 -0.2043097
000310 a8 d5 ce bc 20 0c ae bb 3a 1e da bd 7a 87 94 bd
       -0.025248364 -0.005311504 -0.106502965 -0.072524026
000320 64 5d 80 be f5 1c 4e bc 6a 78 57 bd 50 f6 4a 3e
       -0.2507125 -0.012580146 -0.05260507 0.19820523
000330 37 8a db bd c9 05 61 3e 13 09 41 3c a6 67 c1 bd
       -0.10719722 0.21974863 0.011781949 -0.094435975
000340 fb f7 ba bd f7 20 63 bd 9c 25 4f bc be 27 51 bd
       -0.0912933 -0.05545136 -0.012643244 -0.05106329
000350 d5 dc bd 3d 50 d1 72 3e e0 e4 cc 3c ec 30 57 3d
       0.09270636 0.23712659 0.02501148 0.05253689
000360 3b ba 0a 3e 55 b2 93 3d 7f 86 c4 3d 67 2d 1a 3e
       0.13547604 0.072117485 0.095959656 0.15056382
000370 13 12 67 3e 84 9f 8d be 94 e4 91 3d b0 38 0b bd
       0.22565489 -0.27660763 0.07123676 -0.03398961
000380 c9 32 b1 bd 79 21 19 be 60 0c d9 3d 61 8f 92 3e
       -0.086522646 -0.14954175 0.105980635 0.28625014
000390 0b 3f 26 be fc 61 b7 3d 1d be 2a 3e ad 0d 59 3d
       -0.16234986 0.08954236 0.16674085 0.052991558
0003a0 c4 f6 56 3d 79 93 5a 3e fd 19 6a 3d 6f b4 ea bd
       0.052481428 0.21345319 0.05715369 -0.11460196
0003b0 f5 20 5e bd fb 11 07 3d fc 65 b6 3d 1d 64 07 bd
       -0.05423065 0.032976132 0.08906171 -0.03305446
0003c0 98 1b 92 3d f2 42 88 3d 4a 87 4c be 71 7c a4 3d
       0.07134169 0.06653394 -0.19973484 0.08031548
0003d0 1b 7f 18 3e c3 ee 29 bb 8a a7 42 bd 68 a9 53 3e
       0.14892237 -0.0025929667 -0.04752306 0.20670092
0003e0 fc 0f 7f be a9 8d d5 bd cd 9b 00 be df 67 3e 3e
       -0.24908441 -0.1042741 -0.12559433 0.18594311
0003f0 6c a3 85 be b6 92 b6 3b 50 d2 8f be e0 d6 70 bd
       -0.26101243 0.0055716885 -0.28090143 -0.05879867

bias_ih_l1 f4 [60]
000000 93 12 73 3d a3 e4 79 be b0 61 51 be 21 3a 3a bc
       0.059343886 -0.24403624 -0.20447421 -0.011366398
000010 c6 dd 3b 3e 60 75 2f be ca af 69 3d d9 27 3c be
       0.18346319 -0.17134619 0.05705241 -0.18374576
000020 03 3c 45 3e e8 66 92 bc 8b 4c a1 bb f5 e0 46 be
       0.19261174 -0.017871335 -0.0049224547 -0.19421752
000030 99 62 3a be 23 9e cb bb 51 36 5d 3d 48 5f 41 3e
       -0.18201675 -0.0062139197 0.05400688 0.18884003
000040 2e 7c 62 be 2b fe c1 3d 0b b4 44 3c de 27 49 3e
       -0.22117683 0.09472307 0.012005816 0.19644114
000050 77 2b ee bd ec 04 80 3d ff 1c 81 3d 04 90 e2 3d
       -0.11629384 0.06250939 0.06304359 0.11062625
000060 ed 32 1f bd 54 de 07 3e 90 76 a6 bc 38 38 f4 3d
       -0.038866926 0.13268405 -0.020320207 0.119247854
000070 d1 e6 3a be 2d aa 44 be e1 13 83 be 3c 72 2f be
       -0.18252112 -0.19205542 -0.25601104 -0.1713342
000080 e8 5a 82 bd b6 94 aa 3d 80 db c0 bd 04 7c 39 be
       -0.06364995 0.083291456 -0.09416866 -0.18113714
000090 f8 53 19 bd d2 4e e7 bd 8e e8 f5 3d 81 6f 28 be
       -0.037433594 -0.11294331 0.12007247 -0.16448785
0000a0 0b ab 10 be 0c f1 57 be cd 04 3e bc 3c 33 d6 bc
       -0.14127748 -0.21088046 -0.011597824 -0.026147477
0000b0 1a 30 67 bd bf b7 9c 3e be ed bc bd 7e b4 49 3c
       -0.056442358 0.30608937 -0.09225033 0.012311099
0000c0 a6 82 ed 3d 73 73 86 3e 61 4c 49 3e 3e 95 75 3c
       0.11597185 0.26259956 0.19658042 0.014989195
0000d0 5c 86 0f be 40 7b 89 3d 46 5e 59 3e 26 31 33 3d
       -0.14016098 0.06712961 0.21227369 0.043748043
0000e0 92 9b 30 3e bf dc 85 3e d8 0a 26 be d0 0b 35 bd
       0.17246845 0.26144978 -0.16215074 -0.04420072

bias_hh_l1 f4 [60]
000000 3b fa 3b be 6f 4f 86 3d 0f d9 6e 3e 07 eb 51 bb
       -0.18357174 0.065581195 0.23324989 -0.0032030956
000010 da a8 ae 3d 0c 6f aa 3d 71 dd 93 bc 35 e8 21 3e
       0.085283 0.08321962 -0.018049927 0.15811236
000020 e4 2b a5 3c 2f e8 50 be 63 46 28 be c0 ef 64 be
       0.02016253 -0.20401071 -0.164331 -0.22357082
000030 31 51 75 3d 1a 62 ed 3d 52 a2 b2 bc ed 1f 90 3e
       0.059891883 0.11590977 -0.021805916 0.28149357
000040 eb 6b 2b bd 03 73 d1 3d ce 73 90 3e ef de 33 3e
       -0.041850965 0.10227015 0.28213352 0.17565511
000050 86 9b e9 bb 3b e9 6f 3e 2f f4 47 be 81 e4 9d 3d
       -0.0071291355 0.23428814 -0.19526742 0.07709599
000060 5d dc 59 3e 65 db e1 bd 6f 59 59 be d2 7b 07 3e
       0.21275468 -0.11028174 -0.21225522 0.13230827
000070 ed 43 f9 bd 44 ff ef bd 43 9b d6 3b 3e 0a 49 be
       -0.12171159 -0.1171861 0.0065492704 -0.19632813
000080 9e 42 8e 3e 75 9b b1 3c ae 89 f6 bd 38 0f 3a 3e
       0.277852 0.021680573 -0.12037979 0.18169868
000090 41 43 04 3d 90 b7 91 3c 6d 71 26 be c8 a7 96 3e
       0.0322907 0.017787725 -0.16254206 0.29424882
0000a0 42 35 ff bd a4 df 2d 3e fa bd 7f bd e6 dc b6 3d
       -0.1246133 0.16979843 -0.062437035 0.08928852
0000b0 b1 50 0f 3e 78 bd 11 be 7e d2 29 be 42 d7 52 be
       0.13995625 -0.14232433 -0.16584203 -0.20589927
0000c0 36 25 71 3e 2b ce 89 3e cc 78 bf bd c8 59 10 be
       0.23549351 0.26915106 -0.09349212 -0.14096749
0000d0 a9 a4 42 3a 3b 74 f8 3d 9a 8d e8 3d 2a 30 95 bb
       0.0007425049 0.12131544 0.11355133 -0.0045528607
0000e0 d6 ba 08 be be bb 8a 3e 1c 9d 43 be 94 4b 72 be
       -0.13352522 0.2709636 -0.19102901 -0.23661643

weight f4 [1, 15]
000000 a1 27 1b be b5 ce 59 3c bf 47 13 3e 50 b2 18 3e
       -0.15151836 0.013293912 0.14382838 0.14911771
000010 1e 69 49 be d7 8f d8 bd 8d 8b ce bd 0a 19 9f bd
       -0.19669005 -0.1057431 -0.10085211 -0.07768448
000020 3c 36 4c be 06 82 d2 3d 00 0d fd bd 35 15 8f be
       -0.19942564 0.10278706 -0.12355995 -0.27945867
000030 bf 23 4d be bb 5e 06 be 83 cc ff bd
       -0.20033167 -0.13122074 -0.124901794
