models/Regressor.pt (torch, 54426 bytes, 6 tensors)

weight f4 [5, 10]
0.0 0.0 0.0 0.0 0.0 0.0 0.0 0.0
0.0 0.0 -0.71998453 0.4222287 0.5349275 -0.6325001 0.40254375 -1.2425399
0.7916023 -1.1139351 -0.2839861 -0.30041984 -1.1381567 -0.6388 0.07508293 0.3989109
1.289688 -1.1170132 -1.2242392 -0.6132337 2.2409143 -0.07290479 -2.6612592 2.3486118
-0.54147935 0.007339172 1.9830807 -0.85511875 -1.0119464 1.621377 2.1740072 0.48566842
0.68015426 1.183766 1.1275759 -1.2036269 0.3801993 0.19610195 0.2902456 -1.5255698
1.6990068 0.6749492
00000000: 0000 0000 0000 0000 0000 0000 0000 0000
00000010: 0000 0000 0000 0000 0000 0000 0000 0000
00000020: 0000 0000 0000 0000 e850 38bf 5c2e d83e
00000030: 02f1 083f 87eb 21bf 371a ce3e 8c0b 9fbf
00000040: 73a6 4a3f 6d95 8ebf a066 91be a1d0 99be
00000050: 1eaf 91bf 6688 23bf 14c5 993d 0d3e cc3e
00000060: 7f14 a53f 4afa 8ebf dfb3 9cbf e2fc 1cbf
00000070: 246b 0f40 1b4f 95bd 1252 2ac0 a84f 1640
00000080: 649e 0abf 707d f03b 97d5 fd3f 10e9 5abf
00000090: 7687 81bf 4889 cf3f ef22 0b40 88a9 f83e
000000a0: 971e 2e3f a585 973f 6854 903f 7210 9abf
000000b0: 7ca9 c23e f3ce 483e 129b 943e df45 c3bf
000000c0: 0e79 d93f 79c9 2c3f

weight_ih_l0 f4 [200, 10]
-0.20083717 0.029689774 0.08238497 -0.054243535 0.03393863 0.043766797 0.0050117443 0.10591832
0.16403377 0.18442158 -0.18355173 0.15599291 0.04988065 -0.022624006 0.18490006 -0.22577083
-0.19909117 -0.04545706 0.20649523 0.2428161 -0.13844284 0.17708698 -0.055396102 0.0055333627
0.059416614 -0.10478765 0.04683828 -0.090577595 0.14762454 0.062018532 -0.12464455 0.049677078
-0.10771947 0.018577918 -0.04386913 -0.13133098 -0.12484462 0.077751964 0.11269212 0.2013223
-0.097140014 0.032688543 -0.10457746 -0.16543806 0.1509494 -0.2231219 -0.11104251 0.08133894
0.2195563 0.04172658 -0.076816626 0.04992299 -0.07352455 0.059330367 0.09534412 -0.011536611
-0.012434023 0.077201486 0.03657036 0.0798236 -0.08005454 0.0070486097 -0.049967676 -0.055448957
0.09189845 0.03343603 -0.09286289 -0.045996785 0.064208634 0.2044861 0.007999663 0.2555804
0.023275433 -0.0068860715 0.024926791 -0.17930152 -0.23070087 -0.045438565 0.12176588 0.13796182
-0.1269881 0.07524693 0.1554644 -0.0021922605 0.09418263 -0.18206652 -0.12004453 0.07708482
0.16514331 0.2671201 -0.15830173 0.13923475 -0.008745056 -0.027804628 0.08944214 -0.071479514
-0.23485495 -0.023030255 0.16241108 0.004286742 -0.07371972 0.063165866 0.1188692 -0.063408166
0.2264457 -0.21719712 -0.102218345 0.12558563 0.07289694 0.27074766 -0.011189189 0.25491887
0.08415055 -0.06351584 0.011276055 -0.15412559 -0.017785126 -0.14585541 0.073530085 0.24395195
-0.0724186 0.11560128 0.015081916 -0.082191564 0.027886068 -0.24293995 -0.018083908 0.08555357
0.20275769 0.21103601 -0.07201702 -0.00995352 0.09470146 0.016869975 0.21974558 -0.042644177
-0.120950475 -0.02936863 0.081722535 0.07360914 -0.03615574 0.094071984 0.19077122 -0.074452646
0.3004341 -0.19345501 -0.21469064 0.14811975 0.058332745 0.22894934 -0.12564208 0.07671094
-0.041026324 -0.05918137 0.006686196 -0.001615062 -0.18190111 0.06323045 0.17989051 0.15283787
-0.16964453 0.05197899 -0.07659426 -0.03901273 0.10185446 -0.1218302 -0.11234135 -0.061675083
0.216715 0.2840591 -0.1899946 0.021193974 -0.12762305 -0.050219525 0.24392423 -0.11263762
-0.15950389 -0.01265606 -0.027537776 0.2648054 -0.23358476 0.114443585 0.12779076 -0.039109137
0.107643075 -0.24170916 -0.13584225 -0.014870753 0.093160875 0.11979659 -0.06818145 0.22963214
-0.006068881 0.10147833 0.050797686 -0.19389619 -0.009867105 -0.04006005 0.15935555 0.13339417
0.039025467 0.111357786 0.05610384 0.01660469 0.2375941 -0.010797113 -0.13256863 0.0031582157
0.18535863 0.19549003 -0.1766537 0.27602276 0.1640169 0.007083455 0.11830166 -0.19045532
-0.11115502 0.03055565 0.100514285 0.30065194 -0.11771475 0.018996544 0.066331856 -0.06186492
0.016278839 -0.012521272 -0.09043796 0.19002715 -0.02663147 0.2434201 -0.14688182 0.062142126
-0.039618623 -0.19418238 0.15353103 -0.0029784283 -0.06429149 0.11723352 0.044809185 0.24388452
-0.065651804 0.21142201 0.069114126 0.061944813 0.13780756 -0.19785309 -0.07085988 0.0072659617
0.10535508 0.08466075 -0.16138166 0.057628505 0.070815384 -0.05570264 0.0631973 -0.018579839
00000000: 42a8 4dbe f837 f33c 73b9 a83d 782e 5ebd
00000010: 3c03 0b3d d044 333d 8f39 a43b b4eb d83d
00000020: 78f8 273e 03d9 3c3e fcf4 3bbe 9bbc 1f3e
00000030: a74f 4c3d fb55 b9bc 7156 3d3e 7830 67be
00000040: 8ede 4bbe 2f31 3abd 7c73 533e c9a4 783e
00000050: f6c3 0dbe 4a56 353e 06e7 62bd 3651 b53b
00000060: d65e 733d e89a d6bd 7fd9 3f3d bf80 b9bd
00000070: e32a 173e 2507 7e3d a445 ffbd 317a 4b3d
00000080: 079c dcbd b830 983c 1eb0 33bd a17b 06be
00000090: 89ae ffbd 6c3c 9f3d 20cb e63d 6f27 4e3e
000000a0: 58f1 c6bd 6ce4 053d b52c d6bd 9868 29be
000000b0: 7b92 1a3e 117a 64be 416a e3bd 0895 a63d
000000c0: 5ed3 603e 7ee9 2a3d 0952 9dbd 0d7c 4c3d
000000d0: 0a94 96bd 6604 733d c743 c33d 0e04 3dbc
000000e0: 13b8 4bbc d01b 9e3d cdca 153d 8e7a a33d
000000f0: a2f3 a3bd 06f8 e63b e8aa 4cbd 721e 63bd
00000100: 4135 bc3d 38f4 083d e62e bebd 2067 3cbd
00000110: d17f 833d ce64 513e 0511 033c 6fdb 823e
00000120: 1fac be3c 8ea4 e1bb 4533 cc3c d19a 37be
00000130: d93c 6cbe ca1d 3abd 6460 f93d dd45 0d3e
00000140: 2b09 02be 101b 9a3d 0f32 1f3e 07ac 0fbb
00000150: d3e2 c03d a56f 3abe e8d9 f5bd a5de 9d3d
00000160: 541b 293e f7c3 883e d919 22be 8e93 0e3e
00000170: 6c47 0fbc 88c6 e3bc 712d b73d da63 92bd
00000180: d17d 70be f2a9 bcbc 174f 263e cc77 8c3b
00000190: 5dfa 96bd 1b5d 813d b271 f33d 24dc 81bd
000001a0: 62e1 673e ec68 5ebe da57 d1bd 8599 003e
000001b0: fe4a 953d 709f 8a3e dc52 37bc ba84 823e
000001c0: 2057 ac3d 9814 82bd 34bf 383c 19d3 1dbe
000001d0: 1db2 91bc 1f5b 15be f196 963d 8ace 793e
000001e0: 3450 94bd 5dc0 ec3d 241a 773c 0d54 a8bd
000001f0: 5371 e43c 40c5 78be b424 94bc b636 af3d
00000200: b69f 4f3e d319 583e a97d 93bd 1714 23bc
00000210: d7f2 c13d e732 8a3c fc04 613e a9ab 2ebd
00000220: e2b4 f7bd 7b96 f0bc 255e a73d 64c0 963d
00000230: 0b18 14bd d0a8 c03d 8859 433e a17a 98bd
00000240: 80d2 993e 1219 46be ddd7 5bbe b4ac 173e
00000250: 51ee 6e3d b271 6a3e 51a8 00be a01a 9d3d
00000260: 380b 28bd 2a68 72bd e117 db3b 7db0 d3ba
00000270: 4944 3abe f77e 813d 3835 383e 8881 1c3e
00000280: 4cb7 2dbe ece7 543d 74dd 9cbd d0cb 1fbd
00000290: 1299 d03d 1d82 f9bd 3913 e6bd 039f 7cbd
000002a0: 89ea 5d3e 3270 913e f28d 42be fc9e ad3c
000002b0: 9eaf 02be fdb2 4dbd 46c7 793e 8dae e6bd
000002c0: fd54 23be 5d5b 4fbc e796 e1bc 9394 873e
000002d0: d830 6fbe 6661 ea3d 95db 023e e730 20bd
000002e0: f973 dc3d 9b82 77be 3b1a 0bbe 75a4 73bc
000002f0: 21cb be3d ea57 f53d b7a2 8bbd b024 6b3e
00000300: 77dd c6bb dfd3 cf3d 3c11 503d b98c 46be
00000310: a3a9 21bc 0216 24bd 1a2e 233e 7b98 083e
00000320: 2bd9 1f3d 8d0f e43d 24cd 653d 8f06 883c
00000330: de4b 733e 60e6 30bc 12c0 07be 11fa 4e3b
00000340: a7ce 3d3e 8a2e 483e b5e4 34be db52 8d3e
00000350: 0cf4 273e 541c e83b 2448 f23d b806 43be
00000360: 3ea5 e3bd d84f fa3c 6fda cd3d 0def 993e
00000370: 6e14 f1bd a49e 9b3c ffd8 873d 1266 7dbd
00000380: 335b 853c 0526 4dbc 8a37 b9bd 7a96 423e
00000390: 3e2a dabc 1e43 793e 3068 16be be88 7e3d
000003a0: 2347 22bd bfd7 46be 3d37 1d3e bc31 43bb
000003b0: 42ab 83bd 2118 f03d d689 373d ddbc 793e
000003c0: 7474 86bd 037f 583e b58b 8d3d d8b9 7d3d
000003d0: 6d1d 0d3e 009a 4abe fc1e 91bd 4e17 ee3b
000003e0: 67c4 d73d 9e62 ad3d 3c41 25be de0b 6c3d
000003f0: a807 913d 7428 64bd 966d 813d bf34 98bc

weight_hh_l0 f4 [200, 50]
-0.063099906 0.13375413 -0.117855676 0.015779532 0.09968879 0.03386916 0.039744794 -0.07538303
-0.10479281 0.046785988 -0.18306547 -0.14308473 -0.15679881 0.062335573 -0.011257973 0.11447103
0.06835452 0.13320373 -0.13538116 0.19280092 -0.023936402 -0.1523186 0.15334956 -0.0640473
0.1774551 -0.16250718 -0.11911017 -0.14244442 -0.016123459 0.014803262 0.042728856 0.14972088
0.039187044 0.042417627 -0.17338642 0.19318944 -0.059528135 -0.19335005 -0.067080304 0.2579114
0.02322995 -0.13916488 0.18183716 0.20619749 0.037889726 0.15072863 -0.040781017 -0.028121758
0.11049571 0.043726303 -0.06294056 0.09820058 -0.17065962 -0.062148854 0.03258167 -0.0011651816
0.0046288776 -0.0128870895 -0.19734766 0.13426666 -0.1659217 -0.15567198 -0.08611075 0.034893475
-0.17665839 0.120842636 0.12538269 0.035591926 -0.3229845 0.13793163 -0.06664567 -0.27770576
0.06425904 0.08558067 -0.028597275 -0.05218989 0.037686866 -0.16083209 -0.03571022 0.121815115
-0.044551622 -0.040154472 -0.1734136 -0.25161517 -0.008427814 0.21677426 -0.016204042 -0.27505755
-0.16551454 0.20158872 -0.121773385 -0.1086992 0.115296096 0.14203468 -0.034584492 0.07746677
-0.019898126 0.08061344 0.17971247 -0.063442454 0.14191863 0.11159421 -0.08075323 0.12321839
0.17707917 -0.058853265 0.16741516 0.031212064 0.029008355 0.023352005 -0.075686544 0.012311717
-0.18668364 -0.007868481 -0.14734264 -0.02779674 0.041420475 0.13655342 -0.160063 0.17800073
0.053203195 -0.2662865 -0.020502843 0.16491829 -0.04373336 -0.17191102 0.022718105 0.056591634
0.0012763944 0.23382759 0.13640466 0.1060436 -0.016990365 -0.1436414 -0.057868388 0.008335264
-0.11199199 0.012899794 -0.05678918 0.071782455 -0.16500594 0.06980105 -0.0333171 0.016922677
-0.16664392 -0.05888008 -0.056096863 0.26105237 0.1717353 -0.20277621 0.027000196 0.0936986
-0.08419499 -0.048767034 0.13666804 0.18470715 0.16552053 -0.20362367 -0.13135871 -0.079597004
0.041481987 -0.020315154 0.05681895 0.1956059 -0.12098702 -0.03042397 -0.04488342 0.028598161
-0.33520222 0.17093925 -0.06489805 -0.10684628 0.09674596 0.030845916 0.07728189 0.066968344
-0.17786065 0.0075125834 -0.06153939 0.020013042 0.08986382 -0.06321198 -0.13645758 -0.061273925
-0.0033787931 0.1929748 -0.17344117 -0.060870096 -0.009742752 0.23467824 -0.03314971 0.044336274
0.01696478 -0.015121353 -0.1278249 -0.01758 0.1197633 0.10174641 0.008299064 -0.010394858
0.17440996 0.111529656 -0.12862645 -0.018272279 -0.08225039 -0.03237836 0.18605015 -0.033235267
-0.09568262 0.16796027 -0.023036525 -0.120809965 -0.1903651 -0.037492923 -0.012781816 0.044580404
-0.047974158 0.19009353 -0.2915776 0.08560984 -0.008804563 -0.121497095 0.08712868 0.06698906
0.059251547 -0.0704939 -0.056296177 -0.01806884 0.034657583 0.19549558 -0.07179038 -0.027213039
0.037029956 -0.1996802 -0.05059464 0.09603177 0.05267474 -0.024963237 -0.17799264 0.0917799
-0.040224604 0.060259674 0.0019228425 0.14520037 0.018374171 0.1349498 0.11465695 0.03423399
0.0004491949 -0.1886422 0.039797224 -0.003479915 -0.088313214 0.14297421 0.11577262 -0.06817512
00000000: 863a 81bd d8f6 083e 515e f1bd 1444 813c
00000010: a329 cc3d 63ba 0a3d 70cb 223d 6b62 9abd
00000020: 9d9d d6bd aaa2 3f3d 8475 3bbe ce84 12be
00000030: de8f 20be 9653 7f3d 5c73 38bc ca6f ea3d
00000040: 74fd 8b3d 8f66 083e 5ca1 0abe 9b6d 453e
00000050: 4616 c4bc 68f9 1bbe ab07 1d3e 3b2b 83bd
00000060: cab6 353e 4868 26be 08f0 f3bd f3dc 11be
00000070: 5815 84bc 6289 723c 7404 2f3d 6e50 193e
00000080: 9882 203d 1bbe 2d3d 368c 31be 74d3 453e
00000090: c6d3 73bd 8efd 45be 6661 89bd f70c 843e
000000a0: bc4c be3c 3d81 0ebe 8533 3a3e 6f25 533e
000000b0: 4232 1b3d 9b58 1a3e ff09 27bd 9a5f e6bc
000000c0: 934b e23d 5a1a 333d fbe6 80bd 631d c93d
000000d0: 65c1 2ebe cc8f 7ebd 5b74 053d 02b9 98ba
000000e0: d7ad 973b 5f24 53bc 8115 4abe 337d 093e
000000f0: 61e7 29be 7a68 1fbe d55a b0bd 76ec 0e3d
00000100: f0e5 34be 587c f73d 5264 003e d7c8 113d
00000110: 395e a5be f33d 0d3e 867d 88bd 732f 8ebe
00000120: 3e9a 833d eb44 af3d d544 eabc 11c5 55bd
00000130: 8b5d 1a3d 2bb1 24be e144 12bd 347a f93d
00000140: c37b 36bd 0479 24bd 5693 31be b4d3 80be
00000150: d014 0abc 12fa 5d3e 57be 84bc 58d4 8cbe
00000160: a57c 29be 466d 4e3e 5364 f9bd b09d debd
00000170: 5c20 ec3d 8a71 113e 78a8 0dbd e6a6 9e3d
00000180: 6501 a3bc a918 a53d 8c06 383e 1eee 81bd
00000190: 1e53 113e 818b e43d f361 a5bd ec59 fc3d
000001a0: 3e54 353e 1f10 71bd e16e 2b3e 71b0 ff3c
000001b0: eea2 ed3c b44c bf3c 8c01 9bbd 15b7 493c
000001c0: ff29 3fbe cdea 00bc fde0 16be fdb5 e3bc
000001d0: 84a8 293d a9d4 0b3e 8ee7 23be d345 363e
000001e0: 98eb 593d b456 88be 94f5 a7bc 57e0 283e
000001f0: c021 33bd 7109 30be 521b ba3c a1cc 673d
00000200: b04c a73a 8070 6f3e aaad 0b3e 632d d93d
00000210: 612f 8bbc bb16 13be 6707 6dbd a290 083c
00000220: 0e5c e5bd a859 533c c59b 68bd ae02 933d
00000230: 51f7 28be daf3 8e3d 8377 08bd 6da1 8a3c
00000240: b4a4 2abe 3d2c 71bd d3c5 65bd a8a8 853e
00000250: 61db 2f3e 91a4 4fbe 842f dd3c 0de5 bf3d
00000260: 6c6e acbd f1bf 47bd b5f2 0b3e df23 3d3e
00000270: 377e 293e b982 50be e682 06be c103 a3bd
00000280: 04e9 293d f76b a6bc fdba 683d ea4c 483e
00000290: 0bc8 f7bd b13b f9bc add7 37bd b146 ea3c
000002a0: a09f abbe b30a 2f3e 45e9 84bd 39d2 dabd
000002b0: bf22 c63d 93b0 fc3c f845 9e3d b326 893d
000002c0: 1a21 36be 1e2c f63b ba10 7cbd 64f2 a33c
000002d0: 860a b83d 4875 81bd 89bb 0bbe 5efa 7abd
000002e0: be6e 5dbb 309b 453e 909a 31be ec52 79bd
000002f0: 10a0 1fbc 7e4f 703e fec7 07bd f499 353d
00000300: b9f9 8a3c 8dbf 77bc 88e4 02be ef03 90bc
00000310: 7646 f53d 6c60 d03d ccf8 073c 324f 2abc
00000320: 8698 323e a969 e43d a7b6 03be bfaf 95bc
00000330: e472 a8bd 2c9f 04bd ee83 3e3e b421 08bd
00000340: 40f5 c3bd c7fd 2b3e 18b7 bcbc 376b f7bd
00000350: 12ef 42be 2e92 19bd d26a 51bc f199 363d
00000360: 8d80 44bd e1a7 423e a949 95be 3654 af3d
00000370: 0441 10bc 78d3 f8bd 8570 b23d 8f31 893d
00000380: c0b1 723d 1b5f 90bd d296 66bd 1b05 94bc
00000390: 1cf5 0d3d fe2f 483e d606 93bd e1ed debc
000003a0: b9ac 173d f778 4cbe 533c 4fbd 4eac c43d
000003b0: 78c1 573d b47f ccbc b443 36be 1af7 bb3d
000003c0: 8ec2 24bd d9d2 763d e307 fc3a 68af 143e
000003d0: 6e85 963c 4830 0a3e 43d1 ea3d f138 0c3d
000003e0: eb81 eb39 6c2b 41be 6a02 233d 490f 64bb
000003f0: 8fdd b4bd d567 123e 321a ed3d 669f 8bbd

bias_ih_l0 f4 [200]
0.03814562 0.026660824 0.19615433 0.116137125 0.1534181 0.055980157 0.23197068 0.013527325
0.058058668 -0.027929664 -0.009401267 0.010961778 0.21087232 0.17062084 0.16391443 0.17018823
0.007492443 0.1695271 0.08794884 0.12602389 0.010120087 0.18047954 0.13534191 0.04099874
0.17395681 0.12771721 -0.037396353 0.21587944 -0.0351653 0.20189676 -0.025466446 0.11683097
0.18108545 0.05519538 0.095167175 0.21275046 0.21660742 0.122605406 0.039937846 -0.016975205
-0.0074973647 0.011077465 0.06363249 0.04352879 0.113816164 0.24090314 0.052486286 0.003916525
0.22059752 0.23457408 -0.040363666 0.019173611 0.13582797 0.1942814 0.06477552 -0.0043072477
0.10650148 0.1608832 -0.012627268 0.15024845 -0.035866003 0.1278266 0.052449528 0.14904794
-0.0147090815 0.14241262 0.054325413 0.033849694 0.063233785 0.18236752 -0.026166925 -0.07735811
-0.044033844 -0.02436391 -0.075005054 0.004862508 0.095181935 -0.035657164 0.062407266 0.12290141
0.057862267 0.13457458 -0.055133093 -0.049916342 0.122196905 0.1183373 0.04485636 -0.01861286
0.09964367 -0.0151154855 0.14543265 0.07133515 0.053271536 0.13892847 0.030003402 0.025603611
0.05929364 0.045980237 0.15867901 0.139254 0.051166475 0.17148867 0.06186085 -0.048610948
-0.069941744 0.14140487 0.18581127 -0.17634429 -0.042725634 0.052314997 -0.19112615 -0.16029412
-0.033505414 0.039921917 -0.0646745 -0.004478485 0.1447236 0.032422546 -0.2042614 0.105408974
0.20550023 -0.21974304 0.1894853 0.1792979 0.09975418 -0.04483668 -0.20803769 -0.10651698
0.12443564 -0.0016589859 -0.01891657 0.015496857 -0.17277291 -0.00046277264 -0.06312769 0.088144876
-0.14005677 0.04740469 -0.026100876 0.112942934 -0.16882442 0.018758908 0.1807652 0.005253239
-0.11967732 0.09833126 0.18998791 0.06312936 0.20150913 -0.2055913 0.15690088 0.15425518
0.0008934196 0.090367034 0.17840284 -0.0070237997 0.124049924 0.122104526 0.18172786 0.23125248
-0.018046504 0.06718022 -0.010519013 0.20069693 0.002023428 0.0069379588 0.21651532 0.1263174
0.22817774 0.061161797 -0.005054487 0.2536481 0.14860371 -0.022812009 0.042059034 0.006673534
-0.03559556 0.024875438 0.11689671 0.068513885 0.13705827 0.07545052 0.23280556 0.12272069
0.055227134 0.087917276 0.18547423 -0.023021765 0.019549148 0.13213004 -0.006434749 0.18509968
0.2002646 0.090030536 0.095794484 0.0029812576 0.22565421 0.23067956 0.15512313 0.19216318
00000000: 953e 1c3d cd67 da3c aedc 483e 4dd9 ed3d
00000010: a219 1d3e 734b 653d b989 6d3e b7a1 5d3c
00000020: edce 6d3d c0cc e4bc c607 1abc 0899 333c
00000030: eaee 573e 3bb7 2e3e 2fd9 273e d345 2e3e
00000040: 2b83 f53b 8398 2d3e 851e b43d 680c 013e
00000050: b9ce 253c a1cf 383e 1297 0a3e 4bee 273d
00000060: bc21 323e 4dc8 023e eb2c 19bd 800f 5d3e
00000070: 7d09 10bd 06be 4e3e 029f d0bc 1345 ef3d
00000080: 776e 393e 8d14 623d 02e7 c23d 42db 593e
00000090: 56ce 5d3e 8b18 fb3d de95 233d 960f 8bbc
000000a0: 74ac f5bb 417e 353c c051 823d 3f4b 323d
000000b0: 7318 e93d 50af 763e dcfb 563d 3156 803b
000000c0: 51e4 613e 3034 703e 5f54 25bd fa11 9d3c
000000d0: 7d16 0b3e b4f1 463e 07a9 843d d023 8dbb
000000e0: 731d da3d 91be 243e 9ae2 4ebc bbda 193e
000000f0: 3be8 12bd fae4 023e 51d5 563d 06a0 183e
00000100: 5cfe 70bc 9dd4 113e 5384 5e3d faa5 0a3d
00000110: b780 813d 8dbe 3a3e 055c d6bc ee6d 9ebd
00000120: d55c 34bd d396 c7bc 409c 99bd ac55 9f3b
00000130: bfee c23d 3f0d 12bd c39e 7f3d bcb3 fb3d
00000140: fc00 6d3d ebcd 093e 3dd3 61bd 1475 4cbd
00000150: 5f42 fa3d d45a f23d 4dbb 373d ff79 98bc
00000160: fb11 cc3d f1a6 77bc 4cec 143e 2a18 923d
00000170: 4133 5a3d 4443 0e3e b2c9 f53c aabe d13c
00000180: e3dd 723d c655 3c3d c07c 223e 9a98 0e3e
00000190: f093 513d ba9a 2f3e cd61 7d3d 461c 47bd
000001a0: 9e3d 8fbd 70cc 103e 4f45 3e3e 9993 34be
000001b0: 1301 2fbd 4048 563d 93b6 43be 2424 24be
000001c0: f93c 09bd 2a85 233d 1074 84bd 41c0 92bb
000001d0: 6c32 143e 81cd 043d e729 51be a9e0 d73d
000001e0: a76e 523e 5204 61be 6f08 423e de99 373e
000001f0: eb4b cc3d aba6 37bd d507 55be 9325 dabd
00000200: 1dd8 fe3d 5472 d9ba ecf6 9abc 88e6 7d3c
00000210: 62eb 30be 4ba0 f2b9 1749 81bd 4d85 b43d
00000220: 0b6b 0fbe 6c2b 423d 81d1 d5bc a04e e73d
00000230: 4fe0 2cbe 48ac 993c 831a 393e 5d23 ac3b
00000240: 6219 f5bd e661 c93d 318c 423e f749 813d
00000250: 6958 4e3e 8786 52be a0aa 203e 12f5 1d3e
00000260: 6034 6a3a 5a12 b93d 3caf 363e e727 e6bb
00000270: e30d fe3d f011 fa3d de16 3a3e 73cd 6c3e
00000280: 43d6 93bc c895 893d f057 2cbc 7f83 4d3e
00000290: 7d9b 043b d157 e33b 31b6 5d3e 5959 013e
000002a0: 6da7 693e cb84 7a3d 1ca0 a5bb 2ade 813e
000002b0: 922b 183e 40e0 babc 1846 2c3d a9ad da3b
000002c0: a6cc 11bd 93c7 cb3c 8b67 ef3d 0251 8c3d
000002d0: 0159 0c3e cd85 9a3d 9564 6e3e fc54 fb3d
000002e0: d935 623d f90d b43d f5ec 3d3e 2498 bcbc
000002f0: 8925 a03c 194d 073e 96da d2bb c58a 3d3e
00000300: 2a12 4d3e ee61 b83d e62f c43d 3461 433b
00000310: e611 673e 4337 6c3e 99d8 1e3e 6dc6 443e

bias_hh_l0 f4 [200]
0.1265686 0.04947588 0.052050013 0.02260817 0.0020577468 0.1726139 0.21104531 0.16296157
0.20750292 0.07308624 0.12717333 0.14756012 -0.027548496 0.026642188 0.2950153 0.22683994
0.2144157 -0.010628164 0.22546946 0.15291446 0.23238944 0.06444356 0.16091622 0.0046225176
0.09287334 0.221164 0.0041139037 0.0753883 0.036035534 0.04021499 0.058467884 0.07040362
0.13566111 0.14203975 0.1569839 0.12290357 0.09159049 0.117316395 0.16866557 0.19415553
0.11127057 0.014642562 -0.028857982 0.008301721 0.06333691 0.12922326 0.092260204 0.16346334
0.20967253 0.23866834 -0.034845732 -0.031361796 0.1425631 -0.061726667 0.07470292 0.111179434
0.023837097 0.07891551 0.053199418 0.023077972 0.115654394 0.085982494 0.0431469 0.0021631052
0.0839068 -0.057743296 0.14322567 0.10559634 0.13479443 0.13443983 0.027163237 0.15231034
0.093538 0.053885244 0.19566561 0.11133345 0.018523008 0.07270917 0.026246784 0.122852474
-0.037195984 0.02551672 0.055620678 0.15431556 -0.03610058 0.020363677 0.06365007 0.12611948
-0.07927244 -0.012094277 0.065279074 0.14099954 0.013255424 -0.031211264 -0.043689564 -0.051801458
0.16321778 0.03867827 0.12635416 0.08928958 0.13203347 0.039146975 -0.19456849 0.131287
-0.031660482 0.16777639 0.19162999 -0.18109937 -0.07561972 0.04590732 -0.13148865 0.049453735
0.005724916 0.12269726 -0.06895404 -0.05529971 0.14168863 0.10957566 -0.05803125 -0.049139198
0.1410867 -0.22001362 -0.06868318 0.1070121 0.10446688 -0.18070644 -0.08885357 -0.13297917
0.12984703 0.017931508 0.082012676 -0.0742079 -0.0012296465 -0.034344833 0.022067666 0.07735559
-0.10297721 0.027380135 -0.1769374 -0.029216425 -0.055406943 -0.06829851 0.17773914 0.053354293
-0.03784126 0.029565781 0.056977637 0.024504613 -0.014039341 -0.20508029 0.025098145 0.1877492
0.14325543 0.19040728 0.097087696 0.11416077 0.22575468 0.1003272 0.01184425 0.046408582
-0.008951665 -0.032181103 0.00072597095 0.15094613 0.12477043 0.15096267 0.21878779 0.12813815
0.100411855 0.087725006 0.08257693 0.18681884 0.2211346 0.11542755 -0.023024157 0.16631527
0.091153085 0.18203336 0.16020884 0.018732898 0.03816042 0.13117352 0.13695264 0.014244951
0.14696959 0.0005389349 0.048255686 0.07961541 0.06647623 -0.0010245836 0.019714832 0.10819886
-0.028021269 0.022165501 0.23086692 0.23521794 0.07578513 0.025725765 0.065222405 0.0005524162
00000000: 339b 013e 38a7 4a3d 6532 553d c534 b93c
00000010: 43db 063b b3c1 303e 431c 583e 66df 263e
00000020: a57b 543e 3dae 953d ba39 023e 001a 173e
00000030: 62ad e1bc b840 da3c 3f0c 973e bb48 683e
00000040: ca8f 5b3e c021 2ebc 77e1 663e 9c95 1c3e
00000050: 7ff7 6d3e fcfa 833d 39c7 243e 7d78 973b
00000060: 6134 be3d d178 623e edcd 863b 2e65 9a3d
00000070: ff99 133d 79b8 243d 057c 6f3d c62f 903d
00000080: bfea 0a3e de72 113e 63c0 203e deb4 fb3d
00000090: cb93 bb3d 9443 f03d abb6 2c3e b5d0 463e
000000a0: d3e1 e33d 5be7 6f3c 9367 ecbc f103 083c
000000b0: c8b6 813d 1a53 043e ebf2 bc3d ef62 273e
000000c0: 65b4 563e 7965 743e 66ba 0ebd 3a75 00bd
000000d0: 10fc 113e 1ad5 7cbd d8fd 983d 0bb2 e33d
000000e0: 0446 c33c 749e a13d a2e7 593d 040e bd3c
000000f0: 36dc ec3d 9717 b03d ceba 303d e2c2 0d3b
00000100: 54d7 ab3d 3c84 6cbd c0a9 123e e542 d83d
00000110: 8d07 0a3e 98aa 093e 7085 de3c 3ef7 1b3e
00000120: da90 bf3d c6b6 5c3d 915c 483e cb02 e43d
00000130: 90bd 973c 8ce8 943d 7f03 d73c 149a fb3d
00000140: d15a 18bd 7108 d13c 82d2 633d e604 1e3e
00000150: 34de 13bd bad1 a63c f85a 823d 7725 013e
00000160: 9759 a2bd 1327 46bc 09b1 853d 2f62 103e
00000170: 472d 593c c4ae ffbc d4f3 32bd c42d 54bd
00000180: 9022 273e 1b6d 1e3d fc62 013e 75dd b63d
00000190: c833 073e 9458 203d f63c 47be 1970 063e
000001a0: 6cae 01bd 93cd 2b3e a73a 443e 1d72 39be
000001b0: 83de 9abd 5009 3c3d f6a4 06be 0090 4a3d
000001c0: 1398 bb3b b348 fb3d c737 8dbd f381 62bd
000001d0: d316 113e 3469 e03d 2db2 6dbd 2f46 49bd
000001e0: 0879 103e 404b 61be c4a9 8cbd 2929 db3d
000001f0: bbf2 d53d 1c0b 39be dcf8 b5bd b12b 08be
00000200: 9ff6 043e 19e5 923c 43f6 a73d 50fa 97bd
00000210: 172c a1ba 2bad 0cbd 40c7 b43c 9c6c 9e3d
00000220: b7e5 d2bd 4e4c e03c 142f 35be 4957 efbc
00000230: 64f2 62bd 17e0 8bbd 4001 363e 088a 5a3d
00000240: 70ff 1abd f033 f23c 6261 693d e6bd c83c
00000250: 4405 66bc 9100 52be a09a cd3c 5441 403e
00000260: 8db1 123e 20fa 423e ead5 c63d 1fcd e93d
00000270: 3c2c 673e 5978 cd3d 630e 423c ed16 3e3d
00000280: 01aa 12bc 55d0 03bd 164f 3e3a 9f91 1a3e
00000290: a487 ff3d f595 1a3e e809 603e a636 033e
000002a0: bba4 cd3d 2ba9 b33d 181e a93d 704d 3f3e
000002b0: 1c71 623e 4865 ec3d 289d bcbc 8d4e 2a3e
000002c0: 78ae ba3d f466 3a3e c90d 243e bc75 993c
000002d0: 1a4e 1c3d 5a52 063e 503d 0c3e a863 693c
000002e0: 327f 163e 4f47 0d3a c1a7 453d 670d a33d
000002f0: b124 883d 524b 86ba 0081 a13c 5d97 dd3d
00000300: dc8c e5bc 6d94 b53c 6168 6c3e f9dc 703e
00000310: 3c35 9b3d d7be d23c 5393 853d 06d0 103a

weight f4 [1, 50]
0.41674572 0.29854283 -0.4510292 0.4392296 0.45588544 0.32681054 0.3864005 -0.3349448
-0.32033476 0.36717346 -0.33144894 -0.40782467 -0.35244513 0.44166997 -0.32837585 0.44627842
0.39026615 0.3604605 -0.2968318 0.39388436 0.4509659 -0.31773138 0.41165283 0.3479495
0.38997012 -0.3829666 -0.38713816 -0.34589663 0.40096483 0.39545685 0.38583702 0.41987205
-0.3703669 -0.4087377 -0.32010013 0.4482465 -0.28095344 -0.42537978 -0.39568582 0.37557778
-0.45959464 -0.4179272 0.39925697 0.43969935 -0.35694826 0.38185734 0.35982528 0.34775576
0.42888135 -0.29296377
00000000: b25f d53e 9bda 983e 4ded e6be b4e2 e03e
00000010: d169 e93e b653 a73e 49d6 c53e e37d abbe
00000020: eb02 a4be 29fe bb3e adb3 a9be 65ce d0be
00000030: b073 b4be 9122 e23e e120 a8be 9b7e e43e
00000040: f7d0 c73e 478e b83e 56fa 97be 36ab c93e
00000050: 01e5 e63e b0ad a2be 29c4 d23e 7026 b23e
00000060: 2aaa c73e 3314 c4be f936 c6be 5d19 b1be
00000070: 434b cd3e 5279 ca3e 6e8c c53e 78f9 d63e
00000080: bba0 bdbe 1146 d1be 2ae4 a3be 9180 e53e
00000090: 21d9 8fbe 61cb d9be 5597 cabe bb4b c03e
000000a0: fd4f ebbe 8efa d5be 696b cc3e 4620 e13e
000000b0: ecc1 b6be ce82 c33e 053b b83e 0b0d b23e
000000c0: 5696 db3e 59ff 95be
