models/ThirtyClassifier.pt (torch, 21372 bytes, 11 tensors)

weight f4 [5, 8]
0	0xc0013358	-2.0187588
1	0xbf028a3c	-0.5099218
2	0xbe6e0a55	-0.23246129
3	0x3ec290bd	0.38001052
4	0xc028ea9d	-2.6393197
5	0xbeb1db86	-0.34737796
6	0x400064fe	2.006164
7	0x3fab6461	1.3390008
8	0x3fb19358	1.3873091
9	0xbf573cb9	-0.8407703
10	0x3f9e2fc7	1.235833
11	0x3f3cc638	0.7373996
12	0xbdcd380e	-0.10020457
13	0x3e8ce367	0.27517244
14	0xbe2d63d4	-0.16932613
15	0x3f9ad9bd	1.2097698
16	0xbceaa0ad	-0.02864107
17	0x3fbd2fce	1.4780214
18	0x3d7612df	0.06007659
19	0xbf720635	-0.9454072
20	0x3f8080f8	1.0039358
21	0x3f32ed01	0.6989289
22	0xbf70c8c4	-0.94056344
23	0xbed9cb48	-0.42537904
24	0x3f5e125f	0.8674678
25	0xbecc83bc	-0.39944255
26	0x3e460188	0.19336522
27	0x3f2071f1	0.6267386
28	0x3e757d29	0.23973526
29	0x3e59c367	0.21265946
30	0xbf6a12f7	-0.9143519
31	0xbed3bed3	-0.41356525
32	0xbf0728e1	-0.5279675
33	0xc00f3a6f	-2.2379415
34	0xbfc62bab	-1.5482076
35	0x3e418a0e	0.1890032
36	0xbfe2c2e2	-1.7715724
37	0xbf5f8ef9	-0.87327534
38	0x3eb99011	0.36242726
39	0x3f1ae4cc	0.60505366

weight_ih_l0 f4 [60, 8]
0	0x3bad550c	0.0052896794
1	0xbdcf2898	-0.101151645
2	0x3dac81f3	0.08423223
3	0x3d19f244	0.037584558
4	0xbe857df2	-0.2607265
5	0xbbde1ffc	-0.006778715
6	0xbe358e12	-0.17729977
7	0xbdc8b246	-0.09799628
8	0xbe4b5418	-0.19856298
9	0x3d1f1328	0.03883663
10	0xbe225d91	-0.15856005
11	0x3e83303c	0.25622737
12	0x3e1c0e02	0.15239719
13	0xbe67d135	-0.226384
14	0xbe31c920	-0.1736188
15	0x3d9be707	0.07612424
16	0xbe0d4a3e	-0.13797852
17	0x3dfdc431	0.12390936
18	0x3e769e97	0.24083935
19	0xbe5a3a45	-0.2131129
20	0xbde758ef	-0.112962596
21	0xbda5a64c	-0.08088359
22	0x3d5f35ea	0.054494776
23	0x3de6d0e3	0.11270311
24	0xbdf055a7	-0.11735087
25	0xbda79a64	-0.081837445
26	0xbe1ade46	-0.15123853
27	0x3e43d4b6	0.19124112
28	0xbde422ad	-0.111394264
29	0x3d4f7370	0.0506472
30	0xbe4e3e90	-0.20141053
31	0x3e275b35	0.16343386
32	0xbdb56769	-0.088576145
33	0xbd31f76f	-0.04344886
34	0xbd183c16	-0.037166677
35	0x3d4ea9cd	0.050454903
36	0xbd537d25	-0.05163302
37	0xbdd2c911	-0.102922566
38	0x3bb575bd	0.005537717
39	0x3daa309a	0.08310051
40	0x3e82b2e2	0.25527102
41	0x3e199f84	0.15002257
42	0x3e86dcbd	0.26340285
43	0x3e4516f7	0.19247042
44	0x3e15b5e2	0.14620164
45	0xbe4a5f4d	-0.19762917
46	0x3e7c9cea	0.24669233
47	0xbc318e08	-0.010837086
48	0xbdf8cefb	-0.121488534
49	0xbe579111	-0.21051432
50	0x3e1f1bb4	0.15537912
51	0xbe1df2c1	-0.15424635
52	0xbe5b937f	-0.21442984
53	0x3d041da4	0.03225483
54	0x3db1e0f4	0.086854845
55	0xbc899fb0	-0.016799778
56	0xbbe35d2e	-0.006938598
57	0x3cc5dbb4	0.024152614
58	0xbc916204	-0.017746933
59	0xbde1160b	-0.109905325
60	0x3e109b02	0.14121631
61	0x3d89b00e	0.06723033
62	0x3e225a9e	0.1585488
63	0x3e772804	0.24136358
64	0xbe244a36	-0.16043934
65	0x3e7531e1	0.23944809
66	0xbdd17586	-0.10227494
67	0x3d18f560	0.037343383
68	0xbcdc39d0	-0.026883036
69	0xbe4fe663	-0.2030273
70	0xbdfb2370	-0.122626185
71	0x3e51e92d	0.20499106
72	0xbe53fb6a	-0.20701376
73	0x3dadad33	0.08480301
74	0x3dffa7e5	0.12483195
75	0x3e3728e1	0.17886688
76	0xbe171085	-0.14752395
77	0x3dea6e13	0.11446776
78	0xbde8c7ed	-0.11366258
79	0xbd9c01e7	-0.0761755
80	0xbe1cbb74	-0.15305883
81	0x3d020dec	0.03175156
82	0xbdb12e5b	-0.0865142
83	0xbe47afc5	-0.19500645
84	0x3d7a1013	0.061050486
85	0x3d652f26	0.055953167
86	0xbdb71c0a	-0.08940895
87	0x3dad8023	0.08471706
88	0x3e2cd0dd	0.1687655
89	0xbd9f98bc	-0.07792804
90	0x3d99001e	0.074707255
91	0x3d8b3cfd	0.06798742
92	0xbe7cd5a8	-0.24690878
93	0xbdf2db6b	-0.11858257
94	0x3e62a15c	0.22131866
95	0xbe4d182e	-0.20028755
96	0xbe6ebd72	-0.23314455
97	0x3d879636	0.06620447
98	0x3da507ba	0.08058114
99	0x3e0cd257	0.13752113
100	0xbd039728	-0.032126576
101	0xbd92baf9	-0.071645685
102	0x3e7950a3	0.24347167
103	0x3d06210e	0.032746367
104	0xbda2e6ae	-0.07954155
105	0x3e223b84	0.15843016
106	0x3e02eb58	0.12785089
107	0x3d8928b0	0.06697214
108	0x3c9631c0	0.01833427
109	0x3c00eaab	0.007868449
110	0x3d58a2f5	0.052889783
111	0x3d9a3c90	0.07531083
112	0x3e83415e	0.2563581
113	0xbdfc624d	-0.12323437
114	0xbcec9e15	-0.028883973
115	0x3e5fef66	0.21868667
116	0xbe805d3a	-0.25071126
117	0xbd92b7bb	-0.0716395
118	0xbe02c453	-0.12770204
119	0x3e80a1ed	0.2512354
120	0x3e71c634	0.23610765
121	0xbe11a048	-0.14221299
122	0x3e171025	0.14752252
123	0x3e5a57de	0.21322581
124	0x3e8ce180	0.27515793
125	0xbc09f6fe	-0.008420704
126	0x3dcff8d8	0.10154885
127	0xbe1ca33b	-0.15296642
128	0x3e866ca7	0.2625477
129	0x3d882714	0.066480786
130	0xbdd95a35	-0.10612909
131	0x3d6875fb	0.05675314
132	0x3d5f5048	0.05451992
133	0x3e5be985	0.214758
134	0xbc0cf183	-0.008602503
135	0xbe78bdfc	-0.24291223
136	0xbdc1ebf3	-0.09468832
137	0x3dd107fb	0.102066
138	0x3d04352e	0.03227728
139	0xbcbf8b93	-0.023381984
140	0x3daa810f	0.08325397
141	0x3e6b972c	0.23006886
142	0x3e4bca56	0.19901404
143	0xbc2afa44	-0.010435645
144	0xbe30dbe2	-0.17271379
145	0xbe7dec14	-0.24797088
146	0xbe0dec13	-0.13859586
147	0xbdb0e185	-0.086367644
148	0xbdaac4c9	-0.08338315
149	0xbdb9e9f3	-0.090778254
150	0x3e607b5e	0.21922061
151	0xbbb5d777	-0.005549367
152	0xbe57d0ef	-0.21075796
153	0xbe5a1e5f	-0.21300648
154	0xbe1224ee	-0.142719
155	0x3d374f88	0.04475358
156	0x3e3534ce	0.17695925
157	0x3c5475be	0.012967525
158	0x3dfe997a	0.12431617
159	0xbe65fe27	-0.22460233
160	0xbdc65ac5	-0.09685282
161	0xbdfca356	-0.12335841
162	0x3d3f05c6	0.046636365
163	0x3ba9f223	0.0051863356
164	0xbe583a97	-0.211161
165	0xbd817002	-0.06320192
166	0xbdc8dc69	-0.09807665
167	0xbe0613bb	-0.13093464
168	0x3e187492	0.14888218
169	0x3e02f1d0	0.12787557
170	0xbb19eb38	-0.0023486149
171	0x3e2f726c	0.17133492
172	0xbdb15d1f	-0.086603396
173	0xbd9b4a24	-0.075825006
174	0x3db20a06	0.08693318
175	0xbdd27c9c	-0.102776736
176	0x3e88e16a	0.26734477
177	0xbdcf5407	-0.10123449
178	0x3df55089	0.119782515
179	0x3d777eeb	0.060423773
180	0x3e90533c	0.28188503
181	0x3d6b7224	0.0574819
182	0x3d055a3b	0.032556754
183	0xbe0cc8e6	-0.13748512
184	0xbda6a62c	-0.081371635
185	0x3c4e1570	0.012578353
186	0xbe628cce	-0.22124025
187	0x3e5b8c1e	0.21440169
188	0xbe067f12	-0.13134411
189	0xbce88bda	-0.028386999
190	0xbd56e8b0	-0.052468
191	0xbe4f99a7	-0.20273457
192	0xbe27ca8e	-0.16385862
193	0x3c4612c8	0.012089439
194	0xbe769081	-0.24078561
195	0xbe69441b	-0.22779886
196	0xbdb94455	-0.090462364
197	0xbd9b7dd4	-0.07592359
198	0x3df89e4b	0.12139567
199	0x3d7c4dc7	0.06159761
200	0x3d66d152	0.056351967
201	0x3dcf9bd1	0.101371415
202	0x39076330	0.00012911553
203	0x3d6f6c73	0.058453035
204	0xbd127ca7	-0.03576341
205	0xbe0fe15a	-0.14050809
206	0x3cc53fe7	0.024078323
207	0x3e721f59	0.2364477
208	0xbb2fa403	-0.002680064
209	0xbdf583f3	-0.11988058
210	0xbda6f421	-0.08152033
211	0xbe2f5c64	-0.17125088
212	0xbd458b0c	-0.04822831
213	0xbe4c7558	-0.19966638
214	0xbc29f833	-0.010374117
215	0x3d1e887b	0.038704377
216	0xbe7e438e	-0.24830458
217	0xbcb11688	-0.021617189
218	0x3c8c4fb7	0.017127855
219	0x3e017f40	0.12646198
220	0x3e1a0736	0.15041813
221	0xbd6b18ce	-0.057396702
222	0x3e7a2fe3	0.2443233
223	0xbd99cb11	-0.07509435
224	0x3e0fdc9b	0.14048998
225	0xbd4d335a	-0.0500978
226	0xbe2adb71	-0.16685273
227	0xbda69719	-0.08134288
228	0xbe4817e5	-0.19540365
229	0x3e839b2a	0.25704318
230	0x3dceeb2c	0.10103449
231	0xbe07483e	-0.13211152
232	0x3d654dc0	0.05598235
233	0xbe63b73e	-0.2223787
234	0xbe0d9579	-0.1382655
235	0x3e1c702b	0.15277164
236	0x3e6382a1	0.222178
237	0xbdce648e	-0.10077773
238	0x3e51c541	0.20485403
239	0xbe27532e	-0.16340324
240	0xbe6882b3	-0.22706108
241	0xbd37e2f3	-0.04489417
242	0xbe73b1b4	-0.23798257
243	0xbd8cf1ec	-0.068820804
244	0xbe5458eb	-0.20737045
245	0x3e3f4c09	0.18681349
246	0xbdeb1ca3	-0.114800714
247	0x3e6d8db7	0.23198591
248	0x3e63f943	0.22263055
249	0xbe2ebb17	-0.17063557
250	0xbda4bd47	-0.08043914
251	0x3dea41bc	0.11438319
252	0x3d2e6ddf	0.04258525
253	0x3e73cdc5	0.23808964
254	0x3e344b51	0.17606856
255	0x3e6c0588	0.23048985

weight_hh_l0 f4 [60, 15]
0	0xbdb8f051	-0.09030212
1	0xbbeb31b9	-0.0071775583
2	0xbd8f4cd6	-0.06997077
3	0x3e03957f	0.12849997
4	0xbe742153	-0.23840837
5	0xbe253a56	-0.16135535
6	0xbe16d529	-0.14729752
7	0x3e54660a	0.2074205
8	0xbda64f92	-0.081206456
9	0x3e0aabf7	0.13542162
10	0xbd444a84	-0.047922626
11	0x3c6d21e4	0.014473412
12	0xbe25b3cd	-0.1618187
13	0xbe522632	-0.20522383
14	0xbccf6a95	-0.025319377
15	0xbe165001	-0.14678957
16	0xbbbb4cae	-0.005715928
17	0xbc83582c	-0.016033255
18	0xbd9adb00	-0.07561302
19	0x3b87f699	0.00414927
20	0x3e1f3630	0.15548015
21	0xbdd3eda2	-0.10348059
22	0x3e87c114	0.26514494
23	0xbe4b7cf2	-0.19871882
24	0x3d7cf11f	0.06175339
25	0x3d898402	0.067146316
26	0x3d1311af	0.035905536
27	0x3e397935	0.18112643
28	0x3e103160	0.14081335
29	0x3e421d5d	0.18956514
30	0x3d806719	0.06269664
31	0x3e76f8cf	0.2411835
32	0x3e3f9d61	0.18712379
33	0x3d3effa0	0.0466305
34	0xbe0ceebd	-0.13762946
35	0x3e2246ae	0.15847275
36	0xbe5054f6	-0.2034491
37	0xbc85afec	-0.016319238
38	0x3da03c45	0.078239955
39	0x3e35f09a	0.17767563
40	0x3e6a1f26	0.22863445
41	0x3e0d9d5b	0.13829558
42	0x3d15913d	0.036515463
43	0x3e54b771	0.20773102
44	0x3e20618f	0.15662216
45	0xbcf9ae96	-0.030478757
46	0x3dc85a5e	0.09782861
47	0x3df05ac5	0.11736063
48	0x3de16d31	0.11007155
49	0xbe1bb18d	-0.15204449
50	0xbd94a75d	-0.072584845
51	0xbe29230a	-0.16517273
52	0x3e3bf460	0.1835494
53	0xbe0f695a	-0.14005032
54	0x3e758565	0.23976667
55	0x3da192a8	0.078893006
56	0x3bda0c03	0.006654264
57	0xbe71a96a	-0.23599783
58	0x3e673259	0.225778
59	0xbd5644ef	-0.052311834
60	0x3e638d3d	0.22221847
61	0xbd87b026	-0.066253945
62	0xbc77e1bb	-0.015129502
63	0xbe3a8e73	-0.18218403
64	0x3d356737	0.044287886
65	0xbe212e1a	-0.15740243
66	0xbe3857bf	-0.18002222
67	0xbe58ea6c	-0.21183175
68	0xbcff537f	-0.031167744
69	0x3e1c2a59	0.1525053
70	0x3e3b59fc	0.18296045
71	0x3d75ed24	0.060040608
72	0x3e03867d	0.12844272
73	0xbe5dd0ec	-0.21661729
74	0x3e32bc2c	0.17454594
75	0xbc5619d6	-0.013067683
76	0x3dc8789a	0.09788628
77	0x3cb8dbe8	0.022565797
78	0xbe6be4c5	-0.23036487
79	0xbe85f570	-0.26163816
80	0x3e4658d7	0.19369827
81	0xbe79454a	-0.24342838
82	0xbe2a40a1	-0.16626216
83	0x3e236633	0.15956955
84	0xbd5f3945	-0.054497976
85	0xbd769dbc	-0.06020902
86	0xbe368242	-0.17823127
87	0xbd85fbe6	-0.065421864
88	0x3e420bb8	0.18949783
89	0x3df47dda	0.11938067
90	0xbe1a0424	-0.15040642
91	0xbdcce910	-0.10005391
92	0xbe4bd361	-0.19904853
93	0xbc9f5694	-0.019450463
94	0xbd5a433a	-0.05328677
95	0x3d73b958	0.05950293
96	0xbd06fb7f	-0.03295469
97	0xbda9c16e	-0.08288847
98	0x3e89144f	0.26773307
99	0xba796709	-0.00095139496
100	0xbe4bb7c1	-0.19894315
101	0xbe81bbc5	-0.2533857
102	0xbceb071c	-0.028689913
103	0xbb5b7e96	-0.00334922
104	0x3e3dd479	0.18538083
105	0x3df3bedf	0.1190164
106	0x3e55f99c	0.20896
107	0xbd1dffde	-0.038574092
108	0x3e8df6cb	0.2772735
109	0xbd008119	-0.031373117
110	0xbe3f35c8	-0.1867286
111	0xbe3c32b4	-0.18378717
112	0x3d47485f	0.048653003
113	0x3d9ffdf4	0.078121096
114	0xbd4b7b5c	-0.04967819
115	0xbe021716	-0.12704119
116	0x3e84d8a7	0.25946543
117	0xbe122931	-0.14273526
118	0x3dde7db9	0.108638234
119	0x3d14fc54	0.03637345
120	0x3cdd8878	0.027042612
121	0xbe705ef6	-0.23473725
122	0x3e44b240	0.19208622
123	0xbcf38a94	-0.029729165
124	0x3d320f9c	0.043471918
125	0xbd8aa2a4	-0.067693025
126	0x3e83db75	0.2575337
127	0xbe70c410	-0.23512292
128	0x3e3a1247	0.18171035
129	0xbdcca268	-0.09991914
130	0x3e46ab32	0.19401243
131	0x3cae3fd5	0.021270672
132	0x3e6bf9ec	0.23044556
133	0xbdd6301b	-0.10458394
134	0xbe81d90f	-0.25360915
135	0xbdd3c23d	-0.103397824
136	0xbd63d3b3	-0.055621814
137	0xbe3bbeb0	-0.1833446
138	0xbe829163	-0.25501546
139	0xbe477fb8	-0.19482315
140	0x3c7bedbe	0.015376506
141	0xbe4e27f9	-0.20132436
142	0x3dcdefae	0.10055481
143	0x3e017701	0.12643053
144	0x3d8853dd	0.06656621
145	0x3e2fd839	0.17172326
146	0x3e2719a7	0.1631838
147	0x3d244583	0.040105354
148	0xbe095384	-0.13410765
149	0xbe740412	-0.23829678
150	0xbe16f5eb	-0.14742248
151	0xbe3af850	-0.18258786
152	0x3dd47ed1	0.10375751
153	0xbd6374ce	-0.055531316
154	0x3dcff528	0.10154182
155	0x3e66157f	0.22469138
156	0xbe754acf	-0.23954318
157	0x3e2c1b2e	0.16807243
158	0x3d235ee2	0.03988541
159	0x3ce3cdda	0.027808119
160	0x3e0bb812	0.13644436
161	0xbe6c7abc	-0.23093694
162	0x3e77bb27	0.24192487
163	0x3d9d26dc	0.076734275
164	0xbd2d2291	-0.042269293
165	0xbcbd046a	-0.023073394
166	0xbde33b87	-0.11095338
167	0x3d6cd382	0.057818897
168	0xbda35dd5	-0.079768814
169	0x3defa1e2	0.117007986
170	0x3da79681	0.08183003
171	0x3cbda85f	0.023151575
172	0xbe205721	-0.15658237
173	0xbd15497c	-0.036447033
174	0xbe652be7	-0.22380029
175	0x3dd2f04e	0.10299741
176	0x3dd948e7	0.10609608
177	0xbd2d9491	-0.042378012
178	0x3e3bc9c9	0.18338694
179	0xbc82a37f	-0.015947102
180	0xbdc85964	-0.09782675
181	0x3e1b8e74	0.1519106
182	0xbc96cfe2	-0.018409673
183	0xbe885349	-0.26626042
184	0x3d997f88	0.07495028
185	0xbe37e769	-0.1795937
186	0xbe69148c	-0.22761744
187	0x3d802e38	0.062588155
188	0xbe4988da	-0.19681111
189	0xbe66ec36	-0.22551045
190	0xbe203dcd	-0.15648575
191	0xbe19117c	-0.14948076
192	0xbd763edc	-0.06011854
193	0x3db99ecb	0.090634905
194	0xbe7700e6	-0.24121436
195	0xbe4d573f	-0.20052813
196	0x3db10bb1	0.08644808
197	0xbd85a072	-0.06524743
198	0xbe364eca	-0.17803493
199	0x3e52c4f7	0.20582949
200	0x3c1c35e7	0.009534336
201	0xbe716c50	-0.23576474
202	0xbe36a12a	-0.17834917
203	0xbe744162	-0.23853067
204	0x3d0d36e1	0.034476165
205	0x3d986315	0.074407734
206	0xbe48447e	-0.19557378
207	0x3e1cc969	0.15311207
208	0xbdc4066e	-0.09571539
209	0x3d5396ca	0.051657476
210	0x3df4c536	0.119516775
211	0xbe4efb7e	-0.20213124
212	0x3cd95dd8	0.026534006
213	0xbe090863	-0.13382106
214	0xbe6e5115	-0.23273118
215	0x3dde946d	0.10868154
216	0xbe3625fe	-0.1778793
217	0x3df7abe4	0.120933324
218	0xbc3ad627	-0.011403597
219	0x3e503a0b	0.20334642
220	0x3d110024	0.035400525
221	0xbe8a1a5c	-0.26973236
222	0xbe44adfd	-0.19206996
223	0x3de89869	0.11357195
224	0x3df8be24	0.121456414
225	0x3d060407	0.032718685
226	0xbe01397b	-0.12619583
227	0x3d505b91	0.050868575
228	0x3dce06c7	0.100598864
229	0x3e0183fa	0.12648001
230	0x3c8ee2f6	0.017442208
231	0xbe437f1e	-0.1909146
232	0x3e3441ca	0.17603222
233	0xbda1fbcb	-0.07909354
234	0xbe28bce8	-0.16478312
235	0xbe146c7b	-0.14494507
236	0x3c74114a	0.0148967
237	0x3e48e540	0.19618702
238	0x3e2c46e3	0.16823916
239	0x3e0efb41	0.13963033
240	0x3e18347d	0.14863773
241	0x3e3dbd8d	0.18529339
242	0xbd98a0ed	-0.07452569
243	0x3e7f4d4d	0.24931832
244	0xbd9b4c67	-0.07582932
245	0x3e797463	0.24360804
246	0x3d8631f9	0.065525
247	0x3e6aec73	0.2294176
248	0x3e04b9f5	0.12961562
249	0xbe7a1ca1	-0.24424984
250	0x3e27384c	0.1633007
251	0x3dec21ee	0.11529909
252	0xbd90117e	-0.07034586
253	0x3d313a77	0.043268647
254	0x3e34c3af	0.17652772
255	0x3dd952ec	0.10611519

bias_ih_l0 f4 [60]
0	0xbe401979	-0.18759717
1	0xbdbd1cf9	-0.09234042
2	0xbd1ae0aa	-0.037811913
3	0xbbcec7ff	-0.0063104625
4	0xbe3d4139	-0.18481912
5	0xbe3877d9	-0.18014468
6	0x3db1093d	0.0864434
7	0x3e6d2edc	0.23162407
8	0xbc25d3cc	-0.010121297
9	0x3e08f6fa	0.13375464
10	0xbe4f2085	-0.20227249
11	0xbd8ddbeb	-0.06926712
12	0xbdc1eba2	-0.094687715
13	0x3e72110b	0.23639314
14	0xbc14c6a6	-0.009080565
15	0x3d0b309d	0.033981908
16	0x3ca1d0c4	0.019752868
17	0xbe1c8586	-0.1528531
18	0x3cd6b322	0.026208464
19	0xbe7984aa	-0.24367014
20	0x3e23f2a1	0.16010524
21	0xbd3ca090	-0.04605156
22	0x3e7d3510	0.24727273
23	0xbdec816d	-0.115481235
24	0x3e6ad74b	0.2293369
25	0xbd3b2b6c	-0.045695707
26	0xbe7918bc	-0.24325842
27	0xbe6f6584	-0.23378569
28	0xbd19e637	-0.037573066
29	0xbdb6b848	-0.089218676
30	0xbe54d193	-0.20783071
31	0xbe2aefc3	-0.16693024
32	0x3e117ebb	0.142085
33	0x3e7a1ae2	0.24424317
34	0xbd15e400	-0.03659439
35	0x3d2ae0d5	0.041718323
36	0x3d2535d3	0.040334534
37	0xbdab9b72	-0.08379258
38	0x3e0649da	0.1311411
39	0x3ddb5747	0.10710006
40	0x3d6d0eae	0.057875328
41	0xbc1440f3	-0.009048688
42	0x3e44b5f0	0.19210029
43	0x3d9f3a2b	0.077747665
44	0x3dc7c2d1	0.09753955
45	0xbdde196b	-0.10844692
46	0x3c3c7158	0.011501633
47	0xbc29a124	-0.01035336
48	0xbe57c8e3	-0.21072726
49	0x3e0c8e05	0.13726051
50	0xbd996009	-0.074890204
51	0xbdec98b9	-0.11552567
52	0xbe2467be	-0.160552
53	0x3d01f2bc	0.03172563
54	0x3dbf52db	0.09341975
55	0x3e13b77d	0.14425464
56	0x3e3d423d	0.18482299
57	0xbe8e2286	-0.27760714
58	0x3e09881f	0.13430832
59	0x3c6ce458	0.014458738

bias_hh_l0 f4 [60]
0	0x3e0488df	0.12942837
1	0x3e135e40	0.14391422
2	0x3d9aef12	0.0756513
3	0xbc1e3622	-0.009656461
4	0x3df3e939	0.11909718
5	0xbdfa0dbb	-0.1220965
6	0x3ceed255	0.029153029
7	0x3d8e4b35	0.06947938
8	0xbe50a9b0	-0.2037723
9	0x3e576e46	0.2103816
10	0x3e43ccfb	0.19121163
11	0xbe7e9402	-0.24861148
12	0xbc56e6ed	-0.01311658
13	0x3dc8ee72	0.09811105
14	0x3e648cc8	0.22319329
15	0x3e683626	0.22676906
16	0x3e837eeb	0.25682768
17	0x3d97d7be	0.074141964
18	0x3dcca88d	0.09993086
19	0x3e543cc1	0.20726301
20	0xbde8e56c	-0.11371884
21	0xbcb80534	-0.022463419
22	0xbe53b9b0	-0.20676303
23	0xbdb93a27	-0.09044295
24	0x3e656a2b	0.22403781
25	0x3e417cfc	0.18895334
26	0xbe2c5528	-0.1682936
27	0x3d0065fc	0.03134726
28	0x3e740cb6	0.23832974
29	0x3e1541b5	0.14575846
30	0x3e650a36	0.22367176
31	0x3e4b14d9	0.19832171
32	0xbe51bc57	-0.20482002
33	0x3d499eb3	0.049223613
34	0x3e701650	0.23446012
35	0xbe327406	-0.17427072
36	0x3e30dd9a	0.17272034
37	0x3e7d5a51	0.24741484
38	0x3e4a4174	0.19751531
39	0x3e513459	0.20430125
40	0xbe6bd03d	-0.23028655
41	0xbe4127a9	-0.18862785
42	0xbe77fb0b	-0.24216859
43	0xbe5bfcda	-0.21483174
44	0xbd1d429c	-0.0383936
45	0xbd9a395f	-0.07530474
46	0x3e49b0a3	0.19696288
47	0xbd0d52d3	-0.034502815
48	0xbadc3d5c	-0.0016802954
49	0xbcf6888e	-0.030094411
50	0x3da1025c	0.07861778
51	0xbe5e9db9	-0.21739854
52	0x3e60aeb5	0.21941645
53	0x3e684667	0.22683106
54	0xbe4d6edc	-0.20061821
55	0xbdee303d	-0.116302945
56	0x3d74b062	0.059738524
57	0x3e4ad407	0.19807445
58	0x3e2db944	0.16965204
59	0xbe4a2440	-0.19740391

weight_ih_l1 f4 [60, 15]
0	0xbb6a3ebe	-0.0035742964
1	0x3e44998d	0.191992
2	0xbe4eaccb	-0.20183103
3	0x3d95f73c	0.07322547
4	0x3e4c2400	0.19935608
5	0x3e86300a	0.26208526
6	0x3cc221a1	0.023697676
7	0x3e1ccc41	0.15312292
8	0xbd81349f	-0.06308865
9	0xba33da00	-0.00068607926
10	0x3e0e5dd0	0.13902974
11	0x3dbc87d5	0.092055954
12	0x3de16781	0.1100607
13	0xbe43b47c	-0.19111818
14	0x3daecaf0	0.08534801
15	0x3dcc9d10	0.09990895
16	0xbdff5577	-0.12467473
17	0x3d244fe9	0.04011527
18	0x3c26f730	0.01019077
19	0xbe6a8af4	-0.22904569
20	0xbe81609e	-0.25269026
21	0x3dab42ea	0.08362372
22	0x3de04020	0.10949731
23	0x3e06f8c8	0.1318084
24	0xbe778610	-0.24172235
25	0x3e5ea1ed	0.21741457
26	0xbe06af8e	-0.13152906
27	0x3d0d0adc	0.034434184
28	0x3d04e08f	0.03244072
29	0xbe0de194	-0.13855582
30	0x3e86b9a0	0.26313496
31	0x3dbe2590	0.09284508
32	0xbe2fd2cb	-0.17170255
33	0x3e446a0b	0.19181077
34	0x3d11d7ec	0.03560631
35	0xbe58cf59	-0.21172847
36	0x3e1dca67	0.15409242
37	0xbe738a89	-0.23783316
38	0x3df040ae	0.11731087
39	0xbd9334c0	-0.07187796
40	0xbe6eb37f	-0.2331066
41	0xbd4877b8	-0.048942298
42	0xbde0b3e3	-0.10971811
43	0xbe5680f4	-0.20947629
44	0x3d1adb28	0.03780666
45	0x3b97dbd4	0.00463436
46	0xbe55155b	-0.20808928
47	0xbdbf7c90	-0.0934993
48	0x3da26bb8	0.07930702
49	0x3e2a1e31	0.1661308
50	0xbe17698d	-0.14786358
51	0xbddcd2a5	-0.10782365
52	0xbe17fccf	-0.14842533
53	0x3df54341	0.11975718
54	0x3e69c49c	0.22828907
55	0xbe14986d	-0.14511271
56	0x3e53633c	0.20643324
57	0xbdd9cb2b	-0.10634454
58	0xbe33f1c9	-0.17572702
59	0x3df9c5fc	0.12195966
60	0x3e6ab644	0.22921091
61	0xbd9c0cae	-0.07619606
62	0x3c88f997	0.016720576
63	0x3de92e62	0.113858
64	0x3b23a781	0.0024971666
65	0xbd5cdec6	-0.05392339
66	0x3da9ffcf	0.08300745
67	0xbe0c9266	-0.13727722
68	0xbe585ad1	-0.21128394
69	0x3e527a1a	0.2055439
70	0x3e761877	0.2403277
71	0xbe4dd1fc	-0.20099634
72	0x3e1d1799	0.15341033
73	0x3c7e654e	0.015527083
74	0x3e510897	0.20413433
75	0x3d5dcc11	0.05414969
76	0x3e71cdac	0.23613614
77	0xbe13e721	-0.14443637
78	0x3e22f2b7	0.15912901
79	0xbcfc83ad	-0.030824507
80	0xbe8af128	-0.27137113
81	0x3d9edc1f	0.077568285
82	0x3e1c7b9a	0.15281525
83	0x3d8d4874	0.06898585
84	0x3e1ce218	0.15320623
85	0xbe603395	-0.21894677
86	0xbc2be99f	-0.010492711
87	0xbe6fcf8a	-0.23419014
88	0xbe5101a0	-0.20410776
89	0x3e8363aa	0.25661975
90	0x3e52307d	0.2052631
91	0xbddfb0b8	-0.10922378
92	0x3a90e5e6	0.0011054843
93	0xbde09f76	-0.10967915
94	0x3d994190	0.07483208
95	0xbe74b99d	-0.23898931
96	0xbe4fb16f	-0.2028253
97	0x3e7b696e	0.24551937
98	0x3dc2a572	0.095042124
99	0xbe0571c0	-0.13031673
100	0x3e16c041	0.14721777
101	0x3d9ba368	0.07599527
102	0x3d300e5e	0.04298245
103	0xbd83601a	-0.06414814
104	0x3dd0e29e	0.10199474
105	0xbce6a3a8	-0.02815421
106	0xbdeec993	-0.11659541
107	0x3e20e947	0.15713988
108	0x3e7a3f1a	0.24438134
109	0x3e25ff52	0.16210678
110	0xbd6fd09d	-0.05854856
111	0x3e785545	0.24251278
112	0x3e4589ab	0.19290797
113	0x3e564aef	0.20927022
114	0xbe627119	-0.22113456
115	0x3e82f758	0.25579333
116	0x3d555585	0.05208351
117	0x3dca4bc2	0.09877731
118	0x3dfe74b1	0.12424601
119	0xbe1b60c7	-0.15173636
120	0x3e029124	0.12750679
121	0x3dd043c2	0.10169174
122	0x3dcc143a	0.099647954
123	0x3e617585	0.22017486
124	0xbe6ac0ea	-0.22925153
125	0x3d220112	0.039551802
126	0x3e5c3c2a	0.21507326
127	0xbd27ec4a	-0.040996827
128	0x3db40c5a	0.087914184
129	0x3d81da61	0.063404806
130	0x3e0b285c	0.13589615
131	0xbe5e641b	-0.21717875
132	0x3e3cb01f	0.1842656
133	0xbdbe1016	-0.09280412
134	0xbe3844a1	-0.1799493
135	0xbe652d52	-0.2238057
136	0xbc9b5b91	-0.01896456
137	0xbe85d94f	-0.26142356
138	0x3e22bf36	0.15893254
139	0x3d76193d	0.060082663
140	0x3d3bb989	0.045831237
141	0xbe5e0fdd	-0.21685739
142	0x3cabc86c	0.020969592
143	0x3c9b99ab	0.018994173
144	0xbe123c16	-0.14280733
145	0x3dbc6d82	0.092005745
146	0x3dbb1eaf	0.09136712
147	0xbe3b6a32	-0.18302229
148	0xbe628839	-0.22122277
149	0xbd3327d5	-0.04373916
150	0xbe7b925b	-0.24567549
151	0xbe33a314	-0.17542678
152	0xbdab7cd5	-0.08373419
153	0xbd9f4641	-0.07777072
154	0x39f0ccd2	0.0004592897
155	0xbd90f1da	-0.070773795
156	0x3d20d465	0.039265055
157	0x3e05371e	0.13009307
158	0xbe155901	-0.14584734
159	0xbde24119	-0.11047573
160	0x3d57c723	0.052680146
161	0x3d3f9359	0.04677138
162	0x3d064af8	0.03278634
163	0x3ddaafb9	0.10678048
164	0x3da3b11c	0.07992765
165	0xbd8d1857	-0.06889408
166	0xbd63eaff	-0.05564403
167	0xbddd8499	-0.108163066
168	0xbe4d0533	-0.20021515
169	0x3dd1226d	0.10211644
170	0xbde154ef	-0.11002528
171	0xbd01118b	-0.03151087
172	0xbe521486	-0.20515642
173	0x3c6f210c	0.014595281
174	0x3e76b071	0.24090745
175	0xbe7de9dd	-0.24796243
176	0xbcc9a498	-0.024614617
177	0x3e639142	0.2222338
178	0x3e397f70	0.1811502
179	0xbbcb0ab2	-0.0061963433
180	0x3e033aab	0.12815349
181	0x3e0dbb0b	0.13840882
182	0xbe64d4b0	-0.22346759
183	0x3e5409a7	0.20706807
184	0xbe674062	-0.22583154
185	0xbe29e182	-0.1658993
186	0xbdfe6cbc	-0.12423083
187	0xbdb2e2b3	-0.08734646
188	0xbdfe026f	-0.12402808
189	0xbcf38ae5	-0.029729316
190	0x3d1c1700	0.038107872
191	0xbd86f368	-0.06589395
192	0xbe74925b	-0.23883955
193	0xbe896a13	-0.2683874
194	0x3e31a5fc	0.17348474
195	0xbdef4026	-0.11682157
196	0x3d6bfaca	0.057612218
197	0x3dfc26c3	0.12312081
198	0xbe0c761d	-0.13716932
199	0x3c85ed6d	0.016348565
200	0x3d334a93	0.04377229
201	0xbe1bd743	-0.15218835
202	0x3e382d66	0.17986068
203	0x3e202f10	0.15642953
204	0xbdb60a6a	-0.08888705
205	0xbd322370	-0.043490827
206	0x3dafbaee	0.08580576
207	0xbc6c84f7	-0.014435998
208	0x3cd4c931	0.025974842
209	0xbe4b72d8	-0.19868028
210	0xbe5a2766	-0.21304092
211	0xbe3e9df2	-0.18614939
212	0x3dd810c6	0.10550074
213	0xbe7b0af1	-0.24515893
214	0xbd811722	-0.0630324
215	0x3d4d409a	0.050110437
216	0xbd9ea657	-0.077465706
217	0x3d5dd17c	0.054154858
218	0xbe2864b8	-0.16444671
219	0xbd17f68e	-0.037100367
220	0x3dda1364	0.1064823
221	0x3e1cd32a	0.15314928
222	0x3d0df096	0.03465327
223	0x3c4c800c	0.012481701
224	0xbe07e3df	-0.1327052
225	0x3ce2c488	0.027681604
226	0x3e4a1d4a	0.19737735
227	0xbc50ec36	-0.01275163
228	0xbe1384b7	-0.14406095
229	0x3e3e24f5	0.18568785
230	0x3d35f279	0.044420693
231	0xbdd9bfc5	-0.1063228
232	0xbd8f2c58	-0.0699088
233	0x3e46c8e0	0.19412565
234	0x3e60e955	0.21964009
235	0x3d580f5d	0.052749027
236	0xbdbd4160	-0.09240985
237	0xbc907b33	-0.017636871
238	0xbd1ef6c7	-0.038809564
239	0xbd2b3e36	-0.041807376
240	0xbe217044	-0.15765482
241	0x3e78271b	0.24233668
242	0xbb90478c	-0.0044030603
243	0xbe2ce3e3	-0.16883807
244	0xbde6a6d1	-0.112622865
245	0xbd518742	-0.051154383
246	0x3ca55571	0.020182343
247	0x3d55c1d4	0.052186802
248	0xbe22fbee	-0.15916416
249	0x3e1f1546	0.15535459
250	0xbe54df6a	-0.2078835
251	0xbdda0512	-0.10645498
252	0xbe2a85c1	-0.16652586
253	0xbe2f3e7c	-0.1711368
254	0x3e33eb42	0.17570212
255	0x3d3cf94c	0.046136186

weight_hh_l1 f4 [60, 15]
0	0x3e587eac	0.21142071
1	0x3e44a785	0.19204529
2	0xbe5989df	-0.21244
3	0xbddded0d	-0.108362295
4	0x3dc2282f	0.09480321
5	0xbe79bd9b	-0.24388735
6	0x3d2321ac	0.039827034
7	0x3d8621c7	0.06549411
8	0xbe1ee1fc	-0.15515894
9	0x3e2dda6a	0.1697785
10	0xbcf5c30e	-0.030000236
11	0x3e0ca77e	0.13735768
12	0x3b632fcb	0.0034665938
13	0xbdb8f33b	-0.090307675
14	0x3cfbf456	0.030756157
15	0x3e120954	0.14261371
16	0x3d79c381	0.060977463
17	0xbcfb65b6	-0.030688148
18	0x3c226826	0.009912526
19	0xbe4b9303	-0.198803
20	0x3e14093c	0.14456648
21	0x3d7bb151	0.0614484
22	0x3e4811fd	0.19538112
23	0xbdeb5444	-0.11490682
24	0xbe263586	-0.16231355
25	0x3e8b466a	0.2720216
26	0xbdb09193	-0.08621516
27	0x3e5830cd	0.21112366
28	0x3e47896b	0.19486015
29	0xbe17bea6	-0.1481882
30	0x3d858598	0.065196216
31	0xbe158095	-0.14599831
32	0x3d30541e	0.04304897
33	0x3d8a3f08	0.067503035
34	0xbe395886	-0.18100175
35	0x3e7a8d97	0.24468075
36	0x3e35d49f	0.1775689
37	0x3dee5504	0.11637309
38	0x3cb9dd33	0.022688484
39	0x3cf714b4	0.03016124
40	0xbdfd172c	-0.12357935
41	0xbc8366eb	-0.016040286
42	0xbe789040	-0.24273777
43	0xbe5d6e3d	-0.21624084
44	0x3e6892be	0.22712228
45	0x3e86bc01	0.2631531
46	0xbe2b8659	-0.16750468
47	0x3e8195e7	0.2530968
48	0xbdbeb7f5	-0.09312431
49	0x3e29e923	0.16592841
50	0xbe5ce28e	-0.21570799
51	0x3e382fd4	0.17986995
52	0xbdafbb84	-0.08580688
53	0x3e504ea2	0.20342496
54	0xbe4ccfd5	-0.20001157
55	0xbbe16c76	-0.0068793846
56	0x3d574384	0.052554622
57	0x3e169a62	0.1470733
58	0xbd4ac93c	-0.04950832
59	0xbc6fedf0	-0.014644131
60	0xbe4251ab	-0.18976466
61	0xbd524845	-0.051338453
62	0x3e11f8ba	0.14255038
63	0x3a4d62ee	0.0007834871
64	0xbe48e688	-0.1961919
65	0x3c3b2686	0.011422759
66	0xbdc6995b	-0.09697219
67	0x3e47f77d	0.19528003
68	0xbe27b8ab	-0.16379039
69	0x3e26337e	0.1623058
70	0x3d597b9e	0.053096406
71	0x3e862331	0.26198724
72	0xbe581353	-0.21101122
73	0x3e185ced	0.14879198
74	0x3c4fd143	0.012684169
75	0x3e00e3ab	0.12586848
76	0x3e2ba7e3	0.16763262
77	0xbe11a85c	-0.1422438
78	0xbd8745db	-0.06605121
79	0x3e69e228	0.22840178
80	0xbe1cd3c7	-0.15315162
81	0x3e79923e	0.24372193
82	0x3e62ab19	0.22135581
83	0xbe3814e9	-0.17976727
84	0xbdb2e0f8	-0.08734316
85	0x3d84cf95	0.06484906
86	0x3e2fe180	0.17175865
87	0xbc6d055e	-0.014466612
88	0x3de27d80	0.110590935
89	0x3e442f54	0.19158679
90	0x3e398d5e	0.18120334
91	0xbe181f1e	-0.1485562
92	0x3daaf336	0.0834717
93	0x3dfac608	0.12244803
94	0xbe4c3f35	-0.19945987
95	0xbe0cf91d	-0.13766904
96	0x3e3c925f	0.18415211
97	0x3e780cb7	0.242236
98	0x3e57f3c4	0.21089083
99	0x3e061fc3	0.13098054
100	0x3e2ae26a	0.16687933
101	0xbe8ac53f	-0.27103612
102	0xbc972958	-0.018452331
103	0xbd72d246	-0.059282564
104	0x3e856010	0.26049852
105	0x3da9bb0e	0.08287631
106	0xbe2a802f	-0.1665046
107	0x3e4d4926	0.20047435
108	0xbc0aeaf2	-0.008478867
109	0x3e729b0f	0.23691963
110	0xbdd98077	-0.10620206
111	0x3d59298e	0.053018145
112	0x3e805952	0.25068146
113	0x3e2bf4de	0.16792628
114	0x3e12eef5	0.14348967
115	0xbe20ea20	-0.15714312
116	0xbe3ac0d6	-0.18237624
117	0x3e47ee58	0.19524515
118	0xbe3e26f1	-0.18569542
119	0xbc39583b	-0.01131254
120	0x392b0b40	0.00016312022
121	0xbe64aed4	-0.22332317
122	0x3e12fdcf	0.14354633
123	0x3db0cc56	0.08632724
124	0x3dce152b	0.10062631
125	0xbe1bb624	-0.152062
126	0x3de1ff5b	0.11035033
127	0xbdfc855d	-0.123301245
128	0xbdb62355	-0.08893458
129	0xbe31a780	-0.17349052
130	0x3e7aa792	0.24477986
131	0xbe23f76f	-0.16012357
132	0xbcacd3f6	-0.021097165
133	0x3e396218	0.18103826
134	0xbdbd7613	-0.092510365
135	0xbd91aff2	-0.07113637
136	0xbdad269a	-0.08454628
137	0xbe0608f4	-0.13089353
138	0xbe6109a6	-0.21976337
139	0x3d97a76a	0.074049786
140	0xbdeb57aa	-0.1149133
141	0xbd8782e6	-0.06616764
142	0x3d4bf803	0.04979707
143	0xbe899043	-0.26867875
144	0x3de83962	0.1133907
145	0x3df2a4d8	0.11847848
146	0x3d666f7d	0.056258667
147	0xbe636fed	-0.22210665
148	0x3e13eed9	0.14446582
149	0xbcf325e5	-0.029681155
150	0x3e05a60f	0.13051628
151	0x3cf5cc16	0.030004542
152	0xbe2b08b1	-0.16702534
153	0x3c80ec16	0.015737575
154	0xbded878c	-0.11598119
155	0x3e585a2f	0.21128152
156	0xbe3fd26e	-0.18732616
157	0x3ddb15ad	0.10697494
158	0x3d321f44	0.04348685
159	0x3d2880c4	0.041138425
160	0xbd6ae041	-0.05734277
161	0x3e103a0d	0.14084645
162	0xbe562e5b	-0.2091612
163	0xbdf15bf2	-0.11785115
164	0x3e6fdd77	0.23424326
165	0x3e045253	0.12922029
166	0xbdb1829f	-0.08667492
167	0xbd57312b	-0.052537125
168	0x3e178fcd	0.1480095
169	0xbd595f92	-0.05306966
170	0x3c0c673d	0.008569536
171	0x3e2b5b6f	0.16734098
172	0x3dca72b2	0.09885158
173	0x3e66fe2f	0.22557901
174	0x3d6cf102	0.05784703
175	0x3e68827c	0.22706026
176	0x3d947447	0.07248741
177	0xbe3d24dd	-0.18471093
178	0x3b2dce59	0.0026520698
179	0xbe530374	-0.20606786
180	0x3e58cb8b	0.21171395
181	0xbdfaa289	-0.12238032
182	0x3dda21c3	0.10650971
183	0x3e1b88fe	0.15188977
184	0xbe06f109	-0.13177885
185	0xbe021739	-0.12704171
186	0xbe8c3a90	-0.2738843
187	0xbdbdf5ab	-0.09275373
188	0x3e5b04a6	0.21388492
189	0x3d286cb9	0.04111931
190	0xbe4d76ba	-0.20064822
191	0x3d85076c	0.06495556
192	0xbe3ffc9f	-0.18748711
193	0x3cecb6e7	0.028895808
194	0x3e683128	0.22675002
195	0x3d5723e4	0.052524462
196	0xbd550483	-0.052006256
197	0x3e591226	0.2119833
198	0x3e250581	0.16115381
199	0xbc08c448	-0.008347578
200	0x3dfdde92	0.123959675
201	0xbcdf80dc	-0.027283125
202	0x3e01d5c3	0.126792
203	0xbe50dcdc	-0.20396751
204	0xbe335737	-0.17513739
205	0xbc96390f	-0.018337755
206	0xbe5c3a2e	-0.21506569
207	0x3db6481c	0.089004725
208	0x3e5eae1e	0.21746108
209	0x3e64e005	0.22351082
210	0x3e50603a	0.20349208
211	0x3e2ab02e	0.1666877
212	0xbb5a86ce	-0.003334451
213	0xbd2b82a3	-0.04187263
214	0xbe76616d	-0.24060602
215	0xbe2b3091	-0.16717745
216	0x39ebbaf0	0.00044961972
217	0x3e0ba92f	0.13638757
218	0xbdcf5d9e	-0.10125278
219	0xbcf85495	-0.03031377
220	0x3d079d5c	0.033109054
221	0x3e862e9a	0.2620743
222	0xbdf20b23	-0.118185304
223	0x3e8ba4fd	0.27274314
224	0x3e3fde01	0.18737032
225	0x3d5b5208	0.053545028
226	0x3d76cdd9	0.060254905
227	0xbe04ec2e	-0.1298072
228	0x3c1175df	0.0088782
229	0x3da04430	0.07825506
230	0x3d7c4025	0.06158461
231	0x3e0ffb12	0.1406062
232	0xbd39bcde	-0.045346133
233	0xbe17b22c	-0.14814061
234	0x3e090b97	0.13383327
235	0xbdbeb200	-0.093112946
236	0x3e553682	0.20821574
237	0x3d2af3ff	0.0417366
238	0xbd24dce3	-0.040249716
239	0xbe18f494	-0.14937049
240	0xbe2ac5c8	-0.1667701
241	0xbe00dd17	-0.12584339
242	0xbe16834d	-0.14698525
243	0x3e467ccf	0.19383548
244	0xbd813611	-0.063091405
245	0xbe165e01	-0.14684297
246	0x3e0a17d4	0.13485652
247	0xbde2a0aa	-0.110658005
248	0xbe80d86f	-0.25165126
249	0x3d9709ee	0.07374941
250	0xbd045664	-0.03230895
251	0xbe638060	-0.2221694
252	0x3e07e80a	0.1327211
253	0x3c4ada5e	0.012381164
254	0x3e3514a9	0.17683662
255	0xbdd2e3f2	-0.10297383

bias_ih_l1 f4 [60]
0	0xbe7af8e9	-0.24509014
1	0xbde2e5c5	-0.11078981
2	0x3e601bf3	0.21885662
3	0xbd91a666	-0.07111816
4	0xbe08be9c	-0.13353962
5	0xbdafacdb	-0.085778914
6	0xbe13e052	-0.1444104
7	0x3e58d832	0.21176222
8	0xbd24470e	-0.040106826
9	0x3dd8ce81	0.105862625
10	0x3e601511	0.21883036
11	0x3dfb7ccf	0.12279665
12	0xbe4cc057	-0.19995247
13	0x3e553bef	0.20823644
14	0xbcfc77f9	-0.030818926
15	0x3e12d24e	0.14338037
16	0xbd564070	-0.052307546
17	0xbc192463	-0.009347054
18	0x3d0bfee8	0.034178644
19	0xbde0116b	-0.10940822
20	0x3d55c93c	0.052193865
21	0x3df4d174	0.119540125
22	0xbdb4254b	-0.087961756
23	0x3e2439f2	0.1603773
24	0x3e275545	0.16341121
25	0xbe635524	-0.22200447
26	0xbc9e585b	-0.01932924
27	0xbd1a365c	-0.037649497
28	0x3e41b8a4	0.18918091
29	0xbd7d6971	-0.061868135
30	0xbe21fa98	-0.1581825
31	0x3e0750d9	0.13214435
32	0x3e6e1e06	0.2325364
33	0x3d0c2922	0.034218915
34	0xbdf51ff4	-0.11968985
35	0xbe561600	-0.2090683
36	0xbe721b23	-0.23643164
37	0x3dfe424e	0.1241499
38	0x3e1474b9	0.14497651
39	0xbe6e0752	-0.2324498
40	0xbe6ad6e6	-0.2293354
41	0x3e569d65	0.20958479
42	0xbe3c6ccb	-0.18400876
43	0x3e84990e	0.2589802
44	0x3a393491	0.0007065023
45	0xbe3a1566	-0.18172225
46	0x3e79f971	0.2441156
47	0xbd8a1b87	-0.06743532
48	0xbd554e28	-0.05207649
49	0x3d0673b1	0.032825176
50	0x3d1c65dd	0.038183082
51	0xbd44ee15	-0.048078615
52	0x3e87009c	0.26367652
53	0xbd9d2cf8	-0.07674593
54	0x3e71a99c	0.23599857
55	0xbe77f17b	-0.24213211
56	0xbb490817	-0.0030674988
57	0x3e20f786	0.15719423
58	0xbd4edcf5	-0.05050369
59	0xbe4c1581	-0.19930078

bias_hh_l1 f4 [60]
0	0xbdaf4789	-0.08558566
1	0xbda00787	-0.07813936
2	0x3d0d63d1	0.03451902
3	0xbe1e14ea	-0.15437666
4	0xbc44c222	-0.0120091755
5	0xbd28bf8b	-0.041198295
6	0xbdee52ed	-0.116369106
7	0xbda5d641	-0.08097506
8	0x3e1e6842	0.15469459
9	0x3e2e2343	0.17005639
10	0x3e10b7b9	0.14132585
11	0xbcf3225d	-0.029679472
12	0x3e19dfb8	0.15026748
13	0xbc9eb9e0	-0.019375741
14	0x3e816a0d	0.25276223
15	0x3cc16ef0	0.02361247
16	0xbdd4251e	-0.10358642
17	0xbe327347	-0.17426787
18	0xbe3ed069	-0.1863419
19	0x3e24327b	0.16034882
20	0xbd6ff68a	-0.058584727
21	0xbda6204f	-0.08111631
22	0x3e020a94	0.12699348
23	0x3d995457	0.0748679
24	0xbbffbc7e	-0.0078044524
25	0x3d326e7e	0.043562405
26	0xbd81cfa3	-0.06338432
27	0x3ca4288e	0.02003887
28	0xbe711690	-0.23543763
29	0xbd897615	-0.067119755
30	0x3e31032f	0.1728637
31	0x3c6b8342	0.014374556
32	0x3e639c88	0.2222768
33	0x3ddc848f	0.10767471
34	0xbe0fa9f1	-0.14029671
35	0x3e4fe12e	0.20300743
36	0xbe68cd01	-0.22734453
37	0xbe2cc7a3	-0.1687303
38	0xbe28a8c9	-0.16470636
39	0x3e69dacd	0.22837372
40	0x3d4ca74b	0.04996423
41	0x3e093bfa	0.13401785
42	0xbda20a8f	-0.0791217
43	0x3dab038e	0.083502874
44	0xbe437550	-0.1908772
45	0x3d427ead	0.04748409
46	0x3d1323bc	0.03592275
47	0xbe776e1c	-0.24163097
48	0x3d26d289	0.040728126
49	0x3e224ea1	0.15850307
50	0xbe57eaff	-0.21085738
51	0x3dea2d83	0.11434462
52	0xbe677699	-0.22603835
53	0xbd659d22	-0.056058057
54	0x3df5372a	0.11973412
55	0x3c931957	0.017956419
56	0xbe18c280	-0.14917946
57	0xbdecfebd	-0.11572025
58	0x3d05f2f9	0.03270242
59	0xbe03c86a	-0.1286942

weight f4 [30, 15]
0	0xbde88841	-0.11354113
1	0x3d7b2753	0.0613168
2	0x3d4a7b5f	0.049434062
3	0xbd0549c8	-0.032541066
4	0x3e81ca01	0.2534943
5	0xbe30e3e3	-0.17274432
6	0x3de9c079	0.11413664
7	0x3e46dc35	0.1941994
8	0x3b89da94	0.0042069647
9	0xbe20090e	-0.15628454
10	0x3e6ca924	0.23111397
11	0xbe72880c	-0.2368471
12	0x3e33ebc1	0.17570402
13	0xbe9839a1	-0.29731467
14	0x3e754dc5	0.23955448
15	0xbd5aefc5	-0.05345132
16	0xbd5bc57b	-0.05365513
17	0xbe5e966e	-0.21737072
18	0x3e74926c	0.2388398
19	0xbd9d4320	-0.07678819
20	0x3e45bfcd	0.19311447
21	0xbe66dc63	-0.22545008
22	0x3e38eb1f	0.18058442
23	0x3d9910bd	0.07473896
24	0x3da199ff	0.078907005
25	0x3e10cf4e	0.1414158
26	0xbe311f13	-0.1729701
27	0x3e3b562f	0.18294595
28	0xbe1551d3	-0.14581995
29	0xbd6cb1d9	-0.057786796
30	0xbd957a24	-0.07298687
31	0x3da32def	0.079677455
32	0xbd4fb5e2	-0.050710566
33	0xbd8cb6bd	-0.06870792
34	0xbd1a29f2	-0.03763766
35	0x3d8b102f	0.06790196
36	0xbe7b56c5	-0.24544819
37	0xbe3f9e8b	-0.18712823
38	0xbd114acf	-0.035471734
39	0xbcb6041b	-0.022218755
40	0xbc619d3f	-0.013770401
41	0xbdcb5778	-0.09928793
42	0xbd6d9b6f	-0.05800956
43	0x3cb110c8	0.021614447
44	0xbd6072ab	-0.054796856
45	0xbda16c2e	-0.07881962
46	0xbdc6e39e	-0.09711383
47	0x3e0739f1	0.13205697
48	0xbe6f12a1	-0.2334695
49	0xbdfb939c	-0.12284014
50	0xbe5499d0	-0.207618
51	0xbdc73b79	-0.097281404
52	0x3e6fd3d6	0.23420653
53	0x3dc2397b	0.0948362
54	0x3dd405c9	0.10352666
55	0xbe12d88d	-0.1434042
56	0xbde67138	-0.112520635
57	0xbd8822b1	-0.06647242
58	0x3e157a92	0.14597538
59	0xbdfdfd4e	-0.1240183
60	0x3e513a33	0.20432357
61	0x3e49a7d0	0.19692922
62	0xbdeab1c4	-0.11459687
63	0x3dc1816e	0.09448515
64	0x3de59e72	0.11211862
65	0x3e51c4dd	0.20485254
66	0xbd70fdf1	-0.058835927
67	0xbe3d1158	-0.18463647
68	0xbdf22856	-0.118241
69	0xbe774162	-0.24146035
70	0xbe56a509	-0.20961393
71	0xbe186af2	-0.14884546
72	0xbdb79e5b	-0.08965751
73	0xbe47a530	-0.19496608
74	0x3e7392b9	0.23786439
75	0xbc356343	-0.011071029
76	0xbd7c41c5	-0.06158616
77	0xbe4cc168	-0.19995654
78	0x3c89e0be	0.016830798
79	0x3e26fcff	0.16307448
80	0x3e7e1e93	0.2481635
81	0xbe29166f	-0.16512464
82	0x3c75c715	0.015001078
83	0x3db6664b	0.089062296
84	0xbe5c5c17	-0.21519504
85	0x3df62e2e	0.12020527
86	0xbe3ad89e	-0.18246695
87	0x3dab74ba	0.08371873
88	0x3ba15ce6	0.0049244044
89	0xbe0ca7d6	-0.137359
90	0xbe04dd4f	-0.12975048
91	0x3e6bcf62	0.23028329
92	0xbdc5857e	-0.09644602
93	0x3e459763	0.1929603
94	0x3ca7c292	0.02047852
95	0xbe866901	-0.26251987
96	0xbc2ea9cd	-0.010660601
97	0xbd85e851	-0.065384515
98	0xbe05cc19	-0.13066138
99	0x3e887696	0.26652974
100	0x3e6d1a7a	0.23154631
101	0x3e14955d	0.14510103
102	0xbe6a99f4	-0.22910291
103	0x3e31ffe2	0.17382768
104	0xbb1e897a	-0.002419083
105	0x3e332f0f	0.1749842
106	0xbda7619f	-0.081729166
107	0xbe65b86d	-0.22433634
108	0xbe2454ac	-0.16047925
109	0x3b56e23f	0.0032788662
110	0x3e650f73	0.22369175
111	0x3d6e1b33	0.058131408
112	0xbe54aa1f	-0.20768021
113	0x3e8b0b7a	0.27157193
114	0x3e281040	0.16412449
115	0xbe79dcbf	-0.24400614
116	0xbe259cba	-0.16173068
117	0x3d5f6fb8	0.054549903
118	0x3db31946	0.08745055
119	0xbe17453a	-0.14772502
120	0xbe4bdc97	-0.19908367
121	0x3c803770	0.015651435
122	0xbe10024c	-0.14063376
123	0xbe6615e8	-0.22469294
124	0x3e2b1d12	0.16710308
125	0xbda7e0d6	-0.08197181
126	0x3d676a73	0.056498002
127	0x3dbfce97	0.09365576
128	0xbe11f1c4	-0.14252383
129	0xbdae3bcf	-0.08507501
130	0xbe286870	-0.1644609
131	0xbdcb11ac	-0.0991548
132	0x3e6dcc74	0.23222524
133	0xbe177d0c	-0.14793795
134	0xbdc8528f	-0.09781372
135	0x3c2911e2	0.010319205
136	0xbd51dee6	-0.051237963
137	0xbd26a6d4	-0.040686443
138	0xbda47f81	-0.08032132
139	0xbe7700ea	-0.24121442
140	0xbe39062f	-0.18068765
141	0xbe67c39a	-0.2263321
142	0x3bbd8c96	0.0057845814
143	0x3dd3d33d	0.10343025
144	0x3e7655e4	0.24056202
145	0xbe43a582	-0.19106105
146	0xbc976f66	-0.018485736
147	0x3e4b6109	0.19861235
148	0x3e3bf928	0.18356764
149	0xbe814731	-0.25249627
150	0x3d83ffbf	0.06445264
151	0xbe78559e	-0.2425141
152	0xbe333f32	-0.17504576
153	0xbe6848a4	-0.2268396
154	0xbe138de0	-0.1440959
155	0x3cca6142	0.02470458
156	0xbde72aae	-0.112874374
157	0xbda4119c	-0.08011171
158	0x3de51e1b	0.11187383
159	0xbdf38f06	-0.11892514
160	0x3b5d85a8	0.003380159
161	0xbe1c0abb	-0.15238468
162	0x3b10e8f9	0.0022111519
163	0xbba68c03	-0.0050826087
164	0x3e054a8b	0.13016717
165	0x3e6cd510	0.23128152
166	0x3e6c0ec4	0.23052508
167	0x3d44848c	0.04797797
168	0x3c7744fe	0.015092133
169	0x3e6e6d5e	0.23283908
170	0x3d1e5697	0.038656797
171	0x3dfc5b2e	0.12322079
172	0xbdf4d591	-0.11954797
173	0x3dbea1f6	0.09308235
174	0x3d3f6472	0.04672665
175	0x3e6c9ff3	0.23107891
176	0xbe62557f	-0.22102927
177	0xbe29e35a	-0.16590634
178	0xbe0b9fc9	-0.13635172
179	0xbd9a2f78	-0.07528585
180	0x3e64f789	0.22360052
181	0x3e05792a	0.13034502
182	0x3cafe5e2	0.021471921
183	0x3dc63185	0.09677414
184	0xbe38924f	-0.18024562
185	0x3e8039cd	0.25044098
186	0x3e588a2e	0.21146461
187	0xbe6734dc	-0.22578758
188	0xbdf018b0	-0.11723459
189	0x3e80a2cb	0.251242
190	0x3e8228f0	0.25421858
191	0x3dd54d19	0.10415096
192	0x3d152428	0.036411434
193	0xbd55fb0b	-0.052241366
194	0x3dd6639e	0.10468219
195	0x3e6c0e61	0.2305236
196	0xbd6615f9	-0.0561733
197	0xbc9bb2c1	-0.019006135
198	0xbdd7bfdb	-0.105346404
199	0xbb1d6ae5	-0.0024020013
200	0x3e6671f0	0.22504401
201	0x3cc66caf	0.024221746
202	0x3c67e218	0.014153026
203	0xbddd5abd	-0.108083226
204	0xbd7bf816	-0.06151589
205	0x3e46b2a3	0.19404082
206	0x3e602986	0.2189084
207	0x3e37150a	0.1787912
208	0x3dabea57	0.08394306
209	0xbc8f835a	-0.017518688
210	0xbda91c5a	-0.08257361
211	0xbdc199f6	-0.09453194
212	0x3d67cc32	0.05659122
213	0xbded540e	-0.11588298
214	0xbdbe02e8	-0.09277898
215	0xbd1000f3	-0.035157155
216	0xbe428b1b	-0.18998377
217	0xbe2ef43e	-0.17085359
218	0x3e0b91fb	0.13629906
219	0x3c75cb26	0.015002048
220	0xbd36955a	-0.044576026
221	0xbdd20e4b	-0.102566324
222	0xbe88aba4	-0.2669345
223	0xbe664931	-0.22488858
224	0xbe7c37e5	-0.24630697
225	0x3c329879	0.01090061
226	0xbe6f995c	-0.23398346
227	0x3e0049b1	0.12528111
228	0xbe7aa4b9	-0.24476899
229	0x3c718d12	0.014743106
230	0xbd68641f	-0.056736108
231	0xba6c2abe	-0.00090090546
232	0xbcf71eab	-0.03016599
233	0xbe6a2e61	-0.22869255
234	0x3e351ef7	0.17687593
235	0xbe81114f	-0.25208518
236	0x3c9dbe92	0.01925591
237	0x3e0a23e9	0.13490261
238	0x3e17d21d	0.14826246
239	0x3acf9397	0.0015836832
240	0x3e456035	0.19274981
241	0xbe302b4b	-0.17204015
242	0x3d48304f	0.048874196
243	0xbe691053	-0.22760133
244	0x39dc2d4d	0.00041995422
245	0x3e4e0b06	0.20121393
246	0x3d0dc9ae	0.034616165
247	0x3e21eb2f	0.15812372
248	0x3d4ab4ab	0.049488705
249	0x3d23f94a	0.040032662
250	0xbe39bc65	-0.18138273
251	0xbe705cf8	-0.23472965
252	0xbda2f634	-0.07957116
253	0xbdd04abe	-0.10170506
254	0xbdb9d97a	-0.090746835
255	0x3dae905b	0.08523627

bias f4 [30]
0	0xbd5bb392	-0.05363805
1	0x3e04c75a	0.12966672
2	0xbb8c10a5	-0.004274445
3	0x3d606a87	0.054789092
4	0x3e61a3c5	0.2203513
5	0x3c153bbd	0.009108481
6	0x3db01e6b	0.08599552
7	0xbcd0d37a	-0.025491465
8	0xbd228984	-0.039681926
9	0x3df67641	0.12034274
10	0x3e3512a9	0.176829
11	0x3d1d9948	0.03847626
12	0x3dd3ba77	0.103383
13	0x3ceb5e4b	0.028731486
14	0xbdcee3bd	-0.101020314
15	0x3dd2d5c7	0.10294681
16	0x3d884c0c	0.0665513
17	0xbcadc7be	-0.021213409
18	0xbcf7770c	-0.030208133
19	0x3be41ee3	0.00696169
20	0x3d6e0c25	0.05811705
21	0x3dcce87a	0.10005279
22	0xbe22f07c	-0.1591205
23	0xbd5cbc70	-0.053890646
24	0x3e264233	0.1623619
25	0xbe4a58c3	-0.19760422
26	0x3d4cf3ce	0.050037198
27	0x3e196d52	0.14983109
28	0x3e51feb1	0.20507313
29	0x3e307500	0.17232132
