models/ThirtyClassifier.pt (torch, 21372 bytes, 11 tensors)

weight f4 [5, 8]
00000000: 518c df3e f3c3 21bf 1b42 07bf 19f1 453f
00000010: 3967 d9be 9a20 71bf ec23 bf3f a128 12bd
00000020: 1dc9 883f 8754 91bf 25ec b93f 2af4 52bf
00000030: 3666 463f d967 983f c85a cfbf bc66 ddbd
00000040: 9518 56bf e784 9abf d426 61be 4d35 933f
00000050: 0c8a 00bf e408 453f 0e9b ac3f 049a eb3f
00000060: e80a ff3d 81f6 3dbf 1b2b 083f 93a8 453f
00000070: 0966 7abf be11 d93d e7ac c1be 0f67 9fbf
00000080: b850 173e a8de 203f 76cb 06c0 457f f63f
00000090: 5856 65be 7b05 1b3f 685c 58bf 49bc 1540
0.4366174 -0.6318962 -0.52835244 0.7732101 -0.42461565 -0.9419037 1.4932837 -0.035683278
1.0686375 -1.1353921 1.452519 -0.82403815 0.7749971 1.1906692 -1.6199579 -0.10810611
-0.8363126 -1.2071809 -0.21987468 1.1500641 -0.5021064 0.7696669 1.3484819 1.8406377
0.12453252 -0.7420426 0.53190774 0.7721035 -0.97811943 0.10599087 -0.37827227 -1.2453326
0.14776886 0.62839746 -2.1061683 1.925759 -0.22396219 0.6055524 -0.84516 2.339617

weight_ih_l0 f4 [60, 8]
00000000: 50d2 e83d f088 f3bd 8b39 26be e0c8 acbd
00000010: 7d79 87be 5f00 073d 144c 8ebe d88b aa3d
00000020: ad63 133e 3fc6 d83d f76c 62be cb40 d83d
00000030: 171a 0c3e 36ef f73d 22f2 d6bd 4a27 12bb
00000040: 697b 7a3e 7707 883b b793 893d d88c 6fbe
00000050: b78e 8cbd 2345 d03d 6b6d c8bc 8877 8bbe
00000060: 6a89 70be 99da 72be ec81 143e 9ef4 a7bc
00000070: 1d0e 86be 7939 bcbd 550b 973e 8303 023e
00000080: 3588 3dbd 7769 7d3e 42ca 22be aae4 a03d
00000090: 12fc b9bc 32bb d2bd 25c3 21be 5d72 a53d
000000a0: cd16 293e 6234 adbd 65fb 1fbe d7bd 0fbe
000000b0: 1d2b 66be 8361 e63d ccc0 983d 000c 4cbe
000000c0: f878 26be 17ea 393e 3cb9 3d3e 4b70 443e
000000d0: 8ad0 58be c797 353e 97f9 7d3e 17b5 37bd
000000e0: fdd2 2ebe 9514 cf3d 64d1 783e 75c5 f7bd
000000f0: 588c 1a3d c2fb 223c e329 2dbe 2337 3abe
00000100: 30b0 82bd 653b 2abe a850 37be 033e 3abd
00000110: 41ac 413d c9f4 f73d ec9c 7abe a565 763c
00000120: 4437 1e3e 8097 e63c 799e 8cbd 33b1 163e
00000130: 81de 6b3e a749 9f3d 0c11 053e cef7 363e
00000140: 0b63 9fbc c582 80be cccc 8a3b 38a9 843e
00000150: e52a 09be e529 2f3d d5ec fabd daaf 233e
00000160: 6b04 303e 4e64 4a3d a307 593d 81c9 60be
00000170: 367b 203d 8a8c 39ba d15b 863e 96ac e8bd
00000180: 7b5c ae3d 97df 74be 0c7e 543e cba5 48be
00000190: c526 e7bc 17bd 6d3d ed05 123c 34b2 08be
000001a0: d026 413e c54e 74be 9036 d73d ce40 04be
000001b0: b08b 3dbd 3b65 6f3d 5a7d 8dbe d299 03be
000001c0: f077 e63c 4b87 61be 04fe 50be f474 203e
000001d0: f6bd 5d3e 8f3c 383e 6b2b 3abd 5666 dcbd
000001e0: 3672 2fba fe71 76be c6a3 10be 4cb5 41be
000001f0: 9a73 053e 874a 743e 8f1d aebd ed93 c1bd
00000200: 96df a9bc b272 273e b055 d23d c06a 3abe
00000210: d0ca c8bd 0af9 4c3e 3a1c c3bd d31d 873e
00000220: cbbf 4cbe 2c7e 823c 4dbf b4bd d507 633e
00000230: db55 41be dd57 7a3e 6944 2abc 9209 24be
00000240: aa32 513e cb28 1d3d 5109 6abd d20e eabd
00000250: badc 203e 3f6a 0cbe 94e4 193e c40a 283d
00000260: dd33 96bc c1c5 87be 715a 8c3d 8207 903e
00000270: 57f1 e7bd 7c6c 09be 7177 b3bd a0ff 883e
00000280: ec4a ddbd 784b 00be bc07 113d 711c 45be
00000290: 9643 8cbe 66b2 0bbd af40 983e d1a6 00be
000002a0: 33a9 5cbe 1122 64be 88bc bf3d ce1c d8bc
000002b0: e091 75be 8e67 1b3e 2482 3ebe fd1f e33d
000002c0: 6c23 93bd adfb e9bc ce87 35be e2ff 82bd
000002d0: c463 88be 850a 65be e631 2d3e 65d0 fdbd
000002e0: a4b8 7c3c fcbe fa3d 2087 06be e479 463c
000002f0: 7a9f 5a3e 1996 243e 1246 383d 0ddd 1f3e
00000300: f0d2 563e 79e0 46bd c66d 2fbd 75ae 883e
00000310: 136e 473d 6c6f 683d d27c 973e e0ff 16bd
00000320: 49ff 1dbe aa76 acbd be0f a33d 30d1 7c3e
00000330: b83d 7abe d422 fcbc fb0c 323e 1601 0e3e
00000340: 9760 3a3e eefb 6fbb 1652 f53d b9d9 713e
00000350: d2ad 223e f860 c83c 94ca 143e 3b64 f4bd
00000360: cc06 7abd bf32 5dbe a7e7 33be c952 4c3d
00000370: 642d 353e 7c1e 27be 2524 3c3d 85ae 22be
00000380: 225f 423e c3b2 693e 4d03 f4bc 3fd0 243e
00000390: e677 103e b13b 16bc acb0 8fbe add8 39be
000003a0: c8ce 9fbd 860a 63bd cbf2 2abe f981 15be
000003b0: f127 e9bd 35be 053e 2149 973e 70ef adbd
000003c0: 4ba6 b43c 24ab fa3d fba3 7f3e ba6b 733e
000003d0: 4b52 97be 7293 643e e1fc 5ebe d761 6dbd
000003e0: 0fde 1cbd 28cb fd3d 5f47 6f3d da37 d03d
000003f0: 9a29 2a3e fa5e 643e 78d5 4ebe acaa 7cbe
0.11368239 -0.11891353 -0.16232888 -0.08436751 -0.26459876 0.03295934 -0.27792418 0.08327454
0.14393492 0.105846874 -0.2211188 0.10559233 0.13681827 0.12106173 -0.10495402 -0.002230125
0.2446114 0.0041512805 0.067176275 -0.23393571 -0.06863158 0.10169437 -0.024466237 -0.27239633
-0.2348992 -0.23716201 0.14502686 -0.020502385 -0.26182643 -0.091906495 0.29500833 0.12696652
-0.046272475 0.24747263 -0.15897468 0.07856114 -0.022703204 -0.10289611 -0.15797098 0.08078454
0.16512604 -0.08457257 -0.15623243 -0.14037262 -0.22477384 0.11249068 0.07458648 -0.19926453
-0.16257083 0.18155704 0.18527693 0.19183461 -0.21173301 0.1773368 0.24802242 -0.044850435
-0.17072673 0.101113476 0.24298626 -0.12098209 0.0377315 0.009947719 -0.1691051 -0.18185095
-0.06381261 -0.1662422 -0.17901862 -0.045469295 0.047283415 0.12107236 -0.24473923 0.015038882
0.1545077 0.028148413 -0.06866164 0.14716034 0.23034097 0.0777772 0.12994784 0.17867967
-0.019456407 -0.2509977 0.0042358395 0.25910354 -0.13395269 0.042764563 -0.122522034 0.15985051
0.17189185 0.049412064 0.0529858 -0.21951868 0.039180003 -0.0007078132 0.26241925 -0.11361043
0.08513733 -0.23913418 0.20751208 -0.19594495 -0.028216729 0.05804166 0.008912546 -0.13349229
0.18862462 -0.23858173 0.10508454 -0.12915346 -0.046275795 0.05844615 -0.27634698 -0.12851647
0.028133363 -0.22024266 -0.204094 0.15669614 0.21654496 0.17991851 -0.045451563 -0.107617065
-0.0006692739 -0.24066922 -0.14124975 -0.18916816 0.1303238 0.23856555 -0.085017316 -0.09452043
-0.020736497 0.16352347 0.1027025 -0.18204784 -0.098043084 0.20016876 -0.09526868 0.26389942
-0.19995038 0.015929304 -0.0882555 0.22170956 -0.18880408 0.2444758 -0.010392287 -0.16019276
0.20429483 0.03836898 -0.05713779 -0.11428608 0.157092 -0.13712405 0.15028602 0.041025892
-0.018335277 -0.26518062 0.06853188 0.28130728 -0.11325329 -0.1342029 -0.08763016 0.26757526
-0.10805306 -0.12528789 0.035407767 -0.19249131 -0.27395314 -0.03410568 0.2973685 -0.12563635
-0.2154892 -0.2227862 0.09362131 -0.026380923 -0.23981428 0.15176222 -0.18604332 0.11090086
-0.071844906 -0.028562391 -0.17727587 -0.06396462 -0.26638615 -0.22367294 0.16913566 -0.12393264
0.015424881 0.12243459 -0.13137484 0.012114022 0.21349898 0.16072883 0.0449887 0.15611668
0.20978904 -0.048553918 -0.042829297 0.266956 0.04868896 0.056746885 0.29587418 -0.036865115
-0.15429415 -0.08421071 0.07961987 0.24689174 -0.24437606 -0.030778326 0.17387764 0.13867602
0.18200909 -0.0036618668 0.11978547 0.23618211 0.1588662 0.0244603 0.14530402 -0.1193318
-0.06104164 -0.2160139 -0.17568837 0.049883638 0.17693096 -0.16320223 0.045932908 -0.15886886
0.18981603 0.22822098 -0.02978673 0.16095065 0.14108238 -0.009169505 -0.28064477 -0.18149062
-0.07803112 -0.055429958 -0.1669418 -0.14600362 -0.11384571 0.1306084 0.2954798 -0.08492935
0.02205195 0.12239674 0.24964897 0.23771563 -0.29554972 0.22321871 -0.21776153 -0.057954635
-0.03829771 0.123922646 0.058417674 0.10166903 0.16617432 0.22301856 -0.2019862 -0.24674481

weight_hh_l0 f4 [60, 15]
00000000: c429 7a3d 0059 29be b872 14bd 64ae 0bbe
00000010: b9dd a0be 7edd c83d d641 4abe 10b5 78bd
00000020: c18d 313b a0a1 f93d f500 d6bc f1a4 473d
00000030: 0fbd 943d 16b7 9d3d 9045 273e 475a 153e
00000040: 74ed f3bc 5861 8cbe ca45 5fbc c2a5 ddbd
00000050: 96cf 70be 5d52 b83d a99b ab3d 0f92 4abe
00000060: c33b 4c3e 4a50 5c3e e6fa a23d ab08 523e
00000070: 2f25 663e 2e78 273d 5a4b 0abe 1932 1dbe
00000080: 035b 5a3d 03ea 4cbe 6731 93be 3985 f63b
00000090: 0706 b9bc 59d8 c3bd ff45 393e 85e6 dabd
000000a0: 3cce 47bc 8b90 67be a8b1 a9bd 9638 16be
000000b0: 9398 3ebc d132 90bc 7d79 88be b924 e13c
000000c0: e209 bbbd 3ab8 03be eb40 35be a03a 89bd
000000d0: 168d c43d 7a63 a0bb 6ba1 b0bd 20e6 06be
000000e0: 7124 85bd 2743 74bc c166 4cbe 2a7a e6bd
000000f0: d903 21be 91cc 643d fd78 00bc 3f32 e73d
00000100: 6a67 f1bc c367 5cbe 29cf 613d 9821 cd3d
00000110: de26 44be 7f70 4bbe adcd 793e 2894 a7bb
00000120: 267c fdbd 175d 9fbd eab4 70be 4aa2 f23d
00000130: d170 4f3d 1520 8fbc 3cbf bbbe 33b1 c0bd
00000140: f363 ab3c c6c6 a53c 6a00 503e 4586 c03c
00000150: 6346 1e3e d5aa 18be a7e8 6bbe 1f54 eb3c
00000160: 9891 8cbd a8b7 eabc 1a5c 5b3e 823f 5dbe
00000170: a5ae 24be 158e 6b3e 52f3 563c eafe 0e3d
00000180: 2598 50be 5981 283e 26c4 9a3d 08fd 3bbe
00000190: cc02 693e 2c11 8ebe dd28 cabd c710 30be
000001a0: 0340 32bd 3404 6b3e 7156 423e 0c53 67bd
000001b0: 6f89 50be 404f 1bbe f6ff 633d 3718 12be
000001c0: 0755 05be 8938 a5be 94b1 1f3d e240 353e
000001d0: 2b24 7bbe 6625 813d f8da f23c 7f97 96be
000001e0: 9abe e9bc ae74 423d cd2a c4bd 9f5d 19be
000001f0: e4d5 2cbe 1cdb ab3d 6ee1 693d 6988 913e
00000200: d988 77bd 020d 56be 2a71 b0bd e480 14bd
00000210: b48d 373e 1775 073e 8321 d93d f55b 31be
00000220: b384 c73c 684b dbbd aa9d 44be 5e54 b3bd
00000230: 80d2 9b3c 1ed6 0f3e c620 503e 7226 b23d
00000240: 23be 89bd e508 133d 0ba5 a53c d57b 543e
00000250: 0342 1d3e 42b1 7dbe ac16 4bbe 4934 6dbe
00000260: b76f 2d3e 0302 893d 93aa 69be 5b2e 5fbe
00000270: 72ae 1a3d aa9f 4abd dc1a 4c3d c1f6 173d
00000280: 842f 1a3c cac2 1b3e ec59 823e 15db 333e
00000290: 70da 35be d427 203e f632 ca3c 28a3 843d
000002a0: fbb0 64bd 434d 1d3e ad26 d9bc bf46 42bd
000002b0: 7c94 b3bd fe2d aebd 18c3 343e fd9b 73bd
000002c0: 7d94 35be d053 6bbd 193c 82be 2faf 87bd
000002d0: 1671 21bd 60d8 b5bd 9d5c 173c 5aa6 58bb
000002e0: 4bc4 f43d 37bd 74be a992 0abd 440f 86be
000002f0: 9a13 9f3c 0d37 0bbe 70ea 5a3e 413b 4cbe
00000300: a558 3f3d 94eb 36bc 69c2 a5be 3aaf 30be
00000310: 8c79 1ebe 1f52 19be 6cf0 d03d ae93 c4bd
00000320: b71c 803e fa9f 393e 9839 0f3e ac7e 483e
00000330: 5912 18be 9155 bdbd dfc6 2a3d 195f 1b3e
00000340: a392 32be 4b86 68be fec0 a33d 2f42 19be
00000350: d9c2 e4bd e24b 98bd dd63 63be 6ed1 cb3c
00000360: f918 95be 0c26 5e3e 0ebb 2e3e 24ec 03be
00000370: c647 e83d 810b e63c 8cd6 57be 7d2b 6a3d
00000380: 6ede 7fbd a744 7f3e 3e45 c23d 22b5 47be
00000390: b5d9 563e 5a05 acbe cdd6 8a3e a767 573d
000003a0: 2345 4f3d 93a9 7bbc 85f0 1cbe cba9 613d
000003b0: 0009 ef3d 374b 003e cc24 a33e 5d8e 0dbe
000003c0: 3853 393e 848f 57bd f292 f8bd f18a 103e
000003d0: edf4 493e 825d 23be c990 28bd a35d 8abe
000003e0: fb01 693e 63dc 023d cf39 06bc 155c 4ebc
000003f0: 1f14 f63d 9781 0c3e 1478 0cbe cf99 5b3e
0.061074987 -0.16537857 -0.036242217 -0.13640743 -0.3141916 0.09807871 -0.19751677 -0.06071955
0.0027092549 0.12189031 -0.026123503 0.048741285 0.072626226 0.077009365 0.1633513 0.1458522
-0.029776312 -0.27418017 -0.013627479 -0.108226314 -0.23516688 0.090000845 0.08379299 -0.1978228
0.19944672 0.21515003 0.07958011 0.20511119 0.22475122 0.040886097 -0.13505307 -0.15351142
0.05330945 -0.20011143 -0.28748628 0.0075232056 -0.022585882 -0.095627494 0.18093108 -0.10688499
-0.012195166 -0.22613733 -0.08285838 -0.14670023 -0.011633056 -0.017602356 -0.26655188 0.027483331
-0.09132744 -0.12863246 -0.17700545 -0.06700635 0.095972225 -0.004894671 -0.08624538 -0.13173723
-0.06501091 -0.0149085885 -0.19961073 -0.1125377 -0.15724124 0.055859152 -0.007841346 0.112888806
-0.029468257 -0.21523957 0.055129204 0.10016173 -0.19155452 -0.19867133 0.24394865 -0.005114097
-0.12377195 -0.07781427 -0.23506513 0.118473604 0.0506447 -0.017471353 -0.36669338 -0.09408798
0.020921683 0.020236384 0.20312658 0.023501525 0.15456538 -0.14908917 -0.23037969 0.028726636
-0.06863707 -0.028652027 0.21421853 -0.21606258 -0.16082247 0.23003419 0.0131195355 0.034911074
-0.20370539 0.16455592 0.075569436 -0.18358243 0.22754973 -0.27747476 -0.09871075 -0.171939
-0.043518078 0.22950822 0.18978287 -0.056475684 -0.20364927 -0.1516695 0.055664025 -0.1426705
-0.13020717 -0.32269695 0.03898771 0.17700532 -0.24525516 0.06305961 0.029645428 -0.29412457
-0.028533269 0.047474556 -0.09578476 -0.1497712 -0.16878468 0.08391401 0.057099752 0.28424385
-0.060433242 -0.209034 -0.08615334 -0.036255732 0.17925149 0.1322826 0.10602095 -0.17320235
0.024355268 -0.10707742 -0.19200769 -0.08756326 0.019021273 0.14046523 0.20325002 0.08698739
-0.06725719 0.035897154 0.0202203 0.20750363 0.15357213 -0.2477465 -0.19832867 -0.23164476
0.16937147 0.06689837 -0.22818975 -0.21795027 0.03776402 -0.049468674 0.049830303 0.037100557
0.009410743 0.15211025 0.2545923 0.17564042 -0.17759109 0.15640193 0.024682503 0.06476432
-0.055832844 0.15361504 -0.0265077 -0.04743075 -0.087685555 -0.08504866 0.17652547 -0.059474934
-0.17732425 -0.057452977 -0.25436476 -0.066252105 -0.039414488 -0.08879161 0.009238389 -0.0033058138
0.119515024 -0.23900305 -0.033831272 -0.26183522 0.019418526 -0.13595219 0.21378493 -0.19944479
0.046715397 -0.011164565 -0.32374886 -0.17254344 -0.15476054 -0.14972733 0.10202107 -0.0959848
0.25021908 0.18127432 0.13986814 0.19579571 -0.14850749 -0.09244836 0.041693565 0.15172996
-0.1743875 -0.22707479 0.07995795 -0.14966653 -0.11169977 -0.074363485 -0.22206064 0.024880137
-0.29120615 0.21694201 0.17063543 -0.12883049 0.11341815 0.028081657 -0.21077937 0.05717038
-0.062467985 0.24928533 0.09485863 -0.1950269 0.20981486 -0.33597833 0.27117005 0.052589085
0.050603043 -0.015360254 -0.15326126 0.055093568 0.116716385 0.12528692 0.3186401 -0.13823839
0.18098152 -0.0526271 -0.121374026 0.14115502 0.19722338 -0.15953639 -0.041153703 -0.27024564
0.22754662 0.03194846 -0.008192494 -0.012595196 0.120155565 0.1372131 -0.13717681 0.21445392

bias_ih_l0 f4 [60]
00000000: 16e0 173d 0396 af3d 1784 4cbe 2ab3 45bd
00000010: 52db 11be 0ca2 81bd 3aba 30be c8d5 4bbe
00000020: 525b 54be a1fb 13be 95dd d73d b15e 67be
00000030: 7598 983e 9bba c23d d8c9 7d3e abc1 edbd
00000040: c3bd 963e 9c03 2ebe 7ea1 23bd bd91 4e3e
00000050: 4afd 503e 83f0 06be 070e 0e3e fa82 bc3c
00000060: 1e1f 59be 8afc adbd 049a 623e 655a 13be
00000070: 1a58 1e3e 4738 113e 8107 cabd 4d3a 863d
00000080: 2d19 38be fb46 003e d7bd 85be e25b d8bd
00000090: f7fa 383e 93ca 093d 8015 05be 9877 873e
000000a0: 6757 873d ce37 603e 8f8e bebd eb73 1a3e
000000b0: cbd3 22be 0e5e e03d c116 48be 7bd2 e93d
000000c0: 6e2d 423e b73a f2b8 aebc a33c 8f59 bbbd
000000d0: 3ef2 2dbd fb2f 0e3e a089 f3bd 26af b43c
000000e0: fcb8 e53d b576 88bd 7956 efbd 2125 f23d
0.03707894 0.08573534 -0.19972263 -0.048266567 -0.1424382 -0.06329736 -0.1725854 -0.1990577
-0.20737961 -0.14451458 0.1054031 -0.22594716 0.29803815 0.095082484 0.24784029 -0.11609205
0.29441652 -0.16993564 -0.039948933 0.20172782 0.20409122 -0.13177685 0.13872539 0.023011673
-0.21203277 -0.08495434 0.22129065 -0.14389952 0.15463296 0.14181624 -0.098647125 0.06554089
-0.17978354 0.12527077 -0.261214 -0.105644 0.18064485 0.033640455 -0.12996483 0.2645843
0.066084675 0.21896288 -0.09304535 0.15083282 -0.15901105 0.109554395 -0.1953993 0.11417099
0.18962643 -0.00011550396 0.01998743 -0.09147941 -0.04246735 0.1388549 -0.11891484 0.022056174
0.112169236 -0.066632666 -0.11686415 0.11823488

bias_hh_l0 f4 [60]
00000000: 8168 863e 90d9 9b3d 9b00 1d3d f0b5 a3bd
00000010: 7b6d 6abe 4a6a 06be 11fa 12bd 76a9 653d
00000020: 23de 163e a0d2 25be 516d 55be 0f19 1fbe
00000030: dd0c f83c 2b16 43bd e629 223e 2014 893c
00000040: 8c5e 673e 8bb5 3c3e d6c2 9a3e 2827 803e
00000050: 96c6 35be 78cc 933d 6e5b 913e ca5d eabc
00000060: d20c 003e c574 193e 4634 8d3e 8094 623e
00000070: e815 623e 0969 b0bc 6ba9 c43d dba1 15be
00000080: e3c8 85be 6434 05be 8e3a 63be 9036 34bd
00000090: 49aa febd 8fac 9439 6cde b13c ad36 3b3e
000000a0: 1f55 563e 2600 143d af56 7c3e d4c1 3f3e
000000b0: 07ad 1e3c 7ff5 a23d 66e5 e3bd a49e d5bd
000000c0: b3fb 073e 269b 4abe 4158 ec3c e582 e2bd
000000d0: d485 543d 3f51 84bd 42b4 363d 833f 9f3d
000000e0: f9dc 17bc 28f7 be3d f5f3 703a 3dff 773d
0.26251605 0.07609856 0.038330656 -0.07993686 -0.22893326 -0.13126484 -0.035883013 0.056069814
0.14733176 -0.16193628 -0.20842482 -0.15536903 0.030279571 -0.047628563 0.15836295 0.01673323
0.2259466 0.18428628 0.30226773 0.25029874 -0.17751536 0.07216734 0.28390068 -0.028609175
0.1250489 0.1498595 0.27578944 0.22126961 0.22078669 -0.02153446 0.096026264 -0.14612524
-0.26129827 -0.13008267 -0.22190306 -0.043997347 -0.12434823 0.00028357326 0.021712504 0.18282576
0.20930909 0.036132954 0.24642442 0.18726283 0.009684808 0.07956981 -0.11127739 -0.10430649
0.1327961 -0.19785747 0.028850676 -0.110601224 0.05188544 -0.06460809 0.0446055 0.07775786
-0.009268993 0.09324485 0.0009191626 0.06054615

weight_ih_l1 f4 [60, 15]
00000000: 1e9a 84bd 2fac 5e3c e924 9dbe 302f 64be
00000010: 8717 b7bd 4674 313d 55ca cbbb 25f6 3d3e
00000020: b436 a2be dbcd ef3d 3635 893d 83d6 eabd
00000030: 655d 7cbe 6210 c7bd 45e4 bc3d 3b17 563e
00000040: b5f0 c9bd b437 053e c43a 3fbe cf9f f9bd
00000050: 69a5 53be da53 99bd 5309 73be dd14 9abe
00000060: d5e8 91bc 1071 45bc 3e91 123e 787f 883d
00000070: 9a2c 903e 89f4 a4bd 5e70 8ebd 444a 68be
00000080: 168c 7dbe 142b 84bd dfd5 033e 6a6e 84be
00000090: e7cf 92be 1e17 5d3d 0d81 9d3d 4fda 46be
000000a0: f76c 7ebc da2f 7dbe 7b1f c73d 7811 983d
000000b0: 78bf 64be 60fb f53b 6177 19be ef30 273e
000000c0: b993 ddbd 6f8e dc3a 7a88 f93d 5e72 54be
000000d0: 4f50 7d3e 7a8d a53d 559a 573e 44a9 30be
000000e0: dffd 4cbd 0abe 15be bccc 093d 79d8 923d
000000f0: 507b 833c 6771 96be 8b76 433e c8e5 93bd
00000100: 0a84 d1bd 81da 023e 91a6 34be db5b 32be
00000110: 264c 713e 59b7 dbbc 10cb 183d 61fa 3e3e
00000120: 9cd6 f93d decb 8dbc ff46 8e3d 1405 343e
00000130: f6b3 5bbe 3eb8 e73c d3d0 093e df77 3abe
00000140: 6469 a53a 42d1 233e 1adb 3b3e 49c1 433e
00000150: eea3 90bd 9256 d93d 78db 18bd 110a f33d
00000160: 43eb 2f3c a557 52be 56ef 82bd 62d2 d93c
00000170: 956c 21bd f2e9 bf3d dee9 97bd d8a5 7bbd
00000180: a61e ccbc 139b 30bd aa83 48be 553f b33d
00000190: 1a3a f63d 1446 7bbc 3103 0cbe 9046 943c
000001a0: 36f5 4fbe 02df 54be 4f60 50be e734 44bd
000001b0: 2964 1abd 5179 423e 6af2 88be 24ab 4cbe
000001c0: ffa0 893e 5d7f acbd 51cc 473e 796d c5bd
000001d0: c6ca 6c3e 7db8 83be ba9e cc3c 4862 34be
000001e0: 6a54 52be 8723 c93c 57ac 40be 3c5d 26be
000001f0: a860 223e b3ef 2e3e bc1a 873c f93d b8bc
00000200: f299 313e 7898 24be e135 893e 428a 813e
00000210: 38a7 d73d bcd5 5bbe 8629 37bd 0ce3 0fbe
00000220: 0aa8 193e 4730 20be 4f60 583e 5a50 86be
00000230: 6726 39bd db2e 233e f9a7 3fbe 23ea 48be
00000240: 035a 4e3e 1ec0 223e 28b6 7cbe c4ce 893e
00000250: d4bf 00be 038e 10be cf4b 1c3e c22f 733e
00000260: 9473 81bd 3ff2 babd d599 c3bd d7eb 913e
00000270: 3f29 53be 651c d9bc 1c5b 99bd e0b3 35be
00000280: 10bf 1c3e 9228 f93d a9c1 92be 3cdf 813e
00000290: 34b1 61bc 887a 7cbe 8fb7 9abe 3599 02bd
000002a0: 2fdb 1dbc 7d4c 59be 03f0 df3d 645f 70be
000002b0: 8336 18be b029 9dbc f60d 903e e95d e73c
000002c0: 796f f5bd fe7b 3dbd 4ef2 253e 1a4b 57be
000002d0: b0c1 24be 4222 963c d995 ca3d d32f 08be
000002e0: 9b49 4a3e aaa7 86be c68f fbbd 8d03 abbd
000002f0: 6ee3 8ebd 6149 00bd 7e7d 8fbd be8a b7bd
00000300: 43fa 85bd ef4d 373d 3804 3fbe 214b 8ebd
00000310: ef7d 46be db9b 27be eb29 5cbe 8a05 0b3d
00000320: 7761 ffbd 1579 62be 5df8 9b3c 0e52 2e3e
00000330: 2831 173e d3a2 c6bd 6324 2c3e 4a0f 823e
00000340: 6b0c 2f3d 687a b1bd 78a5 793e 96f2 f43d
00000350: 5881 56bd bcfe c4bd 4533 73be f6f5 43be
00000360: 1506 99bd f904 67be 975e 433e 5ea6 8b3d
00000370: 409c 863e b53a 123e 0b23 fbbc 1b77 ee3c
00000380: 9ca0 d63d c906 9d3e 5a88 88bc c4f8 0dbe
00000390: 8d48 30be 48fa 913d d3f5 fabd a74b 233c
000003a0: 4794 7d3e 4e3f ce3c d5a6 de3d 1338 4a3e
000003b0: f920 8b3c 8eed 163e ba15 fd3d 7de6 54bc
000003c0: 6b90 a93e 082b ecbd 9d8f 51be 9453 5b3e
000003d0: 244e 303d 67cb 07be 0ac6 47be 5d8f b53c
000003e0: bc19 903d 79de f2bd 7554 223e 9cfd f8bd
000003f0: cc23 fdbc 717c 0e3e ca52 7fbe 2a9f d63c
-0.06474708 0.013590856 -0.30692223 -0.22283626 -0.08940034 0.043323778 -0.006219188 0.18550928
-0.3168236 0.11709186 0.06699602 -0.11466696 -0.24645002 -0.09719922 0.092232265 0.20907299
-0.09860364 0.1300953 -0.18674761 -0.12188684 -0.20668568 -0.074866965 -0.23734026 -0.30094042
-0.017811218 -0.012050882 0.14313218 0.06664938 0.28159028 -0.08054454 -0.06955026 -0.2268458
-0.2476047 -0.06453529 0.12874554 -0.2586549 -0.28674242 0.053977124 0.0769063 -0.19419216
-0.015528909 -0.24725285 0.09722801 0.07425207 -0.22338665 0.007506773 -0.14986946 0.1632726
-0.108191915 0.0016827116 0.12184234 -0.20746753 0.24737667 0.08083625 0.21054967 -0.1725207
-0.050046798 -0.14623275 0.033642516 0.07170195 0.01605001 -0.29383394 0.1908819 -0.07221562
-0.102302626 0.12778665 -0.17641665 -0.17417853 0.23564205 -0.026820825 0.03730303 0.186502
0.121991366 -0.017309126 0.06947135 0.17580062 -0.21455368 0.028286096 0.13458566 -0.1820979
0.001261991 0.15997794 0.183453 0.19116701 -0.07062517 0.10612215 -0.037318677 0.118671544
0.010737243 -0.20541246 -0.06393306 0.026589576 -0.039410193 0.093707934 -0.074176535 -0.061437458
-0.024916958 -0.04311664 -0.19581476 0.08752314 0.12022801 -0.015336532 -0.13673092 0.018100053
-0.20308384 -0.20788196 -0.20349239 -0.047902014 -0.037693176 0.18991591 -0.26747447 -0.1998716
0.26880643 -0.0842273 0.19511534 -0.09640021 0.23124227 -0.2572669 0.02497803 -0.17615616
-0.20540014 0.024553074 -0.18815742 -0.16246504 0.15857184 0.17083625 0.01649224 -0.022490488
0.17343882 -0.16073787 0.2679892 0.25300795 0.10529941 -0.21468252 -0.044717334 -0.14051455
0.15005508 -0.15643416 0.21130489 -0.26233178 -0.04520264 0.15935843 -0.1871642 -0.19620566
0.20151524 0.158936 -0.24678862 0.26915562 -0.12573177 -0.14116673 0.15263294 0.23748687
-0.06320873 -0.09128236 -0.095508255 0.28500244 -0.20621203 -0.026502797 -0.07488081 -0.17744398
0.1530726 0.12165941 -0.28663376 0.25365627 -0.013775159 -0.24656117 -0.3021817 -0.03188439
-0.009634777 -0.21220584 0.109344505 -0.23473889 -0.14864545 -0.019184917 0.2813565 0.028243022
-0.11984152 -0.046260826 0.16205713 -0.21024743 -0.16089511 0.018326882 0.098918624 -0.13299493
0.19754641 -0.26299793 -0.12283282 -0.08350287 -0.069769725 -0.03131998 -0.070063576 -0.0896201
-0.06541874 0.044752058 -0.18653953 -0.069479235 -0.19383977 -0.16368048 -0.21500365 0.03394083
-0.12469762 -0.22116502 0.019039327 0.17023489 0.14764845 -0.09699025 0.16810755 0.2540229
0.042736452 -0.08665925 0.24379528 0.11960332 -0.052369446 -0.09618899 -0.23750027 -0.19136795
-0.07471863 -0.2256049 0.19079052 0.068188414 0.26291084 0.14280207 -0.030656358 0.029109528
0.104798526 0.3066924 -0.01666658 -0.13864428 -0.17215176 0.071278155 -0.122539185 0.009966767
0.24763595 0.02517667 0.108716644 0.19747953 0.016983496 0.14739057 0.1235766 -0.012994406
0.33117995 -0.11531645 -0.2046494 0.21418601 0.04304327 -0.13261186 -0.1950914 0.022163088
0.070361584 -0.118588395 0.1585253 -0.12157747 -0.030900858 0.13914658 -0.24933925 0.026198942

weight_hh_l1 f4 [60, 15]
00000000: 5162 2abd 5e3a 8bbe 9b66 813d 8d93 7abe
00000010: 0687 e8bd cfb1 92be 0f4f 073e 2645 9b3d
00000020: 274f 163e 3b8c 293e ae83 77bc b9ad 5f3d
00000030: 392a 82bd 2e9d ddbd c2dd 9d3c 7bad 943d
00000040: f202 323e b6ed 573d fcd1 d1ba 9b42 33be
00000050: 5787 7fbe 6ca7 2b3e 0d0c 17be ddf7 b43d
00000060: 9bfb c73d cc1c 88be d604 db3d cc7f 8e3d
00000070: f325 dd3d 4eed 05be fe1f a4bd 26ec dd3d
00000080: 16d9 243e 3582 7a3d 9c89 95bd 27dc e3bd
00000090: cf17 523e 49dd 56be d94c 633e 82ab 333e
000000a0: de12 e83c f699 843e ec33 0bbe 5adf fc3d
000000b0: 03be 063e 8773 4ebe dd75 0fbe a606 b23d
000000c0: 3d8a 10be a4fe dbbd 9e86 5c3e 1188 c4bd
000000d0: 8a91 c03d b07a 13be 846c 86bd 7a53 873e
000000e0: e001 c03d 5620 153d 7f77 88bc a1cb 4bbe
000000f0: 64b2 20bd ec3f 493e e962 c43c a875 9c3e
00000100: ae15 913d ff1c 3cbe e665 ae3d c91b 87be
00000110: 4195 61be b3ae 06be 6902 19be 3e67 8f3d
00000120: 405d 89bc 99a9 0a3e 83ad 0e3e 7ac8 ed3d
00000130: cfa3 f9bd 6967 afbd 4b32 aa3c e8ce 363e
00000140: 63f3 713e 0a8a b73d c560 053d 4f0d 0cbe
00000150: 48e0 48bd a689 79be 53dc 6ebe 8ae3 44be
00000160: d59a 67be ec6c 823d 9c4d a9bd d51f c33d
00000170: 76d9 2fbe 5782 02be 2758 bfbd fbe2 5dbe
00000180: 5989 cf3d 0284 a5bc d63c 903d 0bc2 8dbd
00000190: 6941 2dbe e3c8 0bbd 3efa d1bd cdd8 e83d
000001a0: df31 1bbc 362e 7abe 4842 813e 47c7 153d
000001b0: 50d6 6f3e 11e8 12be 3b59 74be 591b cfbc
000001c0: 25e3 adbd b41e 843e d714 0d3e ccdc 3cbc
000001d0: fdbc 87be 180e aaba 02cf 86be 730f db3d
000001e0: 015e 8a3d a10d 0e3e 3942 143d 4acb 2c3e
000001f0: 0e57 083d 054c 08be 7814 34be f246 a5bd
00000200: 6faa eebd bb11 c53d 48b4 c9bd 6726 d9bd
00000210: 2dfb 20be fa56 543e 39a2 513e 7eb9 a13d
00000220: e1aa 4e3e eef1 39bd 1934 263e 7e39 fe3b
00000230: 9a0e 95be f83b b4bd 9b1b 043d bc9f 653d
00000240: 4d7d e43d 7353 35be 0866 f63d 1b08 f2bd
00000250: 9d58 25bd fd63 0cbe 12da 343e 7240 34be
00000260: 7b3d c33d 83ca aa3d ae51 ab3d 39e8 073e
00000270: 06a5 d3bd dd13 1a3e ea2b 36bd 73e3 af3c
00000280: 4c6d 513c a08c ed3d 553e 03be ed0c 0bbe
00000290: 0786 473d eff5 003e 3d25 a5be 16ea 9fbd
000002a0: 2822 5e3c 86a6 7e3e 0a5e a9bd f4ed 1abd
000002b0: 1d4b 36bd 867f 0f3d d63b 953d e77d 44be
000002c0: 5621 9a3d 06b7 0ebe 5e10 9c3e 95e4 10be
000002d0: 019f 84be a816 8fbe 386b 1cbe 962a 063e
000002e0: 3db4 673e ee61 27be 440d 5c3e 2de7 5cbe
000002f0: c097 34bc 4a17 c1bd f182 aebd 368b 6d3e
00000300: 7c9a 003e 5a6a 2e3e 0868 083e d305 5f3c
00000310: bc6f 2c3e 51e8 98bd 03de c9bd d630 5fbe
00000320: e6d3 9bbc 1407 48be 150c 10be 2305 5ebe
00000330: a44b 0abe b339 a13c d7a4 3dbd fb62 ae3d
00000340: 946b 96bd ae02 973c 5026 fabd f5ee e3bd
00000350: d8fa 363e 274f 85bd 959a d63d 1117 e03d
00000360: 481b 373e 26cc 453e 44eb 423e 84f3 813e
00000370: 0e14 abbd 8b5f 7c3e b115 5f3e 2a10 0cbe
00000380: 3fdd d83d b701 81bc feaf 973d 529e 58be
00000390: a9da 3abe 7bd4 233d ce27 4bbc beae 03be
000003a0: b040 2cbd 57b8 24be 2e1a d0bd dfc7 7fbc
000003b0: 6fe7 08be f4e5 c9bd 12dd 183d 7166 d9bd
000003c0: 185f c2bc b801 043e 32e0 02be 3e16 993d
000003d0: 22f4 9f3e ebce d83d 2da1 a83d 80a2 153d
000003e0: cf78 1d3d 5353 fd3d ced7 8fbe ff45 533e
000003f0: a948 f1bc a166 903d 3356 a13d 05b5 eabc
-0.041597668 -0.27192968 0.063183986 -0.24470349 -0.11353879 -0.28651282 0.13213752 0.075815484
0.14678632 0.165574 -0.0151070785 0.054609034 -0.063557096 -0.10820995 0.019270781 0.07259651
0.17383936 0.052716933 -0.0016008015 -0.17505877 -0.24953972 0.16763085 -0.14750691 0.08836339
0.09764787 -0.2658447 0.10694282 0.06957969 0.10798254 -0.13078806 -0.080139145 0.10836057
0.16098437 0.06115933 -0.073016375 -0.11125975 0.20516895 -0.20982851 0.22197284 0.17545894
0.02832931 0.25898713 -0.13594025 0.123472884 0.13158421 -0.20161258 -0.14009805 0.08692674
-0.14115234 -0.10741928 0.21535727 -0.09596265 0.094027594 -0.1440227 -0.065636665 0.26430875
0.09375358 0.03640779 -0.016658543 -0.19901897 -0.039232627 0.1965329 0.023972945 0.30558515
0.07084213 -0.18370436 0.08515529 -0.26388386 -0.22029592 -0.1315258 -0.14942326 0.07002114
-0.016768098 0.13541259 0.13933377 0.116105035 -0.12189447 -0.08564646 0.020775935 0.17852366
0.23628001 0.08961876 0.03256299 -0.13676952 -0.049042016 -0.24368915 -0.23326235 -0.19227424
-0.22617657 0.063684314 -0.08266756 0.09527556 -0.17172799 -0.12745033 -0.093429856 -0.21668617
0.10133619 -0.020204548 0.070428535 -0.069217764 -0.16919483 -0.034127127 -0.10252808 0.113694765
-0.009472339 -0.2443169 0.2524588 0.036567 0.23421597 -0.14346339 -0.23862164 -0.025281595
-0.0849059 0.25804675 0.13777481 -0.011527251 -0.26511374 -0.0012974171 -0.2632981 0.10696306
0.06756211 0.13872387 0.036195967 0.16874424 0.033286147 -0.13310249 -0.17585933 -0.08070172
-0.116536014 0.096225224 -0.09848839 -0.10603028 -0.15720816 0.20736304 0.2047204 0.07896708
0.20182373 -0.045396738 0.16230811 0.0077583184 -0.29112703 -0.08800501 0.03225289 0.056060538
0.11156712 -0.17707615 0.1203118 -0.11817952 -0.04036771 -0.13710018 0.17661312 -0.17602709
0.09533211 0.08339407 0.083651885 0.1327218 -0.1033421 0.1504664 -0.044475473 0.02147076
0.012782406 0.11599088 -0.12816747 -0.1357915 0.048711803 0.12593816 -0.32254973 -0.0780832
0.013557948 0.24868211 -0.0826989 -0.037824586 -0.044505227 0.035033725 0.072868034 -0.19188653
0.075258896 -0.13937005 0.30481237 -0.14149697 -0.2590256 -0.27946973 -0.15275276 0.13102183
0.22627349 -0.16345951 0.21489435 -0.21572562 -0.011022508 -0.0942827 -0.08521069 0.23197636
0.12558931 0.17032757 0.13320935 0.013612228 0.16839498 -0.07466186 -0.098567985 -0.21795973
-0.01902194 -0.1953395 -0.14067109 -0.21681647 -0.13505417 0.019680833 -0.04629978 0.08514973
-0.07344738 0.018433895 -0.12214339 -0.11129562 0.17869127 -0.06509238 0.10478703 0.109418996
0.178815 0.19316158 0.19035059 0.253811 -0.083534345 0.24645822 0.21785618 -0.13678041
0.10589074 -0.015747888 0.07406615 -0.21154144 -0.18247475 0.03999756 -0.012399627 -0.12859628
-0.04205388 -0.16085945 -0.101612434 -0.015611618 -0.13369535 -0.09858313 0.037320204 -0.10615242
-0.023726985 0.1289128 -0.12780836 0.074749455 0.31240946 0.105863415 0.08233867 0.036531925
0.03844529 0.123694085 -0.28094333 0.2063217 -0.029453592 0.07050825 0.07877769 -0.02865077

bias_ih_l1 f4 [60]
00000000: 55a7 953e 88c7 05be b733 6f3e 845d 5e3e
00000010: 7160 04bd 8750 8d3d cf21 443e dbbe 42bd
00000020: fbed 88be b299 e73d 4d0a 693d f2d1 e43d
00000030: ee3f 933d b727 253e fa81 5f3e 9556 8abd
00000040: c946 0f3e b78b 78bd 4206 c43d 9b0c bd3d
00000050: d668 a0bd 1a5d ca3d bc1b 0d3d b28f 533e
00000060: 7613 a8bd fafc 073e 062f 82bb 329e 5e3e
00000070: c6d1 3e3e 9398 0cbe e4bb a03c c8fa b0bd
00000080: a0e5 f7bd e40e 56be 7c5e 393e f8e4 52be
00000090: 21c1 013d f0ef 38be c796 41be 0f3f 803d
000000a0: 7cbd 39bd b4a6 993e 17a6 ea3c 7c38 5f3e
000000b0: d894 63bd d9fe 0fbe 60aa e0bd ac3e 9c3d
000000c0: b5c3 2d3e 7ac7 83bc 2888 a0bd b26c 573e
000000d0: 8819 63be b915 babd e586 fe3d 484a dd3d
000000e0: cb22 89bd 83ea c8bd 3308 8e3d 4d10 1c3e
0.29229227 -0.13064396 0.23359571 0.21715361 -0.032318536 0.06900125 0.19153522 -0.047545295
-0.26744065 0.11308612 0.05689459 0.111728564 0.07189928 0.16128431 0.21826926 -0.067547955
0.13991846 -0.060680117 0.09571506 0.0923092 -0.07832496 0.09881039 0.034450278 0.20660284
-0.08206837 0.13280097 -0.003972891 0.21740034 0.1863471 -0.13730077 0.019620843 -0.08641583
-0.12104344 -0.20904118 0.18102449 -0.20595157 0.031678323 -0.18060279 -0.18905173 0.062620275
-0.045346722 0.30009997 0.028643651 0.21798891 -0.05556187 -0.1406206 -0.109699965 0.07629141
0.16969188 -0.016086329 -0.0783847 0.21037558 -0.22177708 -0.090861745 0.12428073 0.10805184
-0.06696089 -0.098103546 0.069351576 0.15240593

bias_hh_l1 f4 [60]
00000000: 7974 38bd 86d6 1c3e bd9c 0ebe c688 583e
00000010: 25b7 853e dee6 7ebd b162 3a3e 887d 9d3c
00000020: 750f 70be d4cb f0b8 8894 bdbd 5833 313e
00000030: 6246 cfbb b145 f7bd b8f3 303e 428d 093e
00000040: ceb7 0abe e9a0 fc3d 9f08 5abc ed95 61be
00000050: 2acc 813e 80cd 08be eff5 2c3e eb31 68bd
00000060: 46bb ddbd 0f9d 463e be11 0cbd 9957 643e
00000070: 47a2 38be 8158 13bd f8d6 f5bd 2d61 e83d
00000080: 1c2a 72be 76ec 773d 1b8c ed3d 1649 943d
00000090: dbc5 02bd ef4a eabd e809 ad3d 16a3 4a3e
000000a0: 23fd 14be aa70 693e 94ba 4ebe dc83 633e
000000b0: 7f57 5abe 831a 0abe 0d33 523e 5d2e 713d
000000c0: eec8 673e f189 463e c3da 84be 623d f83d
000000d0: 900d 543d 8946 b0bc bb67 d33d 700a 15be
000000e0: 0395 efbd d4d1 f73d f8e7 cd3d 4aa3 7f3e
-0.045032952 0.15316209 -0.13926978 0.21145925 0.2611629 -0.06223189 0.1820171 0.019224897
-0.23443396 -0.00011482058 -0.09256846 0.17304742 -0.006325529 -0.120738395 0.17280471 0.13432792
-0.13546678 0.12335379 -0.0133077195 -0.22029848 0.25351077 -0.13359642 0.16890691 -0.05668823
-0.10826735 0.1939585 -0.034196608 0.22299041 -0.18030654 -0.035973076 -0.12003893 0.1134666
-0.23648876 0.06052824 0.115989886 0.072405025 -0.03192697 -0.11440074 0.08449155 0.19788775
-0.14549689 0.22796884 -0.20188361 0.22218269 -0.2132244 -0.13486676 0.20527287 0.058882106
0.22635242 0.19388558 -0.25948152 0.12121083 0.051770747 -0.021518009 0.103225194 -0.14554763
-0.116983436 0.121005684 0.1005401 0.24964634

weight f4 [30, 15]
00000000: 096f de3e 50f7 9b3e 23ba 993e f073 51be
00000010: 5d62 9abd 495f 123e 489b d9be 56d9 a7bb
00000020: acb5 3dbc 25d4 9bbe 22c3 313d 607b c5be
00000030: 9473 19be f548 8dbe 0697 ae3e aeff 12bd
00000040: e2cc 293e ac37 63be 9978 873d 9e4b 8abd
00000050: 24b8 c8bd 72e7 b53d 2e59 3e3e 0719 0ebe
00000060: 657a b8bc ef96 0abe 29d3 05bd 4028 193e
00000070: 8ba7 593e 9822 683e 9957 8fbd 3171 6dbe
00000080: 0085 8fbd 1c84 81bd 047e 86be f17e 07bc
00000090: 8f06 22be 8256 493e a24a eabd 144b 3abd
000000a0: 5973 7abc aff1 05bc 7df6 47be 09cf 66be
000000b0: 0b87 ab3d f12e 8abe 82da 36bd 723e 523e
000000c0: a2b4 0bbd c183 f0bd 1eda 52be 56cc 13be
000000d0: 2af0 e3bd bf41 40be 0985 413e 6c09 d6bd
000000e0: bd0a 00be 62d8 423e 00c0 683e 4e65 89be
000000f0: d2c4 023e 8bc2 3bbe 32cb f3bd 212b 3e3e
00000100: 0ca1 8c3d 362f c63c 8ca4 9c3d 727d a3be
00000110: 09cc aebc fabc 08be d2a4 e6bc 7071 79bd
00000120: 5f9d 493d 4c6b 773e a78f 883c dd8e 68be
00000130: bbd8 5a3e c0cf 383d b23d acbd 5139 c13d
00000140: 7922 84bd 577a 7d3e 424d 063e 7aa2 a7bd
00000150: a62a 243e e503 d6bd c184 13bd 8251 813d
00000160: f0cf 243e 1759 cbbc 8a6c 013e a166 9d3e
00000170: 03a9 3bbd 802e ccbd 303b b7bc a62f 363c
00000180: fe3b 953d 8438 113e 7ec5 febc 6c73 0b3e
00000190: 9f95 153e 7f9d 073e dbe6 fa3c b826 413e
000001a0: 9aa3 4bbd 6953 893e 01f8 e23d ed81 17be
000001b0: 30e8 903d d060 393e caf8 a13d 9aaa 063e
000001c0: 34ac 893e e0a6 89bd c3e4 273c fe25 063e
000001d0: 8912 b13d c1d1 4dbe 5b89 8e3d 6832 c5bc
000001e0: 346f 1e3e a791 493e c6bc 8cbe c989 573e
000001f0: 0e5c 34be 4de8 1a3e d6b2 293e c443 163e
00000200: 118e d33d c854 5f3e 0029 7fbe 62d3 b3bd
00000210: b669 8e3d 6749 7cbd 7eec 08be 1fe1 ab3d
00000220: b99d 5a3c 37ee 3b3e f24c cb3d ddac fd3d
00000230: 6a62 223b 7ea5 babd f892 f8bc 4f6b a2be
00000240: cc3f 693e f02b 2c3e e9d6 163c 3c53 e43c
00000250: 8862 433d 4b15 f13d 2c12 cb3d af71 05be
00000260: ed57 3e3d eb6c d0bd 67f5 74be 9192 37be
00000270: 264b a8bd 74b4 5e3e 5e47 f3bd a8e2 303e
00000280: 1220 7f3b b4f4 4fbe b289 85bd 2c21 083d
00000290: b5a3 ea3b 64bc b63d 8827 e0bd d004 25be
000002a0: 6529 6a3e 2cf8 7cbe 52ea 4cbe 4e11 413e
000002b0: bdca ee3c 59e0 33be 99a3 1d3e a5b4 8a3e
000002c0: 1e2c 88be 5a3b 323d 59eb 4f3e b249 833d
000002d0: 5023 2bbe c0b8 273d fcad 443e 7fc1 b63d
000002e0: 4378 cbbc fe01 f03c 3b32 953d e5b4 793e
000002f0: 01cd 35bd 8fbe 81bc 613e bcbd 9d5a c43d
00000300: f033 4e3e 098b eb3d 07bc 5d3e 3b6c 0fbd
00000310: 1bd3 0c3d 3535 e03b d5c1 25be 574a f9bb
00000320: 5e38 843d b9d8 5d3d e2e8 4d3d 291d 033e
00000330: a1d5 cfbc cb91 63bd 1b47 1d3e a93d b13d
00000340: a62f ca3c fbae dd3b e11a 0e3e afe7 88be
00000350: 8925 ef3b 18fb d5bd 0e80 8a3e c575 4dbe
00000360: 5725 253e 541e 9ebd 9f4c 123c bfc7 51be
00000370: 85d0 803d be30 913e a192 37be 497a 1abe
00000380: 4ef2 173e c45b 9bbe 1f1b 093e fc42 10be
00000390: 15dd 8d3d 099e 8d3e ec08 633d 0f23 41be
000003a0: 5e84 25bc 23a9 69be 6858 61bd b858 24bd
000003b0: 7beb ed3c fa7e 06bd fe06 00be e8f2 62bc
000003c0: cc4b 5fbe 3847 3c3e 8324 cdbd b38c 9f3c
000003d0: c423 0ebc 45ca 1d3e a812 c83d 0b2b 4bbe
000003e0: 1b6a 38be a02d c2bd 1b7a e0bd 5e64 993d
000003f0: 7540 8f3d 6c6c 4ebe c0b5 d13d 6a81 263d
0.43444088 0.30462122 0.30024824 -0.20454383 -0.075382926 0.14294161 -0.42501283 -0.005122344
-0.0115789585 -0.3043529 0.043398984 -0.3857069 -0.14985496 -0.27594724 0.34099597 -0.035888366
0.16582063 -0.22189206 0.06614799 -0.06752704 -0.09800747 0.08882035 0.18588707 -0.13876735
-0.0225193 -0.13534139 -0.03267208 0.1495676 0.21255319 0.22669446 -0.0699913 -0.2318771
-0.070077896 -0.06324026 -0.26268017 -0.008270011 -0.15822814 0.19661906 -0.11440016 -0.045481756
-0.01528629 -0.008175298 -0.19527622 -0.22539915 0.08375367 -0.26988938 -0.04464198 0.20531633
-0.03410781 -0.1174388 -0.20591018 -0.14433417 -0.11129792 -0.1877508 0.18898405 -0.10451016
-0.12504096 0.19027856 0.22729492 -0.26835102 0.12770393 -0.18335931 -0.11903991 0.1857114
0.06866655 0.024192434 0.07648572 -0.31931645 -0.021337526 -0.13353339 -0.028154764 -0.060899198
0.049222346 0.24162024 0.016670061 -0.22710748 0.21371739 0.04512 -0.08410205 0.0943476
-0.06451888 0.247537 0.13115409 -0.08185287 0.16031894 -0.104499616 -0.036015276 0.063143745
0.16094947 -0.024822755 0.1263906 0.30742362 -0.04581548 -0.09969807 -0.02236709 0.011119759
0.07286833 0.14181715 -0.031100031 0.13618249 0.14607857 0.13243674 0.030627659 0.18862426
-0.04971657 0.2682145 0.11082459 -0.14795657 0.07075536 0.18103337 0.07908781 0.13151017
0.26889193 -0.06721282 0.010247412 0.1310043 0.086461134 -0.20099546 0.06959792 -0.024071887
0.15472108 0.19684468 -0.27487773 0.21048655 -0.17613241 0.15127678 0.16572127 0.14674288
0.103298314 0.21809685 -0.24917984 -0.087805524 0.069537565 -0.06159344 -0.13371465 0.08392548
0.013343268 0.1835259 0.099267855 0.12386487 0.0024777898 -0.091135964 -0.030343518 -0.31722495
0.22778243 0.16813636 0.009206512 0.02787172 0.04770139 0.117716394 0.099155754 -0.13031648
0.04647057 -0.101770245 -0.23921739 -0.17927004 -0.082174584 0.21748525 -0.118788466 0.17273962
0.0038929028 -0.2030819 -0.06520404 0.03323476 0.0071606287 0.089226514 -0.1094504 -0.16115117
0.22867353 -0.24704045 -0.20011261 0.18854257 0.029149408 -0.1756605 0.15394439 0.27090946
-0.2659616 0.043513633 0.20304622 0.06410541 -0.1671269 0.040947676 0.19206995 0.08923625
-0.024837619 0.029297825 0.07284971 0.24385412 -0.04438496 -0.015837936 -0.09191585 0.095875956
0.20137 0.11501128 0.21653758 -0.035015326 0.034381013 0.0068422803 -0.16187222 -0.007607739
0.06456064 0.05416176 0.050270922 0.12804092 -0.02537042 -0.05555896 0.15359156 0.08654339
0.024680924 0.006765244 0.13877441 -0.2673926 0.0072981757 -0.10448283 0.27050823 -0.20064457
0.16127525 -0.077206284 0.008929401 -0.20486353 0.06289772 0.283575 -0.17927028 -0.1508571
0.14838526 -0.3034345 0.13389252 -0.14088053 0.06926934 0.27659634 0.05542843 -0.1886103
-0.01010236 -0.22818427 -0.05501595 -0.04012367 0.02904295 -0.032835938 -0.12502667 -0.013851859
-0.21806258 0.18386543 -0.1001673 0.01947627 -0.008675519 0.15409191 0.097691834 -0.19840638
-0.18009226 -0.094813585 -0.1096079 0.07489847 0.06994716 -0.20158547 0.10239744 0.040650763

bias f4 [30]
00000000: 2d75 aabe 2696 973c 6d5c 333e 4dc3 adbd
00000010: 87f7 17be d2bc f7bd af3a 113d 2b0a 95bd
00000020: 91f1 3dbc bee5 8e3d c947 493e 25f4 973d
00000030: 2bd0 eb3d be4e 743c 75cc 07be 5eb9 95bd
00000040: 38b4 82bc 599b 1b3d 6ece 8a3d 60d2 e9b7
00000050: ff06 653e e6e8 313e a34a cf3b 3166 20be
00000060: 57c4 aabd 1020 9ebb 879f 2dbe 30a8 223d
00000070: ae25 5ebd a365 873d
-0.33292523 0.018504214 0.17515726 -0.08484516 -0.14840518 -0.120965615 0.035456356 -0.0727733
-0.011593238 0.069774136 0.1965629 0.07419614 0.11514314 0.014911352 -0.13261588 -0.073107466
-0.015955076 0.037989948 0.067776546 -2.7873728e-05 0.2236595 0.17374 0.006326036 -0.15663983
-0.0833823 -0.0048255995 -0.16955386 0.039711177 -0.054235153 0.066111825
