models/ThirtyClassifier.pt (torch, 21372 bytes, 11 tensors)

weight f4 [5, 8]
0.5040232 -1.0561883 0.5467341 0.65262294 0.3135863 0.10097156 0.79927933 -0.71723324
-0.06307535 -0.84856546 1.162399 0.10804723 -0.62812656 -1.0953935 0.06953139 0.3284531
-0.6319874 -0.004025209 -1.105026 0.18735993 -0.4212689 0.7428325 -0.21395347 -2.1475284
-0.05357578 1.198243 0.359968 -1.6636726 -0.38520932 1.4331764 0.8114241 0.70915866
-1.7865261 -1.5089105 -0.9020717 1.571651 -0.7970647 0.2935355 -0.1742169 1.9941694
00000000: aa07 013f 2e31 87bf c4f6 0b3f 4c12 273f
00000010: 628e a03e 2dca ce3d 929d 4c3f 999c 37bf
00000020: a62d 81bd 963b 59bf 7ec9 943f de47 dd3d
00000030: e7cc 20bf db35 8cbf 7966 8e3d 012b a83e
00000040: edc9 21bf e7e5 83bb 7e71 8dbf 48db 3f3e
00000050: 8fb0 d7be 452a 3e3f 9e16 5bbe 1b71 09c0
00000060: 4772 5bbd 0760 993f ba4d b83e 39f3 d4bf
00000070: 283a c5be 5372 b73f 7db9 4f3f 6c8b 353f
00000080: e3ac e4bf fb23 c1bf 2cee 66bf dc2b c93f
00000090: 6f0c 4cbf 494a 963e ea65 32be f140 ff3f

weight_ih_l0 f4 [60, 8]
-0.08419503 0.19648653 -0.011697026 0.10789847 -0.007969715 0.1080964 0.21179828 0.1663497
-0.08072588 -0.21263678 0.21476187 -0.112568446 -0.2758682 0.20631227 0.17527413 0.19289257
0.12444238 0.19430484 -0.087276354 0.18185829 0.24155165 0.24820499 0.20247173 0.070512846
0.11214319 0.19645868 -0.02513538 0.029875323 0.039285354 0.109474555 0.17074016 -0.0070088496
0.12295324 0.14877214 -0.12934913 -0.09427691 -0.16685745 -0.11218208 0.084263824 -0.058064066
-0.0243783 0.24337243 0.002397757 0.03792931 -0.27654424 0.20093256 0.12045939 -0.2962129
-0.15414228 -0.034167882 -0.049950182 0.0014210166 -0.15839541 0.10734779 0.15852533 -0.2639757
-0.079720244 -0.011239182 0.13641475 -0.10442471 -0.2126038 0.1526063 0.026043864 0.074404
-0.19930822 0.18806729 -0.061165478 -0.038427915 0.2025718 -0.16695556 0.09639105 -0.01935081
0.01950683 0.25079653 -0.07220559 0.27294397 0.20777725 0.23077282 0.18167596 -0.2617522
-0.0328322 -0.033064254 0.06777387 -0.113033764 -0.1781038 0.010456609 -0.21160531 0.2466897
-0.3036459 0.030829499 0.15413609 0.08213 -0.22642098 0.17077921 -0.20784526 0.12869565
0.23283517 0.18201295 0.09896488 0.11697017 -0.31985143 -0.05932789 -0.124564335 0.12347568
0.25549144 -0.23865293 -0.1960503 0.22177123 0.26138222 0.055861145 -0.008147775 -0.06725809
0.28755116 0.08964825 0.18913867 0.15684713 -0.0937264 0.13004395 -0.046682153 -0.030172154
0.17034315 -0.10970981 -0.011009118 0.11580396 -0.054321054 0.2920425 -0.1873182 -0.06266585
0.027698284 0.02824014 0.19946833 -0.23887827 -0.05431264 0.049597666 0.21863776 -0.024860844
-0.12745045 -0.18370868 -0.2225847 0.10050532 -0.07474665 -0.032241546 -0.043340996 -0.29813725
0.07197554 0.031807218 0.22050926 0.21069136 0.0860699 0.25550008 -0.17154974 -0.04420907
-0.08476818 0.09427633 -0.24937405 -0.16707604 0.1253258 0.008683831 -0.22391862 -0.026313644
-0.010049569 0.17579727 0.33269292 0.1434537 -0.02669955 0.26443213 -0.09661834 -0.02879317
-0.059546907 0.12653814 0.0013939757 -0.24328707 0.13311149 0.01797813 0.07438942 -0.15374772
0.15832852 0.1869728 -0.04984949 0.13004273 -0.060556326 0.10502937 -0.14516729 0.109517
-0.13417573 0.050297383 -0.20731921 -0.007884221 -0.064643726 0.035712063 -0.06985653 -0.23097633
0.115992494 0.11692029 -0.070219174 0.24710213 0.09190641 0.24165307 0.03381298 -0.22877948
-0.16184223 -0.026241533 0.15489125 -0.03942219 -0.029912274 -0.11497863 -0.050381184 -0.28160685
-0.09251505 0.13889194 -0.11253205 0.29900298 -0.11799726 0.054115083 0.20680171 -0.25598672
-0.23655495 -0.20929718 0.20986962 -0.26093853 -0.25182384 0.08109759 -0.089854635 -0.118026055
-0.17026693 0.05887654 -0.036373734 -0.15611705 -0.19267398 -0.28582042 0.061262004 -0.10551225
0.051507648 -0.061978772 0.025452586 -0.1932812 -0.07310049 -0.049580343 0.08454613 0.018423915
0.11257778 0.17899519 0.11471775 -0.06849283 -0.22534424 -0.31700265 -0.14581174 0.038591124
0.00062165584 -0.23733504 0.25902063 -0.0032138764 -0.030073602 -0.24411412 0.04132761 -0.21062602
00000000: 726e acbd c433 493e e2a4 3fbc dff9 dc3d
00000010: 6893 02bc a561 dd3d a6e1 583e 9357 2a3e
00000020: 9c53 a5bd 75bd 59be 89ea 5b3e 498a e6bd
00000030: 993e 8dbe 8643 533e 107b 333e a185 453e
00000040: a6db fe3d d9f7 463e f2bd b2bd 0f39 3a3e
00000050: 5159 773e 7329 7e3e c054 4f3e 0a69 903d
00000060: 54ab e53d 772c 493e b6e8 cdbc 18bd f43c
00000070: aee9 203d 3234 e03d 82d6 2e3e 7eaa e5bb
00000080: e9ce fb3d b957 183e 1974 04be 4114 c1bd
00000090: aedc 2abe b8bf e5bd 8392 ac3d 96d4 6dbd
000000a0: 00b5 c7bc 9f36 793e b023 1d3b c45b 1b3d
000000b0: 3597 8dbe 44c1 4d3e 6ab3 f63d 38a9 97be
000000c0: 79d7 1dbe 9ff3 0bbd 9098 4cbd 6841 ba3a
000000d0: 6832 22be 28d9 db3d 7754 223e d327 87be
000000e0: 5e44 a3bd 8c24 38bc 4fb0 0b3e 9fdc d5bd
000000f0: d0b4 59be d344 1c3e f159 d53c 2061 983d
00000100: 7417 4cbe b694 403e a788 7abd 9766 1dbd
00000110: fb6e 4f3e 66f6 2abe ac68 c53d 9785 9ebc
00000120: cacc 9f3c 6768 803e 86e0 93bd 50bf 8b3e
00000130: 8fc3 543e b64f 6c3e 4309 3a3e 6204 86be
00000140: 0f7b 06bd 626e 07bd 07cd 8a3d 3f7e e7bd
00000150: d860 36be 3252 2b3c 10af 58be 3a9c 7c3e
00000160: 7a77 9bbe 258e fc3c dad5 1d3e c633 a83d
00000170: e7da 67be bfe0 2e3e 63d5 54be cbc8 033e
00000180: 586c 6e3e 9a61 3a3e 19ae ca3d 0e8e ef3d
00000190: 91c3 a3be cd01 73bd 961b ffbd d1e0 fc3d
000001a0: c6cf 823e 6f61 74be 69c1 48be ff17 633e
000001b0: e4d3 853e a8ce 643d 3f7e 05bc 9cbe 89bd
000001c0: e839 933e 8099 b73d 91ad 413e 899c 203e
000001d0: a0f3 bfbd 3e2a 053e c935 3fbd 982b f7bc
000001e0: 6f6e 2e3e 89af e0bd 965f 34bc a02a ed3d
000001f0: c17f 5ebd 9886 953e 58d0 3fbe f456 80bd
00000200: 83e7 e23c de57 e73c 6d41 4c3e 819c 74be
00000210: ee76 5ebd ec26 4b3d 94e2 5f3e f8a8 cbbc
00000220: 5f82 02be 211e 3cbe 3eed 63be bcd5 cd3d
00000230: c614 99bd b60f 04bd 5486 31bd 72a5 98be
00000240: e967 933d 4948 023d 2ecd 613e 7abf 573e
00000250: 6a45 b03d e8d0 823e bcaa 2fbe 9214 35bd
00000260: f19a adbd f313 c13d e95b 7fbe fb15 2bbe
00000270: 6855 003e a146 0e3c ec4a 65be b68f d7bc
00000280: f3a6 24bc 3304 343e ba56 aa3e 87e5 123e
00000290: 04b9 dabc a663 873e d6df c5bd a7df ebbc
000002a0: 75e7 73bd 3793 013e 10b6 b63a 3f20 79be
000002b0: 614e 083e df46 933c 7b59 983d 0b70 1dbe
000002c0: df20 223e cc75 3f3e fb2e 4cbd ec29 053e
000002d0: e909 78bd a319 d73d bca6 14be 734a e03d
000002e0: 5d65 09be a104 4e3d 7d4b 54be d22c 01bc
000002f0: ee63 84bd d046 123d f110 8fbd 0f85 6cbe
00000300: 798d ed3d e873 ef3d 12cf 8fbd 5708 7d3e
00000310: 6e39 bc3d e773 773e 7b7f 0a3d 2b45 6abe
00000320: f8b9 25be 7cf8 d6bc d09b 1e3e 2a79 21bd
00000330: 960a f5bc ea79 ebbd 805c 4ebd c62e 90be
00000340: 8878 bdbd b039 0e3e 3477 e6bd eb16 993e
00000350: 8ca8 f1bd c7a7 5d3d d4c3 533e b110 83be
00000360: 763b 72be 0052 56be 10e8 563e bc99 85be
00000370: 0eef 80be 7e16 a63d b505 b8bd a5b7 f1bd
00000380: 745a 2ebe 8728 713d a0fc 14bd 26dd 1fbe
00000390: 544c 45be 0e57 92be deed 7a3d ce16 d8bd
000003a0: aff9 523d 74dd 7dbd f181 d03c 82eb 45be
000003b0: b6b5 95bd c214 4bbd 8526 ad3d c0ed 963c
000003c0: 2e8f e63d 844a 373e 24f1 ea3d f845 8cbd
000003d0: a4c0 66be 2c4e a2be ac4f 15be ba11 1e3d
000003e0: 9ef6 223a f507 73be 5a9e 843e e69f 52bb
000003f0: ea5c f6bc 0df9 79be 2447 293d 59ae 57be

weight_hh_l0 f4 [60, 15]
0.024381023 -0.033785265 -0.09312087 -0.3009831 0.32478938 -0.11311353 0.090412535 0.15040053
0.19536239 -0.2413968 0.2548527 0.22903946 -0.06857261 -0.06156149 -0.15769936 -0.37243208
-0.19166376 0.11014409 -0.35395297 0.21232371 0.17868018 -0.38806444 -0.045173656 0.013711073
-0.26354155 0.05533314 0.3063981 -0.06864924 0.07474105 0.077752255 0.010203251 0.2159288
0.14873177 -0.13445204 -0.14676628 0.2225467 0.19495428 0.1805409 -0.11040687 -0.3065638
-0.22262658 0.059293393 0.079062894 -0.021640845 0.1638754 0.029535413 0.023664681 -0.11328916
0.08943816 0.18336053 -0.2709539 -0.1561326 0.012437755 0.134023 -0.2726135 -0.13532266
0.14557593 -0.17135845 -0.16736485 -0.033047482 -0.026304249 -0.15795147 0.31688422 -0.095668435
0.0646678 -0.095747046 -0.32360232 -0.17552337 0.01855539 0.10419434 -0.31515154 0.24915358
0.0063503264 -0.015002852 0.002536355 -0.07462948 -0.23068504 0.16720045 -0.3617365 0.041332617
-0.2610798 -0.0053082923 0.13876614 0.13091163 0.089344 -0.33771625 0.26767626 0.021165568
-0.13059199 -0.053329393 -0.06419408 -0.139806 0.14022876 -0.11491901 0.13003156 -0.063532695
-0.167967 -0.21587989 -0.13638216 0.14354113 -0.20130599 0.07102116 -0.1789636 -0.27428624
-0.11374213 0.15610102 0.03407604 -0.056669258 -0.053394873 -0.0696014 -0.18078575 0.19687405
-0.005750849 -0.26678002 0.23128194 -0.09717281 -0.23738512 -0.071829535 0.07229206 0.12418205
0.0970392 0.072159216 -0.092363745 -0.13833545 -0.16851859 -0.012230472 0.041973285 -0.15363124
0.116489716 0.021972615 -0.078219794 0.06890285 0.0316645 -0.23112147 -0.1762526 0.009073539
0.3023727 -0.07617588 0.029455436 0.22008799 0.22106662 -0.3031737 -0.10520114 -0.2986336
0.013559686 -0.1750025 0.08690489 -0.16056253 -0.10525577 0.1778094 -0.1707605 -0.2409736
0.27866945 0.15957259 -0.10696919 -0.017323354 0.05462645 0.18741477 0.21915728 -0.13608465
0.1688015 0.27505058 -0.21129027 -0.20643441 0.16315411 -0.25698432 0.14426391 0.10214678
0.09094644 0.3424406 -0.07059187 0.10231793 -0.26832858 -0.13969235 -0.3057811 -0.026151765
0.018812263 0.12590604 0.18094154 0.0030097316 -0.16763064 0.041340075 0.08175713 -0.36224976
0.041456778 0.06873708 0.07287004 -0.0052059446 0.10512024 -0.06109556 -0.01662911 -0.067397885
0.16344862 -0.131302 -0.2301356 0.051691625 -0.026886858 -0.03265452 -0.14488758 0.030825803
0.19200937 -0.19226517 0.119391255 0.2421696 0.0493081 0.30641046 -0.17778705 0.02955386
-0.1493433 -0.14550295 -0.31631255 0.18037185 -0.0017196299 -0.30639672 0.034595873 -0.17553079
-0.23058689 -0.19966522 -0.24725325 -0.21619794 0.090691105 0.08197595 -0.18657947 -0.12637374
0.06793373 -0.08084198 -0.0958869 -0.16195129 -0.029841885 0.29723737 -0.037406076 -0.2196906
0.13705872 -0.12542261 0.030990222 0.25257397 0.0063968077 0.24593207 -0.01745741 -0.13692589
-0.071079336 -0.06736377 0.10760389 0.03519171 -0.18712585 -0.036571216 -0.18635277 -0.107247286
0.20779493 -0.0062009334 0.24390732 -0.053209808 -0.027484072 -0.04500525 0.21999939 -0.17846349
00000000: b6ba c73c 6b62 0abd 28b6 bebd 751a 9abe
00000010: cb4a a63e 11a8 e7bd 352a b93d 9902 1a3e
00000020: 140d 483e b930 77be 0e7c 823e 5289 6a3e
00000030: cc6f 8cbd e727 7cbd f17b 21be 6baf bebe
00000040: 8143 44be 3a93 e13d 5339 b5be 636b 593e
00000050: f0f7 363e 62b0 c6be 0308 39bd 69a4 603c
00000060: ebee 86be 01a5 623d 36e0 9c3e f997 8cbd
00000070: d611 993d 933c 9f3d 892b 273c 701c 5d3e
00000080: 244d 183e ccad 09be e649 16be 48e3 633e
00000090: 18a2 473e b7df 383e ff1c e2bd eef5 9cbe
000000a0: 39f8 63be a1dd 723d baeb a13d 2448 b1bc
000000b0: f4ce 273e 40f4 f13c 6fdc c13c 2604 e8bd
000000c0: 5b2b b73d ddc2 3b3e 78ba 8abe 39e1 1fbe
000000d0: bac7 4b3c 533d 093e ff93 8bbe 0692 0abe
000000e0: db11 153e 9778 2fbe b161 2bbe cc5c 07bd
000000f0: 027c d7bc 08be 21be a63e a23e d0ed c3bd
00000100: 8d70 843d 0717 c4bd 34af a5be 66bc 33be
00000110: 7901 983c d863 d53d 8b5b a1be 1e22 7f3e
00000120: 6616 d03b 86ce 75bc fa38 263b 57d7 98bd
00000130: b338 6cbe 9836 2b3e 8735 b9be 644c 293d
00000140: 40ac 85be 2ff1 adbb b618 0e3e b30d 063e
00000150: fdf9 b63d 25e9 acbe dd0c 893e 6a63 ad3c
00000160: e8b9 05be ec6f 5abd 3078 83bd 4e29 0fbe
00000170: 2198 0f3e a85a ebbd fe26 053e 6e1d 82bd
00000180: 8bff 2bbe 9e0f 5dbe c4a7 0bbe 72fc 123e
00000190: 2823 4ebe 8b73 913d 3c42 37be 3f6f 8cbe
000001a0: a2f1 e8bd f2d8 1f3e 5193 0b3d 061e 68bd
000001b0: 95b4 5abd 2e8b 8ebd e61f 39be 5a99 493e
000001c0: 9e71 bcbb 6497 88be 2cd5 6c3e 8a02 c7bd
000001d0: 1615 73be 5d1b 93bd dc0d 943d 2953 fe3d
000001e0: 7dbc c63d 36c8 933d 3429 bdbd cfa7 0dbe
000001f0: 2390 2cbe 5162 48bc 2eec 2b3d 8251 1dbe
00000200: 2992 ee3d eaff b33c b331 a0bd f01c 8d3d
00000210: a2b2 013d 1bab 6cbe 907b 34be 2ea9 143c
00000220: 98d0 9a3e 1a02 9cbd 874c f13c bf5e 613e
00000230: 4a5f 623e 9539 9bbe b273 d7bd 81e6 98be
00000240: 7229 5e3c db33 33be 31fb b13d 816a 24be
00000250: 5690 d7bd ab13 363e d7db 2ebe c9c1 76be
00000260: c3ad 8e3e ff66 233e aa12 dbbd b5e9 8dbc
00000270: fcbf 5f3d a8e9 3f3e c46a 603e c659 0bbe
00000280: 4dda 2c3e 6ed3 8c3e 7a5c 58be 8b63 53be
00000290: df11 273e 7393 83be ebb9 133e 5532 d13d
000002a0: 2142 ba3d 6054 af3e 7892 90bd 108c d13d
000002b0: 5d62 89be 830b 0fbe 578f 9cbe 3a3c d6bc
000002c0: 2d1c 9a3c 83ed 003e bd48 393e eb3e 453b
000002d0: 5ea7 2bbe 3654 293d 4870 a73d cd78 b9be
000002e0: 95ce 293d 07c6 8c3d e33c 953d a196 aabb
000002f0: 4849 d73d 573f 7abd c539 88bc e707 8abd
00000300: 135f 273e 0874 06be aba8 6bbe 99ba 533d
00000310: d441 dcbc bfc0 05bd 695d 14be 6586 fc3c
00000320: 1b9e 443e 29e1 44be 6783 f43d 4ffb 773e
00000330: 4af7 493d d5e1 9c3e cf0d 36be f01a f23c
00000340: 73ed 18be bafe 14be b8f3 a1be 66b3 383e
00000350: 3465 e1ba 08e0 9cbe 67b4 0d3d 58be 33be
00000360: f81e 6cbe 0a75 4cbe f52f 7dbe fe62 5dbe
00000370: 42bc b93d 02e3 a73d b00e 3fbe 1e68 01be
00000380: d720 8b3d 7b90 a5bd 5a60 c4bd 8fd6 25be
00000390: f876 f4bc 7f2f 983e 1d37 19bd 93f6 60be
000003a0: 1f59 0c3e c96e 00be 35df fd3c 6051 813e
000003b0: 509c d13b 9ed5 7b3e d802 8fbc 4d36 0cbe
000003c0: 0b92 91bd 04f6 89bd 6e5f dc3d 2f25 103d
000003d0: eb9d 3fbe b3cb 15bd 43d3 3ebe 77a4 dbbd
000003e0: 32c8 543e 3331 cbbb d7c2 793e 87f2 59bd
000003f0: 4726 e1bc 6d57 38bd 8547 613e 22bf 36be

bias_ih_l0 f4 [60]
0.21953359 0.26892573 0.076123856 0.010275422 0.010711671 0.12366894 0.115490615 -0.11573774
-0.07444548 0.052488744 0.105723515 0.24246544 -0.035707887 0.15985484 0.06867894 0.10010942
-0.19320741 0.14998259 0.17898852 -0.12940626 0.30415383 0.09676755 0.12280026 0.03205762
-0.08170441 -0.09488101 0.14404361 0.16246945 -0.20117211 0.23603421 -0.19066213 -0.16508318
-0.24951075 -0.16846548 0.14043953 0.03129331 -0.038090635 -0.23452222 0.08475747 0.0726735
0.17881763 -0.10296827 -0.11272782 0.14310384 -0.19674744 0.22658725 -0.041970544 0.04500941
-0.16187307 0.19222663 -0.034694068 0.16316295 0.043180764 -0.15055123 -0.1652299 0.19273898
0.13782474 0.28851154 0.2099221 0.19967921
00000000: 6acd 603e a2b0 893e d3e6 9b3d 3e5a 283c
00000010: 0180 2f3c 2446 fd3d 5886 ec3d e907 edbd
00000020: df76 98bd 70fe 563d 9285 d83d dc48 783e
00000030: 6f42 12bd fdb0 233e 8ba7 8c3d 2b06 cd3d
00000040: 2ad8 45be 0995 193e c448 373e 1383 04be
00000050: 0dba 9b3e 112e c63d b47e fb3d da4e 033d
00000060: a454 a7bd fa50 c2bd 2b80 133e 645e 263e
00000070: 1000 4ebe f4b2 713e ef3c 43be 910b 29be
00000080: bf7f 7fbe 3782 2cbe 61cf 0f3e 6a2d 003d
00000090: ed04 1cbd 9826 70be 5395 ad3d d8d5 943d
000000a0: f81b 373e 07e1 d2bd d8dd e6bd d089 123e
000000b0: 2978 49be 7d06 683e 4ee9 2bbd c95b 383d
000000c0: 0ec2 25be 0fd7 443e 5e1b 0ebd 3014 273e
000000d0: 50de 303d 1a2a 1abe 0732 29be 5e5d 453e
000000e0: ee21 0d3e c9b7 933e d2f5 563e b578 4c3e

bias_hh_l0 f4 [60]
-0.0686679 0.341072 0.15519361 0.26419556 0.19323389 -0.14308253 0.32214114 0.28255382
0.2614545 0.1715061 -0.1093361 -0.14248517 0.110783584 0.2394754 -0.16765738 -0.16678862
0.14564486 0.26618198 0.1130088 0.24476308 0.10235075 -0.07837552 -0.10396456 0.022962451
0.19766542 0.07736065 -0.1582412 -0.15483032 0.25480065 0.20802984 -0.14983076 -0.22628267
0.14811099 -0.07665861 -0.07017266 -0.076079786 -0.10301326 -0.049019776 -0.24549273 -0.12433054
-0.21214558 0.07659916 0.14856668 -0.16403681 0.05980509 -0.13635676 -0.12386081 -0.13182555
-0.029266413 0.08267389 0.10709093 0.08823838 0.0032290947 -0.021444928 0.0070089605 -0.030107724
0.26557398 -0.121959604 -0.18308493 -0.18657689
00000000: c2a1 8cbd fda0 ae3e 13eb 1e3e a444 873e
00000010: 1bdf 453e 3a84 12be afef a43e e5aa 903e
00000020: 5ddd 853e 4c9f 2f3e 9beb dfbd a2e7 11be
00000030: 81e2 e23d 0a39 753e 60ae 2bbe a3ca 2abe
00000040: ed23 153e 0149 883e 2871 e73d 2ca3 7a3e
00000050: 459d d13d 5883 a0bd 5feb d4bd c01b bc3c
00000060: ce68 4a3e 436f 9e3d fb09 22be d78b 1ebe
00000070: 3b75 823e c605 553e 3c6d 19be a5b6 67be
00000080: 68aa 173e 30ff 9cbd afb6 8fbd b8cf 9bbd
00000090: 9ef8 d2bd f6c8 48bd 7262 7bbe 03a1 febd
000000a0: b13c 59be 05e0 9c3d dd21 183e 44f9 27be
000000b0: 2ff6 743d 1ba1 0bbe bdaa fdbd 47fd 06be
000000c0: 1ec0 efbc ee50 a93d 7d52 db3d 53b6 b43d
000000d0: 389f 533b 46ad afbc 6cab e53b 79a4 f6bc
000000e0: 50f9 873e f5c5 f9bd 9e7a 3bbe 030e 3fbe

weight_ih_l1 f4 [60, 15]
-0.2094559 -0.10781598 0.27207637 -0.3385287 0.0012307046 0.24387954 -0.13558196 -0.0709499
-0.055269428 -0.011326871 -0.09091155 -0.034198392 0.31062254 0.059135877 0.24461967 -0.016803201
-0.04675898 -0.03891194 0.16269854 0.12720072 0.22748524 -0.009923124 -0.07790029 -0.1957167
-0.052088335 0.16872229 0.32016537 -0.2016079 0.1365901 -0.059996333 -0.20966882 0.008117934
-0.005574139 0.108026884 0.17183627 -0.09718112 0.05563657 0.1302018 0.28335753 0.19306532
0.016402584 0.035344165 0.29505986 -0.11128517 0.06855991 0.082220465 0.15179364 0.0759523
-0.12611829 0.11721473 -0.086661115 -0.024644885 -0.0021550686 0.1767743 0.15761596 0.0054804552
0.119228855 -0.10833546 -0.16701998 -0.15232253 -0.13599278 0.03707108 -0.076865755 0.20112956
0.05750674 0.17548676 -0.18423554 -0.12599349 0.14705914 0.0077576153 0.22507463 0.2433013
-0.12318306 -0.26545405 -0.27804893 0.15966584 0.06125758 -0.16513921 -0.092091285 -0.1424178
0.10737507 -0.29032233 0.005394518 -0.06750455 -0.25132927 -0.0714587 -0.041588757 -0.10727599
-0.18016952 -0.19967148 -0.29916704 -0.13709864 0.12354611 -0.2706302 -0.14898814 -0.008336437
-0.29740462 -0.08729012 -0.15111674 0.15233606 -0.0516806 0.28919685 0.15076819 0.010738851
0.08131681 0.224114 0.15107378 -0.13849108 -0.25897405 0.14540848 -0.029906845 0.15310182
0.17264839 -0.0734888 -0.2455526 0.10202783 0.19686261 0.17972967 -0.26593003 -0.10344392
-0.12236878 0.030820355 0.09377834 -0.10122143 -0.14734024 0.16844551 0.0078109317 -0.26688913
-0.27839044 0.08389214 -0.08371002 -0.030645913 0.202135 -0.12310002 -0.1761183 -0.23830016
-0.27634305 -0.061442357 -0.07082146 -0.14197385 -0.23907681 0.045891576 -0.14867198 -0.22494167
-0.19138367 0.09796978 0.18936989 -0.17692174 -0.2312207 -0.21427396 -0.21122324 0.025419299
-0.12624559 0.055859257 0.18215004 -0.12907082 0.0129126655 -0.26252425 -0.11639087 0.041563872
0.12896939 0.14232884 0.08909689 0.038343105 -0.29881182 -0.16665184 -0.048299123 0.25556836
0.026713902 -0.042854533 -0.05359295 -0.21891996 0.2720722 0.22221124 -0.20454751 -1.729466e-06
-0.20083773 -0.20937057 -0.035154402 0.06738135 0.0901427 -0.22204675 0.12411597 0.08685853
0.19214115 -0.19455715 0.16555728 0.15476802 0.10612595 0.022426063 -0.19965291 -0.005874706
-0.034855623 -0.21156037 -0.16669565 -0.06582285 0.06546174 -0.14363544 -0.010683744 0.1753215
0.047421966 -0.20042868 -0.23330948 0.23057176 0.20154054 -0.12802167 0.03505616 -0.0460738
0.1299719 0.079631075 0.20022516 0.07743907 0.0407369 -0.24997517 -0.07726957 0.0041459827
0.038714856 0.00019238272 -0.2927585 0.1554521 0.059449207 0.16790251 -0.0010759772 0.05922389
-0.10881685 -0.041077375 -0.16249892 -0.12620899 -0.04525569 -0.16764832 -0.14564869 -0.28826833
-0.10569766 -0.14398642 -0.08327703 0.030202577 0.3160955 0.31367168 -0.26212126 -0.038110413
-0.20365351 0.24799722 -0.08247359 0.012101267 0.04501203 0.16843833 -0.25160596 -0.07087876
-0.09742751 0.029693104 0.14440723 0.00253018 -0.097645156 0.1753758 -0.31151155 0.17010476
00000000: 9c7b 56be a0ce dcbd 984d 8b3e a253 adbe
00000010: 984f a13a 8fbb 793e ffd5 0abe 2e4e 91bd
00000020: 3262 62bd 5794 39bc d62f babd 9d13 0cbd
00000030: eb09 9f3e 7638 723d 947d 7a3e dea6 89bc
00000040: 5886 3fbd 2062 1fbd 729a 263e e840 023e
00000050: e4f1 683e 9994 22bc 308a 9fbd f569 48be
00000060: 945a 55bd 89c5 2c3e b7ec a33e 4d72 4ebe
00000070: 46de 0b3e b7be 75bd 6cb3 56be 1501 053c
00000080: 44a7 b6bb 333d dd3d d9f5 2f3e e506 c7bd
00000090: 2ce3 633d 9f53 053e 3d14 913e eab2 453e
000000a0: b65e 863c 0bc5 103d 1612 973e 7be9 e3bd
000000b0: 2369 8c3d 3463 a83d cb6f 1b3e e18c 9b3d
000000c0: 2725 01be 470e f03d 627b b1bd 12e4 c9bc
000000d0: 0d3c 0dbb 5204 353e 1466 213e 6495 b33b
000000e0: 422e f43d fbde ddbd 4907 2bbe 70fa 1bbe
000000f0: b141 0bbe d8d7 173d cb6b 9dbd e8f4 4d3e
00000100: 308c 6b3d cdb2 333e 3ea8 3cbe 7004 01be
00000110: ac96 163e 9833 fe3b f779 663e fa23 793e
00000120: 6647 fcbd 98e9 87be 6e5c 8ebe 717f 233e
00000130: 3ae9 7a3d 411a 29be 5b9a bcbd f9d5 11be
00000140: 76e7 db3d 21a5 94be 7fc4 b03b d33f 8abd
00000150: 3bae 80be f058 92bd f958 2abd 84b3 dbbd
00000160: 5c7e 38be ae76 4cbe 6c2c 99be 9663 0cbe
00000170: be05 fd3d 0b90 8abe 5990 18be 8d95 08bc
00000180: 6b45 98be 2ac5 b2bd 59be 1abe fcfd 1b3e
00000190: 09af 53bd 9c11 943e fa62 1a3e 01f2 2f3c
000001a0: 6d89 a63d 247e 653e 16b3 1a3e 9bd0 0dbe
000001b0: 3f98 84be f6e5 143e 33ff f4bc b9c6 1c3e
000001c0: bdca 303e 4c81 96bd 2472 7bbe f8f3 d03d
000001d0: 5a96 493e 0e0b 383e fb27 88be 68da d3bd
000001e0: 7c9c fabd f87a fc3c dc0e c03d 2e4d cfbd
000001f0: 5ce0 16be fb7c 2c3e d8f2 ff3b b1a5 88be
00000200: 3189 8ebe a4cf ab3d 2970 abbd 230d fbbc
00000210: 7afc 4e3e dd1b fcbd 5b58 34be f504 74be
00000220: d67c 8dbe fbaa 7bbd d70a 91bd 9861 11be
00000230: 8dd0 74be cef8 3b3d 783d 18be 1c57 66be
00000240: 15fa 43be 61a4 c83d 2eea 413e f92a 35be
00000250: 1fc5 6cbe a26a 5bbe e84a 58be 223c d03c
00000260: 8646 01be adcc 643d 8a85 3a3e 242b 04be
00000270: a58f 533c 9469 86be 565e eebd e13e 2a3d
00000280: 8d10 043e a7be 113e 6e78 b63d a90d 1d3d
00000290: ddfd 98be c8a6 2abe 4dd5 45bd dbd9 823e
000002a0: 1dd7 da3c 3c88 2fbd 4884 5bbd 8e2c 60be
000002b0: 0c4d 8b3e 588b 633e e774 51be 0020 e8b5
000002c0: 68a8 4dbe 3d65 56be 10fe 0fbd 3cff 893d
000002d0: bc9c b83d 3960 63be 8430 fe3d e3e2 b13d
000002e0: a6c0 443e fd39 47be d987 293e 827b 1e3e
000002f0: 9058 d93d ddb6 b73c d071 4cbe 9b80 c0bb
00000300: c5c4 0ebd 48a3 58be 44b2 2abe 21ce 86bd
00000310: ce10 863d 2b15 13be df0a 2fbc 7b87 333e
00000320: 893d 423d 2d3d 4dbe aee8 6ebe 011b 6c3e
00000330: a560 4e3e 1d18 03be 0c97 0f3d e2b7 3cbd
00000340: 5b17 053e 9e15 a33d d307 4d3e 6098 9e3d
00000350: bcdb 263d 7ef9 7fbe 823f 9ebd 06db 873b
00000360: 7893 1e3d 58ba 4939 71e4 95be d62e 1f3e
00000370: 0381 733d a3ee 2b3e ce07 8dba c094 723d
00000380: 5edb debd c040 28bd 1e66 26be ee3c 01be
00000390: 085e 39bd 00ac 2bbe ee24 15be e897 93be
000003a0: 0478 d8bd 2d71 13be 268d aabd 656b f73c
000003b0: 45d7 a13e 9399 a03e c234 86be aa19 1cbd
000003c0: 8c8a 50be fcf2 7d3e eae7 a8bd 6544 463c
000003d0: 895e 383d 197b 2c3e 7fd2 80be e228 91bd
000003e0: 1388 c7bd f43e f33c 7ddf 133e 60d1 253b
000003f0: 2ffa c7bd b795 333e 717e 9fbe f12f 2e3e

weight_hh_l1 f4 [60, 15]
0.15528874 -0.06478088 0.21774904 0.23043884 0.16504703 -0.048906673 0.1996412 -0.066164754
-0.32154757 -0.113477685 -0.041922603 0.29985708 0.13519359 -0.20786776 0.18461597 -0.05267307
0.16278464 -0.10687709 -0.23852354 0.20000012 -0.0020554916 -0.10785835 0.17315416 0.13205284
-0.09538835 0.22305207 0.054675058 0.12798959 -0.16517422 -0.043286335 0.007509895 -0.073906936
-0.0417131 0.04364545 -0.07470419 -0.2610315 0.015096941 0.02167856 -0.15191156 0.05727242
-0.036614563 -0.061177436 0.18001981 0.27530932 -0.18279311 -0.22169028 -0.18065585 0.20584565
-0.257299 -0.14242817 0.03563584 -0.17042471 -0.06279621 -0.14784719 0.0049613547 -0.20892662
0.11079915 -0.14894922 0.062349215 0.020690877 -0.20421761 0.10854907 0.22716402 -0.15668942
0.14600988 -0.113699 0.14622636 0.08521262 0.03853778 0.12511334 0.12201006 0.20753773
-0.017386066 -0.06030541 -0.07881235 0.037219826 -0.017691284 0.093727306 0.21554124 0.007663473
-0.074488446 -0.15574439 0.22567928 -0.14492092 0.015179429 0.15555024 -0.1791073 -0.15275294
-0.10492462 0.27791646 0.12596147 0.083954886 -0.023585185 -0.002641239 -0.06816878 -0.0824379
0.10045301 -0.0138367545 -0.014738789 -0.19717482 0.029714884 0.2996607 0.3250102 -0.09286749
-0.01829438 -0.045130506 -0.27919868 -0.03998402 0.0158455 0.22657761 -0.06447904 -0.020609785
0.023005398 -0.26248285 0.019004133 0.18715528 0.03344089 -0.122386724 -0.26839915 -0.08390308
0.2566206 0.10123336 0.26741222 0.055628333 0.22084244 -0.21357451 -0.13013543 0.05097536
-0.1309153 -0.20398106 0.05072354 -0.09281097 -0.059914645 -0.13678741 0.27413285 0.06638852
0.016659465 0.09838693 0.16170572 0.20620658 -0.28868207 -0.17912771 0.21002977 0.10377092
0.27086157 0.018683799 0.1307379 0.14076988 -0.14366727 -0.118342765 -0.16505961 0.09197268
0.31824946 -0.11950962 0.23863977 -0.054769073 0.20580353 0.2788117 -0.076893464 0.18922321
0.3216751 -0.04954835 0.10526878 -0.31251416 0.22090286 0.26353213 0.1354595 -0.09466471
0.119211845 0.26543 -0.2597265 -0.105066925 0.091700725 -0.11008726 -0.13261111 0.21875003
-0.092753075 0.24153753 -0.048213147 -0.16972436 -0.05108 -0.109345004 -0.027449166 0.013491247
0.0071300827 0.10735979 0.0712691 0.23499362 0.014883231 0.1463395 0.18533868 0.06487502
0.22928514 -0.29558754 0.33914214 0.148752 0.013349074 -0.16392368 0.102052145 -0.22721444
0.010617846 -0.15933196 -0.14083327 -0.09597052 -0.16003677 0.17074007 -0.1320275 -0.047995728
0.09023974 -0.112421386 -0.044954605 -0.24534261 -0.13788499 0.01179609 0.21129505 0.2268125
-0.12754925 -0.06682967 0.062960625 -0.14850868 -0.011098984 0.20514387 0.119532794 0.10440939
0.08305458 0.07933035 -0.034281954 0.14877775 -0.08699284 0.23640285 -0.2066121 -0.015750537
0.2934127 0.10964278 -0.187237 -0.047643367 0.075485654 0.030688576 0.13559996 -0.07562429
-0.1605941 -0.25398672 0.2785655 0.014664765 0.039130796 0.14130853 0.1501697 0.2755659
0.1675332 0.026270244 0.19779998 -0.069940835 0.3216741 0.031379685 -0.0064906897 -0.13524571
00000000: 0304 1f3e d7ab 84bd 9bf9 5e3e 29f8 6b3e
00000010: 1702 293e 5d52 48bd be6e 4c3e 6381 87bd
00000020: e2a1 a4be fd66 e8bd 09b7 2bbd de86 993e
00000030: 3070 0a3e 49db 54be f80b 3d3e b8bf 57bd
00000040: 04b1 263e 60e2 dabd 843f 74be d5cc 4c3e
00000050: 6db5 06bb d7e4 dcbd 534f 313e dc38 073e
00000060: f85a c3bd c367 643e f4f2 5f3d b40f 033e
00000070: 6e23 29be 034d 31bd 9115 f63b 855c 97bd
00000080: 5bdb 2abd 92c5 323d 83fe 98bd eca5 85be
00000090: 2959 773c 3c97 b13c b48e 1bbe 7c96 6a3d
000000a0: 27f9 15bd 3195 7abd 1d57 383e 58f5 8c3e
000000b0: 1e2e 3bbe c702 63be d9fd 38be 34c9 523e
000000c0: b2bc 83be b1d8 11be e3f6 113d d183 2ebe
000000d0: 4d9b 80bd 4165 17be dc92 a23b dcf0 55be
000000e0: aaea e23d 2586 18be e461 7f3d ea7f a93c
000000f0: 6c1e 51be fa4e de3d af9d 683e 3173 20be
00000100: 9d83 153e 05db e8bd 5dbc 153e f483 ae3d
00000110: cbd9 1d3d b61d 003e 69e0 f93d c584 543e
00000120: 396d 8ebc ce02 77bd 5f68 a1bd d173 183d
00000130: 50ed 90bc 1af4 bf3d d8b6 5c3e df1d fb3b
00000140: 668d 98bd 757b 1fbe 7818 673e 2666 14be
00000150: 24b3 783c 9048 1f3e e767 37be 446b 1cbe
00000160: b8e2 d6bd 114b 8e3e 0bfc 003e 8af0 ab3d
00000170: b835 c1bc a318 2dbb 139c 8bbd 34d5 a8bd
00000180: 4fba cd3d 8eb3 62bc f67a 71bc 32e8 49be
00000190: a16c f33c 216d 993e bd67 a63e 5031 bebd
000001a0: 18de 95bc c4da 38bd 21f3 8ebe 49c6 23bd
000001b0: 6cce 813c f603 683e 960d 84bd dad5 a8bc
000001c0: d175 bc3c 2764 86be 8eae 9b3c a2a5 3f3e
000001d0: 51f9 083d e4a5 fabd 9d6b 89be 61d5 abbd
000001e0: c663 833e 7053 cf3d 41ea 883e 89da 633d
000001f0: 8524 623e 47b3 5abe 3942 05be 8acb 503d
00000200: a90e 06be 69e0 50be 7dc3 4f3d ae13 bebd
00000210: 0f69 75bd 0012 0cbe 245b 8c3e b4f6 873d
00000220: 6e79 883c 167f c93d 2f96 253e d127 533e
00000230: 23ce 93be 416d 37be 0b12 573e d985 d43d
00000240: 5eae 8a3e c40e 993c 28e0 053e fb25 103e
00000250: 831d 13be b15d f2bd 6305 29be 2c5c bc3d
00000260: 98f1 a23e 76c1 f4bd fc5d 743e 8955 60bd
00000270: 29be 523e 68c0 8e3e 527a 9dbd bbc3 413e
00000280: 99b2 a43e 36f3 4abd 2897 d73d db01 a0be
00000290: 5c34 623e afed 863e e5b5 0a3e 92df c1bd
000002a0: 5725 f43d 71e6 873e dffa 84be 542d d7bd
000002b0: 97cd bb3d 6e75 e1bd 35cb 07be 0200 603e
000002c0: 53f5 bdbd 9d55 773e 267b 45bd 39cc 2dbe
000002d0: 4339 51bd 46f0 dfbd 13dd e0bc 640a 5d3c
000002e0: 78a3 e93b 73df db3d 89f5 913d 2ba2 703e
000002f0: ccd8 733c 06da 153e 6cc9 3d3e 32dd 843d
00000300: b9c9 6a3e 4057 97be 0aa4 ad3e 7252 183e
00000310: 13b6 5a3c 9cdb 27be b700 d13d e7aa 68be
00000320: 79f6 2d3c eb27 23be 9936 10be 318c c4bd
00000330: aee0 23be 7cd6 2e3e 3832 07be 2b97 44bd
00000340: 9dcf b83d 2f3d e6bd 5222 38bd 183b 7bbe
00000350: b931 0dbe 6344 413c bb5d 583e 8941 683e
00000360: 459c 02be fedd 88bd 80f1 803d a912 18be
00000370: 83d8 35bc 3c11 523e 9ccd f43d 97d4 d53d
00000380: 8518 aa3d f377 a23d 3c6b 0cbd 3259 183e
00000390: 4d29 b2bd 9713 723e 1f92 53be 4507 81bc
000003a0: 303a 963e 658c e03d 0ebb 3fbe b125 43bd
000003b0: 3998 9a3d 9c66 fb3c b7da 0a3e e8e0 9abd
000003c0: c872 24be 8c0a 82be 23a0 8e3e 7c44 703c
000003d0: 9d47 203d 2fb3 103e 16c6 193e f916 8d3e
000003e0: d38d 2b3e b234 d73c 148c 4a3e 243d 8fbd
000003f0: 78b2 a43e fc87 003d daaf d4bb da7d 0abe

bias_ih_l1 f4 [60]
-0.18841821 0.13253628 -0.1429595 0.26745433 0.027345031 0.17814514 0.16170187 0.077347636
-0.14402586 -0.19197069 0.27774 -0.14876151 0.16778654 -0.0792341 0.050709914 -0.02091587
0.02218822 0.19571592 -0.058004368 -0.11228529 0.16630267 -0.012421558 -0.10767877 -0.10981106
0.19935709 0.21839072 0.007954607 -0.08396575 0.0062665963 0.18950185 -0.1431581 -0.23479201
0.10388349 0.00088956545 -0.099965945 0.0708296 0.11040349 -0.045021366 -0.037981696 0.16087277
0.2182679 0.12515363 -0.1981755 -0.21418975 0.18275316 0.24547875 -0.06266198 -0.17692167
-0.19879973 0.19967462 -0.04601413 -0.09966793 0.02452794 0.053634543 0.07541831 -0.013350322
0.090044804 0.16997123 0.111033306 -0.18615295
00000000: b4f0 40be 97b7 073e fa63 12be c6ef 883e
00000010: b002 e03c ae6b 363e 2d95 253e 7068 9e3d
00000020: 847b 13be f793 44be f033 8e3e f054 18be
00000030: 3cd0 2b3e 7d45 a2bd 33b5 4f3d c257 abbc
00000040: 12c4 b53c c169 483e fd95 6dbd d5f5 e5bd
00000050: 3f4b 2a3e ca83 4bbc b086 dcbd 9fe4 e0bd
00000060: 4424 4c3e d1a1 5f3e 0a54 023c 3cf6 abbd
00000070: 0558 cd3b c60c 423e 0998 12be 516d 70be
00000080: dec0 d43d ba31 693a f2ba ccbd 1c0f 913d
00000090: 3a1b e23d 5368 38bd b292 1bbd d5bb 243e
000000a0: 9f81 5f3e 4628 003e 85ee 4abe 8f54 5bbe
000000b0: a523 3b3e c85e 7b3e ed54 80bd f42a 35be
000000c0: 2892 4bbe 8177 4c3e 5079 3cbd b31e ccbd
000000d0: d2ee c83c e5af 5b3d ea74 9a3d 4fbb 5abc
000000e0: 6969 b83d f00c 2e3e 6e65 e33d e19e 3ebe

bias_hh_l1 f4 [60]
0.1910471 -0.080046825 0.21664764 -0.21912923 -0.12765436 0.33720925 -0.060366873 0.18426672
0.014804866 0.12940815 -0.031365298 -0.185791 0.09954707 0.20770936 -0.20872925 0.04746619
0.12466476 0.08444056 0.19022706 0.002902452 -0.0172446 -0.061388507 -0.044991657 0.019324256
-0.10050671 -0.16761841 0.20180373 -0.002246974 0.13140184 0.065026335 0.26397818 -0.20821838
0.07461737 -0.13591821 0.12006945 -0.11638603 0.10929238 0.2362943 -0.30615222 -0.039564535
0.092418194 0.2425495 0.23684095 0.26959875 0.14327544 0.11626275 0.26793003 -0.25700662
-0.035713322 0.044583403 0.10861181 0.30240723 0.1703162 0.294997 -0.18445806 -0.04266699
-0.14356093 0.35190642 -0.0046250094 0.015570528
00000000: daa1 433e 97ef a3bd e1d8 5d3e 6a63 60be
00000010: d3b7 02be b1a6 ac3e 4143 77bd 6ab0 3c3e
00000020: 1c90 723c 9283 043e e678 00bd ff3f 3ebe
00000030: 56df cb3d c3b1 543e 1fbd 55be e86b 423d
00000040: 3d50 ff3d 2cef ac3d e2ca 423e 1037 3e3b
00000050: 8c44 8dbc 8472 7bbd 2c49 38bd e74d 9e3c
00000060: 76d6 cdbd 29a4 2bbe a3a5 4e3e f841 13bb
00000070: 348e 063e 872c 853d 2628 873e 3337 55be
00000080: fed0 983d 252e 0bbe f9e6 f53d cd5b eebd
00000090: afd4 df3d 22f7 713e fcbf 9cbe 6c0e 22bd
000000a0: c045 bd3d e55e 783e 6f86 723e d908 8a3e
000000b0: ccb6 123e 2a1b ee3d 202e 893e 5f96 83be
000000c0: 2248 12bd 169d 363d de6f de3d 1fd5 9a3e
000000d0: 5f67 2e3e d909 973e 93e2 3cbe 95c3 2ebd
000000e0: a301 13be 142d b43e 648d 97bb 871b 7f3c

weight f4 [30, 15]
-0.40461367 0.38885182 0.1320254 0.03714699 -0.105553076 0.17524233 0.24765538 -0.3737115
0.42048186 0.038850036 -0.37713438 -0.218863 -0.34378168 0.025349954 -0.12113265 -0.09619347
-0.14620301 -0.0022985039 0.08866358 0.19003162 -0.12464477 -0.085854016 -0.12002782 0.015365826
-0.19766425 -0.22816047 -0.19919206 -0.008934635 -0.13903417 0.015365431 0.24483326 0.11392914
-0.20287971 0.2168621 -0.22241753 0.17875834 -0.15334384 -0.07415124 -0.10904144 0.18561831
-0.08047627 -0.027399985 -0.17812373 0.06099413 0.13406359 0.1356703 0.2197793 -0.17170353
0.2737537 -0.08984918 -0.1884858 0.1088463 0.053518277 -0.16815469 -0.1269904 -0.007183536
-0.07409931 -0.18278529 0.13540494 0.055309977 0.18987875 -0.0695032 -0.18964958 -0.0027069168
0.29459044 -0.104604006 0.21509202 -0.11005259 -0.25205907 0.11037173 -0.12564795 -0.18837453
-0.24873058 -0.09344518 -0.18601854 -0.10444787 -0.026651992 -0.024831764 -0.0130337225 0.11928825
-0.118057884 -0.044050783 0.17924653 0.021322621 0.010573423 0.094377235 -0.08651703 0.14074028
0.20009388 -0.06384771 -0.034771014 0.21223846 -0.12175554 -0.08660766 0.059207935 -0.11848729
-0.07720205 -0.13589978 -0.04164675 0.08712322 -0.09303019 -0.002536678 -0.02886389 0.13736288
0.052105766 -0.004260983 -0.018796917 -0.2029638 -0.19142629 0.1323829 0.0226665 -0.038512412
-0.21985857 -0.1341549 -0.186065 -0.25407138 -0.010992847 0.10063045 -0.19512202 0.06881833
0.23355725 -0.07189815 0.14690916 -0.14589679 -0.009866127 -0.19708583 0.19716313 -0.23522335
0.010554347 0.055977628 -0.2448675 0.2101853 -0.11257205 0.07219197 -0.24104358 0.25141877
-0.031879928 0.009014322 -0.09893472 0.23799947 0.2603659 -0.012703204 -0.12836805 -0.24818704
0.21647887 0.22094883 0.117393635 -0.17027147 -0.0800102 0.07173618 0.07015758 0.23125084
0.26648596 -0.08374515 -0.16995643 -0.10790772 0.17819618 -0.13301818 -0.09832247 0.120867886
0.0046455334 0.115640655 0.19861853 -0.06498724 0.043303486 -0.12485723 -0.18724051 -0.16599002
-0.08550604 -0.20036346 0.23438779 -0.1280089 -0.08874259 -0.07621067 0.16219464 0.027499475
0.13668153 0.20361352 -0.0616481 -0.074581444 -0.12653078 0.040889617 -0.16127288 -0.00022137119
-0.044117615 0.100398526 0.18853442 -0.09612138 0.25214577 -0.16363722 0.25544313 0.051072918
0.123284765 -0.10593991 0.053412348 0.21936499 -0.06519679 0.112792134 -0.003934775 0.20862198
-0.1976841 0.24161789 0.1331596 -0.023139304 0.2625895 0.1817578 0.08683372 -0.066326275
0.087618776 -0.22257966 0.04713877 0.18765222 -0.07832159 0.22611725 0.031546026 0.019795407
0.059728555 -0.012218532 -0.08731154 -0.18719578 -0.10614443 -0.13035733 0.053017 -0.05299229
0.22473575 0.30000535 -0.07747955 -0.09757303 -0.079440914 0.26131222 -0.0059133247 -0.15254264
-0.05402486 0.17297028 -0.11724647 -0.17619438 -0.16487226 0.07615559 -0.25215894 0.21584527
0.053896036 -0.16473968 -0.0731988 0.23059869 -0.04964738 -0.19908693 0.10322901 0.045316264
0.20640841 -0.07398328 0.13581751 -0.19229034 -0.107429616 -0.12725432 -0.114927694 0.12616053
00000000: 8629 cfbe 9617 c73e ab31 073e 7127 183d
00000010: 362c d8bd ba72 333e 5f99 7d3e 1d57 bfbe
00000020: 6649 d73e 3721 1f3d c217 c1be 9f1d 60be
00000030: 2704 b0be b5aa cf3c 6514 f8bd 1501 c5bd
00000040: 3eb6 15be 7fa2 16bb 4095 b53d a697 423e
00000050: c245 ffbd 3bd4 afbd 25d1 f5bd f2c0 7b3c
00000060: 7f68 4abe e6a2 69be 01f9 4bbe 9362 12bc
00000070: f95e 0ebe 4abf 7b3c 92b5 7a3e ae53 e93d
00000080: b3bf 4fbe 1911 5e3e 6cc1 63be 6d0c 373e
00000090: 2b06 1dbe 9bdc 97bd 1e51 dfbd ba12 3e3e
000000a0: bed0 a4bd ef75 e0bc 1166 36be fbd4 793d
000000b0: f747 093e 28ed 0a3e d30d 613e 0dd3 2fbe
000000c0: 7229 8c3e d902 b8bd 6c02 41be cfea de3d
000000d0: fb35 5b3d be30 2cbe c509 02be de63 ebbb
000000e0: 61c1 97bd 112c 3bbe 98a7 0a3e b78c 623d
000000f0: 936f 423e b257 8ebd 8033 42be 8766 31bb
00000100: 8fd4 963e a03a d6bd 1541 5c3e 4163 e1bd
00000110: e30d 81be 930a e23d dba9 00be 41e5 40be
00000120: 3bb3 7ebe 3060 bfbd a57b 3ebe c4e8 d5bd
00000130: 4755 dabc fc6b cbbc 658b 55bc 664d f43d
00000140: 55c8 f1bd 986e 34bd 678c 373e c7ac ae3c
00000150: 263c 2d3c da48 c13d d72f b1bd 381e 103e
00000160: 69e5 4c3e 97c2 82bd 0d6c 0ebd 0a55 593e
00000170: f85a f9bd 5b5f b1bd 0584 723d 77a9 f2bd
00000180: 1c1c 9ebd 5029 0bbe c895 2abd a96d b23d
00000190: 9d86 bebd 653e 26bb f773 ecbc dba8 0c3e
000001a0: db6c 553d b79f 8bbb fefb 99bc bed5 4fbe
000001b0: 4105 44be 628f 073e 19af b93c 31bf 1dbd
000001c0: 9b22 61be e75f 09be d387 3ebe a515 82be
000001d0: 581b 34bc 5617 ce3d 11ce 47be a0f0 8c3d
000001e0: a229 6f3e 563f 93bd 5b6f 163e f865 15be
000001f0: 89a5 21bc ded0 49be 22e5 493e 64de 70be
00000200: 24ec 2c3c cc48 653d 8cbe 7abe d13a 573e
00000210: 2d8c e6bd 62d9 933d 21d4 76be f6b9 803e
00000220: 8794 02bd cfb0 133c 499e cabd 22b6 733e
00000230: ae4e 853e 1921 50bc ea72 03be be24 7ebe
00000240: a3ac 5d3e 6940 623e 136c f03d a55b 2ebe
00000250: 63dc a3bd 6bea 923d c7ae 8f3d 05cd 6c3e
00000260: d970 883e 9482 abbd 0f09 2ebe b9fe dcbd
00000270: 0f79 363e eb35 08be 4b5d c9bd 9589 f73d
00000280: 8f39 983b 02d5 ec3d a862 4b3e 0818 85bd
00000290: ff5e 313d 26b5 ffbd fabb 3fbe 4af9 29be
000002a0: ca1d afbd 142c 4dbe 5a03 703e c414 03be
000002b0: adbe b5bd 5714 9cbd 5a16 263e 9446 e13c
000002c0: 3ef6 0b3e 1080 503e b882 7cbd 28be 98bd
000002d0: 4991 01be df7b 273d b824 25be e01f 68b9
000002e0: acb4 34bd be9d cd3d 2b0f 413e 49db c4bd
000002f0: 4019 813e 8490 27be 71c9 823e d631 513d
00000300: b97c fc3d 06f7 d8bd e8c6 5a3d 37a1 603e
00000310: e585 85bd 90ff e63d 49ef 80bb 00a1 553e
00000320: b36d 4abe ae6a 773e fd5a 083e a38e bdbc
00000330: 2272 863e b71e 3a3e e1d5 b13d 12d6 87bd
00000340: 7971 b33d eceb 63be 9514 413d e727 403e
00000350: 1267 a0bd 488b 673e 6836 013d fa29 a23c
00000360: eea5 743d 3d30 48bc 65d0 b2bd 40b0 3fbe
00000370: 4062 d9bd 647c 05be 5b28 593d 720e 59bd
00000380: 2121 663e 4d9a 993e 99ad 9ebd 5ed4 c7bd
00000390: ebb1 a2bd b7ca 853e 90c4 c1bb 2334 1cbe
000003a0: 2c49 5dbd 1f1f 313e eb1e f0bd 4d6c 34be
000003b0: 46d4 28be 76f7 9b3d fa1a 81be 8b06 5d3e
000003c0: 17c2 5c3d 85b1 28be 41e9 95bd 1022 6c3e
000003d0: 0d5b 4bbd 72dd 4bbe bb69 d33d 8c9d 393d
000003e0: ba5c 533e 8c84 97bd bf13 0b3e c2e7 44be
000003f0: 0f04 dcbd f54e 02be 365f ebbd 3a30 013e

bias f4 [30]
-0.3546972 0.07851088 0.1985416 0.18644637 0.097529136 -0.028464762 0.19611965 -0.026297458
0.19348192 -0.19633803 0.0671945 -0.0015959765 0.19010729 -0.121937 0.11198077 -0.09481015
0.11995723 0.031741913 0.19826043 -0.14569181 0.079320155 0.0029208376 0.06670756 -0.05451202
0.018593378 0.08816239 -0.036837026 0.18121308 -0.17892036 0.19856784
00000000: df9a b5be 50ca a03d 7d4e 4b3e cceb 3e3e
00000010: 5bbd c73d ef2e e9bc 97d3 483e c46d d7bc
00000020: 2020 463e d60c 49be 459d 893d 1630 d1ba
00000030: 7cab 423e 1bba f9bd 2d56 e53d d32b c2bd
00000040: 23ac f53d cf03 023d c804 4b3e 3c30 15be
00000050: 9b72 a23d 866b 3f3b f99d 883d ff47 5fbd
00000060: 2451 983c 7c8e b43d 6ce2 16bd ec8f 393e
00000070: e636 37be 5e55 4b3e
