models/ThirtyClassifier.pt (torch, 60455 bytes, 7 tensors)

weight f4 [5, 10]
00000000: 0000 0000 0000 0000 0000 0000 0000 0000
00000010: 0000 0000 0000 0000 0000 0000 0000 0000
00000020: 0000 0000 0000 0000 0f98 0b3f f08b 103f
00000030: 5438 b8be 3329 16bf 78b3 493f 1dfe 663e
00000040: 1357 b43f e63b 56bf 4023 e5be 6a13 e13f
00000050: 2d59 af3f ae47 cd3f ec2f 0c40 204a b33f
00000060: 0a0a ba3f aeb3 373f e79d f9be 320b 1dbf
00000070: fec8 c13f 471e cabf ed84 463e c379 863f
00000080: bcd5 fe3f 89f4 f63e ffe2 80bf b2cf 0bbf
00000090: a9b7 d93f c896 f1be dca4 243f cf43 a83f
000000a0: fc06 513f 0244 8c3f 268c a43f 42a5 4bbf
000000b0: 9995 f83e 98a4 333f 6ae5 443e 29a6 cd3f
000000c0: d7d5 f13f 08e8 763f
0.0 0.0 0.0 0.0 0.0 0.0 0.0 0.0
0.0 0.0 0.545289 0.5646353 -0.35980475 -0.58656615 0.7878947 0.22557874
1.4089073 -0.8368515 -0.44753456 1.758405 1.3699089 1.60375 2.190425 1.4006996
1.4534314 0.71758544 -0.48753282 -0.6134521 1.5139463 -1.579049 0.19386645 1.0505909
1.9908977 0.4823344 -1.0069274 -0.5461379 1.7009174 -0.4718535 0.64314055 1.3145694
0.8165128 1.0958254 1.285527 -0.7954904 0.48551634 0.70173025 0.1922814 1.6066333
1.8893384 0.964478

weight_ih_l0 f4 [200, 10]
00000000: 8268 ae3d c30e bbbd 0da0 653d cb8c f03d
00000010: 1d20 2e3d 22ab aebd 60fb 9abd 8586 393e
00000020: 9cb4 103e 2ad0 0ebd 83b2 9b3c 8a07 733d
00000030: 30e1 ff3d 34d2 c63d b493 fb3d c72a 9dbd
00000040: 2a5d 62bd 9b95 103d e0df acbd fe39 7cbc
00000050: f55e 173d aa4c 7c3b d402 9c3d c7da 033e
00000060: 5f8c 8abc 09ca 013e 2f83 013e 94c1 d9bb
00000070: f0b4 75bc 9473 e2bc fabe 6abb b8fe 9d3b
00000080: 0869 c43c 9734 3a3e 8333 053e 4359 3ebd
00000090: 600a 94bc 1d9c 79bd dbf1 ed3d 5639 24be
000000a0: c564 4f3d 92ac 4fba 7228 cb3d 3a60 ecbd
000000b0: fd7b 7dbd 0646 9b3d a491 243e cd0d 243d
000000c0: ad39 5c3d 2050 e33d f8e7 85bd 37a9 89bd
000000d0: f292 0b3e 74c8 143b 0370 9e3d 13d2 143e
000000e0: 1eff 0d3e d445 b5bd b17d 5ebd cb1b a23d
000000f0: 3420 1cbc 3c5d dc3d 54c9 053e 33f4 be3d
00000100: dc25 1b3c 269f 223e 0aaf 273e 64b6 50bd
00000110: ab8a 053d 3cf7 063e 45af 16bd 0f0c 1b3e
00000120: 1a8c 4f3d ec99 ef3d 5d0b 513d bac6 d83d
00000130: 1d5c c8bd f338 c13d 1e9f 1b3e 33d4 1b3e
00000140: 4122 323e 88ea 083a cd0c 37bd 3161 83bd
00000150: 0d74 673d d26e c53d 3bb8 0a3e f13f ed3d
00000160: 7f87 893d 49ca 8e3d 2371 dabd 9020 8d3d
00000170: 43a0 cebd 1d75 98bd 95fa 893c bfed 013e
00000180: faa0 453d a41e 63bd 7cb1 0bbe 8aea d83d
00000190: f169 de3d 5e03 e13d 2fdd e7bd a626 dd3d
000001a0: 7d10 aa3c 4381 b2bc 69f2 35bd 0f05 f2bd
000001b0: 5134 a83d 9283 073e 67a1 1f3e 1f13 103e
000001c0: 4d72 af3c 9e67 c0bd 571f 873d fa62 b7bd
000001d0: f670 233e 436d 48bd fc81 ca3d ad72 813d
000001e0: ed43 ba3d b08c a83d 5cfb d83d 2089 4f3a
000001f0: e9f0 db3d d867 3a3e 6af3 493e 80e2 f5bc
00000200: cc0d 443d e01c 7b3d 9b05 1a3d ec7c 1b3e
00000210: 70ad 88bc c2b0 bc3d 2ad2 123c 7c12 523e
00000220: 45d0 f0bd 2393 f63c 367f 103e af9f 8d3c
00000230: f12d 443c e235 6fbd 6b9f d8bd 535e 23be
00000240: 505c 8cbc 29c9 9cbd 41c6 dc3d 842f 723d
00000250: 3dd6 5e3d 4035 113e 7227 48bc fe7d 413e
00000260: b949 d63c 603b 04bd 5351 c23d 5f2a 3dba
00000270: 19f8 783d 7077 b13d 69bf df3d 7a69 613d
00000280: ea36 123e 166d 353e 255e 3d3c 9d69 01bd
00000290: 3279 32bd 4b16 243e de58 123d 81e5 4fbd
000002a0: 956e ea3d 35a8 823d 405f f7bd 1b16 963d
000002b0: 187e aebd 2625 e1bd c619 013e 5441 2f3e
000002c0: a5cb db3d 38ff 753c 02c3 993d 2edd f33c
000002d0: 42c9 f539 adb2 d03d e831 a23d f8e7 0a3d
000002e0: 9ccd 1f3e 8a1d 1e3d 0cc7 183e 7ba4 3f3d
000002f0: 517d 4cbc 3b03 2c3d b734 193e cfb8 d33d
00000300: bf07 5a3e 35ba a0bb 6461 a0bb c004 cd3c
00000310: 82c7 f5ba d4aa 1e3e 6307 823d ee22 0c3e
00000320: 66bc 883d 56ab 2a3e 3a38 733c 6810 a73d
00000330: aae6 ee3d 6bdb afbc 2493 093e 7374 62bd
00000340: 138d 06bc 377f f1bd e4af 7dbd ffa8 40bd
00000350: 4888 92bc a568 04bd 786d 4fbd f21b 773d
00000360: acd0 90bd 96eb 903d 3b22 063e 6cd4 043d
00000370: 1345 a83d 63e9 463e bf17 463e b20c 0cbd
00000380: da70 063e 9715 b1bd 28f1 1c3d 814c abba
00000390: c5b9 d23d b0c4 fcbd cdd8 d1bd a931 893d
000003a0: bf7f 363e 0834 083e c235 36bd b90f f0bd
000003b0: cd53 253e 34b7 4b3d e6e3 7c3d 4d5a 133a
000003c0: 9a1a b03b 890b 1c3e 502a f1bd 5cdf 0c3b
000003d0: ecfd 86bd e0c8 463c 4a17 fcbd 17fd 463e
000003e0: b8c9 9f3d f042 94bd 85d7 bb3d 1ec8 223d
000003f0: 23e5 f7bc f2ae cfbc 1f83 993d 78c3 e6bc
0.08516027 -0.09133675 0.05606084 0.11745604 0.042511094 -0.08528735 -0.07567477 0.18117721
0.14131397 -0.03486649 0.01900602 0.05933336 0.12494123 0.09708062 0.122840315 -0.07674175
-0.05526463 0.035298925 -0.08441138 -0.015394686 0.036955792 0.0038497844 0.07617727 0.12876426
-0.016912637 0.12674727 0.12647699 -0.0066453908 -0.014996752 -0.027643003 -0.0035819397 0.0048216246
0.023975864 0.18184124 0.13007931 -0.046471845 -0.018071353 -0.060939897 0.11618396 -0.16037497
0.05063321 -0.00079221383 0.09919824 -0.11541791 -0.061885823 0.07581715 0.16071182 0.040052224
0.05376594 0.11099267 -0.06538385 -0.06721728 0.13630274 0.0022702487 0.07736208 0.14533262
0.1386685 -0.08851209 -0.054319087 0.07915457 -0.009529162 0.107599705 0.13065082 0.09323921
0.009469476 0.15881023 0.16375366 -0.05095519 0.032602947 0.1318025 -0.036788244 0.15141319
0.05067072 0.1169928 0.051036227 0.10584779 -0.09783194 0.0943469 0.15197417 0.15217666
0.1739588 0.0005222936 -0.044689942 -0.06415022 0.05650716 0.09640278 0.13546841 0.115844615
0.06715297 0.069721766 -0.1066611 0.068909764 -0.10089161 -0.074442126 0.01684312 0.12688349
0.048249222 -0.055449143 -0.13641924 0.1059161 0.108600505 0.1098697 -0.11321484 0.10798387
0.020759815 -0.021790152 -0.044420633 -0.11817371 0.082131036 0.13233784 0.15588914 0.14069794
0.021416808 -0.093947634 0.065977745 -0.08954425 0.1596106 -0.048932325 0.09888074 0.06320701
0.09094987 0.08229959 0.10594818 0.00079168566 0.10739309 0.18203676 0.19721761 -0.03001523
0.04786472 0.061306834 0.037603002 0.15184373 -0.016684264 0.092134014 0.00896124 0.20514864
-0.11758474 0.030099457 0.14111027 0.017288057 0.011973844 -0.058400996 -0.105772816 -0.1595395
-0.017133862 -0.07655556 0.107800014 0.059127346 0.054403532 0.1418047 -0.012216436 0.18895718
0.0261582 -0.032283187 0.094881676 -0.00072160916 0.06078348 0.08665359 0.109251805 0.05503223
0.1427876 0.17717394 0.01155809 -0.03159486 -0.043572612 0.16024129 0.03572928 -0.05075598
0.11446873 0.06379739 -0.12078714 0.07328435 -0.08520144 -0.109934136 0.12607488 0.17114764
0.107322015 0.015014462 0.07507898 0.029768553 0.0004687999 0.1019033 0.07919675 0.03391263
0.15605778 0.03860239 0.1491968 0.04678772 -0.01248105 0.04199527 0.14961515 0.10337984
0.21292017 -0.00490501 -0.0048944224 0.025026679 -0.0018751475 0.15494853 0.06349065 0.136852
0.06676559 0.16666922 0.014844948 0.08157426 0.116650894 -0.021466931 0.13435036 -0.055286836
-0.008212346 -0.117918424 -0.06193532 -0.047036167 -0.01788725 -0.03232636 -0.050641507 0.060329385
-0.07071051 0.070761845 0.13098995 0.032429144 0.082163 0.19424967 0.19344996 -0.034191795
0.13128987 -0.08646696 0.038315922 -0.0013069065 0.10289339 -0.12342203 -0.102464296 0.06698925
0.17822169 0.13301098 -0.04448486 -0.11721749 0.16145249 0.049735263 0.06174078 0.0005621061
0.005374265 0.15238775 -0.117756486 0.0021495437 -0.065914005 0.012132853 -0.123091295 0.19432484
0.07802147 -0.0723933 0.091719665 0.039741628 -0.030260628 -0.025351975 0.074957125 -0.028169379

weight_hh_l0 f4 [200, 50]
00000000: b560 0ebe dad5 3dbe 4563 dbba 00bf e6bb
00000010: fea4 a43b 6209 533c af56 fd3d 3020 103e
00000020: 4f08 1cbd 24cd dc3c a341 a43d 3a52 30bc
00000030: 95e8 173e 7dcc b33c 35da 1fbd e1f8 983c
00000040: b921 44bd 3b31 cfbd 235c 753d 627a 67bd
00000050: 7546 52be 3f14 d53c 7d68 11be 7e8d 20bd
00000060: 0004 35bd f0be 6bbd bef6 26be 6dca 333d
00000070: 4bfc 99bd aeb7 8b3a 8a4b 023d 64b6 c6bd
00000080: 446b c53d fee7 2a3c f3a0 9fbd d807 943d
00000090: e3e1 f33d 7af7 b23c 9ef1 293e 9df5 243e
000000a0: 12d3 673d 467c 90bc b6d4 1b3d 9521 c43d
000000b0: 95c9 e03b f29b 8bbd 9b03 2abe 330e e9bd
000000c0: 7de5 afbd 4d61 91bd fe31 c5bd ac2e 2b3d
000000d0: f607 b5bc d644 133e 7466 afbd c016 69bd
000000e0: 067d 4a3e fba4 efbb 6a56 243e 845b d9bd
000000f0: 09be d63d 3727 e73d 7647 5f3d e123 c03d
00000100: 434d 933c 1589 91bd 57d0 1abd 9af3 c0bd
00000110: 3fc1 0f3d fc0e d4bd 5e33 bfbc 70d7 f5bd
00000120: ca83 acbc d712 e23d df4a 433e 9ed3 883d
00000130: 8b6d 37be 7421 11bd 9e50 5c3c 385d aebc
00000140: 2183 49bd 100e 4ebd e81d 81bd 56f0 69bd
00000150: 719c 02be 9d35 30bd 9840 0b3e f8bc 37bc
00000160: ce69 9839 d5ce 18bd 800c a63d 4d58 9abc
00000170: 409c b2bc d0b8 753d 2431 ae3c e386 15be
00000180: 05ad 00be 8186 0ebe 0b6d 913d dad5 e03c
00000190: 901c 5a3c 946a 51bb cdc3 303d 244f bd3c
000001a0: 73f5 ecbb 3bb3 b73b 5419 813e 1563 b0bc
000001b0: 761e 98bc c0ca ecbd 2493 e33c 3510 98bb
000001c0: 178a 9d3c 332f debc bea0 5ebe 8062 853d
000001d0: 14ba 0bbd 3538 e0bc ee65 453e 8d4b 09be
000001e0: df1d 1fbe 1d5e 3fbe 5711 aabc 5556 733d
000001f0: 5e01 8a3d 236e 8d3d 8ebe d6bd 6020 bd3d
00000200: 5f87 353e dea8 4a3e c2b5 42be 1988 74be
00000210: e524 b8bb 884e 693e e6dd c2bc c452 1fbe
00000220: a503 523e 11c1 d7bc 7876 03bc d76c f0bc
00000230: 5eb0 17be b17c 003d 7405 c93d ff08 823e
00000240: f93c 873d 0c3c 07be ce2c 60bd bdb0 73bc
00000250: 66af 49be a5b0 343e 7cfb d43c a642 f4bd
00000260: 2118 883c 17a4 263e 1c3c 31bd d19b b2bb
00000270: 4b8d d53b a8a7 7e3d fc19 c03d 9610 83bc
00000280: 88aa 4a3e 1eb0 8e3d 7bcd fdbc c97b a33d
00000290: 506f 45bd b0f9 c5bd c0a9 37be 9240 c3bd
000002a0: d61a 703d 48d9 1ebe 4b19 1dbe 3ec4 68be
000002b0: a504 053e ed7c d43b 91f0 c23d 7e05 393e
000002c0: 8c98 e5bd d028 4abd 9356 183e 6fd3 903d
000002d0: 288b 0bbe b52b 0cbd 128b 3cbe 9531 afbc
000002e0: 3056 393c db4d ebbc 3048 293e 4beb 3abd
000002f0: 5448 4f3d 23c7 623e 3afa f93c 2ad5 eb3c
00000300: e6d7 cc3d 2ef4 b13d ec5d 7c3c c0ef 27be
00000310: bf76 223d 94a3 87bd 6e7d 34bc dc8f b33d
00000320: 619f 1abe 5b19 0cbc e391 22bd b3e4 993d
00000330: 9d41 dc3d 2f47 3fbd 6949 233e 0222 e1bc
00000340: f01f dd3d 3ad1 e0bc 52e9 423e da08 5abd
00000350: fa81 44bd 4298 4d3e a676 8d3d 0a06 30bd
00000360: 69f4 07be 4040 d1bd 01ad 623d ccb4 b4bd
00000370: 2fa8 6d3d 3141 aa3c 08bd 3f3c 0c1c babc
00000380: 4d69 e83d 4438 bd3b c615 e13c 0768 eabd
00000390: 8038 02bd bfb5 e6bc 740f 5e3d c05d 5d3d
000003a0: 3384 2abe 1c33 473e 3ed0 353d 36a3 adbc
000003b0: 01d0 123e 33f5 1ebe 5fab c43d 0471 e0bc
000003c0: 2fa2 b4bd 3167 913d 3c91 4fbd 953f a53d
000003d0: 798f 333d be38 a4bd 8a65 8f3d fc4e dabd
000003e0: 4f01 78bd 00e6 373e 84d3 c6bb 2db1 00be
000003f0: 5893 f43c e267 1e3d b4a2 2d3e e7b3 433e
-0.13904078 -0.18538609 -0.0016737959 -0.007041812 0.0050245514 0.012880655 0.12370049 0.14074779
-0.03809386 0.026953287 0.08020332 -0.010761792 0.14834817 0.021948094 -0.039026458 0.018673362
-0.047883723 -0.10116812 0.05990232 -0.056513198 -0.2053469 0.02601063 -0.14200015 -0.039197437
-0.044193268 -0.05755514 -0.16305062 0.04389422 -0.07518824 0.0010659599 0.03181032 -0.09702757
0.096396 0.010431288 -0.077943705 0.072280586 0.11908319 0.021846522 0.16596076 0.16109319
0.056597777 -0.017637383 0.038044654 0.09576718 0.006859968 -0.068168536 -0.16602938 -0.113796614
-0.08588693 -0.07098637 -0.09628676 0.041792557 -0.022098523 0.14381728 -0.08564463 -0.05690646
0.19774255 -0.0073133684 0.1604859 -0.10613158 0.10485465 0.112867765 0.05451151 0.09381843
0.017981177 -0.071062244 -0.037796345 -0.09421463 0.035096403 -0.103544205 -0.023339923 -0.12003982
-0.021058936 0.1103875 0.1907153 0.06680988 -0.17912881 -0.035432294 0.013446955 -0.021284685
-0.04919732 -0.05030638 -0.06304532 -0.057113968 -0.1275499 -0.04301988 0.1359886 -0.011214487
0.0002907053 -0.037306625 0.08107853 -0.018840933 -0.021803021 0.059990704 0.021263666 -0.14602236
-0.12566002 -0.13918497 0.071008764 0.027445722 0.013312474 -0.0031954395 0.04315548 0.023109026
-0.0072314083 0.0056060827 0.25214636 -0.021531621 -0.018569212 -0.11562109 0.027780123 -0.004640604
0.019230885 -0.027122116 -0.21741006 0.06512928 -0.034113005 -0.027370552 0.19277164 -0.13407727
-0.15538739 -0.18688245 -0.020760221 0.059408505 0.06738542 0.069057725 -0.10485564 0.09234691
0.17727421 0.1979098 -0.19014648 -0.23880042 -0.0056196325 0.22783864 -0.02378745 -0.15558916
0.20509203 -0.026337178 -0.008023851 -0.029348774 -0.14813372 0.031368915 0.09815493 0.25397488
0.066034265 -0.132065 -0.05473023 -0.014873681 -0.19695815 0.1764551 0.025998823 -0.11926775
0.016613068 0.16273533 -0.043270215 -0.0054507037 0.0065170876 0.06217161 0.09379956 -0.01599912
0.19791615 0.069671854 -0.03098177 0.079825945 -0.04820186 -0.09666765 -0.17935848 -0.095338
0.058619343 -0.15512574 -0.1534168 -0.2273111 0.12990053 0.006484619 0.09518541 0.18068501
-0.11210737 -0.049355328 0.14876775 0.07071578 -0.13627303 -0.03422137 -0.18412426 -0.021385947
0.011312053 -0.028723648 0.16531444 -0.04563455 0.050606087 0.22146277 0.030514825 0.028788168
0.10002117 0.08689152 0.015403252 -0.16400051 0.039664026 -0.06622997 -0.011016233 0.087676734
-0.1509986 -0.008550967 -0.03968991 0.07514324 0.10754702 -0.046698745 0.15945973 -0.027482037
0.10797107 -0.027443517 0.19034317 -0.053231098 -0.047975518 0.20077613 0.06907396 -0.04297451
-0.13276829 -0.10217333 0.05534077 -0.08823547 0.05802172 0.020783039 0.011702783 -0.022718452
0.113482095 0.0057745297 0.027476203 -0.11445623 -0.031792164 -0.028162835 0.054213956 0.054044485
-0.16651992 0.1945309 0.04438805 -0.02119599 0.1433716 -0.15523224 0.09602999 -0.02739764
-0.088199966 0.0709976 -0.050675616 0.08068768 0.043837998 -0.08018635 0.07001789 -0.10659596
-0.060548123 0.17958832 -0.006067695 -0.12567587 0.029855415 0.03867329 0.16956598 0.19111596

bias_ih_l0 f4 [200]
00000000: 9b67 163e 8bb4 96bb a6a0 6abb 3256 173d
00000010: 7b36 73bd 1afe e93d 311b 123e 0c94 403b
00000020: 1c17 04bd bece a53c baf7 a9bd e5fd 943d
00000030: 89d3 29bc 0ea7 a7ba 90ea e73d a726 e33d
00000040: ad25 293d e715 1cbd 8f49 da3d 1905 163e
00000050: a291 7c3d f97d a73d d3fe c73c 279d 603d
00000060: a6e0 a53d 7ff2 f13d 1923 17bc 1374 063c
00000070: a4f5 623e 31bc 93bd 6a5a 023e dee3 373e
00000080: 6c3c fd3d 5465 b7bd 4a83 14bb 9ca9 983d
00000090: c40b 28bd d43d 8d3d 2b5c 373e b254 60bd
000000a0: 259d 653e 4a82 a33d b185 d33d 5beb 1c3d
000000b0: e3d8 9f3d b94f 53bd 68d0 8bbd 3906 99bd
000000c0: a7b6 c93d 006b 063d 5f00 0bbd 5dcc 4cbd
000000d0: d5a1 0d3c e7c7 01bd cb9e 34bd 3307 03be
000000e0: ca31 bf3d b2fe acb8 51fb ba3c cb7a 083e
000000f0: 6e45 9f3d 33f7 923d 4a2c 4e3e 0acb f53d
00000100: 667e c8bd 8e34 123e 0eaa 363d fb79 50bd
00000110: a72c 65bd 099e 8c3d 9107 e33d 05ed d13d
00000120: 1ea3 043e fa32 143e 69b0 973b 057f 80bd
00000130: bbd4 a3bc ce72 acbd 3e03 ba3d 8bbc 273c
00000140: fbe2 ca3b 29ac c63b 2c95 31bc def4 e63d
00000150: f38b f53c 122b c63c 50bf 1c3e 59d9 99bd
00000160: 50e9 8b3d 52ed 4a3d 94af df3d 9190 88bd
00000170: d12d 9ebc d7aa 5a3d 7941 803d 0ae1 043e
00000180: 9fad 0a3e 0333 eb3c afcd 103e 449c a13d
00000190: 2d0a ddbd f324 13bd 7a9f db3d c117 96bd
000001a0: a7d6 4abc 2075 123e b4ab 3d3c 1528 c23d
000001b0: 812a 023e 3a86 0ebe ce89 113e b33b 783d
000001c0: a37f f83d 7b43 0d3e 75fe c73d fe65 0ebe
000001d0: 99c6 4cbd 358c c0bd 1b12 303c e83b 2fbc
000001e0: 55f4 033e a487 28be 8fb2 b73d 31c4 b0bb
000001f0: 3555 823d c95c e33d 9cb9 16bd 5844 b4bd
00000200: d2b5 273e 383e 183c 0f27 08be 1f0f 8dbd
00000210: 17b6 d0bd 71e9 983b ca43 38bd b93c 13be
00000220: f10b 143d 2758 cebc 7976 c63d 6626 833d
00000230: a57b ccba d9f6 04be adf9 19bd 5389 ee3d
00000240: f1a9 853d 5fb8 11be 3305 91bd 9673 86bd
00000250: bd40 7c3d dd41 363d dbf0 3d3e fde1 c63a
00000260: 2aa0 9c3d 07d8 ec3d ef0f 053e b546 753c
00000270: be4d a83c 5b37 2c3e 840b abbd 8ba7 323d
00000280: 8807 64bd ac45 7f3c 098b 19bd 6b32 bfbc
00000290: d0be bcbc 0d59 2d3d e012 973c 4c44 033e
000002a0: 43bd 0b3e ce08 473e 9c8f ff3d 348c 393c
000002b0: f828 dabc f5e4 3e3e ebd8 babd fa25 913d
000002c0: 2c06 bcbc 6df6 ec3c 232a 773e ec45 1fbd
000002d0: 6463 1e3e 75bb 2b3e a894 2c3b c553 aabd
000002e0: 8e1b 6fbc ae08 823d 1443 553e 2937 be3c
000002f0: dc58 9b3c 0c14 33bd 282f 503c dadb 033e
00000300: e820 4b3e 76d1 80bd 2b48 e1bd 0c85 0b3e
00000310: b8fe ee3b a27e 2a3e 107c 4a3d 521c 243e
0.1468796 -0.004599159 -0.003580132 0.036947437 -0.05937813 0.11425419 0.14268185 0.0029385118
-0.0322486 0.020240184 -0.08299203 0.07274989 -0.010365375 -0.0012790875 0.11324036 0.11091357
0.041295696 -0.038106825 0.106585614 0.14650382 0.061662324 0.08178324 0.024413502 0.054837372
0.08099489 0.118138306 -0.0092246765 0.008206385 0.22164017 -0.07213629 0.12729803 0.17958018
0.1236504 -0.08954874 -0.0022661262 0.074542254 -0.041026846 0.068965584 0.17906253 -0.05476827
0.22423227 0.07983835 0.10328234 0.03831039 0.0780504 -0.0515897 -0.0682686 -0.0747189
0.09849291 0.032816887 -0.0339359 -0.049999584 0.008644541 -0.031684782 -0.04409675 -0.12795715
0.093356684 -8.24904e-05 0.022824915 0.13328092 0.077769145 0.07176056 0.20134082 0.12001617
-0.097897336 0.1427786 0.04459577 -0.05089758 -0.055950787 0.0686608 0.110854276 0.10250286
0.1295285 0.14472571 0.004629184 -0.06274227 -0.019998899 -0.08420335 0.0908265 0.010237823
0.006191609 0.0060630036 -0.010838788 0.112771735 0.02997396 0.02419046 0.15307355 -0.07512159
0.0683161 0.049542733 0.10922161 -0.06668199 -0.019308956 0.05338558 0.06262488 0.1297647
0.13542794 0.028710848 0.14140962 0.078911334 -0.107929565 -0.03592391 0.10723777 -0.073287494
-0.012380279 0.14302492 0.011576582 0.09480301 0.12711526 -0.13918391 0.14212725 0.06060381
0.1213372 0.13795273 0.09765331 -0.13906094 -0.049994085 -0.09401742 0.010746504 -0.010695435
0.12886174 -0.16457993 0.08969604 -0.0053944816 0.06363908 0.11101682 -0.036798105 -0.08802098
0.16377953 0.009292178 -0.1329615 -0.0688765 -0.10190981 0.0046665003 -0.044986524 -0.14378633
0.0361442 -0.025188519 0.096905656 0.06403808 -0.0015600814 -0.1298479 -0.037591625 0.11647286
0.065265544 -0.14230488 -0.0708107 -0.06565015 0.061585177 0.044496406 0.1854891 0.0015173551
0.07647736 0.115646414 0.1299436 0.014970471 0.020544883 0.16817991 -0.08351806 0.043616813
-0.055671245 0.015580576 -0.03748611 -0.02333947 -0.023040205 0.042321254 0.018441617 0.12819022
0.13646416 0.19436952 0.12478563 0.011324931 -0.026630864 0.18642028 -0.09123405 0.070873216
-0.022952162 0.028926099 0.24137168 -0.038885042 0.15467602 0.16770728 0.0026333723 -0.08316759
-0.014593972 0.06349312 0.2082637 0.023219662 0.01896327 -0.04372029 0.012706555 0.12876835
0.19836771 -0.062899515 -0.11000093 0.13624972 0.0072935484 0.16649869 0.04943472 0.16026428

bias_hh_l0 f4 [200]
00000000: 498f a63c 1ee9 be3d f739 303e 44b4 e63d
00000010: 5b6b 24bd 9c37 81bd e4f3 e73d 59b4 b73d
00000020: 5474 bcbc 52dd e33d 9930 163e 626b f73d
00000030: daf3 333d 7bc8 473e 6b17 0ebd 10e3 ad3c
00000040: 91ee 073e 9fb2 d33d b33b a3bd 5677 953c
00000050: d9cb 3bbb 918c 8cbd 976a 363e cdaa 3fbd
00000060: 644b 2b3e f62b 1e3d 939f dcbc c35e 903c
00000070: 4d2f a73d fd72 193e 6199 c5bd fa4b 0c3e
00000080: 21b8 a13d 4ff8 c3bb 816c 913d 3868 b33d
00000090: 6b17 183e 9e64 033e 8a08 2dbd 452a 3b3e
000000a0: 4a2e 283e 2cab 853d b7fd c03d db84 86bd
000000b0: 818f c3bd f030 803d 872d 6ebc 06e4 26bd
000000c0: 5dc3 013e 9463 f83d c78f eabd 1254 38bd
000000d0: 6e67 ad3d 759e 873d 2dac d4bd 9f72 66bb
000000e0: 1218 363e 99ff 3c3e 3498 063e ec2d ad3d
000000f0: 93ac d93c dc4d 113e 9391 ec3d 9faf d63d
00000100: 7f74 d5bb 0b15 293e 27df 5a3c 9093 563d
00000110: 1ee3 f63a 4000 65bc 8668 f83d 8a8a a7bd
00000120: aba7 553d e1f5 8c3d 0004 f63d 0188 a43d
00000130: ddf8 223e a52f d63d aff0 a4bd f8df 06be
00000140: 9548 4dbd 7a26 d83d 05bd b2bd dcfc b93d
00000150: 0caf 0d3e 2037 123e ec3f 373d 918a 95bd
00000160: 95df bcbd 2595 673c b8f9 08bd e443 de3d
00000170: c0da a73c 6b8a d4bd d437 ab3d 6099 88bd
00000180: e788 a83d 4192 ad3c f719 d03c 3607 60bd
00000190: 5c13 81bd 83c9 0fbe 0c16 8bbc 2733 063d
000001a0: aefc 9cbd 3cb7 eabd 435e 813d b837 283d
000001b0: 147d d73d e6c5 763d 944f f3bd 3331 f5bc
000001c0: 842a 13bd 5abb 9a3d 031b 27be d098 23bd
000001d0: 3f3d 543d fc78 a7bd eb89 b9bd 1e12 e93d
000001e0: a1e3 9cbd a0a2 c03d 4f52 043e b707 a63d
000001f0: 8000 36bc 7631 b83d 0a86 58bd f74b 923d
00000200: dd80 063d 3c35 8b3b 66aa 82bd b2b7 35bd
00000210: 3309 adbd 0db9 6c3d dedf d5bd 0ba7 8b3c
00000220: 794f 11bd 02d4 cebd 42e4 1e3d 5415 4bbd
00000230: 23b7 f13d 8ef3 b13d b51d 99bd 0eed ea3d
00000240: 12bf 8f3d a79f f1bd 4682 c5bd 2d4b 29be
00000250: cc2a 09bb ce37 ff3d 4221 a13d 3c1a 2d3e
00000260: 5052 32bd 66a1 0d3c c59a cabd 0275 253e
00000270: 50bd b93b 64a9 983d 2752 c23c 6a8b 6f3d
00000280: 0db8 fb3d 90e3 4b3e 3ad6 4c3d ceae b43d
00000290: 4eba 71bd 4127 bf3d 9b20 74bd ff1f cc3d
000002a0: 51c1 bd3d 5cad 80bc 711d 243d f427 053b
000002b0: 89e4 143e 1d74 b03d 2540 a73d cf2c 003e
000002c0: fb03 76bc 6c89 5d3c fa26 ed3c ce88 e83d
000002d0: 7e14 6e3d 4660 fbbc 35c0 7abd 6470 abbc
000002e0: 858c 55bd 2379 263c 61df f23d c2fe 343e
000002f0: 2f99 553e 4fce 273e 3258 913e d6f0 123d
00000300: 52b5 88bd c028 333e 8822 a2bc 6705 223e
00000310: d402 073e f848 243e c096 a8bd 6ad5 ef3c
0.020331996 0.09321807 0.17209612 0.11264852 -0.040141445 -0.06309435 0.11325815 0.089699455
-0.023004688 0.11126198 0.14666976 0.120810285 0.043933727 0.19510071 -0.034690302 0.021226436
0.132746 0.10336804 -0.07970371 0.01824538 -0.0028655438 -0.068627484 0.17814098 -0.046793748
0.16727978 0.038616143 -0.02693156 0.01762331 0.08163319 0.14985271 -0.09648395 0.13700858
0.07896448 -0.0059805284 0.071007736 0.087601125 0.14852683 0.12831351 -0.04224447 0.18277843
0.16423908 0.06526789 0.09423392 -0.06568309 -0.095488556 0.06259334 -0.014537222 -0.040744804
0.12672181 0.12128368 -0.114532046 -0.04500205 0.08466993 0.0662202 -0.103844024 -0.0035163534
0.1778262 0.18456878 0.13143998 0.084560245 0.026571548 0.14189857 0.115512036 0.10482716
-0.0065141316 0.16511934 0.013358868 0.05238682 0.0018835997 -0.01397711 0.12129311 -0.08180721
0.052161854 0.06882835 0.12012482 0.08033753 0.15915246 0.10458306 -0.08053719 -0.13171375
-0.050118048 0.10554214 -0.08727459 0.09081432 0.13836306 0.14278841 0.044738695 -0.0730182
-0.092223324 0.01413468 -0.033441275 0.10852793 0.02049005 -0.10377964 0.08360258 -0.06669879
0.08229237 0.021187903 0.025403006 -0.054694377 -0.06302521 -0.14041714 -0.016978286 0.032763626
-0.07665382 -0.114607304 0.06316807 0.041068763 0.10521904 0.060247324 -0.11880413 -0.029930687
-0.035929218 0.07555266 -0.16318898 -0.039940655 0.05181622 -0.08177373 -0.09059509 0.11380409
-0.07660604 0.09406018 0.12922023 0.0810694 -0.011108518 0.08993809 -0.052862205 0.071433954
0.032837737 0.0042482894 -0.06380157 -0.04436464 -0.0844902 0.057793666 -0.1044309 0.017047426
-0.03547618 -0.10099031 0.038791902 -0.049580887 0.11802509 0.086890325 -0.07476369 0.11470996
0.07018866 -0.117980294 -0.09643988 -0.16532584 -0.002093005 0.12461816 0.078676715 0.16904539
-0.04353553 0.008644437 -0.09892801 0.16157916 0.0056683198 0.07454184 0.023720814 0.058482565
0.12290964 0.19911027 0.05000899 0.08822404 -0.059015565 0.09333659 -0.059601407 0.0996704
0.09265388 -0.015707664 0.04006714 0.0020318003 0.14540304 0.08615897 0.081665315 0.12517093
-0.015015597 0.013521533 0.02894925 0.113542184 0.05812501 -0.030685555 -0.06121846 -0.020927615
-0.052135963 0.010160717 0.118590124 0.17675307 0.20859216 0.16387294 0.283876 0.03587421
-0.06675209 0.17496014 -0.019791856 0.15822373 0.13184673 0.1604346 -0.08231878 0.029276568

weight f4 [30, 50]
00000000: ff45 4e3e 7844 6d3e f02c 71bc c131 45be
00000010: b9a4 21be a1de e1bd 3719 68be 3c2e 1fbe
00000020: 3473 49be ba00 653e 60b7 8dbe 44ba 1bbd
00000030: c757 57bd 8fa7 be3d 1d79 443e 51c9 893c
00000040: 161a 2d3e 32ba d1bc 838c f6bd f09b ee3b
00000050: 2ce9 d83d cbf7 803e 74f4 49bd 39fc 70be
00000060: a192 3dbe 61b0 0bbe 102f 093e 312a da3c
00000070: 82f6 3dbe 4b1f 8d3d 5775 0a3e 0cd0 903d
00000080: 7a92 3f3e 3be4 5abe 793e e13d 291e ab3b
00000090: 603d 6cbe ebc2 49bd e076 49be fb9c e4bd
000000a0: 479b acbd eb81 533e 24ab 49be 2e0f 4dbe
000000b0: 8732 9cbd b66e 393e c382 dbbb df10 553e
000000c0: eb46 2d3e 0046 49be bc12 5ebd b930 0e3e
000000d0: 9cf3 7a3d 14d1 843d cce4 aebd a97b 173e
000000e0: 5cfb c3bc 615e 793c 012f 193d 0981 903d
000000f0: 36af c73d 2545 c5bd 08bc 96bd 6cab d33d
00000100: 67a4 19bd c149 063d c115 f6bd 18a7 c1bd
00000110: 025e 21bd c62a 71bd ce40 cabc 57d3 debd
00000120: c864 cc3d e690 4cbd 27a9 7e3d 0ccc a03d
00000130: afa7 cebd 872a ea3d dfeb 033e 34f8 573b
00000140: 7c12 d03c abe7 29be 84b3 483d 9076 c43d
00000150: fa10 ff3d 6033 bf3d 92e6 77bd a40f 45bd
00000160: 7757 d5bb 7e6c 18bd fcfe 4d3e d02a 363d
00000170: d7c1 b3bd cb20 01be 0478 0b3d b604 08be
00000180: 0ffd 643b 389e a9bd e941 173e da9c 1e3c
00000190: aac1 16bd 7c80 01be aa6c 2abd 5b51 c6bd
000001a0: 27dd 4c3d bff1 113d 0790 ec3d 0a0b c23d
000001b0: 7fac 053e 3cff 08bb 2795 11bd 1ddf 10be
000001c0: 8137 4c3d 2f3f 423d 006e 0e3e 2f03 de3d
000001d0: 4493 a4ba b99e b83d 5794 fdbd 7d08 133d
000001e0: 5d2d 093e 8d76 a33d 2c7e c7bc 9d94 373d
000001f0: aa60 fe3d de86 cf3c f596 41bd a8e5 a23d
00000200: 5685 603d a992 e23d 8821 0c3e a193 1c3d
00000210: 864b 613a 00ab 993d 3672 62bd fd56 d1bd
00000220: fe27 013e 1b2d 32be 8069 1dbc c021 31bd
00000230: 00a4 5bbd 0164 a83d 390c ff3c 698a bebd
00000240: 5a3f 78bc 1fc4 e9bd f1bb d73c a224 e0bd
00000250: a064 1c3d 0990 943d f0f8 e2bd ce92 09be
00000260: 033e 23bd f431 483d bb4d 8ebd e270 e3bd
00000270: a3bd 413d e100 f9bc 7436 cebc 1e36 1abe
00000280: 4799 4f3d 1239 74bd 53b2 c03b 7818 323e
00000290: 0b02 e2bc 5cf5 30be 7f17 bd3d 2c9f f7bd
000002a0: 21a2 293d e35f 5b3d 3cec d33d 1499 9fbd
000002b0: 84d5 06be 4513 75bd b025 14bb 3d2b 33bd
000002c0: fb3a 42be e924 613e a87c cb3c adf9 9e3d
000002d0: 2002 e43d f731 43bd 493d 01bd 9339 073e
000002e0: 6dc7 8b3d dc35 41bd edf6 d33d 8094 b9bc
000002f0: d779 e7bd 3ee6 ebbd d20b 7cbb b837 f9bd
00000300: 2052 343d 52da adbd c8db 6f3d 6c05 d53d
00000310: 66c6 f8bd c8b9 9fbd 6c28 663d da90 c6bd
00000320: f6e4 b43b 1dbb 243c d5c5 2ebe 3d44 493d
00000330: c314 e73d 9abe 933b 1367 d93c cbd0 fe3d
00000340: e45d 27bd 0e65 cc3d ba76 4b3d 9030 0e3c
00000350: 0e97 37be 54a8 1f3e 8928 90bd 9556 16be
00000360: 0ba0 553e bd1a f9bd 492f 7fbd d530 cd3d
00000370: e185 f13d b641 d6bd c4e4 ab3d 4ea0 6dbd
00000380: 4268 103e f757 013d 3101 02be dc23 4e3e
00000390: a861 d83d 4b75 4dbd fb28 233e ebf3 0dbd
000003a0: 6a15 3dbc febe 633d 9505 663d a461 8dbd
000003b0: 0ad6 afbd f81e 633d 4f21 863d 595c bebc
000003c0: e074 29bd 5ae7 efbc dee0 833c 98e4 ab3d
000003d0: e34c ca3d a1bb e7bd a280 d13d 66d3 21bd
000003e0: eca5 ca3d 60a0 ae3d 1c97 c1bd 012b d7bd
000003f0: 158a 2d3d b922 053e 6899 e9bd 7684 87bc
0.20143889 0.2317065 -0.014720187 -0.19257261 -0.15785493 -0.11028791 -0.22665869 -0.15544981
-0.19672853 0.22363558 -0.27678967 -0.038019434 -0.052573945 0.09309303 0.19186826 0.016819628
0.16904482 -0.02560148 -0.12038519 0.007281773 0.10591349 0.2518905 -0.049305394 -0.23533715
-0.18512966 -0.13641502 0.13396859 0.026631447 -0.18551067 0.06890734 0.13521324 0.07070932
0.1870822 -0.21376126 0.10998244 0.005222101 -0.23070288 -0.049258154 -0.19674253 -0.11162754
-0.08428054 0.20655029 -0.19694191 -0.20025322 -0.07626825 0.18108639 -0.0066989376 0.20807217
0.16921584 -0.19655609 -0.054217085 0.13885774 0.06126748 0.06485191 -0.08539733 0.14793266
-0.023923568 0.015220256 0.037398342 0.070558615 0.09750216 -0.09632329 -0.07360083 0.103354305
-0.037510302 0.03278518 -0.12015868 -0.09455699 -0.039396293 -0.058878683 -0.024689104 -0.108801536
0.0998016 -0.049942873 0.062173035 0.07851419 -0.10090577 0.11433893 0.12882946 0.0032954337
0.025399439 -0.1659228 0.048999324 0.095929265 0.1245441 0.09335971 -0.060522623 -0.04811062
-0.0065106708 -0.03721284 0.201168 0.044474423 -0.087772064 -0.12610166 0.034050003 -0.13283047
0.0034940874 -0.08282131 0.14771236 0.009680951 -0.036805786 -0.12646669 -0.041607536 -0.09683486
0.050015595 0.035630938 0.115509085 0.09474762 0.13054083 -0.0020904085 -0.035542633 -0.14147611
0.04985762 0.047423538 0.13909149 0.10840451 -0.0012556096 0.09014649 -0.12381809 0.035896767
0.13396211 0.07981596 -0.024352156 0.044819463 0.12420781 0.025332864 -0.047263104 0.0795396
0.05481466 0.110631295 0.13684666 0.038226727 0.0008594323 0.07503319 -0.0552847 -0.1022167
0.12612912 -0.17400019 -0.009607673 -0.043245077 -0.0536232 0.08222199 0.031133758 -0.093037434
-0.015151823 -0.1141436 0.026334735 -0.10944487 0.0381819 0.07254035 -0.11082637 -0.13434908
-0.03985406 0.048875764 -0.0694842 -0.11105515 0.047299992 -0.030395927 -0.02517245 -0.15059707
0.050683286 -0.05962474 0.005880633 0.17392147 -0.027588865 -0.17281097 0.09232997 -0.120909065
0.041414384 0.05355824 0.103477925 -0.07792869 -0.13167387 -0.05983283 -0.0022605471 -0.043742407
-0.18967812 0.21986736 0.024839714 0.077624656 0.11133218 -0.047655072 -0.031552587 0.13205557
0.06825147 -0.047170505 0.10349832 -0.022653818 -0.11302536 -0.115185246 -0.0038459194 -0.12168831
0.044023633 -0.08488907 0.05855921 0.10401425 -0.121472165 -0.07799107 0.056190893 -0.09695597
0.0055204583 0.010054377 -0.17067654 0.049137343 0.11283257 0.0045088055 0.026538407 0.12442168
-0.040861025 0.09980212 0.049673773 0.00867857 -0.17928717 0.15591556 -0.070389815 -0.14681466
0.20861833 -0.12163303 -0.062300954 0.100190796 0.117931135 -0.10461752 0.08393243 -0.058014207
0.14102271 0.03157803 -0.12695767 0.20130867 0.105655015 -0.050160687 0.15933602 -0.034656446
-0.01154075 0.055602066 0.056157667 -0.06903389 -0.085857466 0.055449456 0.06549322 -0.023237394
-0.041371226 -0.029285122 0.016098436 0.0839321 0.09877946 -0.11315084 0.10229613 -0.039508246
0.09894928 0.08526683 -0.0945265 -0.10506249 0.042368013 0.13001527 -0.11406213 -0.016542654

bias f4 [30]
00000000: 62d7 9bbd 56ef a03d 1b39 1bbe f7e9 cfbd
00000010: 4ae8 91bd f1e2 9f3d 6452 cabc 933b 0d3e
00000020: fe3b 5ebd cab4 b8bd 0320 b33d b486 03bd
00000030: 819b d83d a1c7 7d3d 3afa 5c3d 39b3 b03b
00000040: 75ed d23d f0b4 bf3d beef 81bd c933 80bd
00000050: 2878 15bd c678 f83d 556f 363d 7377 043d
00000060: 2fce 183d c561 59bd 1432 bbbd c8fc b2bd
00000070: c6c7 663c 9d3f bf3d
-0.076094404 0.0785815 -0.15158503 -0.10152047 -0.07124384 0.078069575 -0.02469749 0.13792257
-0.05425643 -0.09018858 0.0874634 -0.032110885 0.10576535 0.06195796 0.053949572 0.0053924588
0.102991976 0.09360683 -0.06344555 -0.06259877 -0.036491543 0.12132411 0.04453977 0.03234048
0.037306007 -0.053071756 -0.09140411 -0.087396204 0.014085716 0.09338305
