models/ThirtyClassifier.pt (torch, 60455 bytes, 7 tensors)

weight f4 [5, 10]
0.0 0.0 0.0 0.0 0.0 0.0 0.0 0.0
0.0 0.0 -0.15127349 -0.35417303 2.6246033 -0.25325492 -0.01165093 0.8269989
0.7896496 0.10199219 1.7063943 -0.31204084 0.7125568 0.11662954 -1.5013021 -0.45763582
1.4479264 -0.09867809 0.029863806 0.17673014 1.9673948 1.2525359 1.3467491 -1.3561846
-1.0674207 1.6446236 1.0647353 -2.243522 0.57086515 -0.7717524 0.76159024 -0.4713694
1.9289461 -0.3333867 0.086736515 -0.6152243 -0.4362822 1.1621643 -0.3238491 -1.2922423
1.731992 0.75275385
00000000: 0000 0000 0000 0000 0000 0000 0000 0000
00000010: 0000 0000 0000 0000 0000 0000 0000 0000
00000020: 0000 0000 0000 0000 70e7 1abe 2b56 b5be
00000030: 80f9 2740 a1aa 81be 8be3 3ebc 33b6 533f
00000040: 7a26 4a3f 48e1 d03d 216b da3f d1c3 9fbe
00000050: 1f6a 363f 78db ee3d ab2a c0bf 3e4f eabe
00000060: a755 b93f bd17 cabd f1a4 f43c bff8 343e
00000070: 98d3 fb3f 1953 a03f 4662 ac3f 7597 adbf
00000080: 3ea1 88bf 0783 d23f 3f49 883f dd95 0fc0
00000090: 3824 123f 9191 45bf 94f7 423f 5457 f1be
000000a0: b5e7 f63f a9b1 aabe eaa2 b13d 577f 1dbf
000000b0: 6160 dfbe cdc1 943f 8dcf a5be 3268 a5bf
000000c0: eab1 dd3f 7ab4 403f

weight_ih_l0 f4 [200, 10]
0.13258585 -0.20582297 0.02570077 0.014411377 -0.017645989 -0.11943432 0.121370584 -0.20374116
0.13673887 -0.13185501 -0.015020636 0.003397081 0.08856324 0.14408375 0.07258042 -0.11147915
0.15286735 -0.1363814 0.19475776 0.14011998 0.048997257 -0.056173004 0.052934956 -0.113752514
0.16722766 -0.02460476 0.19440001 0.02204819 0.100591145 0.02781077 0.26222697 -0.09049371
-0.0056508877 0.06568951 0.025449453 -0.23527227 0.29585415 -0.2089388 0.15526377 0.14990565
0.19641502 -0.018311918 -0.0012986569 0.07369174 0.17241073 -0.20173225 0.089306705 -0.11271745
0.097745925 -0.050862264 0.21046591 -0.16060989 0.052940793 0.14208573 0.13443963 -0.08862779
0.16968551 0.011834654 0.08268424 -0.05769962 -0.048822515 -0.13338514 -0.031524003 0.099713765
0.029639577 0.017530259 0.08456222 0.034331657 0.0058738217 0.008151448 0.23462626 -0.19043103
0.10805435 0.056603916 -0.031154394 -0.105064146 0.15456428 0.010951521 0.18773921 -0.071886525
0.23995337 -0.08098327 0.025308447 0.046760514 0.08831913 -0.065618016 0.0177376 -0.1298023
0.2507556 0.115122624 0.19588779 -0.14378181 0.16151264 -0.0062739 0.07375896 0.04910103
0.21420579 -0.22876404 0.041371275 -0.20117618 0.024827868 -0.11486338 0.10425776 -0.07377913
0.17509918 -0.05278933 0.110358566 0.023943586 0.19431145 0.14602733 -0.08571406 -0.076446354
-0.12871073 0.15110245 0.12813927 -0.090654396 0.03211877 0.12971532 -0.021326499 -0.03846806
0.0677887 -0.1329445 -0.027622215 0.06627003 0.06268899 0.13562155 -0.024297308 -0.04629743
0.14502156 0.03323902 0.18094638 0.038523085 -0.04761348 -0.06367644 0.09461379 0.104423806
0.09773962 -0.2062047 0.0081965495 0.09010906 0.08127969 -0.14310662 -0.08802941 0.035233993
-0.026789606 0.10927629 0.13643779 -0.10643596 0.09697838 0.10927231 0.047473174 -0.18611437
-0.04165465 0.024350252 0.09167225 0.040541966 0.1166746 -0.091759674 0.13094953 -0.044928156
-0.002112073 -0.25076628 -0.1479433 0.1198264 0.087900296 -0.0680959 0.073308684 -0.18742065
0.15901981 -0.07185837 0.07971384 -0.11991681 0.14295532 -0.0144010205 -0.093535654 0.07086821
0.01829766 -0.09119965 0.1135903 0.0010027584 0.21499413 0.09109719 -0.123735875 0.047869977
0.009257806 -0.14348207 0.09252489 -0.004594255 -0.022706024 0.16918346 0.13131575 0.007042344
0.034275793 -0.0654162 0.010058759 0.021547066 0.13195272 0.0069963806 -0.09442312 -0.05999442
0.08215497 0.026218528 0.050114334 -0.115338944 -0.058888603 -0.050522413 -0.028262563 -0.110031165
0.17676559 0.040062524 0.14818421 -0.13323988 0.17676094 0.13020892 0.09792408 -0.08179557
0.005791818 0.111066364 0.024996456 -0.11953164 0.08030436 -0.11835626 -0.015726944 0.1725634
-0.0070345653 0.11086413 0.07221426 -0.13264719 0.059481546 -0.11097395 -0.04545805 0.05300797
0.09083933 0.111240804 -0.051044855 0.114186056 0.1543239 -0.07802728 0.18584707 0.10818003
0.03938603 0.09458863 0.05362506 -0.1470698 0.059889205 0.107624285 0.017432753 0.15917286
0.10542514 0.0068586785 0.0680234 -0.11922152 0.09815364 -0.029090183 0.15133953 0.01844878
00000000: 96c4 073e 42c3 52be 6c8a d23c b21d 6c3c
00000010: 528e 90bc fb99 f4bd 2491 f83d 86a1 50be
00000020: 4605 0c3e 0005 07be 1d19 76bc 90a1 5e3b
00000030: a560 b53d b18a 133e 0ba5 943d 2e4f e4bd
00000040: 4289 1c3e 91a7 0bbe 946e 473e 9d7b 0f3e
00000050: 59b1 483d aa15 66bd 53d2 583d 14f7 e8bd
00000060: ba3d 2b3e ec8f c9bc cc10 473e 689e b43c
00000070: bb02 ce3d 69d3 e33c 9d42 863e c454 b9bd
00000080: 152b b9bb 3988 863d 5f7b d03c 37eb 70be
00000090: 327a 973e 0ef4 55be 77fd 1e3e de80 193e
000000a0: 0521 493e e002 96bc b237 aaba b2eb 963d
000000b0: 708c 303e e692 4ebe 6fe6 b63d 68d8 e6bd
000000c0: 042f c83d f354 50bd 6084 573e eb76 24be
000000d0: 72d8 583d ec7e 113e 8baa 093e 7d82 b5bd
000000e0: 0ac2 2d3e 23e6 413c 5b56 a93d 7056 6cbd
000000f0: 1efa 47bd 1d96 08be 501f 01bd bb36 cc3d
00000100: b3ce f23c 9e9b 8f3c f52e ad3d 5a9f 0c3d
00000110: 3079 c03b a78d 053c de41 703e 5a00 43be
00000120: 994b dd3d 82d9 673d 8037 ffbc df2b d7bd
00000130: 1946 1e3e 026e 333c b53e 403e 3e39 93bd
00000140: 56b6 753e 8fda a5bd a953 cf3c f487 3f3d
00000150: a9e0 b43d bd62 86bd 714e 913c e5ea 04be
00000160: 0a63 803e 69c5 eb3d cf96 483e 8a3b 13be
00000170: 9263 253e 4a95 cdbb f00e 973d 291e 493d
00000180: c358 5b3e 1f41 6abe ed74 293d 2101 4ebe
00000190: d063 cb3c 7e3d ebbd 1885 d53d 8319 97bd
000001a0: 334d 333e a039 58bd ac03 e23d 5725 c43c
000001b0: 95f9 463e 3088 153e da8a afbd e88f 9cbd
000001c0: bfcc 03be 9aba 1a3e f136 033e 03a9 b9bd
000001d0: f98e 033d 18d4 043e e9b4 aebc af90 1dbd
000001e0: cdd4 8a3d 9a22 08be fc47 e2bc 95b8 873d
000001f0: 1663 803d 60e0 0a3e 260b c7bc 60a2 3dbd
00000200: 8880 143e a325 083d 024a 393e 62ca 1d3d
00000210: 5a06 43bd cb68 82bd e0c4 c13d 26dc d53d
00000220: b62b c83d 5327 53be d24a 063c 198b b83d
00000230: f775 a63d 8b8a 12be c348 b4bd 8551 103d
00000240: e075 dbbc 3fcc df3d 59b6 0b3e 19fb d9bd
00000250: 9a9c c63d 29ca df3d 3b73 423d c494 3ebe
00000260: 119e 2abd 2e7a c73c a9be bb3d 550f 263d
00000270: 18f3 ee3d 7fec bbbd a217 063e 9606 38bd
00000280: b46a 0abb 7064 80be 737e 17be 8b67 f53d
00000290: 1205 b43d dd75 8bbd dd22 963d 33eb 3fbe
000002a0: 17d6 223e 7b2a 93bd 0241 a33d f296 f5bd
000002b0: e162 123e 42f2 6bbc 9f8f bfbd 5a23 913d
000002c0: f9e4 953c e2c6 babd 08a2 e83d fd6e 833a
000002d0: 6c27 5c3e 2a91 ba3d 3c69 fdbd 4f13 443d
000002e0: 0eae 173c f7ec 12be b17d bd3d 678b 96bb
000002f0: fc01 babc 6e3e 2d3e a377 063e 77c3 e63b
00000300: c664 0c3d eef8 85bd 7ecd 243c 7983 b03c
00000310: 9d1e 073e e541 e53b e960 c1bd b5bc 75bd
00000320: dd40 a83d 3dc8 d63c b044 4d3d d336 ecbd
00000330: 2d35 71bd 97f0 4ebd e486 e7bc 0558 e1bd
00000340: 0a02 353e 9a18 243d 9abd 173e 0970 08be
00000350: d200 353e 7d55 053e 6c8c c83d 7084 a7bd
00000360: 4ac9 bd3b c376 e33d 5ec5 cc3c 01cd f4bd
00000370: 9d76 a43d c464 f2bd cbd5 80bc 76b4 303e
00000380: 3682 e6bb bc0c e33d 12e5 933d aad4 07be
00000390: eca2 733d 4f46 e3bd 3832 3abd e31e 593d
000003a0: f809 ba3d 38d2 e33d 6914 51bd 61da e93d
000003b0: 1607 1e3e c4cc 9fbd b24e 3e3e 7e8d dd3d
000003c0: 3f53 213d afb7 c13d f3a5 5b3d 7799 16be
000003d0: 624e 753d 1f6a dc3d 22cf 8e3c 36fe 223e
000003e0: 23e9 d73d c4be e03b da4f 8b3d 6a2a f4bd
000003f0: c704 c93d 894e eebc c0f8 1a3e e521 973c

weight_hh_l0 f4 [200, 50]
0.094331734 0.016232328 0.13199127 0.23121881 -0.24205786 -0.0032197605 0.009369644 0.15382084
-0.015796537 0.10536726 0.19033363 0.23556487 0.08804894 0.14875145 0.2412684 -0.07561707
-0.28786817 -0.03555615 0.2103616 -0.21290043 0.21391346 -0.16633299 0.050170735 -0.19455084
0.024815435 -0.2353552 -0.114042275 0.17677264 -0.015657265 0.102825426 -0.03693531 0.1094663
0.15498105 0.112164974 0.0980549 -0.034317877 0.16445084 -0.043236405 -0.28212374 0.022057502
0.20448835 0.13572201 0.2589918 0.2221068 0.20582347 0.33947045 -0.16689734 -0.0350929
-0.036624156 0.14463705 0.07972252 0.0280573 0.031213405 0.22748339 -0.01820822 -0.03940716
0.12445565 0.13079865 0.04513322 0.026695862 0.2775841 0.035092216 0.09253856 0.11828657
0.09981842 -0.09730206 -0.16682515 -0.120940864 0.10202151 -0.12760232 0.01762798 -0.08980393
-0.06187776 -0.18537574 0.14477496 0.012194083 -0.14187595 0.28474504 -0.11178197 0.066713884
-0.30536714 0.22197482 0.20279688 0.24022144 0.075984284 0.0721348 0.19913948 -0.050569642
-0.08995812 0.051196463 0.011938137 0.0670332 0.19570827 0.14305858 0.17957103 0.19317383
-0.084600374 0.055316694 -0.21228243 0.16735478 0.20852725 -0.09165336 -0.041923825 0.26804632
-0.11643205 0.13756655 0.23175809 0.10577789 -0.06850864 0.06810881 0.17650698 0.07868082
0.018758377 -0.06258684 0.12647039 -0.03853139 -0.08039074 0.0015492198 0.21963368 -0.093802124
0.12616625 -0.0061824117 -0.10787854 -0.13448422 0.0028330267 0.024521615 -0.21350518 0.007326768
-0.10854662 -0.020102298 0.009887637 0.21797593 0.03321526 0.052728973 0.17668559 -0.042731807
0.19315353 -0.17021212 -0.24924092 -0.13506189 -0.030718304 -0.0069229235 0.028289175 0.10034583
0.009350809 -0.050046775 -0.0977461 0.04062897 -0.053664245 0.1184453 0.1689697 -0.2284349
0.102501124 0.25303856 -0.23449875 -0.03749122 0.044347353 0.015207674 0.0007199602 0.12799622
0.0010450304 0.22371598 -0.06667776 -0.116574354 0.02142998 -0.023079885 -0.11808081 -0.12487934
0.19217725 -0.08218243 0.005369475 -0.10655375 -0.034925953 -0.0977844 0.109287016 -0.06829893
-0.111584805 0.0132869985 -0.11456747 0.36714596 -0.070388526 0.23016301 0.19745156 0.117303185
0.14274853 -0.24524158 0.07999601 0.0061525414 -0.24926484 0.13096201 0.1989683 -0.0501492
0.17047563 0.15121515 0.042051982 0.071301356 -0.12180348 0.11802972 -0.17168163 0.25458437
0.121091954 -0.032803703 0.039983243 0.051514823 -0.15512168 -0.20112126 0.10324557 0.0073672766
-0.13757305 0.15890749 0.048538275 0.18202253 0.0763138 0.017352613 0.107902616 -0.022251572
-0.16302247 -0.0660286 0.2259173 -0.29703176 0.016892947 -0.08136684 0.25599292 -0.025280938
0.18955715 -0.22892995 -0.19491114 0.1465066 0.036199164 0.08729312 -0.0054096873 0.24753146
0.13618004 0.043693714 0.06333481 -0.1332717 0.28098553 -0.07128801 -0.14690492 0.06203548
0.024055038 0.112755716 0.16598527 0.1568265 -0.039036807 -0.03632421 -0.21872053 0.22472802
-0.15130998 0.024127504 0.17417082 -0.18288326 0.19556354 0.291926 -0.05791793 0.049039863
00000000: ff30 c13d a9f9 843c b828 073e a0c4 6c3e
00000010: 04de 77be 9e02 53bb 2383 193c 3683 1d3e
00000020: bd67 81bc caca d73d d2e6 423e eb37 713e
00000030: 0153 b43d 4d52 183e 100f 773e 1fdd 9abd
00000040: 7563 93be 53a3 11bd 0869 573e 9202 5abe
00000050: 210c 5b3e 3253 2abe d47f 4d3d 5638 47be
00000060: bd49 cb3c f400 71be ff8e e9bd e303 353e
00000070: aa43 80bc 2396 d23d 7b49 17bd de2f e03d
00000080: 5ab3 1e3e c0b6 e53d 02d1 c83d e790 0cbd
00000090: cd65 283e a818 31bd 8672 90be efb1 b43c
000000a0: 6565 513e b6fa 0a3e 939a 843e f76f 633e
000000b0: 63c3 523e 12cf ad3e 23e7 2abe 93bd 0fbd
000000c0: 3603 16bd bc1b 143e 9045 a33d 6cd8 e53c
000000d0: 41b3 ff3c 68f1 683e 6829 95bc 6769 21bd
000000e0: 9be2 fe3d 15f0 053e 9cdd 383d 48b1 da3c
000000f0: 811f 8e3e dbbc 0f3d db84 bd3d 3b40 f23d
00000100: 9a6d cc3d 4d46 c7bd 36d4 2abe d8af f7bd
00000110: a7f0 d03d 2faa 02be 8e68 903c 1feb b7bd
00000120: 8973 7dbd 23d3 3dbe e33f 143e b1c9 473c
00000130: ee47 11be 1aca 913e f2ed e4bd 4aa1 883d
00000140: 1559 9cbe 5e4d 633e fca9 4f3e 9cfc 753e
00000150: a69d 9b3d 69bb 933d 38eb 4b3e 1d22 4fbd
00000160: f63b b8bd 62b3 513d 2d98 433c b448 893d
00000170: c067 483e f37d 123e 78e1 373e 5ccf 453e
00000180: f642 adbd c293 623d 9160 59be 0d5f 2b3e
00000190: 2b88 553e c2b4 bbbd 51b8 2bbd 5e3d 893e
000001a0: ed73 eebd 3fde 0c3e fe51 6d3e 14a2 d83d
000001b0: 424e 8cbd a27c 8b3d 3fbe 343e 6923 a13d
000001c0: 2bab 993c 872d 80bd 7481 013e 17d3 1dbd
000001d0: e6a3 a4bd 310f cb3a a7e7 603e 541b c0bd
000001e0: ba31 013e d495 cabb 6def dcbd 3bb6 09be
000001f0: 4daa 393b 8ee1 c83c 1aa1 5abe 6215 f03b
00000200: b14d debd 93ad a4bc c1ff 213c 1535 5f3e
00000210: b90c 083d 56fa 573d 11ed 343e 8c07 2fbd
00000220: 0aca 453e 164c 2ebe 0339 7fbe aa4d 0abe
00000230: f4a4 fbbc b1d9 e2bb b3be e73c 1d82 cd3d
00000240: 2334 193c d9fd 4cbd 1b2f c8bd 906a 263d
00000250: 0acf 5bbd 7393 f23d 6506 2d3e d7ea 69be
00000260: 1cec d13d 458e 813e 7120 70be 6590 19bd
00000270: 92a5 353d 9c29 793c b6bb 3c3a 7111 033e
00000280: 67f9 883a cd15 653e 598e 88bd 89be eebd
00000290: ed8d af3c 0712 bdbc 5ad4 f1bd bdc0 ffbd
000002a0: 1dca 443e 434f a8bd 6cf2 af3b da38 dabd
000002b0: 840e 0fbd 3043 c8bd dfd1 df3d 4fe0 8bbd
000002c0: 9386 e4bd b6b1 593c 5aa2 eabd 8efa bb3e
000002d0: dc27 90bd daaf 6b3e be30 4a3e a73c f03d
000002e0: ac2c 123e 9c20 7bbe f3d4 a33d 429b c93b
000002f0: 483f 7fbe e81a 063e 59be 4b3e 3f69 4dbd
00000300: 2a91 2e3e 25d8 1a3e b33e 2c3d 7206 923d
00000310: 1a74 f9bd 91b9 f13d 4fcd 2fbe e258 823e
00000320: 0fff f73d 2d5d 06bd 78c5 233d 3501 533d
00000330: 38d8 1ebe bbf2 4dbe 6a72 d33d 3269 f13b
00000340: f3df 0cbe a5b8 223e 12d0 463d 1d64 3a3e
00000350: 694a 9c3d 1127 8e3c 0cfc dc3d ee48 b6bc
00000360: 5def 26be 013a 87bd dd56 673e 8c14 98be
00000370: 1463 8a3c a8a3 a6bd 8111 833e f819 cfbc
00000380: 451b 423e 9d6c 6abe c996 47be d305 163e
00000390: 9345 143d bcc6 b23d bf43 b1bb e378 7d3e
000003a0: c872 0b3e 2ef8 323d aeb5 813d 6078 08be
000003b0: 56dd 8f3e 73ff 91bd 3e6e 16be ea18 7e3d
000003c0: 120f c53c 78ec e63d 0bf8 293e 2097 203e
000003d0: 0fe5 1fbd b2c8 14bd 46f8 5fbe 1a1f 663e
000003e0: 01f1 1abe 0ba7 c53c d659 323e c045 3bbe
000003f0: cf41 483e 5377 953e 5a3b 6dbd 06de 483d

bias_ih_l0 f4 [200]
-0.022840647 0.11120215 0.18945418 0.2743657 0.24307568 0.027103469 -0.046934556 0.11161881
0.30260676 0.009837808 0.09415518 0.1085278 0.15495394 0.17094886 0.024415353 -0.020008136
0.00968296 0.18174121 0.10628273 0.17191061 0.123524696 0.036693085 0.16426478 -0.036425147
-0.055788632 0.14093791 0.21185231 -0.038732454 0.04205517 0.016253585 0.25202167 0.1839395
0.03854901 0.093981616 0.12989184 0.050139192 0.047080945 -0.09589376 0.04200566 0.19160984
-0.06284594 0.2170682 -0.048567973 0.00050137285 0.09962545 0.30731434 -0.0014521654 0.12539004
0.08616216 0.11725805 0.13161404 0.035269007 0.07932943 -0.04314023 0.106364444 -0.11641645
-0.062345367 0.09846272 -0.08485539 0.14625604 0.078914866 -0.05771118 0.116020754 0.11495461
-0.07232722 -0.06843614 0.106297836 0.12346995 -0.023381427 0.107164584 0.030134533 0.00020884996
0.086574174 -0.054165408 0.017925007 0.019080995 -0.05709859 0.112082504 0.005242342 0.08010333
-0.01290135 0.006631099 -0.06465168 0.07383073 0.030006882 -0.044844657 -0.021770088 0.12354345
-0.04769258 0.16190533 0.15121056 0.100165226 0.06698306 0.044192333 0.15067491 0.019251179
0.00023387487 0.05680132 -0.096393265 -0.06656094 0.13539216 -0.044044323 -0.04335893 0.1296097
-0.089585125 0.14964198 -0.09966955 -0.13810092 0.05908008 -0.057347607 -0.04468589 0.075920716
0.06022216 0.055941552 0.018404577 0.04836851 -0.00056265446 -0.1157237 0.12335359 -0.057952978
0.05180361 -0.0039795013 -0.14514476 0.05427458 0.0061889123 0.05125785 -0.0596752 0.11651021
-0.15638229 -0.12650159 0.04000116 0.059790764 0.16748549 0.012041978 -0.04310636 -0.021265116
0.05335408 -0.06154758 0.04393953 -0.12137838 -0.026577959 -0.07779522 0.110834554 0.13844644
-0.0075877444 0.14997599 -0.1423191 -0.11049153 -0.078009374 0.119078845 0.12525356 0.16886587
0.07896379 0.19166052 0.31475887 0.1617147 0.14328021 0.077977315 0.08868561 0.13967775
-0.05830402 0.1570855 0.044380024 -0.014992053 0.080213815 0.110325664 0.13440448 0.074461736
0.12544255 -0.058023814 0.08012188 0.22070026 0.019353587 0.046946514 0.14545912 0.103831105
0.18678588 0.13706546 0.017728968 0.18951401 0.16311638 0.12048563 0.13933387 0.07262817
0.05888182 -0.061083853 0.09460167 0.07330771 0.15044124 -0.024592208 -0.07299397 0.22905305
0.1764241 -0.07691872 0.085588746 0.08138273 0.22073795 -0.042759463 0.07661028 0.11317976
00000000: 4f1c bbbc f4bd e33d 4700 423e a979 8c3e
00000010: d5e8 783e 1808 de3c 733e 40bd 6798 e43d
00000020: 46ef 9a3e c22e 213c 6ed4 c03d d343 de3d
00000030: 3fac 1e3e 380d 2f3e b502 c83c 1ae8 a3bc
00000040: 47a5 1e3c 5e1a 3a3e c3aa d93d 5609 303e
00000050: 84fa fc3d 7d4b 163d 0735 283e 8932 15bd
00000060: 9f82 64bd 0752 103e d0ef 583e eca5 1ebd
00000070: 0b42 2c3d 3d26 853c fc08 813e a35a 3c3e
00000080: 91e5 1d3d 6f79 c03d 5e02 053e c15e 4d3d
00000090: f3d7 403d f363 c4bd 200e 2c3d 5f35 443e
000000a0: 5fb5 80bd 2047 5e3e 36ef 46bd 906e 033a
000000b0: 6e08 cc3d 4e58 9d3e 9656 beba 3f66 003e
000000c0: c975 b03d fd24 f03d d5c5 063e 3c76 103d
000000d0: 7877 a23d cfb3 30bd 9ad5 d93d bf6b eebd
000000e0: db5d 7fbd d3a6 c93d aac8 adbd 25c4 153e
000000f0: 1e9e a13d 8f62 6cbd 4a9c ed3d 536d eb3d
00000100: 4b20 94bd 3f28 8cbd aeb2 d93d d0dd fc3d
00000110: 688a bfbc 1b79 db3d b2dc f63c bcfe 5a39
00000120: cd4d b13d 8cdc 5dbd 77d7 923c bf4f 9c3c
00000130: 36e0 69bd 838b e53d f4c7 ab3b 370d a43d
00000140: 2f60 53bc b149 d93b 1a68 84bd 9134 973d
00000150: fed0 f53c 08af 37bd 2f57 b2bc 5904 fd3d
00000160: 4b59 43bd 83ca 253e f1d6 1a3e 6d23 cd3d
00000170: 6a2e 893d 0503 353d 864a 1a3e a6b4 9d3c
00000180: 4f3c 7539 80a8 683d d569 c5bd 1a51 88bd
00000190: 3ea4 0a3e d267 34bd 2299 31bd 68b8 043e
000001a0: 6878 b7bd bf3b 193e 8d1f ccbd 546a 0dbe
000001b0: f4fd 713d 53e5 6abd 8d08 37bd 527c 9b3d
000001c0: 83ab 763d f822 653d 32c5 963c 0f1e 463d
000001d0: 1a7f 13ba 8c00 edbd cfa0 fc3d 1a60 6dbd
000001e0: 0630 543d 7a66 82bb d4a0 14be 064f 5e3d
000001f0: 5ccc ca3b c0f3 513d fc6d 74bd e89c ee3d
00000200: ae22 20be a289 01be 42d8 233d 29e7 743d
00000210: 5181 2b3e b74b 453c 4b90 30bd 2e34 aebc
00000220: cf89 5a3d 5119 7cbd f0f9 333d 3a95 f8bd
00000230: 05ba d9bc 1a53 9fbd 3afd e23d e7c4 0d3e
00000240: 9da2 f8bb 4e93 193e 19bc 11be 6249 e2bd
00000250: 61c3 9fbd 9cdf f33d 7842 003e 2deb 2c3e
00000260: c4b7 a13d a842 443e 1328 a13e 8a98 253e
00000270: 0cb8 123e 92b2 9f3d cda0 b53d af07 0f3e
00000280: 32d0 6ebd 05db 203e d4c7 353d 3aa1 75bc
00000290: 2447 a43d 6cf2 e13d 54a1 093e 657f 983d
000002a0: 0374 003e 61aa 6dbd f116 a43d 40ff 613e
000002b0: 6a8b 9e3c fd4a 403d 3cf3 143e 67a5 d43d
000002c0: cc44 3f3e e35a 0c3e 573c 913c f60f 423e
000002d0: fb07 273e 2cc1 f63d 8aad 0e3e 14be 943d
000002e0: 102e 713d 1033 7abd 85be c13d 5a22 963d
000002f0: 450d 1a3e 9975 c9bc dd7d 95bd e28c 6a3e
00000300: 85a8 343e 9087 9dbd 2749 af3d fdab a63d
00000310: 2109 623e 8c24 2fbd dae5 9c3d caca e73d

bias_hh_l0 f4 [200]
0.1588754 0.22202046 0.10538463 0.23838148 0.13437189 0.19472423 0.009005313 0.14681266
0.2019778 0.2011079 0.097532846 0.14288306 0.10031805 0.16530906 0.118061304 0.112347215
0.14046986 0.07512108 0.04625203 -0.079086535 0.078802116 0.23803541 -0.04436367 0.036179557
-0.022559388 0.06798667 0.18637547 0.15951052 0.057256494 0.16324882 0.27714643 -0.08356603
0.06997371 0.06964591 -0.10054261 0.00943557 0.19690374 -0.049645532 0.17905645 -0.045600057
0.085344546 0.09026574 0.13733877 0.0074080187 0.03082298 0.3205226 0.22679555 -0.016277833
0.21046284 0.074716434 0.035199154 0.168752 0.15815268 -0.0022135112 0.015132148 -0.14961313
-0.0061888555 -0.08353688 0.0033925388 0.1864259 -0.09139662 0.10411942 0.11249974 -0.028358169
-0.10527662 0.17925888 0.080300674 0.009628848 -0.052086912 0.047977317 0.027317366 0.09698644
0.09207102 -0.08778279 0.0056553017 -0.07085916 0.14907879 0.15667664 0.19087909 0.11436583
-0.02852317 0.07858643 -0.03420992 -0.02947127 0.16488545 0.15052746 -0.046009757 -0.04142591
-0.03623389 0.07092811 0.098857604 -0.093071915 -0.041361086 0.17791605 0.06538527 0.037162196
0.18453391 -0.040482998 0.10254134 0.073789924 -0.09352678 0.025089702 0.13478193 0.00024457093
-0.05310565 0.093228385 0.16717182 0.08227639 -0.018465642 0.015646406 0.025154434 0.13353759
0.05062791 -0.13756998 -0.068257675 -0.10944374 0.14776823 -0.16859832 0.19360653 0.08164734
0.036706988 -0.03327167 0.111915246 0.08538536 0.019577779 -0.11739861 0.105436645 0.04949494
-0.017383281 0.061357953 0.008342573 -0.13322061 0.035478763 0.09437965 -0.106049545 -0.057714097
-0.07708212 -0.052696254 0.037766725 -0.09169957 0.10728964 -0.115656696 0.16960959 0.09446967
0.08035689 0.15705156 -0.18024814 0.06802037 -0.11644273 0.1164061 0.18633513 0.09551193
-0.028525725 0.07789922 0.28828815 0.23027395 -0.023433652 0.059904967 0.16902411 0.013448323
0.13629223 -0.0458433 0.17727445 0.054763928 0.13292089 0.011056803 -0.07348994 0.083303206
0.13364221 0.038695835 0.090082526 0.20836051 0.15879697 0.05538413 -0.03230178 -0.051917374
0.11024144 0.18947074 0.21721148 0.20705482 0.19727468 0.13773564 0.059961546 -0.022271419
-0.05475605 0.10376398 -0.02331297 0.019479804 -0.025428258 0.053172532 -0.04612206 0.13603154
0.031508762 0.14229901 0.13519226 0.34650862 0.10364576 0.10863034 -0.049902167 0.2012014
00000000: 3cb0 223e 5559 633e e6d3 d73d 461a 743e
00000010: c998 093e ca65 473e 058b 133c 0f56 163e
00000020: 45d3 4e3e 3bef 4d3e 4dbf c73d f04f 123e
00000030: 8d73 cd3d c746 293e 20ca f13d 4c16 e63d
00000040: 55d7 0f3e 15d9 993d c572 3d3d 1ff8 a1bd
00000050: 0163 a13d 8ebf 733e aeb6 35bd 0431 143d
00000060: 77ce b8bc 983c 8b3d 36d9 3e3e ba56 233e
00000070: c985 6a3d b32a 273e 23e6 8d3e ab24 abbd
00000080: 604e 8f3d 84a2 8e3d 49e9 cdbd a697 1a3c
00000090: 22a1 493e 1d59 4bbd 935a 373e 20c7 3abd
000000a0: 1fc9 ae3d 3fdd b83d 89a2 0c3e f7be f23b
000000b0: 7980 fc3c 8a1b a43e 183d 683e 1759 85bc
000000c0: 9283 573e ee04 993d fd2c 103d 53cd 2c3e
000000d0: c7f2 213e 8e10 11bb d4ec 773c 2f34 19be
000000e0: e2cb cabb 6215 abbd 5b55 5e3b 6ee6 3e3e
000000f0: 272e bbbd 903c d53d 4466 e63d 644f e8bc
00000100: 459b d7bd a48f 373e ae74 a43d 51c2 1d3c
00000110: 1659 55bd dd83 443d abc8 df3c d4a0 c63d
00000120: bb8f bc3d 77c7 b3bd 1c50 b93b 9b1e 91bd
00000130: 1ca8 183e d76f 203e cf75 433e a238 ea3d
00000140: 6ca9 e9bc ecf1 a03d b31f 0cbd bc6d f1bc
00000150: bbd7 283e df23 1a3e ba74 3cbd 37ae 29bd
00000160: fd69 14bd c242 913d db75 ca3d 7d9c bebd
00000170: 3e6a 29bd a02f 363e b6e8 853d 6337 183d
00000180: 75f6 3c3e 80d1 25bd 3201 d23d 2c1f 973d
00000190: f88a bfbd eb88 cd3c 4604 0a3e c139 8039
000001a0: 4f85 59bd 86ee be3d 172f 2b3e 8680 a83d
000001b0: 4245 97bc e42c 803c ac10 ce3c 14be 083e
000001c0: 365f 4f3d 25df 0cbe aeca 8bbd 0a24 e0bd
000001d0: 8e50 173e 0aa5 2cbe ca40 463e b836 a73d
000001e0: 115a 163d e047 08bd d233 e53d 85de ae3d
000001f0: 9461 a03c af6e f0bd 2bef d73d 35bb 4a3d
00000200: 6267 8ebc 7a52 7b3d 4aaf 083c fc6a 08be
00000210: 2e52 113d 1e4a c13d 8130 d9bd 9e65 6cbd
00000220: 3bdd 9dbd 07d8 57bd 48b1 1a3d fccc bbbd
00000230: acba db3d 6bdd ecbd 23ae 2d3e 5079 c13d
00000240: 2792 a43d 20d2 203e f892 38be 444e 8b3d
00000250: 8779 eebd 5266 ee3d a3ce 3e3e c29b c33d
00000260: c8ae e9bc a089 9f3d 819a 933e efcc 6b3e
00000270: eef7 bfbc e95e 753d a814 2d3e 5b56 5c3c
00000280: 3190 0b3e 2fc6 3bbd 6f87 353e 2450 603d
00000290: 6a1c 083e 9827 353c e581 96bd df9a aa3d
000002a0: 81d9 083e 867f 1e3d 307d b83d 755c 553e
000002b0: ac9b 223e 78da 623d df4e 04bd 50a7 54bd
000002c0: 44c6 e13d 9e04 423e b06c 5e3e 2e06 543e
000002d0: 6002 4a3e 920a 0d3e 3d9a 753d 8d72 b6bc
000002e0: e147 60bd 3682 d43d d7fa bebc 1c94 9f3c
000002f0: ec4e d0bc 71cb 593d 7cea 3cbd da4b 0b3e
00000300: 550f 013d d5b6 113e d76f 0a3e 9469 b13e
00000310: 3a44 d43d 9579 de3d 3766 4cbd bd07 4e3e

weight f4 [30, 50]
-0.26067984 0.080725506 -0.2141597 -0.3312909 0.1717535 0.17942707 -0.203941 -0.012780513
0.123139605 -0.16438365 -0.23747183 -0.11427306 -0.07640944 -0.1341388 -0.29061422 0.035824284
0.15143776 0.21723136 -0.25695828 0.26135635 -0.25290763 -0.12290997 -0.2028464 0.20471093
-0.17458302 0.17302468 0.26181236 -0.27644295 0.15917222 0.06694456 0.19475675 -0.1870207
-0.12610412 -0.24529776 -0.23409529 0.18464646 -0.33830497 0.3088053 0.058736604 -0.10487468
-0.18999343 -0.04009413 -0.13457446 -0.19570604 0.075003676 -0.17346838 0.22837082 -0.23350064
0.3026643 -0.30171683 0.055956148 -0.034988895 -0.108842276 0.17934826 0.026470829 0.05512344
-0.11794814 0.12878278 -0.018248148 -0.105295084 -0.08025358 0.026102206 0.07844955 -0.11159802
-0.023390383 0.054829758 0.1360251 -0.06302222 -0.033575855 0.123111606 -0.10322732 -0.062927745
0.07015652 0.107801944 -0.05070048 -0.027666908 -0.017780734 0.14449345 -0.024740264 -0.005830721
-0.22544637 -0.000112224334 0.17202418 0.15343063 -0.039161764 -0.09307209 0.12500282 -0.10168338
0.11526576 0.033515614 -0.117498875 -0.04500552 -0.12344417 -0.07992354 -0.037423722 -0.00027045308
-0.07520892 -0.11948835 -0.06656453 0.1337258 -0.21015525 -0.14166346 0.150554 -0.07169027
-0.055629242 -0.09321742 0.04014888 0.018429274 -0.13516608 -0.08212963 -0.06405673 0.036227074
-0.0046597044 -0.009720378 0.10349711 0.009206398 -0.021571299 0.11105283 -0.09358909 0.11557314
0.040437035 0.08089784 -0.033970755 -0.12586801 -0.032402202 -0.02052021 0.09290429 0.08717503
-0.099106975 0.15340813 -0.116331756 -0.0116071245 0.08227651 -0.12061203 0.096787125 -0.09395095
0.041677114 -0.02440975 0.1268373 -0.040117145 0.17669868 -0.012023836 0.035052933 -0.07812264
0.025884682 -0.19165114 -0.13702172 0.0064028013 -0.011823822 0.062876455 0.03410913 -0.13914602
0.025046764 0.09482901 0.009158725 -0.17376085 -0.10080419 0.116319336 -0.17555584 0.009985313
0.09589415 -0.12319349 -0.008340304 -0.10598894 -0.10044476 0.110559866 0.18491086 -0.053148676
0.15979156 -0.009984337 -0.020805063 -0.11716506 0.03734487 -0.064779796 0.04129503 -0.098466516
-0.08522243 -0.020505127 -0.093194254 0.10570358 -0.023660384 -0.060141265 0.0817368 -0.04127313
0.047422126 -0.0091408435 -0.007532835 -0.09427597 0.1389123 0.05550348 0.07545273 -0.0504923
0.023992043 -0.008269908 0.24748468 0.07502458 -0.14967707 -0.012610374 0.08477268 -0.14505562
0.034253422 -0.15933025 0.093002975 0.062824555 0.054158684 -0.0978792 0.030518902 -0.036892004
-0.022944435 -0.12193391 -0.03197595 0.014979619 -0.012784244 -0.18475373 -0.08985402 0.03282018
0.007698493 -0.11394076 0.06687678 0.018086566 0.14360532 0.04822815 0.09371016 -0.07947386
0.049028765 -0.13325725 -0.14971998 0.050621487 -0.07532894 0.036028467 -0.14826311 -0.0632008
-0.041605633 0.03347132 0.13501237 0.007826536 0.004812583 0.100700244 0.14789592 0.0793584
0.04103121 -0.11741473 -0.046371724 -0.12821423 0.13600686 -0.0829905 0.077810094 -0.05966558
-0.03762761 0.013617391 0.037448972 -0.079358205 0.096687675 0.14865437 -0.080212176 -0.021504058
00000000: d477 85be 6a53 a53d ae4c 5bbe f69e a9be
00000010: 26e0 2f3e bbbb 373e e9d5 50be 5b65 51bc
00000020: 9e30 fc3d 3054 28be d12b 73be fe07 eabd
00000030: 8d7c 9cbd ae5b 09be 63cb 94be 7cbc 123d
00000040: 8012 1b3e e671 5e3e 0990 83be 80d0 853e
00000050: 1c7d 81be 39b8 fbbd f7b6 4fbe be9f 513e
00000060: e4c5 32be 622d 313e 450c 863e ee89 8dbe
00000070: 0bfe 223e 3b1a 893d 506e 473e 5b82 3fbe
00000080: 7021 01be 562f 7bbe adb6 6fbe f613 3d3e
00000090: 4f36 adbe ba1b 9e3e cb95 703d 89c8 d6bd
000000a0: a38d 42be be39 24bd e3cd 09be 2a67 48be
000000b0: 879b 993d b2a1 31be 0ada 693e cb1a 6fbe
000000c0: d1f6 9a3e a17a 9abe 4632 653d 8450 0fbd
000000d0: b3e8 debd 12a7 373e 5ad9 d83c 1ec9 613d
000000e0: cb8e f1bd a2df 033e 247d 95bc f3a4 d7bd
000000f0: fd5b a4bd 4bd4 d53c 28aa a03d 818d e4bd
00000100: 309d bfbc 2b95 603d 2a4a 0b3e cb11 81bd
00000110: d686 09bd f021 fc3d d868 d3bd 43e0 80bd
00000120: 39ae 8f3d 44c7 dc3d 4eab 4fbd b6a5 e2bc
00000130: e7a8 91bc 17f6 133e 18ac cabc a20f bfbb
00000140: 6adb 66be fb59 ebb8 1b27 303e eb1c 1d3e
00000150: 1668 20bd 949c bebd bd00 003e 603f d0bd
00000160: 7410 ec3d ab47 093d 40a3 f0bd b557 38bd
00000170: 4cd0 fcbd f4ae a3bd 9e49 19bd 99cb 8db9
00000180: 2207 9abd 4fb6 f4bd fc52 88bd 6bef 083e
00000190: f032 57be 3a10 11be d42a 1a3e 59d2 92bd
000001a0: 7ddb 63bd c6e8 bebd 2773 243d fdf8 963c
000001b0: fa68 0abe 9433 a8bd 2d30 83bd d762 143d
000001c0: 6fb0 98bb 3842 1fbc 4bf6 d33d 6fd6 163c
000001d0: 4bb6 b0bc ab6f e33d a3ab bfbd 9cb1 ec3d
000001e0: 4ea1 253d c4ad a53d eb24 0bbd 8be3 00be
000001f0: 2cb8 04bd 001a a8bc 9b44 be3d d288 b23d
00000200: 99f8 cabd 0517 1d3e 583f eebd cf2b 3ebc
00000210: 9680 a83d 7103 f7bd 5438 c63d 5b69 c0bd
00000220: 9fb5 2a3d f5f6 c7bc a3e1 013e e051 24bd
00000230: 80f0 343e a0ff 44bc aa93 0f3d c3fe 9fbd
00000240: 1d0c d43c 3240 44be 6c4f 0cbe 97ce d13b
00000250: b4b8 41bc 5fc5 803d 04b6 0b3d 4b7c 0ebe
00000260: df2e cd3c b635 c23d 7a0e 163c 5dee 31be
00000270: 6d72 cebd d538 ee3d e9c4 33be 7099 233c
00000280: 2764 c43d de4c fcbd c5a5 08bc bb10 d9bd
00000290: fbb5 cdbd 366d e23d 4659 3d3e 6db2 59bd
000002a0: 66a0 233e 5895 23bc 616f aabc 3cf4 efbd
000002b0: eff6 183d 45ab 84bd fa24 293d d0a8 c9bd
000002c0: 1989 aebd 5efa a7bc a1dc bebd 1e7b d83d
000002d0: 6cd3 c1bc b056 76bd a065 a73d 030e 29bd
000002e0: b43d 423d 7ac3 15bc 00d6 f6bb c213 c1bd
000002f0: 073f 0e3e 9e57 633d f686 9a3d 04d1 4ebd
00000300: f68a c43c 827e 07bc a06c 7d3e 7da6 993d
00000310: f244 19be be9b 4ebc 4d9d ad3d 7689 14be
00000320: 514d 0c3d 7827 23be 5878 be3d 29aa 803d
00000330: 7fd5 5d3d e474 c8bd c702 fa3c 121c 17bd
00000340: f8f5 bbbc 7cb8 f9bd 37f9 02bd 136d 753c
00000350: 0175 51bc 1530 3dbe 6205 b8bd 746e 063d
00000360: a443 fc3b c659 e9bd b1f6 883d 472a 943c
00000370: 460d 133e e18a 453d 1deb bf3d 31c3 a2bd
00000380: 63d2 483d 9774 08be 3250 19be 7a58 4f3d
00000390: 0f46 9abd 9692 133d 49d2 17be 6c6f 81bd
000003a0: ab6a 2abd 3919 093d af40 0a3e df3a 003c
000003b0: dfb2 9d3b ee3b ce3d 0772 173e a886 a23d
000003c0: 5810 283d 2277 f0bd 47f0 3dbd 974a 03be
000003d0: 6245 0b3e ecf6 a9bd e65a 9f3d e563 74bd
000003e0: 691f 1abd 7a1b 5f3c 1864 193d 8e86 a2bd
000003f0: 3004 c63d da38 183e 4846 a4bd 4729 b0bc

bias f4 [30]
0.017497096 0.029596588 -0.09817764 -0.13329662 -0.12066431 -0.04736874 0.065039866 0.16674824
0.06705905 0.08851563 -0.051071443 0.08089663 0.053531814 0.07172097 -0.07856893 0.07240455
0.09723322 0.24057099 0.15744919 0.068956055 0.046182286 0.022915872 0.023882236 0.00984427
0.06407107 0.07375031 -0.04729619 -0.10250127 0.07338784 0.026940353
00000000: 1256 8f3c 8b74 f23c 5c11 c9bd e97e 08be
00000010: da1e f7bd b905 42bd 9f33 853d 0dc0 2a3e
00000020: 4156 893d af47 b53d 4a30 51bd 22ad a53d
00000030: 2d44 5b3d 72e2 923d bfe8 a0bd d648 943d
00000040: 3622 c73d 3e58 763e 5c3a 213e d538 8d3d
00000050: a329 3d3d 11ba bb3c aea4 c33c dc49 213c
00000060: b137 833d 670a 973d a6b9 41bd 30ec d1bd
00000070: 5d4c 963d 04b2 dc3c
