models/ThirtyClassifier.pt (torch, 21372 bytes, 11 tensors)

weight f4 [5, 8]
00000000: 8422 333f aaa1 d0bc dfd4 adbf 1169 68bf
00000010: 7a4a 093f 7c31 593f fcc7 cdbe fb47 893f
00000020: d79c 67bf b5c4 133f ebda 0cc0 bde3 623f
00000030: 558b cbbf 8aed 66bf 9085 873f 2453 a0bb
00000040: 40b0 34bd bc32 cbbd 7dd7 4ebf 189b 30bf
00000050: 6ddf c4be c052 303f 3926 043f 542d c13e
00000060: 7831 f2bf 3cac 693f 1dae d0bf 12a0 aabf
00000070: 6041 c5bd ee84 633f 3726 323f 709e 883f
00000080: f829 473f e70f 2fbe 8827 b13e fa1b 83bf
00000090: a100 89bf 9984 bc3f b8af 28bf a567 31bc
0.6997454 -0.025467712 -1.3580588 -0.9078532 0.5362927 0.8484113 -0.40191638 1.0725092
-0.90473694 0.57722026 -2.2008617 0.8862875 -1.5901896 -0.90206206 1.0587635 -0.0048927236
-0.044113398 -0.09921786 -0.8079756 -0.68986654 -0.3845171 0.68876266 0.51620823 0.37729895
-1.8921347 0.91278434 -1.6303135 -1.33301 -0.0963161 0.8887471 0.6958956 1.0673351
0.77798414 -0.1709591 0.34600472 -1.0242913 -1.0703317 1.4727966 -0.65893126 -0.010827933

weight_ih_l0 f4 [60, 8]
00000000: 54be ac3d 5751 333d ca98 2dbe 42ec 44be
00000010: 49ae 95bd 1907 403e 7336 413e 3141 3bbe
00000020: 9d53 253e c9b6 583d e174 41be b0d1 33be
00000030: 67e2 29be d1d8 99be f64e 27be 9d37 07be
00000040: f18b 1fbe f862 a9bc 0d0a 3fbe be2f 533e
00000050: 84c5 e13d 84c7 193e 2741 1a3c 39dc 01bd
00000060: 4ca3 c53c ffa1 193e f332 353e bc25 54be
00000070: 7c31 45be ac05 633e 864b 523e 1630 613c
00000080: 5ff1 6a3b b0b4 403e adc3 8bbe 6fcb 1a3e
00000090: 4fce 16be 4b6d 3f3d e7e5 06be ed55 623d
000000a0: a0d9 ecbd ce72 be3d 211f c93d 2ec0 503e
000000b0: 2bfe e1bd ea03 48bc e472 5cbe b870 103e
000000c0: 0b32 febd 65ac 2c3e ccf8 f3bc f593 d23d
000000d0: d49d ac3c f79a 2abe 1099 94bd 9762 1c3e
000000e0: 0a5f 9abd 3cb2 e3bd bd2c 87be 5ac7 44be
000000f0: 9237 7bbb 6a2e a23d be9d 523e 7fa3 8d3e
00000100: 38de a8bd 17b5 043e 7a3e 84be 26b9 38be
00000110: 2988 f03d 6f20 f3bd 3335 363d 0eca 3e3e
00000120: f449 723e 28b3 cc3d 4738 11be e91e b83d
00000130: e4a6 b53d 8a64 5fbe 09da 433e 6106 c63d
00000140: 0a80 68bd e98e 793e 61a4 96be b4bc 28bd
00000150: 60dd 8d3e 2ef8 b1bd 3bdc 583e 8a24 c1bd
00000160: 78e9 08be c33a 3f3e c1bb 30bd 679e a93e
00000170: 8729 493e 9d31 99be 8f77 5c3e 8ee7 1ebe
00000180: 3582 8d3d a641 763e 2ad2 fe3d 6c04 b23d
00000190: b035 393e d2d1 2bbe e04a 2ebd 84e6 5c3e
000001a0: 3e6e 6ebe 1dbf 5fbe e9a2 6fbb bce1 84be
000001b0: aac1 8dbe 7435 b23d 8d26 d9bd 8760 1dbd
000001c0: e3c0 7bbd 1471 733e 7628 1c3d 19a4 413e
000001d0: aa55 453e 28a0 863e 5a8b f3bd d261 cbbd
000001e0: 82cf 803b c0ed 053e 8275 853e ba05 893e
000001f0: b1e1 19bc 44b0 db3d a134 08bc aeea 2d3d
00000200: d581 4dbe 7a2e f03d 4ceb e93d 9ba1 44be
00000210: 5fd5 11bd f40f 86be 2646 10be 24ec 433e
00000220: 648f 223e 5583 89be 7667 9e3d 2793 87bd
00000230: d758 7b3e e66d ad3d 745b 70be cb9d efbd
00000240: 0aa0 47be e75e 53bd c19f 243e a86d 383e
00000250: 2634 2fbe f6eb fbbd c997 283e fc17 c1bc
00000260: 4105 28be 257b 173e 8937 4e3e 8e7b 323c
00000270: ef4f 2cbe 321f 14be 6601 163c 9400 113e
00000280: 4efa ddbd 4e69 8fbe c656 4d3e af6d 273e
00000290: 9eda b6bd 2458 f1bd f6b4 6abe 70ca 1f3e
000002a0: bb7b b33d 593c 8abc fabf b23d 3392 813e
000002b0: bd5e a23d 90a0 363e 78bf f8bd 3411 e9bd
000002c0: 3593 b8bd 2a87 96bc bd1a 8dbd 7db1 2d3d
000002d0: 2905 7dbe 0351 4ebe c32d df3d f8bd 67bd
000002e0: 2913 1e3e 8f93 35be 8b2d 453e cdfc 003e
000002f0: 7a43 013e f37f cbbd d879 3d3e a869 883e
00000300: 1c16 63be 8e26 253d 6870 2bbe 421c 3a3e
00000310: 7e40 14be 6c0f 3e3c e4b1 0fbe 9e51 05bd
00000320: 9f6f 443e 04d6 aa3d 55b9 b53d 9f51 623d
00000330: 929a 2dbe 0836 ad3e 6047 163b 4c62 5fbd
00000340: 21ce d53d 576b 3cbd 2eb5 af3d 8467 34bc
00000350: a824 bd3c 40e4 ac3d 8be6 53be 9595 fe3d
00000360: 600f 22be c034 7fbe 6df2 19be 9ce4 a3bc
00000370: c8c2 bd3d bb04 21be f53c 65be 3a20 babc
00000380: b720 22be a2b7 4abd acf2 5dbe 0a4f a6bd
00000390: 836d efbd ad49 07be a41d 28bd a389 a33a
000003a0: 6547 90bd 7a4b 513e 570a 103d 8980 153e
000003b0: 24a7 ea3c b6af 0abe e6c7 09be 367e 213e
000003c0: c376 c93d f6f8 e8bd fbde 253d 20ce 60be
000003d0: c705 7b3e 3152 c53d b27f 573e c3a5 5fbe
000003e0: 62d7 39bc 97b9 26be 57b9 4c3e c445 923d
000003f0: d3f4 f63d 6655 8dbd f79c 01be 5e1a 813e
0.0843474 0.043778744 -0.16952816 -0.1923075 -0.07308633 0.18752708 0.18868427 -0.18286587
0.16145177 0.052908693 -0.18892242 -0.17560458 -0.16590272 -0.3004823 -0.16338715 -0.13204809
-0.15580727 -0.020677075 -0.18656178 0.20623681 0.11024001 0.15017515 0.009414948 -0.03170416
0.024125718 0.15003203 0.17695217 -0.2071752 -0.19257158 0.22170132 0.20536622 0.013744375
0.0035849435 0.18818927 -0.27297726 0.15116666 -0.14727138 0.04673509 -0.13173638 0.055257726
-0.11564946 0.09299241 0.098203905 0.2038581 -0.11034807 -0.012207964 -0.21528202 0.14105499
-0.12411889 0.16862638 -0.029781722 0.10282127 0.021071352 -0.16660677 -0.07255757 0.15271984
-0.075376585 -0.1111798 -0.2640132 -0.19216672 -0.0038332683 0.07919009 0.20567986 0.276638
-0.0824551 0.12959705 -0.25828916 -0.18039379 0.117447205 -0.118714206 0.04448433 0.18631765
0.23661023 0.09995109 -0.14181624 0.08990271 0.088697225 -0.21815696 0.19126143 0.096691854
-0.056762733 0.24370922 -0.29422286 -0.041195586 0.27707958 -0.08689915 0.21177761 -0.094307974
-0.13370311 0.1867476 -0.043147806 0.33128664 0.19644748 -0.29920664 0.21529983 -0.15518019
0.06909601 0.2404848 0.12442429 0.0869225 0.18086886 -0.16779259 -0.042551875 0.2157231
-0.23284242 -0.21850248 -0.0036565608 -0.25953472 -0.27686816 0.087016016 -0.10603056 -0.038422134
-0.061463248 0.23773605 0.038124524 0.18910255 0.1927096 0.26294065 -0.118918136 -0.09930767
0.003930987 0.13078976 0.26066214 0.26762182 -0.009392188 0.107269794 -0.008313329 0.042460136
-0.20069058 0.11727615 0.114218324 -0.19202273 -0.035603877 -0.26184046 -0.1408926 0.19133049
0.15875012 -0.2685801 0.07734577 -0.06619864 0.24545608 0.08468227 -0.23472387 -0.117000185
-0.19494644 -0.051604178 0.16076566 0.1801058 -0.17109737 -0.12300865 0.16464151 -0.023571007
-0.16408254 0.1479307 0.20138372 0.010893716 -0.16827367 -0.14465025 0.009155607 0.14160377
-0.108387575 -0.2801003 0.20052633 0.16350435 -0.08928417 -0.117843896 -0.22920594 0.15604568
0.08763834 -0.01687448 0.08728023 0.25306854 0.07928226 0.17834687 -0.12145895 -0.11380234
-0.090124525 -0.018374998 -0.068898655 0.042405594 -0.24709 -0.20148091 0.108974 -0.056577653
0.15436997 -0.1773207 0.19255655 0.12596436 0.12623397 -0.09936514 0.18503511 0.2664311
-0.22176403 0.04031997 -0.16742098 0.18174842 -0.14477727 0.011600357 -0.14032704 -0.03254854
0.19183205 0.083416015 0.0887324 0.05525362 -0.16953495 0.33830285 0.0022930726 -0.054537103
0.104397066 -0.046000805 0.08579479 -0.011011008 0.023088768 0.08441973 -0.20693414 0.12430874
-0.15826178 -0.24922466 -0.15033884 -0.02000647 0.09265667 -0.15724461 -0.22386535 -0.022720445
-0.15832792 -0.049491532 -0.21674603 -0.08120544 -0.116908096 -0.13211699 -0.041043893 0.0012476932
-0.070448674 0.20438948 0.03516611 0.14599814 0.028644152 -0.13543591 -0.13455161 0.15770802
0.09837105 -0.113756105 0.040495854 -0.2195363 0.24513923 0.096348174 0.21044806 -0.21840577
-0.011342855 -0.16281734 0.19992577 0.07142213 0.12058415 -0.06901054 -0.12657534 0.2521543

weight_hh_l0 f4 [60, 15]
00000000: b6eb 54bd a5f4 54bd 61e0 073e 49a9 163e
00000010: 27c3 e13b a546 303e 9fae ba3c ade1 03be
00000020: 5bc1 523e 36e3 4e3e 3e5a 1bbe 35a3 11be
00000030: 627e 87be dbe8 1dbe a32d 233d fbc5 133e
00000040: c07c 69be fe54 5ebe 42b7 cd3c db8e 793e
00000050: 4ed9 07be cd55 ec3c 9a86 233e d808 18be
00000060: 5bbb 1c3e 7f68 a23d bd70 813e 3637 88bd
00000070: d1e4 8dbe 5541 e93d 4d39 3e3e 5d8b 653e
00000080: c684 89be 9de1 92be 30fd 333e 8ea5 04be
00000090: a104 53bd ecee 423e b093 3d3e d10a e63d
000000a0: 93f7 45be 6973 813e 4cc3 6abe 7bf2 3cbe
000000b0: 721f 4d3e 960c 2dbe 7551 84bd 1e15 4e3e
000000c0: 6b86 7ebe a2fe 393e 47d3 f13c b488 92be
000000d0: 4cdc 4e3e 5633 2fbe 3fd9 523e eb46 463e
000000e0: 23a5 c9bd 68cb 15be 6d41 393e 960a cebb
000000f0: 9980 38be 06e1 513d e77c 7e3e b2d7 2dbe
00000100: 16cf b1ba 5ad8 36be c468 20bd b1e5 543e
00000110: aad8 01bd 7958 123d 318a 26be a5f9 3b3e
00000120: c002 dbbd e341 073e 66a1 053e 8b32 5fbe
00000130: 1550 503d 07fe 903d 042d 803d b0ce bb3d
00000140: c8eb d5bc c74e ecb9 49ba 0e3c 4180 15bd
00000150: 00ad 3f3e daae 58bd a934 373e de5f e23a
00000160: 9bf8 20be 5c6e 5cbe b5b6 93bd 1864 5bbe
00000170: f13b 15be bf37 1b3e b5af 323e a6bf e03d
00000180: 103b 35be 985e 043e d929 98bd c7e0 1abd
00000190: 947d 70bd 4aeb 8f3d 7050 ccbd 5e60 92be
000001a0: 4aaf de3d bdab 13be d20c 7dbe e7e2 b4bd
000001b0: b409 8c3d 2559 ba3d 1319 56be c95f 82be
000001c0: 24eb 833e aa07 9c3d a09f a5bd e406 81be
000001d0: eadc e2bc 8709 ef3d 0694 6e3d 0852 b6bd
000001e0: b152 69bc b07a 65be 0e2d 663e 72b6 08be
000001f0: 706c 7f3d e26b 513c cc6c 123e 41a0 513e
00000200: 4781 c9bb b389 023e 9aee 28be 0ef6 283c
00000210: 5068 08be c448 5ebe ce96 95bd 1cca 0c3e
00000220: 27f0 a4bd 9e67 53be 5e8c 86bd 2776 44be
00000230: 52a2 1f3e bdb6 ef3b 6341 3bbe 7282 d0bd
00000240: 18d3 3abe 303d 5b3e 225c b83d 31ae 413c
00000250: af6c f53c f2e3 643e 46fc 303e 9f74 403e
00000260: eb0b d4bd d3b0 62be f61c ac3d 7f5c f7bd
00000270: 1673 8ebe 0ce9 613d edf6 86be 051f db3d
00000280: ca26 1b3e 3110 71bd 6fc9 5c3d 0af3 92be
00000290: bc53 b13c ed91 7abd 099c dd3d 6bc7 a6bd
000002a0: bc7e 16be cba9 3a3e 3298 a6bd 97d5 01be
000002b0: 14d4 7b3d 8296 063e b6be 12bd 08f0 513e
000002c0: eadf 21be 580c 2f3e f0e8 84be 4885 003e
000002d0: ecaf d8bd b7da ee3d 2d27 833e dff1 a63a
000002e0: ebbf a23e a111 0bbe 8d5b c9bd fd0b 49be
000002f0: 4f00 573d 2811 90bc 1f12 38be 7e55 e6bd
00000300: c113 7fbd 89b5 193e cf58 52bc 033b 7a3d
00000310: 5ebf 15be 0437 843e 0ee2 413e dee0 123e
00000320: 6e71 e8bc d77d 35bc 9558 bd3d 3a52 b6bb
00000330: 678f c0bd fb15 6f3d cba8 413e dc11 9e3c
00000340: dd1d 293d 5bb0 dfbd 4f81 643d 6526 1fbe
00000350: ad7a 333c 513e 64be 39fc 653d d170 623e
00000360: 6262 12be f50d 603e 71d0 183e 1b87 07bd
00000370: 7bb2 1e3e 7676 4dbe d357 4abe 1f44 13bd
00000380: 3422 cebd fb41 ac3c 307d 24be fc7c 63be
00000390: 3e93 573d 40fe debd 8045 0ebe 0510 53be
000003a0: 11ed cf3d 8612 a73d bf1e 373e c261 9c3a
000003b0: e8f4 06be becb 283a 1563 a9bc fabd 033e
000003c0: b02b 16bd 61b0 78bc 7a82 14be 832c 213e
000003d0: 5b7e 163d 3855 b13d de98 faba af11 09be
000003e0: 0521 603e f1ba 83bc a50e 4fbd 79b5 403e
000003f0: 7ffd 883e a0a6 56be 139d 473c efd2 49be
-0.051982604 -0.051991124 0.13269188 0.14713015 0.006889719 0.17214449 0.022788344 -0.12879057
0.20581572 0.20203862 -0.15171143 -0.14222415 -0.2646361 -0.15420859 0.039838444 0.14430992
-0.22801495 -0.2171211 0.025111798 0.24370901 -0.13266489 0.028849507 0.15969315 -0.14847124
0.15305845 0.07930087 0.25281325 -0.06651156 -0.27713636 0.11389414 0.18576546 0.22416444
-0.2685911 -0.28687754 0.17577052 -0.12953779 -0.051518086 0.19036454 0.1851337 0.11232532
-0.19332723 0.25283363 -0.22926062 -0.18451874 0.20031527 -0.16899332 -0.06460849 0.20125243
-0.24855964 0.18163541 0.02951969 -0.2861992 0.20201224 -0.17109427 0.20590685 0.1936299
-0.098459505 -0.14628375 0.18091364 -0.006287883 -0.18017806 0.05123999 0.24852334 -0.16976812
-0.0013565745 -0.17855969 -0.039162412 0.20790745 -0.031700768 0.035728905 -0.16263653 0.1835695
-0.10693884 0.13208728 0.1304985 -0.21796624 0.050857622 0.07079702 0.06258586 0.09170282
-0.026113406 -0.0004507212 0.008711406 -0.036499266 0.18718338 -0.052901126 0.17891182 0.0017271002
-0.15719835 -0.21526474 -0.07212583 -0.21424901 -0.14573647 0.15157984 0.1744984 0.10974054
-0.17698312 0.1292671 -0.07429857 -0.03781202 -0.05871351 0.070273 -0.0997628 -0.28589147
0.108732775 -0.14420982 -0.24711922 -0.08832341 0.06837788 0.09099034 -0.20908003 -0.25463703
0.25765336 0.07618649 -0.08087087 -0.2520057 -0.02769323 0.11671739 0.058246635 -0.08902365
-0.014240907 -0.22410083 0.22478124 -0.13350847 0.062359273 0.012782069 0.14299315 0.20471288
-0.0061494443 0.1274784 -0.1649727 0.01031257 -0.13321042 -0.21707445 -0.07304154 0.13748974
-0.08053618 -0.20644996 -0.06569742 -0.19185697 0.15589264 0.0073154853 -0.18286662 -0.101811305
-0.18244588 0.2141006 0.09001948 0.011821316 0.029959051 0.22352579 0.17283735 0.18794487
-0.10353836 -0.22137766 0.08403961 -0.12078189 -0.2782218 0.05515389 -0.26360264 0.10699276
0.15151516 -0.058853332 0.05390304 -0.2870105 0.021646373 -0.061174322 0.10820777 -0.08143505
-0.14696783 0.18228833 -0.08134498 -0.12679134 0.06148155 0.13143352 -0.035826407 0.20501721
-0.15808073 0.17094553 -0.25958967 0.12550843 -0.105804294 0.1166281 0.25615826 0.0012736878
0.31787047 -0.13580944 -0.09831915 -0.1963348 0.05249053 -0.017586306 -0.17975663 -0.11246775
-0.0622747 0.15010656 -0.012838556 0.061091434 -0.14623782 0.25823224 0.1893389 0.14343593
-0.0283744 -0.011077366 0.09245411 -0.0055640014 -0.09402352 0.05837057 0.18912046 0.019295625
0.041288245 -0.10922309 0.05578738 -0.1554199 0.010954541 -0.22289397 0.05614874 0.22113349
-0.14295343 0.21880324 0.14923264 -0.03308783 0.15497772 -0.2006472 -0.19760065 -0.035953637
-0.100651175 0.021027556 -0.1606338 -0.22215647 0.052630655 -0.10888338 -0.138937 -0.2061158
0.10152639 0.0815783 0.17882822 0.001193099 -0.13179362 0.00064390514 -0.020677129 0.12865439
-0.036662757 -0.015178771 -0.14502898 0.15739636 0.036741596 0.08658832 -0.0019119044 -0.13385652
0.21887596 -0.016080352 -0.050551075 0.18819226 0.26755902 -0.20962 0.0121834455 -0.19709371

bias_ih_l0 f4 [60]
00000000: 8140 7e3d 4657 57be 61a0 6e3c e2aa 10be
00000010: 0738 ce3d be31 fbbd ec31 8d3e 8c59 8c3d
00000020: c758 103e ae64 1cbe 4d3b 9d3c e301 8bbe
00000030: ea0f 063e 375f 74bc 8576 663e b3cc 87bd
00000040: 591d 593e 4ee5 073e 7b75 9a3e 9d44 1bbb
00000050: 2323 c53d d5de 13be 9f89 ab3d a0b8 5b3e
00000060: 6436 363e ca10 db3d b13f 6dbe 6251 2a3e
00000070: d23a 153e fe89 fe3d 7ce0 633e e692 693d
00000080: ccbc 2dbe 8dd3 f23d f595 933d 77d9 2ebd
00000090: 2205 22bc 5943 2fba 7e7c 6dbe fa2f 683e
000000a0: 97e0 a83d 3889 363e bd40 523d a847 cf3c
000000b0: 63ad 58be 363b 7e3e b736 523e 2d6a 153e
000000c0: 584a de3d 469d eabd 0d31 85bd 9964 403d
000000d0: 25f0 963d afe1 2a3e bf4e 80be 6762 3d3d
000000e0: c14c bf3d d65d 223d c8f1 d83d 1cf0 52bd
0.062073234 -0.21029386 0.0145646045 -0.14127687 0.1006928 -0.12265347 0.2757715 0.06853017
0.14096366 -0.15272781 0.019193316 -0.27149877 0.13092008 -0.014915279 0.22506149 -0.0663084
0.21202601 0.13271067 0.30167755 -0.002369202 0.096258424 -0.14440472 0.083758585 0.21457148
0.17794186 0.10696562 -0.23168828 0.16632608 0.1457322 0.12428664 0.22253603 0.05702486
-0.16966552 0.11856756 0.072063364 -0.04268786 -0.009888919 -0.0006685756 -0.23192021 0.22674552
0.08245962 0.17825782 0.05133127 0.025302723 -0.21159892 0.24827275 0.20528685 0.14591284
0.10854024 -0.11455779 -0.06503496 0.046970937 0.07370023 0.16687654 -0.25060079 0.046236422
0.093408115 0.03964027 0.10592991 -0.051498517

bias_hh_l0 f4 [60]
00000000: 71c9 293e 92da cd3d 2bc1 06be 9da8 d8bd
00000010: 6bf1 8d3e 271c 6b3d 50e4 ab3d e1de 853e
00000020: 810d 423d 5cfb 4c3e 4eee d63d bf7a cdbd
00000030: d6cd 2e3c d50e 4e3c 8379 ebbc 545e 5b3e
00000040: 675d 0fbe df87 e43c 322b b53c 2f08 5c3e
00000050: 9e77 f0bd f86e 3a3e aee3 0d3c 0871 acbd
00000060: 47a4 343e d3eb 1b3e 7641 733c 0113 d3bd
00000070: 7a48 0cbe ac83 49bd 172a 033e 4d3f 453d
00000080: 166b aebd b30c 1a3c f166 e63d 1156 3dbe
00000090: 141f 39be a49e 833d 2431 543e 6fe2 663e
000000a0: 3995 12bc 3a0d 79be a790 643e 990e ddbd
000000b0: 146e e93d 311b 493d 70aa 953e a5b1 26be
000000c0: 5842 873e ce73 e7bd cc9a ad3d 8130 5cbd
000000d0: eede 873e 61ca 3cbe f805 773d 34c1 9c3e
000000e0: dae7 123e 5b80 8e3e 928f 7a3e 13c9 a1bd
0.1658075 0.100514546 -0.13159625 -0.105790354 0.2772325 0.057399895 0.083931565 0.26146606
0.04737616 0.20017761 0.10494672 -0.100331776 0.010669192 0.012576778 -0.028744465 0.21422702
-0.14000474 0.02789682 0.022115324 0.21487497 -0.11741565 0.18206394 0.00866024 -0.084199965
0.17640792 0.15226679 0.01484715 -0.10306359 -0.13699523 -0.049197838 0.12809025 0.04815607
-0.08516519 0.009402442 0.11250103 -0.18489863 -0.18078262 0.06426743 0.2072187 0.22547315
-0.00894671 -0.24321452 0.22320805 -0.107938 0.11397949 0.049098197 0.29231596 -0.16278704
0.26417804 -0.11301385 0.08476791 -0.053757194 0.2653727 -0.18436576 0.060308427 0.30616152
0.14346257 0.27832302 0.2446883 -0.0789968

weight_ih_l1 f4 [60, 15]
00000000: 0fa7 493e 2759 05be 1ae5 c5bd 8be2 32bd
00000010: 74af 933e 38fa 2c3e 2a40 b3bd 40f6 a93c
00000020: f218 f6bd 9783 163e 0159 11be 4173 c2bd
00000030: e86b 0d3e 602f 63be 2bed b2bd d052 4f3e
00000040: 2aec 113d f77e 903b 5747 75bd cfae 483e
00000050: 1c7e 0ebd 8701 74be 5891 0d3e 95c9 1a3d
00000060: 62e9 3b3e 5461 39be 942c cd3d 1f23 8b3d
00000070: 879b fdbd c4f3 39be c7e5 babd 94c9 8fbd
00000080: a546 0ebe 0985 4b3e ae9e 20be bec6 cb3c
00000090: 5655 1c3b 53fc e9bc 4f99 3f3e 900b 8f3d
000000a0: 8085 4abe 9bf1 1dbd be11 833e 2124 603e
000000b0: 0580 f23d 5839 cc3d ea83 07be bd25 85bd
000000c0: 701e f53a 079b 8c3e 4645 223e 7e50 e93d
000000d0: f45f 163e f3ec d23c 796c f5bd 8d73 59bb
000000e0: 3e11 8dbd 552a 213e ce6c 163e 5f5f 4d3d
000000f0: ad94 20be 8294 d5bd 939d 8a3e 9c18 97be
00000100: cdb9 953e 71a3 89be 9085 16bd 683c b33d
00000110: 0e58 dbbd ddc2 0fbc e732 1c3e 8d7d 0a3e
00000120: c02c 463e 5282 ea3d efd9 87be d65f 3dbe
00000130: 4733 11be cbe5 323d 76d4 083e be36 04bd
00000140: 1fbc 89be 22ae 84be 4de3 1ebe a82e 8c3d
00000150: 1327 f63c 7932 81be 4d2f 493b e802 a63d
00000160: 02b1 6bbe 6306 bf3b 5055 813d 1c16 60be
00000170: c563 51be 7f05 98be 922b ccbc f8ae 17be
00000180: 343b 383e 44b1 09bc f41b 8bbe a23a f33d
00000190: 6535 b8bc 9765 783e 0ed4 6b3d d9f6 b53c
000001a0: ecf5 d0bc fd98 bc3d 2cdc 013d 70dc b83d
000001b0: cdcb 573c 60c5 79bc 5040 21be d689 25be
000001c0: abff 873e 6fc4 32be 655d 04bd d9bd d5bd
000001d0: 0231 1f3e f37f 24be 6387 cbbd f9b4 cd3d
000001e0: 4779 713d 3d7b df3d 1fea 8ebd 5519 e9bc
000001f0: ef31 693e e332 13be a2ac 4ebe 4661 63be
00000200: 1679 0cbe 1220 133d 7e35 2d3d b4e9 b6bc
00000210: df7d 563e b980 ebbd 1d10 2b3d 0f3e 17be
00000220: bd6d 733e 66a3 473e 9ba1 673d 847e 363d
00000230: 645a 423e 6faf 0cbe acfe ed3b 22ae debc
00000240: cd43 f8bb ea5a 72be 6e27 74be 5545 b93d
00000250: 902f 09be 8298 28be 4379 d33d e2f0 24be
00000260: 7981 953e 712f a6bd 80f6 0f3e 5f45 58be
00000270: b956 1cbe 5798 023c b9c6 3b3e 5189 8cbb
00000280: 44e7 623b de3c 653e ce78 1c3d 1fb1 003e
00000290: 607a 80be e4ce 6abe cd1d 0cbe f6f5 70be
000002a0: 7f9c 4e3e 2b93 8e3c 0dfd 97bd 507f 86be
000002b0: caf5 0a3e b342 69be 0969 5ebd 0637 553e
000002c0: 768e 883e 4e17 f83d f48c 933d a616 173e
000002d0: 3527 713d 4e63 b83d d6f5 733e 26b1 b5bd
000002e0: 31bf 19be 1a6f 72be 6a70 a83d 8a48 29be
000002f0: 900b 02be 52cb 433e 3bb6 e4bd e4e3 9a3d
00000300: b91f 6dbe 6dce 7abe f8ba 283e 4d78 da3d
00000310: 6f4a d33c 2798 98bd a2df 36be ef69 3c3e
00000320: b93b ffbd 2c01 83be 62ef 153e c88c 7ebe
00000330: 4042 5cbe eb34 033e 5fea 303d 2d26 d03d
00000340: c87f 55bc 3247 5e3e fec6 6f3e e546 f1bc
00000350: 8b19 913e c052 953c acab c4bd 3aa6 123e
00000360: f73a d33d e05a 1bbe 1994 7fbe 75ec 4dbe
00000370: 00e5 2fbe e07f d03d 3788 32be bf9a 53be
00000380: 4773 44be 8194 41be 8c82 b23d 930a 8a3e
00000390: b3dd 9c3d 5f3c c73d 320c 71bd 15b8 843e
000003a0: 1f13 c7bd e54b 363e 796d 14be 4b9a 493d
000003b0: f6f4 f93d 6659 9b3c 1aaa 25bc b14c 333e
000003c0: c42e 393e 051a 97bd b4d1 7fbe 204b f4bc
000003d0: 56b8 84bd 93aa 7cbe ca22 1abe f56d 27bd
000003e0: 314a e03d ad6f 1e3e b1a8 dfbd a862 85bd
000003f0: 13ea 193e e100 91be 0968 14be ff68 803e
0.19692634 -0.1302229 -0.09662838 -0.04367308 0.28844798 0.16892326 -0.08752473 0.020747304
-0.12016477 0.14698635 -0.14194109 -0.09494639 0.13810694 -0.22186041 -0.087366425 0.20246434
0.035625614 0.0044096666 -0.059882488 0.19597934 -0.034788236 -0.23828708 0.13824975 0.0377899
0.18350747 -0.18103534 0.10018268 0.06793808 -0.1238318 -0.18159395 -0.09125858 -0.0702087
-0.13894136 0.19874968 -0.15685531 0.024875041 0.0023854575 -0.0285627 0.18710826 0.06984627
-0.19777489 -0.03856049 0.25599474 0.21888782 0.11840824 0.09971875 -0.13233915 -0.06501339
0.0018701088 0.27462026 0.15846738 0.11392306 0.1468504 0.025747752 -0.1198358 -0.0033180446
-0.06888054 0.15738805 0.14689943 0.05013978 -0.15681715 -0.10428716 0.27073345 -0.29510963
0.29243317 -0.26882508 -0.03674847 0.08751756 -0.107101545 -0.008774486 0.15253793 0.13524456
0.19353008 0.11450638 -0.26533458 -0.1849359 -0.14179717 0.04367618 0.13362297 -0.03227877
-0.26901338 -0.25914103 -0.15516396 0.068448365 0.030047929 -0.2523382 0.003069836 0.08106023
-0.23016742 0.005829619 0.063151 -0.21883434 -0.20448215 -0.29691693 -0.02492312 -0.14812839
0.17991334 -0.00840408 -0.27169764 0.11876418 -0.022486398 0.24257503 0.057575278 0.022212433
-0.02550789 0.09208868 0.031704113 0.0902642 0.0131711485 -0.015244812 -0.1574719 -0.16165861
0.26562247 -0.17457746 -0.03231563 -0.10436601 0.15546039 -0.16064434 -0.09937932 0.100442834
0.05895355 0.10912178 -0.06978249 -0.028454462 0.22772954 -0.1437488 -0.20183042 -0.22205076
-0.13718066 0.035919257 0.042287342 -0.022328235 0.20946454 -0.11499161 0.041763414 -0.14769767
0.2377233 0.19495925 0.056550603 0.04455425 0.18979794 -0.13738798 0.0072630253 -0.027182642
-0.007576442 -0.23667493 -0.23843166 0.09046427 -0.1339705 -0.16464427 0.10325863 -0.16107515
0.29200342 -0.081145175 0.14058876 -0.21120213 -0.15267457 0.007970891 0.18337525 -0.0042888303
0.0034622708 0.223865 0.038201146 0.12567566 -0.25093365 -0.22930485 -0.13683243 -0.23531327
0.20176886 0.01740416 -0.074213125 -0.26269007 0.13570324 -0.2277935 -0.054299388 0.20821771
0.2667119 0.1211382 0.07204619 0.14754733 0.05887528 0.09003316 0.23824248 -0.08871679
-0.1501434 -0.23675194 0.08224566 -0.16531578 -0.12699723 0.1912053 -0.1116757 0.07562998
-0.23156632 -0.24492808 0.16477573 0.10667477 0.025792329 -0.07450896 -0.17858747 0.18399785
-0.12462563 -0.25586832 0.14642099 -0.24858391 -0.21509647 0.12813155 0.043192264 0.101635315
-0.013030954 0.21706846 0.23415753 -0.02945275 0.283398 0.018227935 -0.09603056 0.14321223
0.10313981 -0.15171385 -0.24958839 -0.20109732 -0.171772 0.1018064 -0.17434774 -0.206645
-0.191846 -0.18904306 0.08716306 0.26961192 0.07659473 0.09728312 -0.05884952 0.25921693
-0.09720444 0.17802389 -0.14494886 0.04921941 0.12204926 0.018963527 -0.010111356 0.17509724
0.18084246 -0.0737801 -0.24982339 -0.029820979 -0.06480472 -0.24674444 -0.15052333 -0.040876348
0.10951651 0.15472288 -0.10920847 -0.06512958 0.15030698 -0.28320983 -0.14492811 0.25080106

weight_hh_l1 f4 [60, 15]
00000000: 1012 c8bc 588f 25be f790 e63d debe 0bbe
00000010: 7a71 02be 1e6e ba3d 1ed8 8cbd 4c79 7f3d
00000020: 57a6 963e ad6e 8dbb 14ff 053d e4cb 13be
00000030: a698 3d3e 05db 023e 6966 523d 19bf 9cbd
00000040: 9d5a f5bd 24b8 d8bd f376 12bd 7a79 3dbe
00000050: 5a4e 33be 5cfd 9d3d db7d a2be bf76 6dbd
00000060: 82b0 a23d bf1e 013e b511 0b3e 34c7 373e
00000070: ddc0 7d3d 30f1 f53d 7e35 c13d 8d6d 073e
00000080: c56d 44be 46fa 8c3c 5f46 9a3e 5b9f 613d
00000090: d1c7 ebbd 05e8 91bd 207f 15bd a9f7 e83c
000000a0: 53d9 d93c 48b7 393d dbe1 efbc 72f9 e03d
000000b0: 76eb 10be 2f4b 423c d6ba fc3d 9d45 0b3e
000000c0: 8da5 ff3d 3179 fb3d f619 db3d 7581 0c3e
000000d0: dff2 f03d 3ce0 e83d 5e3c febd 6fc8 b93c
000000e0: 8921 1ebe 5fc4 f2bd 1ccc 1f3e 77e7 9c3c
000000f0: 5d08 483d a071 c53d cc3b ab3a 425a 803e
00000100: dd54 853e 1281 1dbe 2078 853e 1440 d03d
00000110: 941d 04bd 046e 7abd b96f 49bd bad9 8a3e
00000120: 1630 30be 3e62 3f3e bde9 7cbd 001c ff3d
00000130: 0aa1 c93d 1a6a d6bc 10bc fd3d 3358 a03e
00000140: dbca 81be 98c9 a7bc bab8 83bd 99c5 43bd
00000150: 46b1 383e 572c fbbd cff4 863e 0191 8ebe
00000160: 2306 99be 8088 64bd 0e45 e2bd 0667 2dbd
00000170: f815 3d3e 1214 533e b190 38be d604 ddbd
00000180: 0d21 29be 5acf 443e 4501 193e d563 753e
00000190: 390f 0abe c2c9 66bc f300 803d d755 6fbd
000001a0: d18e 15be 2a04 163e 3727 ec3d c94a 96bc
000001b0: ee38 91bd 3d9b fd3d 8407 893d 3a67 483d
000001c0: f918 12be 7ea4 b0bd 5562 32be 73b9 d9bd
000001d0: 4556 f8bd cc0a 49be 0ae9 c9bc 1aae 4e3e
000001e0: 22d4 023e 42e9 14be 5ef2 163b 2f3e 57be
000001f0: ccb7 12be e7de 893d b44f 563e b2a2 18bd
00000200: bea3 10be 16f3 f2bd fb2f c33d 3aed 243e
00000210: 3e48 403e c579 343d 3fd9 54bd c16c 123e
00000220: d5a2 2b3e 8515 6ebd 6468 7f3e 0be6 13be
00000230: 3f50 033e 4e01 78be 8380 3cbe e162 033e
00000240: 8202 3a3d bc27 933d c6fb 07be e1aa 55bb
00000250: 95b3 063e 5d11 6a3e 9d6e 353e 781a 97bc
00000260: 51dd e13d 6f78 443e 1153 183e c3bf 3fbe
00000270: b7ee aabd e0a7 4b3d 8868 58bd d009 7d3e
00000280: 086a 6b3d a52a b83d b73e 213e 2b54 93be
00000290: 7fb5 8cbd 59c7 db3d bd50 843c cfb5 58bd
000002a0: 5e00 243d 8456 84bd 8cfe 293e d90c 3e3e
000002b0: 5d4c 833d c564 ba3c 63d4 da3c 9471 b2bd
000002c0: bfd3 443e 8c02 f53d 30ea 02be 10ff d2bd
000002d0: 02d6 37bd 8bec 003d ba6c 813e eed8 47be
000002e0: d93b 753d 3966 86be 0a28 01be 0b3d 88be
000002f0: 2e5c 33be f236 e7bb 91c6 63be 2a8d 143e
00000300: 894b bf3d 5163 063e cd3d 253d 53a0 f43d
00000310: 3e59 9dbe 2894 283d 4365 0c3e 4357 003e
00000320: 0705 73be 23d8 0a3d af7e 1f3e aca2 913e
00000330: e9b0 523e 2c4a 19be ca39 13be 42b0 79be
00000340: 9710 123d 019d 173e c4a8 babd e1be db3c
00000350: 069a 183d ea34 d53c efab 8b3e 56bc 63be
00000360: 981e cfbd 416a 1f3e 0740 fa3d 3df2 a4bc
00000370: 09a8 e43d 7429 173d 3523 87bd edb5 423e
00000380: 2db4 a53e 4dc2 663c 9154 17be 6c5b 733d
00000390: 7f87 96bd 6d7f 843e 091e b93d f07a 68be
000003a0: eaa4 3e3e 8953 483e eaa7 113c bbe6 c93d
000003b0: 9325 ff3c 6928 2f3e ff2c 293e 8f11 913d
000003c0: 41c4 2b3d c401 e7bd debd 13be 5729 a93d
000003d0: 9df7 12be 8261 a13c 43d4 243d 8d58 65be
000003e0: 5147 803d 563a 983e c1d2 4ebd f403 453c
000003f0: 6567 473d 7308 03bc 5cd6 a7bc 7e65 e6bd
-0.024422675 -0.16167963 0.112581186 -0.13647029 -0.127386 0.091030344 -0.068771586 0.062371537
0.29423782 -0.004316172 0.032713965 -0.14433247 0.18515262 0.12778862 0.051367197 -0.076536365
-0.11980174 -0.10581997 -0.03575797 -0.18503371 -0.17510357 0.0771434 -0.31736645 -0.057974573
0.079438224 0.12609385 0.13580973 0.17947084 0.061951507 0.120088935 0.09434031 0.13225384
-0.19182499 0.017209183 0.30131814 0.055083614 -0.11512721 -0.07124332 -0.03649819 0.028438406
0.026592886 0.045340806 -0.029282501 0.10985078 -0.14152321 0.0118587455 0.123403236 0.13600774
0.12482748 0.12278975 0.10698311 0.13721259 0.11765074 0.11370894 -0.12413858 0.022678582
-0.1544248 -0.11853861 0.15605205 0.01915334 0.0488361 0.09640813 0.0013064086 0.2506886
0.26041308 -0.15381268 0.2606821 0.10168472 -0.03225477 -0.061140075 -0.049178813 0.27119237
-0.17205843 0.1868982 -0.061746348 0.124565125 0.09845169 -0.02617364 0.12389386 0.3131729
-0.2535008 -0.02048187 -0.06431718 -0.047795866 0.18036374 -0.122643165 0.2635865 -0.27845004
-0.29887494 -0.05579424 -0.110483274 -0.04233458 0.18465412 0.20613125 -0.18023945 -0.10791938
-0.16516514 0.19219723 0.1494189 0.23963864 -0.1348237 -0.014086189 0.06250181 -0.058431473
-0.14605261 0.14650026 0.11530917 -0.018346207 -0.070909366 0.12383125 0.066908866 0.04892657
-0.14267339 -0.086251244 -0.17420323 -0.10631075 -0.121258296 -0.19633025 -0.024647254 0.20183602
0.12776235 -0.14542106 0.0023032646 -0.21019815 -0.14327925 0.067319684 0.20928842 -0.037264533
-0.14124963 -0.11862771 0.09530636 0.1610612 0.18777558 0.04406144 -0.051964995 0.14299299
0.16761334 -0.05812599 0.24942166 -0.14443223 0.1282358 -0.24219248 -0.18408398 0.12830688
0.045412548 0.07185313 -0.13279638 -0.0032603072 0.13154443 0.22858186 0.17717977 -0.018445238
0.11028541 0.19186567 0.14875437 -0.18725495 -0.083463125 0.049720645 -0.052834064 0.24710774
0.057474166 0.08992509 0.1574658 -0.28775153 -0.06870555 0.10731382 0.01615178 -0.05290776
0.040039413 -0.06461814 0.16601008 0.18559588 0.064110495 0.022753129 0.026712602 -0.087130696
0.192214 0.119633764 -0.12784648 -0.103025556 -0.044881828 0.031475585 0.25278264 -0.19516346
0.05987153 -0.26249865 -0.1261293 -0.26609072 -0.17515633 -0.0070561105 -0.22243716 0.14506975
0.09340579 0.13123824 0.04034214 0.11944642 -0.3073215 0.041156918 0.13710503 0.12533288
-0.23732387 0.03389753 0.1557567 0.2844442 0.20575298 -0.149697 -0.14377514 -0.24383643
0.035660353 0.14805986 -0.09114221 0.026824417 0.037256263 0.026026208 0.27279612 -0.22239813
-0.10113257 0.15567876 0.122192435 -0.02013504 0.11164863 0.036904767 -0.06598512 0.19014712
0.32364026 0.014084411 -0.14778353 0.05941336 -0.073500626 0.25878468 0.09038932 -0.22703147
0.18617597 0.19563116 0.0088901315 0.098584615 0.031145846 0.17105259 0.16521071 0.07083427
0.04193521 -0.11279634 -0.14427897 0.08259838 -0.1435227 0.019699816 0.04024149 -0.2239706
0.062636025 0.29732007 -0.05049396 0.012024868 0.04868259 -0.00799762 -0.020487957 -0.11249827

bias_ih_l1 f4 [60]
00000000: 592d dbbd 576a 9a3e 16a6 c63a a5eb a23b
00000010: 9621 21be fbf1 523e 423a 56be 5ea8 59be
00000020: 3767 91bd 631b 2abe 1c76 e2bd 6a57 ae3d
00000030: 5546 143e a43f f5bd d670 cd3d 8b1e 473e
00000040: 7e54 7c3e ebb3 4abe 3458 763e d627 0ebe
00000050: 7cb4 3cbe 01d7 b4bd a002 1d3e a3a9 193e
00000060: e562 1d3d f3ba 3e3e fb81 fd3c 9947 3fbd
00000070: a26c 943e 7b22 46be 80b8 88be c619 e63d
00000080: f742 ba3d 9068 c1bd d429 3b3d b1af f7bd
00000090: da14 7a3e af6b 32bd f983 8c3e 75c6 5ebe
000000a0: 453d db3d dbcf 393e 783b 82be 4cd7 06be
000000b0: c989 e63d da6f a73d 6a1d 883e fa89 263e
000000c0: 5559 35be fd51 353e b797 8e3e dc77 4ebc
000000d0: cf97 893e 6336 2c3e 4e83 31be 6d70 8c3d
000000e0: 3476 29be 4f81 04be 51ba a03d e6ed 063e
-0.10702009 0.30159256 0.0015155699 0.0049719387 -0.15735468 0.2060012 -0.20920661 -0.21255633
-0.07099765 -0.1661201 -0.11057684 0.08512767 0.14479955 -0.11975029 0.10031287 0.19445245
0.24641606 -0.19795196 0.24057084 -0.13882384 -0.18428224 -0.08830071 0.15333033 0.15006118
0.03842439 0.18626003 0.030945769 -0.04669914 0.2898913 -0.19349091 -0.26703262 0.11235385
0.09094804 -0.09443772 0.045694187 -0.12094057 0.24422017 -0.043559726 0.27444437 -0.21755393
0.107050456 0.18145697 -0.25435996 -0.13168067 0.11256749 0.08175631 0.2658494 0.16263571
-0.17709859 0.17707057 0.27850124 -0.012601819 0.26873633 0.16817622 -0.17335245 0.06857381
-0.16548997 -0.12939952 0.07848037 0.13176689

bias_hh_l1 f4 [60]
00000000: 90ac a43d 3d3d 613d 20a1 10be 0f41 503e
00000010: fb14 063e b32d dc3d d460 683e 598b 743e
00000020: 2e13 463d 0d97 683e 75ab fbbd c667 08be
00000030: 33ff 923d 2342 11be 0545 8abd ce75 883e
00000040: 6f86 2ebe e56e 34bd 83aa 853d 2fa5 fcbb
00000050: 4919 223d cf4f 263e dfbf 263e f0a9 7bbc
00000060: dea3 3a3e 0d8a ea3d e84e 2f3e 6985 043d
00000070: e4c3 0abe 3d27 e7bd a43c b33d a2cb 55be
00000080: af32 823e 5ece 563e f279 003e 3f4c 3ebe
00000090: 90f2 0e3e 2c1b e9bd f584 223e f015 d4bd
000000a0: e011 cabc 8314 773e 6c2c a2bc a99f 52be
000000b0: dbc7 393e 5721 35be d4f8 9d3e 504d acbd
000000c0: 2a21 11be 7d81 13be 6fb2 a63e fcf6 11be
000000d0: c1f1 30be fd83 89bd 90c5 f83d 149a 4a3e
000000e0: 64c0 883d 004d 583e a914 873e 8c9e d73d
0.08040726 0.054990042 -0.14123964 0.20337318 0.13093941 0.10750904 0.22693187 0.23881282
0.048358135 0.22713871 -0.12288562 -0.13320836 0.07177582 -0.14185385 -0.06751446 0.26652378
-0.1704347 -0.04405107 0.06526663 -0.007710121 0.039574895 0.16241382 0.1628413 -0.0153603405
0.18226573 0.11452112 0.17119944 0.032353792 -0.13551289 -0.11286781 0.08751801 -0.20878461
0.25429294 0.2097716 0.12546518 -0.18583773 0.13959718 -0.11382136 0.15871032 -0.10355747
-0.024666727 0.24128918 -0.019796573 -0.20568718 0.18142645 -0.176885 0.30853903 -0.08413184
-0.14172807 -0.14404865 0.3255801 -0.14254373 -0.17279722 -0.06714628 0.12147057 0.19785339
0.066773206 0.21123123 0.2638295 0.10528287

weight f4 [30, 15]
00000000: 2e76 c63d a7aa bc3e ff2f 913d 496e 5ebe
00000010: 2c8a a0be e3a2 c53e 83c1 63be d526 6f3e
00000020: 1d94 62be 20dd 8cbe 1b92 9f3e b154 cdbd
00000030: 0b7c a83d 240d 183e 29e7 b3be 5b67 1a3e
00000040: 81a8 5e3e 1388 efbd 1a36 a63d cdbb 563e
00000050: db12 b13d 2982 953d 37cd 99bd e945 aabc
00000060: 674a a63d d377 08be 7ef1 443e 7bc2 113e
00000070: d2ea bbbd 70db 1fbe f23f 9b3b 4f67 3a3d
00000080: 4b60 e53d f2cc 0cbd e5cc 013d 039e 313e
00000090: d73e 54be cc47 74be 04f9 e83d dd96 0d3e
000000a0: 8da4 a2bd 78cf 30be 90c2 ecbd b288 22be
000000b0: 460c b63c 732a 193e fade b9bd 5a1b 033e
000000c0: 9c3c 32be 85c2 19be 47eb 14be 253f 233d
000000d0: 79cc e83d f96a 013e 7e49 1f3e 2bba 33be
000000e0: e7ec 3bbe 2c58 513e a0a5 2ebe edc5 833e
000000f0: 7ce2 cfbb 4908 8c3e f9aa 36bd 5524 f63d
00000100: 9590 2e3c 03e7 9cbd 4675 37be 2365 0c3d
00000110: 257d ae3b be86 133e de9b 153b 3b80 9e3d
00000120: 3fc7 233e 21d6 36bd acbb cb3b 58a3 8e3d
00000130: 5dee 263e 80c9 fd3d 779b dabd 3bd4 603d
00000140: 0267 3f3e ac23 87bd 1a88 a1bd af5e 67bd
00000150: 4b13 e0bd 495e 463c 9197 253e d271 52be
00000160: 87ba f0bd 3480 383e c390 b23d a1ea 263b
00000170: 0617 253d 100e 2abd 2e89 57bc 9b5a c3bd
00000180: a8eb 1f3d 40c0 953d 493e 5c3e d905 58be
00000190: 96e0 ec3c 80a1 0e3e 9887 e3bd cb49 0e3e
000001a0: ff11 e1bd a3c2 26be e346 853e f641 5fbc
000001b0: c141 c33d 7635 2cbc f52e 033d c42e 61bd
000001c0: b73f e83d d5c3 3bbe 5a9f 5ebe 232c 843d
000001d0: 1aa1 a5bd 5b23 e43c a5da a0bc eb6e 383e
000001e0: 6155 30be f0b5 523e 7dc3 473e 9ad7 393e
000001f0: 86c2 2d3d 3399 893d 42fd f0bd 9ea7 ae3d
00000200: 783f ecbd 7a85 223e 91d8 4abe 78d0 dbbd
00000210: 46d2 4f3e fc0f 4e3e b452 8a3d 6d18 febd
00000220: a792 9cbd 7baa 5e3e b97b e4bd 5497 39bd
00000230: c47d 193e 7524 b53a 5859 53be b60b 353e
00000240: 6fb4 143e 3460 27be d587 083d 5e9f d1bd
00000250: f9f3 3a3e c665 e93d e1dc 283d f4ee 4fbe
00000260: a171 f7bd 642d 90bd 2dab a73c 77e5 bcbd
00000270: 62ef 673e 5d15 2b3e f5f6 e23d 1ffe 8dbd
00000280: 65c1 213e 225a 6abe 8a98 11be 646f 853e
00000290: eddb 0e3e c178 67be a5bd 103e 6da0 673e
000002a0: 6af3 46be f46b 3d3e 6f45 89be d74a 1dbe
000002b0: 5248 ed3d 9de2 383d 63a5 1abb 514c 37be
000002c0: 8b4c c03c c8b1 62be a30a a63d 84cd 893e
000002d0: cafd 21be a448 263e a356 283e 2e62 20be
000002e0: 70e0 9cbd a098 5cbd 1620 a63d 5090 163e
000002f0: 8241 803e 89e8 f03d 33b9 2a3c cb81 8bbc
00000300: 1892 82be 71ef 99be 4450 d53d fd08 6f3d
00000310: 513c d03d fcfe 1b3e 64bd f53d 4de4 0f3e
00000320: 0ae2 913d a3e8 a3bd d6a7 98bd 3dd0 103e
00000330: 8453 c4bd 3307 393e efad 3f3e 6c38 15be
00000340: 8b06 9ebe a99a 68bd 23f2 8bbe 458b 423e
00000350: d605 c13d 7d96 873e f79d 633e ad77 91bd
00000360: 21b6 ad3d 520a 85ba a85c 50bc 5792 da3b
00000370: bb39 603d 14af fdbd 9ce3 2b3e 28aa 943c
00000380: dbf2 513c 1fd7 1a3e 4ae2 6fbd b49e 4ebe
00000390: 7835 20be ec26 593e c94c aebd cf68 b2bd
000003a0: 3738 dbbd d8a5 8bbe 81e9 483c 7010 233d
000003b0: 5f4e 513b f3d0 423d 132e 36be 7004 4ebe
000003c0: 29ec 3fbe 3241 fe3d f4d7 9abd f9df 3f3e
000003d0: 8091 4dbc 27e1 b8bd 7842 c7bb 10a3 6ebe
000003e0: 253c 9d3d 4955 2a3e e57d 053e 2cb7 373e
000003f0: 61b6 a6bd 90b9 2e3e 1c2c 273e 4ea8 e4bd
0.0969051 0.36848947 0.07089233 -0.21721758 -0.31355417 0.38600835 -0.22241788 0.23354657
-0.22126813 -0.27512455 0.31166157 -0.10025919 0.08226784 0.14848763 -0.351373 0.1507849
0.21743967 -0.11695876 0.08115788 0.20970078 0.086461745 0.07300217 -0.07509845 -0.020785289
0.0811966 -0.1332696 0.19232747 0.14234345 -0.09175648 -0.15611053 0.0047378475 0.04550868
0.11200007 -0.03437514 0.031689543 0.17345433 -0.20727096 -0.23855513 0.11375621 0.13827081
-0.07941542 -0.17266643 -0.11560547 -0.15872458 0.02222265 0.149576 -0.090757325 0.12803403
-0.17405933 -0.1501561 -0.14542876 0.03985514 0.11367125 0.12638463 0.15555379 -0.17551486
-0.1835209 0.20443791 -0.17055368 0.25736943 -0.0063441377 0.2735007 -0.044596646 0.120186485
0.010654588 -0.076612495 -0.1791583 0.03427614 0.005324977 0.14406869 0.00228285 0.07739302
0.15993975 -0.044637803 0.0062174406 0.06964749 0.16301866 0.12391949 -0.10674184 0.0548899
0.18691638 -0.06598601 -0.078872874 -0.05648678 -0.1094118 0.01210744 0.16171099 -0.20551232
-0.11754327 0.18017656 0.08719017 0.002546944 0.04030516 -0.041517317 -0.013155265 -0.09538766
0.0390431 0.073120594 0.21508135 -0.2109598 0.028915685 0.13928795 -0.11109847 0.13895337
-0.109897606 -0.16285186 0.26030645 -0.013626566 0.09534026 -0.010510793 0.032027204 -0.05497624
0.11340278 -0.18336423 -0.21740475 0.06453731 -0.08087368 0.02784889 -0.019635508 0.18011062
-0.1722007 0.20577216 0.19508167 0.18148652 0.04242184 0.067186736 -0.11767055 0.08528064
-0.11535543 0.1587123 -0.19809176 -0.10733122 0.20295057 0.20123285 0.067540556 -0.124070026
-0.07645159 0.2174472 -0.11156411 -0.045310333 0.14989382 0.0013820069 -0.2063955 0.17680249
0.14521955 -0.16345292 0.033332665 -0.10235475 0.1825713 0.11396365 0.04122627 -0.20305997
-0.1208222 -0.070399076 0.020467365 -0.092234544 0.22649911 0.16707368 0.110822596 -0.069332354
0.1579643 -0.22885945 -0.14218345 0.26061547 0.13951083 -0.22604658 0.14134844 0.22619791
-0.19428793 0.18498212 -0.26810786 -0.1536058 0.1158606 0.04513799 -0.0023597113 -0.17900206
0.023473999 -0.2213813 0.081074975 0.26914608 -0.15819469 0.16238648 0.164393 -0.15662453
-0.076599956 -0.053856492 0.08111589 0.14703488 0.25049978 0.117631026 0.0104201315 -0.017029664
-0.25502086 -0.30065492 0.104157 0.05835818 0.101677544 0.15233988 0.11999014 0.14051934
0.07123192 -0.08003356 -0.07453887 0.14141937 -0.09586242 0.18069153 0.18718694 -0.14572304
-0.30864367 -0.05678812 -0.27333173 0.1899844 0.09424941 0.26482 0.22228228 -0.071029045
0.08482004 -0.001015017 -0.0127174035 0.006670277 0.054742556 -0.12386909 0.16786045 0.018147543
0.012814249 0.15121125 -0.058565415 -0.20177728 -0.15645397 0.21206254 -0.08510739 -0.08711397
-0.107040815 -0.27274966 0.012262703 0.039810598 0.0031937582 0.04756255 -0.17791013 -0.2011888
-0.18742432 0.12414779 -0.07560721 0.18737783 -0.012546897 -0.090273194 -0.0060809217 -0.23304391
0.07677487 0.16634096 0.13036306 0.17940968 -0.08140255 0.17062974 0.1632542 -0.11164914

bias f4 [30]
00000000: 019c 77be 8cba 7a3d cf3b 253e 4255 acbd
00000010: afb4 3e3e 80d1 0b3e 8a30 3b3c 89cf 443e
00000020: c31b 623e 22e6 5abc 9f98 853d d5ee 5abe
00000030: 3872 04be 8d31 5fbd c528 ecbc 5f95 423e
00000040: fff9 51be e71f 3d3e 1ce8 acbd 2038 583e
00000050: 7f9b c43d dfe3 25be 5a5d 933d 120f 05be
00000060: fe5c f63d 01e0 d4bc 760f 21be dd59 6c3e
00000070: 24f2 553e b4c0 dc3d
-0.24180605 0.06121306 0.16136096 -0.08414699 0.18623613 0.13654137 0.011425147 0.19219793
0.22080903 -0.013360532 0.06523251 -0.2138017 -0.12934196 -0.054490615 -0.028828034 0.19002293
-0.20505522 0.18469201 -0.08442709 0.2111516 0.09599971 -0.16200207 0.0719554 -0.1299403
0.120294556 -0.02598572 -0.15728554 0.23081155 0.2089315 0.10778943
