models/ThirtyClassifier.pt (torch, 21372 bytes, 11 tensors)

weight f4 [5, 8]
000000 4b 85 d7 bf 70 fb a2 bf b5 d3 56 3e 3b 06 ca 3e
       -1.6837553 -1.2732983 0.20979197 0.39457878
000010 42 f2 12 3f b0 59 a8 3f a7 9e 61 3b b8 e7 b4 bf
       0.57400906 1.315237 0.003442684 -1.4133215
000020 3a 97 a8 bf 4c 63 a6 bf a2 48 16 c0 35 a5 5d 3f
       -1.3171151 -1.2999053 -2.3481832 0.8658021
000030 81 f8 f3 3f e7 1e cd bf aa 14 71 bf c5 ba 57 be
       1.9060212 -1.6025056 -0.94172156 -0.2106734
000040 b3 6a d3 3e 23 c3 52 3f 0e fc e6 bf b8 15 f7 3f
       0.41292343 0.82329005 -1.8045671 1.9303503
000050 ed d8 13 3f 58 da 03 c0 04 6e 8d be 18 e0 10 be
       0.5775288 -2.0602016 -0.27622998 -0.14147985
000060 ea 4a c6 bf 87 71 2d bf 4a c3 bb be 06 7d 68 bf
       -1.5491612 -0.67751354 -0.3667243 -0.9081577
000070 0b 37 2a bd 14 e7 0c 3f 36 aa 04 bf 22 97 a3 bf
       -0.0415564 0.550401 -0.5182222 -1.2780497
000080 d0 0c f4 be 4e 8f 95 be b3 f2 b4 bf 62 d6 a5 3f
       -0.47666025 -0.29210895 -1.4136566 1.295605
000090 33 7f cc 3f af e3 15 bd 2f d4 f9 be 97 ed 05 be
       1.5976318 -0.03659409 -0.48794696 -0.13078915

weight_ih_l0 f4 [60, 8]
000000 33 92 07 3e 7c 89 b4 3c eb 2b b2 bd e9 7c 0a be
       0.13239364 0.022038214 -0.08699783 -0.13524212
000010 76 f9 af bc 41 1e ba 3d 57 4f c1 bd 07 d8 24 3e
       -0.021481257 0.09087802 -0.09438961 0.16098033
000020 7a f4 02 3d c2 d8 77 3e 7e 92 1f be ef 53 70 3d
       0.031971432 0.2420378 -0.15583226 0.058673795
000030 7c ca f9 3d 46 3b 63 3d 4f f4 ab 3d dc 1a 91 bd
       0.12196824 0.05547645 0.083962075 -0.07085201
000040 84 81 ff 3d bc 78 4f be ca 12 5d be e0 92 18 3e
       0.12475875 -0.202609 -0.21589199 0.14899778
000050 0d 40 4f be d0 5d 56 3e eb d5 a4 3d 35 33 5f be
       -0.20239277 0.20934224 0.08048614 -0.21796878
000060 dd d5 61 3e cb ab 5e bd 0a e2 80 bd 2f 52 b2 bd
       0.22054239 -0.054363053 -0.062931135 -0.087070815
000070 a8 0f 89 be 2a 63 81 be 45 b3 87 3e cd 0b b4 bd
       -0.26769757 -0.2527097 0.2650396 -0.08791313
000080 20 27 0a 3e 5c f6 f0 3d c1 ff 71 3d 27 74 df bd
       0.13491488 0.11765739 0.059081797 -0.10910826
000090 5b 07 fe bc 20 c5 05 bd bc f4 d3 3d ba 67 c2 bd
       -0.031009367 -0.032658696 0.10349414 -0.094924405
0000a0 75 ac 0d be ce 82 1f 3c 3f 60 7f be 7a 48 82 bd
       -0.13835318 0.009735776 -0.24939059 -0.0636148
0000b0 f9 c3 45 bd 6a 13 48 3e bf ee 0d be 5e b4 6d bd
       -0.048282597 0.19538656 -0.13860606 -0.05803334
0000c0 4a 2d e4 bd 17 25 63 bd 86 b1 4b 3e ae e5 7b be
       -0.11141451 -0.055455294 0.19891939 -0.24599335
0000d0 b2 a5 45 be fd 30 41 3e f6 c1 7b 3e a9 80 3c be
       -0.19301489 0.18866344 0.24585709 -0.18408455
0000e0 7d 7a 24 3e 44 c2 19 3e ef 2c 15 bd cc f7 6a be
       0.1606235 0.15015513 -0.036419805 -0.2294609
0000f0 7e 02 24 3e 09 f4 d2 bd 1a c2 93 bc 14 27 1d bd
       0.16016576 -0.10300452 -0.01803689 -0.038367346
000100 7e 86 d0 bd 8b f2 50 3e ca b2 25 3e e9 0c 81 bd
       -0.10181902 0.20405023 0.16181484 -0.063012905
000110 bd 4c e1 bd 7b 38 56 bd 04 7d 12 3e ae e4 ae bc
       -0.11000965 -0.052299958 0.14305502 -0.021349277
000120 17 55 8a 3e 1f 0f 60 3e 8d 71 c7 3d d5 8b 1f 3e
       0.27018043 0.21880768 0.09738455 0.15580685
000130 e3 f2 56 be 9b ec 5c bd 2f 8b 28 3e ea ff 32 be
       -0.20991091 -0.053936582 0.16459344 -0.17480436
000140 45 ec 9d 3d a4 fa 6f 3d af 8e 78 be 17 08 07 bd
       0.077110805 0.05858864 -0.2427318 -0.0329667
000150 0e b8 82 be fe c1 30 be 54 75 79 bd 89 c3 0b be
       -0.25531048 -0.17261502 -0.06090291 -0.1364881
000160 b7 ea df 3d e1 d5 64 bc 8c 44 33 be 38 c6 8d 3e
       0.1093344 -0.013967008 -0.17506617 0.2769029
000170 4b c2 09 be a8 fd 11 3e 4b 50 40 3e 9f 20 60 3d
       -0.13453023 0.14256918 0.1878063 0.05471861
000180 bc 80 e5 3c 09 10 77 be f1 09 5c 3e 18 65 0a be
       0.028015487 -0.2412721 0.21488167 -0.13515127
000190 5b 25 d9 3d 29 f4 f3 bd 55 7c 77 3e 70 30 a2 bd
       0.10602828 -0.11911804 0.24168523 -0.07919395
0001a0 ea 28 ae bb 5b 47 23 be cd 13 52 3e 4c 96 1d 3e
       -0.005314936 -0.15945189 0.20515366 0.15389365
0001b0 e7 b2 40 be 5a 9d 62 3e 61 6d 6d bd bc 81 68 3e
       -0.18818246 0.22130337 -0.05796564 0.2270574
0001c0 46 33 f1 bd 4f c5 42 3e 9d 1c 49 be be c4 5a be
       -0.11777358 0.1902058 -0.19639821 -0.21364114
0001d0 6f 71 1f 3e 5d d9 c8 bd 9a 94 62 3e 5f 54 12 3e
       0.15570615 -0.09807084 0.22127 0.14289998
0001e0 b1 81 81 be b4 7a d9 bd 5d 36 72 be 6a 07 db bc
       -0.2529426 -0.10619107 -0.2365355 -0.026736934
0001f0 82 78 68 3e 4f e4 4c 3e 36 35 d1 bc c7 d0 8a be
       0.2270222 0.20008968 -0.025538068 -0.2711241
000200 58 b0 f9 bb 35 ef 02 bd fc 18 cd 3d 2e 6d 03 3a
       -0.0076198988 -0.031966407 0.10014531 0.00050135225
000210 67 64 72 be 42 13 73 3e c7 4b ac bc 55 60 82 bc
       -0.23671113 0.23737815 -0.021032227 -0.015915075
000220 30 26 0b be ec 18 ad 3d 8f 1e 57 3d 88 2f ca 3d
       -0.13588786 0.08452019 0.052519377 0.09872347
000230 85 a5 0e 3d d4 4f ac bc d9 61 3e 3e 61 0a 1e 3e
       0.03482582 -0.021034159 0.18592013 0.15433647
000240 16 f6 c9 3d b6 cd 6b be de 3d 28 3e d7 4e 24 3e
       0.0986139 -0.23027691 0.1642985 0.160457
000250 27 a3 f9 3d 62 7d 08 3e 14 ca 44 be 2c 0e a8 3d
       0.12189322 0.1332908 -0.19217712 0.08205828
000260 8e f5 4a 3e 81 60 96 3d 87 7c 69 3e e7 ec 2b 3e
       0.19820234 0.073426254 0.2280141 0.1678959
000270 9b f3 75 3d 1d 03 39 3e 21 4b b7 bd 40 f7 5a 3e
       0.060046773 0.18067594 -0.089498766 0.21383381
000280 d2 77 d0 bd 04 13 3a be b8 48 7f 3c df 92 22 be
       -0.10179104 -0.18171316 0.015581302 -0.1587634
000290 24 ff 6e 3e 39 33 50 bd ad 5d f9 3c 03 8f a7 3d
       0.23339516 -0.0508301 0.030440176 0.08181574
0002a0 b0 9f 35 be 72 85 54 be 58 a7 7c be 60 9d d7 bc
       -0.17736697 -0.2075403 -0.24673212 -0.02632016
0002b0 a7 a2 cc bd 7e b0 65 be 6f 61 5d 3e 5d a0 bb 3c
       -0.09991961 -0.22430608 0.21619199 0.022903616
0002c0 50 45 75 be 1e 6e 35 3e 6a 87 4f 3e 19 34 23 3e
       -0.23952222 0.17717788 0.202665 0.15937842
0002d0 a5 50 25 3e b7 88 b9 3d b5 8f 09 bc 0f fa 84 be
       0.16144045 0.090592794 -0.008396079 -0.2597203
0002e0 e4 e7 34 3e 78 2b 14 3d 8c 62 0b be 9e 59 d3 3d
       0.17666584 0.036174268 -0.13611811 0.103198275
0002f0 93 06 a9 3d f2 a7 e4 bd 0a 5d 51 be 70 55 2b 3e
       0.08253207 -0.111648455 -0.20445648 0.1673181
000300 66 2c 7c be dc 2b 20 be c7 cd 11 3e 35 7f 7a 3e
       -0.24626312 -0.15641731 0.14238654 0.24462588
000310 d6 10 eb 3d 1c 32 13 be 2d 8a 2e 3e b8 88 ab 3c
       0.114778206 -0.14374584 0.17044897 0.020939216
000320 23 ef fc 3d 04 08 c4 bd b9 4f 80 3d b5 ae bd bd
       0.12350299 -0.09571841 0.06265206 -0.09261838
000330 1f c9 3c 3c 5b be db bd 22 62 26 be 15 d5 ae 3d
       0.01152256 -0.10729667 -0.16248372 0.08536736
000340 8b 1c a4 bd fb a4 0a 3e 53 9b b7 bd 12 96 28 be
       -0.08013257 0.13539498 -0.089651726 -0.16463497
000350 24 cc e6 3b 38 a0 f1 bd f1 53 76 be 78 d5 13 3e
       0.0070433784 -0.117981374 -0.24055459 0.144369
000360 b1 b9 d3 3d b9 bd 27 bd fd b7 b9 bc 69 54 f3 bd
       0.10338152 -0.040952418 -0.02267074 -0.11881334
000370 43 27 11 3d bf e3 12 be 6d 67 7d 3e da f3 c3 3d
       0.035437834 -0.1434469 0.24746485 0.09567995
000380 b2 8d 65 bd 0b 9b 00 be 56 d7 a5 3c 00 05 72 3e
       -0.056043334 -0.12559144 0.020244282 0.2363472
000390 c0 15 8a bd db 67 bb bd 5a 27 21 bd 50 8b 32 3e
       -0.0674243 -0.09150668 -0.03934417 0.17435956
0003a0 38 9d 13 3d a9 fb 1b 3d fb 56 a4 bd 37 b0 ac bc
       0.036038607 0.0380818 -0.08024403 -0.02108012
0003b0 df 1c 83 bd c9 40 c4 bd e8 72 2d 3d 07 d4 f9 bd
       -0.06401991 -0.09582669 0.04234591 -0.12198644
0003c0 11 cd 8e bd a7 3b 94 3c 11 79 69 3e f4 c6 f0 3d
       -0.06972707 0.01809485 0.2280009 0.11756697
0003d0 b8 97 19 be 29 7f 2e be e6 67 09 be 8c d1 62 bd
       -0.14999282 -0.17040695 -0.1341854 -0.05537562
0003e0 50 2f 39 3d 5f 54 22 be 75 2a 3b be 54 e7 84 bd
       0.045211136 -0.15852498 -0.18277915 -0.06489435
0003f0 93 5a d9 3d ba 26 02 3e 88 1b 9d bb 13 d7 6f 3e
       0.10612979 0.12710086 -0.0047945417 0.23421888

weight_hh_l0 f4 [60, 15]
000000 9b 1c 0f 3d 1b 81 26 3e ff 99 54 3e 20 15 6c 3e
       0.03493939 0.16260187 0.2076187 0.23054934
000010 01 54 c4 bc bc 62 e9 3d 81 cd d3 3d 55 e7 23 3d
       -0.023965837 0.11395785 0.10341931 0.040015537
000020 0e f8 5c 3e 06 cd 70 be 01 6c 64 3d 48 b4 82 bd
       0.21579 -0.2351571 0.055767063 -0.06382042
000030 ed 83 5b 3e 2f 85 a1 bb 75 dd 0f 3d 7e 11 9c 3d
       0.21437044 -0.004929207 0.035123307 0.07620524
000040 8a 51 cd 3c 27 df e1 bc 31 c2 f0 3d 6f ac 40 3d
       0.025063295 -0.027572228 0.11755789 0.047039445
000050 12 39 c4 bd b8 e6 20 be b9 58 27 3e f7 1b ae bd
       -0.09581198 -0.15713012 0.16342439 -0.085014276
000060 9b 55 15 be 4f 64 ad 3d b7 7b 2a 3d e1 64 2c bc
       -0.14583437 0.08466398 0.04162189 -0.010522098
000070 19 ca 08 bc 88 2d 72 3e 56 cb ca ba 69 d0 22 3e
       -0.008348965 0.23650181 -0.0015471976 0.15899815
000080 be b0 06 be 62 d8 5c 3d 9f f5 60 3e 90 8e 73 3d
       -0.1315336 0.053917296 0.21968697 0.05946213
000090 3f 53 1b be 2d 8a 4f 3a f6 30 73 be 42 19 6b 3e
       -0.15168475 0.0007917013 -0.23749146 0.22958854
0000a0 ae d1 8d bd 3e b9 cf bd ce 36 02 be 98 59 54 3e
       -0.06924759 -0.10142754 -0.12716219 0.20737302
0000b0 76 43 3d be 36 0d b6 bd f1 43 7c be ab e5 40 be
       -0.18482766 -0.088892385 -0.24635293 -0.18837611
0000c0 1c 73 64 3d d2 3a 3f 3e dd fb 42 3e ac bd 65 bd
       0.05577384 0.18674782 0.1904139 -0.05608909
0000d0 27 d8 0c be b4 17 f9 3c 10 1b d2 bd 47 3d 3f be
       -0.1375433 0.03040681 -0.10259068 -0.18675719
0000e0 3f de 5c 3e 69 73 c4 bd da 86 00 bd 5b b7 2d be
       0.21569155 -0.09592325 -0.031378604 -0.16964476
0000f0 34 5c 7c be 70 97 78 bd 17 a4 04 bd 6e 3f 4e be
       -0.24644548 -0.060691297 -0.03238305 -0.20141384
000100 08 6b 42 be 1a 21 fa 3d e2 b5 b4 3c ee 92 35 3d
       -0.18986142 0.12213345 0.022059385 0.044329576
000110 6a 23 4f bd f5 a6 56 be 52 5c 00 3e 48 59 55 be
       -0.050570883 -0.20962127 0.12535217 -0.2083484
000120 06 26 86 3e 12 6a 59 be 53 14 a4 bd 38 97 9f bd
       0.26200885 -0.21231869 -0.08011689 -0.077925146
000130 a8 40 47 be be 91 39 be 5d f8 da 3d 19 57 33 be
       -0.19458258 -0.18122002 0.10691903 -0.17513694
000140 68 f0 54 bc cd 8a 8e 3e 26 b8 b6 bd ce 23 49 3d
       -0.01299677 0.27840272 -0.08921842 0.04910641
000150 0f 90 a3 bd 78 10 e5 bd f9 a8 08 be e0 3a 58 3e
       -0.07986461 -0.11184782 -0.13345708 0.21116209
000160 92 24 31 3e fe 59 ca 3d 5e 99 0f be d7 1a 0b be
       0.17299107 0.09880446 -0.14023349 -0.13584457
000170 27 8f 05 bc af ea 2e be 91 77 b6 bd d7 f7 5f be
       -0.008151806 -0.17081712 -0.08909524 -0.21871887
000180 93 69 0f 3e ed 60 4b bd d7 50 ee 3d 6b 4f b6 bd
       0.14005117 -0.049652983 0.11636513 -0.089018665
000190 37 aa e3 3d 4a de 43 3e b5 30 85 bb e3 ca 5f be
       0.1111645 0.19127765 -0.004064644 -0.21854739
0001a0 74 70 f6 3d 53 ae d4 bd 46 2f 18 3e 36 08 e4 bd
       0.120331675 -0.10384812 0.14861783 -0.111343786
0001b0 d8 83 66 3c 59 ea ce bd 36 dc e3 3d ba 8a 90 3d
       0.01406952 -0.10103292 0.11125986 0.0705771
0001c0 08 31 95 3d b3 28 30 3e 26 c0 08 3e 78 1d 41 be
       0.072847426 0.17203026 0.13354549 -0.18858898
0001d0 91 65 08 bd ae d0 c7 3d 94 3c 51 3d 8c e0 3e be
       -0.033299986 0.09756599 0.051083162 -0.18640345
0001e0 3a fb 1b 3e 8b 21 0b be 46 54 85 be 2a 7d 82 be
       0.15232554 -0.13587014 -0.26040858 -0.25486118
0001f0 20 f5 d5 3c e9 7d 67 3e fa ce 67 3c 34 61 3d 3e
       0.026117861 0.22606625 0.014148468 0.18494111
000200 67 eb 66 be 73 73 5c be 83 33 79 3d f6 7c cf 3d
       -0.22550736 -0.21528415 0.06084014 0.10131256
000210 a2 27 84 bd 9a a0 24 3e a8 27 e0 bd 90 10 70 ba
       -0.06452872 0.1607689 -0.10945064 -0.00091577414
000220 9f 45 82 3e d3 78 0e be 54 81 25 bd 6a ab 4a bc
       0.25443742 -0.13913278 -0.04040654 -0.01236997
000230 3d a5 1b bd 3a 9c 11 be bd b7 55 3e 8e 8e 4d 3e
       -0.03799938 -0.14219752 0.20870872 0.20073912
000240 bb 7e 20 be af 5b 81 3e 89 9f 47 be 37 df 50 be
       -0.15673344 0.25265262 -0.19494452 -0.2039765
000250 33 d9 8d 3d e7 e3 01 3b c9 cb 7d be 5e 0c a6 3d
       0.06926193 0.0019819678 -0.24784769 0.081078276
000260 18 2e 26 3e 19 ea 0f be 60 15 2a 3e 77 0e 1b bd
       0.16228521 -0.14054145 0.16609716 -0.03785559
000270 bc 6d 64 3c 1b 62 14 bd 20 cd a5 3d d1 6c 5a bc
       0.013942178 -0.036226373 0.08095765 -0.013331608
000280 72 27 e0 bd 50 0c 6d 3e bb a6 f4 3c 8b 98 06 3e
       -0.109450236 0.23149228 0.02986466 0.13144128
000290 33 87 e5 bd fa f9 d4 3d 99 0b 43 3e ea ad 25 be
       -0.11207428 0.10399242 0.19047393 -0.16179624
0002a0 1b ea 47 3e ed 5f 0f 3d 18 96 1a bd fe 03 91 bd
       0.19522898 0.03500359 -0.037740797 -0.070808396
0002b0 b4 ef 70 3e 2b f8 0f 3e 4b 66 bf bd 68 bc 72 3e
       0.2352894 0.14059512 -0.09345683 0.23704684
0002c0 45 de 88 3d 84 d0 7d be 9a 97 79 3e 27 85 47 be
       0.066830195 -0.24786574 0.24374238 -0.19484387
0002d0 f8 e6 2a 3e 10 ab 6f 3e ea 58 4b 3e bc 84 63 be
       0.1668967 0.23405099 0.19858137 -0.22218603
0002e0 2b 9e 7e 3e 1b 37 b0 3c 89 95 7e bd b9 cd 5f be
       0.24865024 0.021510651 -0.062154327 -0.2185582
0002f0 71 21 26 be 1d 85 66 be a7 9e 21 be c8 c8 28 bd
       -0.16223694 -0.22511716 -0.15783177 -0.041207105
000300 2f fe 7e be 9c a2 13 3d 71 af 0f 3e 71 ac 56 bd
       -0.24901651 0.03604375 0.1403177 -0.052410547
000310 ea 61 46 3e ca 66 6d bd 50 1c 4c be c1 6d 61 be
       0.19373289 -0.057959355 -0.19932675 -0.22014524
000320 93 74 6c 3e 9a da c1 bd 96 96 34 be bc c8 c8 3c
       0.23091345 -0.09465523 -0.17635569 0.02450978
000330 c2 78 8e 3d e5 17 29 3d 2f b0 63 3e a7 9f 5a be
       0.069566265 0.041282553 0.22235177 -0.21349965
000340 85 94 63 be c6 b7 e7 3d 2c 94 9e 3c 77 e2 22 3d
       -0.22224624 0.11314349 0.019357763 0.039766755
000350 af 35 04 bd ad 4d b9 3c 4e 0a 2e bd 9e b3 10 bd
       -0.03227776 0.022620047 -0.042490296 -0.035327546
000360 f5 38 2b 3e 66 f5 4c be 53 84 7f bd 7f 5c 6c 3e
       0.16720946 -0.20015487 -0.062382054 0.2308216
000370 19 a7 36 3e aa 98 3e be ea fb 0e bd e4 ba 18 3e
       0.1783718 -0.18612924 -0.034908213 0.14915043
000380 6f d0 0b be e4 91 5d be f6 b3 f8 bd 01 4c 71 3e
       -0.1365373 -0.21637684 -0.121437 0.2356415
000390 b7 07 4b be 7d 40 14 3e 3f 43 71 be 23 5c e2 bd
       -0.19827162 0.14477725 -0.23560809 -0.1105273
0003a0 3a d0 4c be 0c 8e 32 3d c3 d9 a9 bd 8c dd 99 bd
       -0.20001307 0.043592498 -0.08293488 -0.0751296
0003b0 44 92 65 3d a9 08 46 3d ba ff 11 3d 3c 29 67 3e
       0.056047693 0.048348103 0.03564427 0.22574323
0003c0 9e b6 b7 3b 34 aa c3 3d 0b 54 f9 3d 1b ad 0a 3e
       0.0056064865 0.09553948 0.12174233 0.13542597
0003d0 3d 84 32 be 3c 46 3d be d5 d9 83 be 74 82 17 bc
       -0.17433257 -0.18483824 -0.2575213 -0.009247411
0003e0 bd 16 4c be 2d c9 2a be 92 0d b4 3d e3 df 46 be
       -0.19930549 -0.16678305 0.08791651 -0.19421344
0003f0 64 c9 d2 bd 63 91 e4 bd a8 cf b4 bd 71 50 5f 3e
       -0.102923185 -0.11160543 -0.0882867 0.2180803

bias_ih_l0 f4 [60]
000000 c3 a7 b9 3c 41 79 99 3d 12 4c 70 be 97 fa 06 be
       0.022663003 0.074938305 -0.23466519 -0.1318153
000010 d3 ce 27 be 22 86 54 be c5 db 78 3e 15 98 2f be
       -0.16387491 -0.20754293 0.24302585 -0.17147858
000020 65 a7 37 be 41 78 18 be f6 16 60 3d b0 7f b4 bd
       -0.1793495 -0.14889623 0.054709397 -0.08813417
000030 11 38 d7 bd d7 71 3a be 97 27 01 3e 76 dc 23 3e
       -0.10508741 -0.18207489 0.12612759 0.16002068
000040 fb 52 45 be da 63 65 bd fd 8a 21 bd 95 ab d0 bd
       -0.19269936 -0.05600343 -0.03943919 -0.10188977
000050 c7 66 e4 bc 44 a0 45 bc d9 bb d0 3d 26 64 19 be
       -0.02788104 -0.012062136 0.10192079 -0.1497961
000060 6d 6b 5e bd f0 d7 d3 3d 08 d8 11 be e5 84 92 3d
       -0.054301668 0.10343921 -0.14242566 0.07154254
000070 cb 58 83 3c 5b 41 94 bd 0b cc 88 bd 81 e1 58 3e
       0.01603355 -0.07239028 -0.06679543 0.21179773
000080 88 06 4c 3d 7f 51 20 3e c2 03 7e 3e 6c 68 20 be
       0.049810916 0.15656088 0.24806121 -0.15664834
000090 a6 d6 e0 3d e9 a4 0b be 33 4f 02 3e e5 cc b8 3d
       0.10978441 -0.13637127 0.12725525 0.090234555
0000a0 9a 6e 98 3a 00 f6 b5 bd f4 72 54 3e 15 44 72 bd
       0.0011629642 -0.088848114 0.20746976 -0.05914696
0000b0 d0 8d 74 bd b3 d0 d1 b9 20 21 b1 bc ae 56 82 3d
       -0.059705555 -0.0004001908 -0.02162224 0.06364189
0000c0 ff d3 8b bc 37 99 1a 3e fb 90 fd bd be 23 06 be
       -0.017068861 0.1509751 -0.123811685 -0.13099572
0000d0 bf 10 d2 3c c5 60 cc 3c dc 54 88 3e 21 31 0e 3e
       0.02564275 0.024948487 0.26627243 0.13885929
0000e0 bb a8 ad bd 75 4e 3d be 5d e1 d5 bd 60 14 d3 3d
       -0.084794484 -0.1848696 -0.10443375 0.103066206

bias_hh_l0 f4 [60]
000000 95 75 e4 3d 0b 04 4d 3e e9 5d 0f 3e f8 fd 62 be
       0.111552395 0.20021074 0.14000668 -0.22167194
000010 7a d9 25 bd f0 70 2d 3c 45 4f 9e bd fc bb e2 3b
       -0.040490605 0.010586008 -0.07729963 0.006919382
000020 22 0f a3 bd df 58 e4 3d 3d 0a 23 be 18 30 1e 3e
       -0.07961871 0.11149763 -0.15921874 0.15448034
000030 1a 50 76 be 4a f1 83 3e 6d 9c a2 3d 0c 53 de 3d
       -0.24053994 0.25770026 0.07939992 0.10855684
000040 6b 03 12 be b0 c0 07 be 64 07 85 be 57 82 76 3d
       -0.14259116 -0.13257098 -0.259822 0.060182896
000050 08 b3 33 3e ff 20 2c 3d f2 1f 80 3e 3e 8e 03 bd
       0.17548764 0.042023655 0.25024372 -0.032118075
000060 8e f7 89 3d 1c 62 2a 3d 3a 18 07 be 7d 36 c3 bd
       0.067366704 0.04159747 -0.13192835 -0.09531877
000070 12 c5 86 be cb ce 48 be ee 67 21 3d 82 e0 bc 3d
       -0.26322228 -0.19610135 0.039405756 0.09222509
000080 78 10 25 bc fb 4e 79 be 58 b2 c4 bb 9b 31 25 be
       -0.010074727 -0.24346535 -0.0060027055 -0.16132204
000090 44 2e 26 3e d0 c1 68 be 69 51 66 3c e5 23 67 3e
       0.16228586 -0.22730184 0.014057496 0.22572286
0000a0 fb d1 80 be 9e 4d 08 be e7 d0 88 3d d5 65 32 3e
       -0.25160202 -0.13310859 0.0668047 0.17421658
0000b0 42 1f 03 3e 7a 0b 5d be 4e bb 46 3d c6 e5 eb 3d
       0.12804893 -0.21586409 0.04851847 0.11518435
0000c0 4e 94 7f 3d f0 54 86 3e 1b 8a 83 3d 6c 9b d5 bd
       0.062397294 0.26236677 0.06422826 -0.10430035
0000d0 e4 33 a4 3d 38 e9 1a be 41 02 db bd ac e5 36 be
       0.0801771 -0.15128028 -0.10693789 -0.1786105
0000e0 a2 5d 5a 3e 86 17 cc 3d 34 ca 74 3e b4 fc 77 be
       0.2132478 0.09965424 0.2390526 -0.24217492

weight_ih_l1 f4 [60, 15]
000000 3b d2 46 3e 4a d0 e6 3d 09 f3 51 3d d8 7f 68 be
       0.19416134 0.11270197 0.051257167 -0.22705019
000010 9c 9c 1d be 5e 3a a9 bd ad 44 44 be 2e a2 4a be
       -0.15391773 -0.08263086 -0.19166823 -0.19788429
000020 f8 9d 12 3c cf 45 6b 3e d3 0f 84 be 1b cd 49 3e
       0.0089487955 0.22975849 -0.25793323 0.19707148
000030 13 c7 75 3c 56 2e 28 bb 32 b0 5e be 6a 34 5d be
       0.015001076 -0.0025662384 -0.217469 -0.21602026
000040 15 bf e1 3c 6d 37 94 3d 5f 84 c6 3d 62 4e cd bd
       0.027556935 0.07237134 0.096932165 -0.10024716
000050 82 24 ae 3c 0b 91 93 bc 70 6d 06 bd de 0a 25 be
       0.021257643 -0.018013498 -0.03281921 -0.16117427
000060 8b 4d 9b 3d bd 60 4e 3e 01 96 71 bc ce 5b 49 3e
       0.075831495 0.2015409 -0.014745236 0.19663927
000070 8d 43 15 bd cf 24 18 3e a1 cc 66 3e 86 51 4d be
       -0.036441375 0.14857791 0.22538997 -0.2005063
000080 8a 7a 6b 3e 50 cb 00 be b6 81 ed bc 63 80 54 be
       0.22995964 -0.12577558 -0.028992515 -0.207521
000090 c2 2d 1e be ba 4c 41 3e bc 2f 0a bd a2 a1 49 be
       -0.15447143 0.18876925 -0.03373693 -0.19690564
0000a0 1d d1 70 bd 55 e2 1c bd 44 6f f9 3d 01 0e 86 39
       -0.058793176 -0.038301785 0.12179425 0.00025568905
0000b0 21 e4 b2 3d ed b9 9d bc f7 41 49 be a8 7f 88 3e
       0.087349184 -0.019253695 -0.1965407 0.26659894
0000c0 e1 d5 a1 bc 46 b4 46 3e 7f 63 02 3d 46 9b 04 be
       -0.019755306 0.19404706 0.031833168 -0.12949857
0000d0 cb 5c 13 3d e2 13 3f be 2a 82 da bd e5 c7 0e 3d
       0.035977166 -0.18659928 -0.10669358 0.034858603
0000e0 f4 0a ae bc 8f e4 3b be fa c4 44 3d ca a3 e6 3d
       -0.021245457 -0.18348907 0.048039414 0.11261709
0000f0 e6 66 38 be 73 0c 6f be cb f6 f2 3d 82 16 08 bd
       -0.18008003 -0.23344593 0.11863478 -0.03322459
000100 44 2e 3e 3e 41 63 bb bd b5 0a fc 3d b7 7b 27 3e
       0.18572336 -0.091497906 0.1230673 0.16355787
000110 b8 6d 0c 3e 76 bc 46 3e d5 1b 90 bc 33 f3 74 bd
       0.1371373 0.1940783 -0.017591396 -0.059802245
000120 99 55 b0 3d 13 71 2b 3c 1c bf 1f be 92 9e 3f bd
       0.086100765 0.010463971 -0.15600246 -0.046782084
000130 21 ed 01 3e e9 c9 5a be f4 7f 21 3e a3 73 84 3e
       0.12688114 -0.21366085 0.15771466 0.25869474
000140 2c b9 d8 bd 9b 83 39 3e a3 fa 07 bd af b5 1f be
       -0.10582194 0.1811661 -0.03319801 -0.1559665
000150 0d a8 41 3d 32 c1 0c 3e bf c4 18 3c f2 fd b3 3b
       0.047279406 0.13745573 0.009324252 0.005492919
000160 8a f6 18 be b2 e8 d7 3b 40 d6 21 bd 4a 09 9c bd
       -0.14937797 0.0065890187 -0.039510965 -0.07618959
000170 fe c8 89 3d be 8f 38 3d b2 83 51 3e 57 fe 3a be
       0.06727789 0.04505896 0.20460394 -0.18261085
000180 39 00 64 3e c7 ef d9 bd 36 ac 48 3d 7b ca 8e 3d
       0.2226571 -0.10641437 0.04899236 0.06972214
000190 f4 ad 8b bd 68 00 1a bd 51 64 83 be 72 64 06 3e
       -0.06820288 -0.037598044 -0.25662473 0.13124254
0001a0 cb cf 26 3d 2c ab 74 3e 99 e9 90 3c 71 48 84 be
       0.04072551 0.23893422 0.017689513 -0.25836518
0001b0 ac cc 75 3e 1b f7 5c be b1 12 17 bd 1f 2b 2f be
       0.24003857 -0.21578638 -0.03688306 -0.17106293
0001c0 ad 1c 18 bd 42 c6 02 be 97 e1 10 be eb 12 2c bd
       -0.037136722 -0.12770942 -0.14148556 -0.04201023
0001d0 a0 89 1d 3e d3 99 f7 bd 0c 4c 81 3e 3d 1b 1d bd
       0.15384531 -0.120898865 0.25253332 -0.038356055
0001e0 b5 34 3f 3e 34 76 6c 3e d8 90 33 3d 79 b5 1d 3e
       0.1867245 0.23091966 0.043839306 0.15401258
0001f0 2a 0d 24 be 0f d1 5f 3d 63 80 05 3e e8 49 c0 bb
       -0.16020647 0.054642733 0.13037257 -0.0058681853
000200 20 0b 3b 3e e7 d6 7f 3d 99 0b 8a bd 45 ec 59 3e
       0.18265963 0.062460806 -0.06740493 0.21281536
000210 60 1d d5 bd 95 26 35 be d4 4f 1e 3e 04 a7 a3 bd
       -0.104059935 -0.17690499 0.1546014 -0.0799084
000220 2f 6d ed 3c 19 6c d8 3c f3 06 99 bd 98 40 45 3e
       0.028982727 0.026418732 -0.074720286 0.19262922
000230 39 e4 20 3e b0 a6 86 3d 8f f3 9d 3d 47 11 4c be
       0.1571206 0.06574762 0.07712471 -0.19928466
000240 fa 38 a9 3c 5d a3 5b bd ad cd cf 3c 16 1f ed 3d
       0.020657051 -0.053622592 0.025366629 0.11578195
000250 5e f8 0a 3e a8 2e 65 bd 92 00 87 be 78 b7 6d 3e
       0.13571307 -0.055952698 -0.26367623 0.23214519
000260 c6 93 01 ba c5 dd 35 bd f7 79 2a 3e 32 73 5c 3e
       -0.00049429794 -0.04440095 0.16648088 0.21528319
000270 17 58 01 bd 68 1c 84 be 48 96 d3 bd 6b 86 40 3e
       -0.03157815 -0.25802922 -0.10331398 0.18801276
000280 12 91 0b bc 9e 1f 95 3d d4 e4 77 3e 84 d6 3b 3e
       -0.008518474 0.07281421 0.24208385 0.1834355
000290 60 92 25 3e 01 ca d9 bd 5f ea 32 be d3 dd 2f be
       0.16169119 -0.10634232 -0.17472218 -0.17174463
0002a0 2b 7b 17 3c 82 68 28 be a1 64 18 3d 7f 9f ff 3d
       0.009245674 -0.16446117 0.037205342 0.12481593
0002b0 2b d3 49 bd d8 3a 09 3e 26 bc 59 3e 4c 20 43 3e
       -0.04927365 0.13401353 0.21263179 0.19055289
0002c0 27 69 30 3d 5b 1c 78 3e e6 d5 ff 3d f4 c6 38 be
       0.04306903 0.24229567 0.1249197 -0.18044645
0002d0 12 3c 85 3c f6 55 4e 3e 72 23 ec 3d 9e 57 7d bc
       0.016263995 0.20149979 0.11530198 -0.015462784
0002e0 72 49 60 3c 04 a1 63 3d 31 4a 70 3e 0f 83 7c bc
       0.013689386 0.05557348 0.23465802 -0.015412106
0002f0 d5 8e 17 3d a1 72 64 3e f8 1f 23 3e 14 db 87 3e
       0.03700145 0.22309352 0.15930164 0.2653433
000300 2d f9 fd 3d 4b e4 6e be 78 78 9f bd e1 83 d9 3d
       0.12401042 -0.23329274 -0.077866495 0.10620857
000310 6c 4d 47 be dc f1 b3 bd f3 32 7a bd 83 67 36 3e
       -0.19463128 -0.087863654 -0.061083745 0.17812924
000320 c8 44 0e bd e6 b6 4f 3e db 6d 64 3e b5 c0 5a be
       -0.034733564 0.20284614 0.22307532 -0.21362574
000330 83 d1 df bd 9b b3 73 bd 82 09 58 3e 9d 28 b4 3d
       -0.10928633 -0.059497457 0.21097377 0.08796809
000340 b7 87 88 3d 50 d8 f4 3d aa b2 ed 3c 3c 5f 56 3e
       0.066665106 0.11955321 0.029015858 0.20934767
000350 70 1f 5c 3e c2 a0 13 bd c4 76 9d bd 2c 70 4c 3e
       0.21496367 -0.036041982 -0.07688668 0.19964665
000360 17 d5 69 3e b3 76 6e bd ec f4 09 bd a0 15 86 3e
       0.22835194 -0.05821867 -0.03368084 0.26188374
000370 c8 51 dd bd 94 1d e1 3d 77 c5 33 bd 27 e8 50 3e
       -0.10806614 0.1099197 -0.04388949 0.20401059
000380 12 07 58 bb 32 bc 65 3e 48 94 df 3c ad 06 de bd
       -0.0032963199 0.22435072 0.027292386 -0.10841117
000390 a4 79 23 3e 18 d4 c2 3c b8 d5 56 be 55 1f 6b be
       0.15964371 0.023782775 -0.20979965 -0.22961171
0003a0 45 95 51 3d da bb 83 bc 65 e4 cc 3d 02 3b e0 bd
       0.051167745 -0.016080786 0.100045 -0.10948755
0003b0 cf 61 d9 bc 5b 8f a4 3d a6 f0 1d 3d 36 99 0a 3e
       -0.026535897 0.080351554 0.03855958 0.13535008
0003c0 65 6f 85 be 97 7d 4d bd 96 d5 82 bc e9 75 08 3d
       -0.2606155 -0.0501686 -0.015970986 0.033315573
0003d0 ca 8f f2 3c ee 9c 09 be cc 36 40 be 7f d8 b7 bd
       0.02960958 -0.1343877 -0.18770903 -0.0897684
0003e0 3d 51 72 bd fa b3 82 3e 5b e3 c4 3d 73 fe ed 3d
       -0.059159506 0.25527936 0.09613677 0.11620798
0003f0 69 a9 31 be 29 eb a2 3c 8e 86 39 be 08 99 6c bd
       -0.17349781 0.019887524 -0.18117735 -0.05776313

weight_hh_l1 f4 [60, 15]
000000 ee 48 73 be 94 a2 cc 3d 43 a8 88 3d 9f e8 9d bc
       -0.23758289 0.09991947 0.066727184 -0.019275961
000010 26 6d 67 be 2f 45 4b be 82 5d 53 be 7c 08 41 be
       -0.2260023 -0.1985061 -0.20641139 -0.18850893
000020 ee 53 95 3d 28 e8 e9 3a fb d0 4c be 28 54 c7 3c
       0.07291399 0.0017845677 -0.20001595 0.024332121
000030 cd 4f bb 3d 01 ec 15 be 55 22 03 bd bb 70 0a be
       0.0914608 -0.1464081 -0.032015163 -0.13519566
000040 91 45 16 bd d0 87 3f 3e 2c 03 27 3e 57 fb 02 be
       -0.036687437 0.18704152 0.16309804 -0.12791191
000050 d6 f1 df 3d 4f 13 32 bd a6 fe 2f be bd 58 a4 bd
       0.109347984 -0.043475445 -0.17186984 -0.08024738
000060 7f c3 31 3d a5 40 79 be 91 eb 4c be fb 35 32 bd
       0.04339933 -0.24341066 -0.20011736 -0.04350851
000070 12 64 b8 3d 46 3e f8 3d 9f ab 49 3e 4b 98 51 3e
       0.09003462 0.12121253 0.19694375 0.20468251
000080 80 4e bf bd 25 d1 6c 3d c8 04 7b be d7 a2 81 be
       -0.093411446 0.057816643 -0.24513543 -0.2531955
000090 67 9e 08 3e bc 12 d7 bd 10 58 06 3e 27 17 3e 3e
       0.13341676 -0.1050162 0.1311953 0.1856352
0000a0 06 2c b7 3d 71 36 2c 3e d2 a7 7d be 30 59 b6 3b
       0.08943944 0.16817643 -0.2477105 0.005564831
0000b0 10 56 7b be c7 ea 32 3e 8c 19 a0 bd 4e 33 78 3e
       -0.24544549 0.17472373 -0.07817373 0.24238321
0000c0 31 cd 46 3d 8c 69 64 3e c8 73 2d bd 11 a8 26 3e
       0.04853553 0.22305888 -0.042346746 0.1627505
0000d0 b3 1e 5c be 37 ef 70 be 96 30 0c bd 22 13 32 3e
       -0.21496086 -0.23528753 -0.034226023 0.17390111
0000e0 3b 17 b0 3d 14 d8 70 3e d3 d7 7c 3e 01 70 da 3d
       0.08598181 0.23519927 0.24691705 0.10665894
0000f0 bb 61 76 be 8e 63 32 3e e2 b1 f3 3d d2 6d 23 3e
       -0.24060719 0.1742079 0.11899163 0.15959862
000100 c6 5f 19 3e 2b 91 f8 bd 4b ff 2d 3e 61 ef 50 3e
       0.14977941 -0.121370636 0.16991918 0.20403816
000110 99 77 78 3d fa c3 11 be c4 bb 8a bc 80 17 a6 bd
       0.060660932 -0.14234915 -0.016935237 -0.08109951
000120 96 27 05 3e e0 e0 91 bd 82 db 1a be d7 94 0b bc
       0.13003382 -0.071229696 -0.15122798 -0.008519373
000130 c5 84 2a 3e 81 13 30 3e 28 b3 d1 bd dc 73 55 be
       0.1665221 0.1719494 -0.102392495 -0.20844978
000140 7c bb 10 3e a8 57 69 3e 4d ee 37 be c8 2e 8f bd
       0.1413402 0.22787344 -0.17961998 -0.06991345
000150 31 76 3a bd be 59 53 be f9 c3 a7 3d 14 b7 70 be
       -0.045522872 -0.20639703 0.08191676 -0.23507339
000160 58 49 a1 bd 07 2c 72 bc f2 5c 38 3e 8d 1d 1f 3e
       -0.07875317 -0.014781005 0.18004206 0.15538616
000170 80 42 c3 3d bf a8 96 bb 0d 00 7b be b1 03 ac bc
       0.09534168 -0.004597753 -0.24511738 -0.020997854
000180 f5 54 94 bc 30 e0 e9 3d 11 bd 44 bc 59 8d 13 be
       -0.018106917 0.114197135 -0.012007968 -0.14409389
000190 ae 40 86 be 56 8a 72 bd 9e 8d 88 be b6 c0 b9 3d
       -0.26221222 -0.05921396 -0.26670545 0.0906996
0001a0 d9 c6 c6 bd 83 66 ea 3d 0b 54 20 3d 70 bc 37 bd
       -0.09705896 0.11445334 0.03914265 -0.044857442
0001b0 c6 c7 89 bd 2c 00 0e 3e ab 01 2d be fe 71 a8 bd
       -0.06727557 0.13867253 -0.16895168 -0.08224867
0001c0 59 f6 41 be c7 f3 02 be 7e b1 29 be aa 7b a0 3d
       -0.1894163 -0.12788306 -0.16571614 0.07836087
0001d0 ec d7 ab 3c 4b 95 71 3e a2 45 2f bc 3c 5f a3 3d
       0.020976983 0.23592107 -0.010697754 0.07977149
0001e0 52 80 34 be b2 22 5f bc b5 2e 4c be 04 60 09 3e
       -0.17627075 -0.013619112 -0.19939692 0.13415533
0001f0 0c d8 de bc 88 3c 1c 3d ca 62 1a 3c 1e c3 e7 bd
       -0.027202629 0.038143665 0.009422967 -0.113165125
000200 a5 fe 59 3e ff 49 45 3e 90 5d 83 bc 77 a8 c3 bd
       0.21288545 0.19266509 -0.016035825 -0.095536165
000210 20 9c 9f 3d 42 be 16 3d 2a b7 db 3d 6e 4a 84 3e
       0.0779345 0.036802538 0.10728295 0.25838035
000220 56 b3 10 bd 57 14 06 be 4f f5 6e 3e d4 ec 16 3e
       -0.035327278 -0.13093697 0.23335765 0.1473878
000230 b1 66 ad bc e6 75 11 bc f3 b6 b6 3d 72 f6 65 be
       -0.021167131 -0.008878207 0.089216135 -0.22457293
000240 28 77 78 3e 91 d9 77 3d da 89 60 be 90 d7 04 3e
       0.24264205 0.060510222 -0.21927586 0.12972856
000250 ee ee 76 3e 27 23 21 be 7d b6 7d 3e 37 45 12 3e
       0.24114582 -0.15736066 0.24776645 0.14284216
000260 4e a1 9b 3d 5b 25 42 bd f2 28 be 3d 12 62 34 3e
       0.07599126 -0.047398906 0.092851534 0.17615536
000270 68 56 6d be ef a3 b8 bc ef d5 c4 3d db 40 a1 3d
       -0.23177493 -0.022539107 0.09611117 0.07873698
000280 99 dc 01 3c f3 8e 6e be fe 81 13 3d 0b 5c 4a 3d
       0.00792613 -0.23296718 0.036012642 0.049404185
000290 54 e4 4d bd 40 dd 2e 3e 76 25 c7 bc 99 d4 6c 3e
       -0.05026658 0.17076588 -0.024309855 0.23127975
0002a0 b5 65 ad bc 0e ce 82 bd 0d 8c 3f bd 2d 50 3c be
       -0.021166662 -0.06386958 -0.046764422 -0.1838996
0002b0 5b f8 ab bd 18 51 ab bd 9f f6 ad bd 01 5a 46 3e
       -0.083969794 -0.08365077 -0.08494305 0.19370271
0002c0 63 a1 7a bd ff c0 25 bd b1 27 3e bd e4 62 45 be
       -0.061189067 -0.04046726 -0.04642457 -0.19276005
0002d0 e1 62 90 3d 02 fb 72 be 3f 12 86 bd 41 b6 87 bc
       0.0705011 -0.23728564 -0.06546449 -0.016566398
0002e0 cd 6f db bd c5 cd 38 3d 71 30 51 3e 4f e7 6f be
       -0.10714684 0.045118112 0.20428635 -0.23428081
0002f0 f8 ca ad 3d 11 85 15 be 13 a2 5c be 9a 2c 68 be
       0.08485979 -0.14601542 -0.21546201 -0.22673264
000300 2e 3f 34 3e 1a 35 42 be aa 3f 81 3e 4f 27 af 3d
       0.17602226 -0.18965569 0.25243884 0.085524194
000310 ce 5a ce 3a 4d 66 1b 3e 63 81 42 be b5 d5 82 be
       0.0015743615 0.15175743 -0.1899467 -0.2555367
000320 02 24 ab bd 45 74 79 3e 16 77 80 be 24 a9 56 3e
       -0.08356477 0.2436076 -0.25090855 0.2096296
000330 20 0d 21 3e 1c 77 80 bd 5f 43 d3 bd 8e 8f 6f be
       0.15727663 -0.06272718 -0.103155844 -0.23394606
000340 b1 4a b3 bd 3f 56 69 be 59 4e 3d be 05 34 28 3e
       -0.08754481 -0.22786807 -0.18486919 0.16426094
000350 d5 13 13 be 28 42 18 3e 52 ba 00 be 7f e2 0f be
       -0.14363034 0.14868987 -0.12571076 -0.14051245
000360 a6 0a b7 3d be c0 3a 3e ad bd d8 3d e8 1a 13 3e
       0.08937578 0.18237588 0.10583053 0.14365733
000370 12 fc 49 3e 9c 8e 7b be b3 63 5f bd ee 46 58 3c
       0.19725063 -0.2456612 -0.05453844 0.013200505
000380 9a 13 18 bd 5a 84 14 3e 04 0f 66 bd 2c a9 28 3e
       -0.03712807 0.14503613 -0.056166664 0.16470784
000390 ca cf 62 be ed 10 25 be 1b bd 6b 3e 8d 0c 11 be
       -0.22149578 -0.16119738 0.23021357 -0.14164944
0003a0 d8 85 f7 bc 19 38 37 bd 2b 63 48 3c eb 56 1c 3e
       -0.030215189 -0.044731233 0.012230675 0.15267532
0003b0 30 fe fc bd 85 30 4a be d7 84 ac bd 53 93 e3 bd
       -0.1235317 -0.19745071 -0.08423775 -0.11112084
0003c0 a8 13 b8 3c 0a bf 85 be f6 c5 35 3e a8 e4 be 3d
       0.02247031 -0.26122314 0.17751297 0.093209565
0003d0 ae 3a 0d 3e 39 2f 85 3e ad f7 60 3e 14 f7 59 bb
       0.13791916 0.2601259 0.21969481 -0.0033258842
0003e0 7e 43 4d 3e 91 2d c5 3c 12 ab 77 3e bd 6c 2b bd
       0.20045277 0.02406958 0.24186352 -0.041851748
0003f0 78 c7 70 3e 7b bc a6 bd 5e 22 d2 bd da 4e b8 bd
       0.23513591 -0.081414185 -0.10260461 -0.08999415

bias_ih_l1 f4 [60]
000000 c1 b9 5e be be 78 00 be 92 16 ca bd 7a 65 9c bc
       -0.21750547 -0.1254606 -0.09867586 -0.019091357
000010 25 f5 02 bd 0a 91 7c 3e cb f5 83 be 7e 3e c1 bd
       -0.03197207 0.24664703 -0.25773463 -0.094357476
000020 47 85 02 be f2 af 0e 3d 3f ac 2c be b7 6e 38 be
       -0.12746154 0.034835763 -0.16862582 -0.18010984
000030 d8 fa 5a bd 18 bb 73 3e e5 0e 22 be e2 25 06 3e
       -0.05346188 0.2380184 -0.15825994 0.13100389
000040 c8 f7 7c 3e 88 f2 e9 bd af c4 6c 3c d5 00 ea 3d
       0.24703896 -0.11423212 0.01445119 0.1142594
000050 6e 33 20 3e df 3f 6c 3b 6c 56 0b be 4d a1 ac bd
       0.15644619 0.0036048812 -0.13607186 -0.08429203
000060 fb b6 a7 bd ac ec a7 3d 40 e6 48 be c4 86 ec bd
       -0.08189198 0.081994385 -0.19619083 -0.11549142
000070 83 ea ac bd f6 31 8b 3d 06 d4 e4 3d 69 44 65 3e
       -0.08443167 0.06796639 0.11173253 0.22389378
000080 3c c2 77 3d 57 2b 5a be 1f eb 39 3c f0 c5 76 bc
       0.06048797 -0.21305595 0.011347561 -0.01506184
000090 13 96 ea bd cf 40 3f be 5b e2 e4 3d 00 f8 81 be
       -0.11454406 -0.18677066 0.111759864 -0.2538452
0000a0 9b c8 c7 3d 2f 37 f9 bd 22 7f ca 3d 74 5c 9a bd
       0.09755059 -0.121687286 0.0988753 -0.07537165
0000b0 d0 ee c9 bc f6 02 81 be 69 d0 d7 bd 0c 93 ee bd
       -0.024650007 -0.25197572 -0.10537798 -0.11649141
0000c0 44 19 39 be a3 6f 14 3e 4c 4a 6f 3c 0e d2 75 3e
       -0.18076044 0.14495711 0.014605116 0.24005911
0000d0 be ea f2 3d 33 06 23 3e 4c 2d ca bd 64 3c 47 be
       0.1186118 0.15920334 -0.09871921 -0.19456631
0000e0 89 93 fa 3d 06 f1 7a be da 90 4c bc e4 ae 4d 3d
       0.12235171 -0.24506006 -0.012485707 0.050215617

bias_hh_l1 f4 [60]
000000 22 47 be 3d 51 23 e1 bd 4d 81 42 3e 6d 79 70 be
       0.09290911 -0.10993064 0.18994637 -0.2348382
000010 46 0f 40 bc 7d 71 6e 3d 93 0f 09 3c 71 4a 66 be
       -0.0117223915 0.0582137 0.00836553 -0.22489335
000020 e1 ca 66 be 16 59 0d 3e d1 8a 43 be 75 fa b7 bb
       -0.2253833 0.13803515 -0.19095923 -0.0056145736
000030 47 30 bc 3d 2a 10 6b 3e 53 50 39 3d e4 c8 42 be
       0.09188896 0.22955385 0.04524262 -0.19021946
000040 2b 8a 34 be 9a 88 ab 3d 12 69 53 be 29 ee 30 3e
       -0.17630832 0.08375664 -0.2064555 0.17278351
000050 8e c4 4b 39 30 41 1e 3e ea 9c 91 3c e9 87 8d bd
       0.00019432811 0.15454555 0.017775018 -0.069106884
000060 ff 5d 2b 3e b7 06 52 3e aa af ac 3d 3e e3 74 3e
       0.16735075 0.20510374 0.08431943 0.23914811
000070 c8 ce 84 3d 0a 0a 7b 3e 9b dd 5b 3d 7f 62 a4 3d
       0.06484753 0.24515548 0.053678136 0.08026599
000080 ee ca 75 3e a1 40 41 3e 33 74 25 be e3 ac 22 be
       0.24003193 0.1887231 -0.16157608 -0.15886264
000090 b9 a9 16 3d e3 a0 40 3e 66 d3 5e be 5b 03 63 3e
       0.036782954 0.18811373 -0.2176033 0.22169249
0000a0 6e 52 6b 3d e5 d5 82 bc 12 88 ca bd c2 8f 4b 3e
       0.057451658 -0.015971133 -0.098892346 0.19879058
0000b0 d7 a8 7f 3d ac f8 75 3d 65 cd 2b be 8e 55 d6 3d
       0.062416878 0.060051605 -0.1677757 0.10465537
0000c0 15 4a 45 be bc a3 81 3e 68 a5 82 3e 53 50 3a bd
       -0.19266541 0.25320232 0.2551682 -0.04548676
0000d0 d5 13 5b be e9 c2 78 3e 81 01 4a be 9d 80 be bd
       -0.21394284 0.24293102 -0.19727136 -0.09301875
0000e0 6d e5 4f be 2f da b8 3d 91 3a 1a 3e b9 0f 0e be
       -0.20302363 0.0902599 0.15061404 -0.13873185

weight f4 [30, 15]
000000 7c b3 14 be e6 d1 a3 39 64 a3 cc bc f2 fc 46 be
       -0.14521593 0.0003124617 -0.024980254 -0.19432428
000010 5e 14 19 3e a9 6a 94 3e d0 66 d4 3d f9 65 e8 bd
       0.14949176 0.28987625 0.103711724 -0.11347575
000020 73 e7 a6 3d 7c e7 3b be 40 8c 24 bc 08 87 08 3c
       0.08149614 -0.18350023 -0.010043204 0.008332975
000030 16 5d 94 3c cf 03 f6 bd 7c 5e 81 be 53 4d 5f be
       0.018110793 -0.12012445 -0.25267398 -0.2180684
000040 fd 40 33 bd 52 e4 41 3e 89 65 66 bd df 1c ef bd
       -0.04376315 0.18934754 -0.056249175 -0.116754286
000050 3a 66 84 3d 6f 54 8d bd fd 90 cf bd be 15 5c bd
       0.06464811 -0.0690087 -0.10135076 -0.053731672
000060 14 0b 7c be 78 5a 1d 3c d9 33 68 be 91 79 a6 3d
       -0.24613601 0.009604089 -0.22676028 0.08128656
000070 30 d4 31 3e 3b 3f e5 3d 5f f8 41 3e 9a 3b 03 be
       0.173661 0.11193701 0.18942402 -0.12815705
000080 9e 01 cc 3c 5f 11 cd bd fd 3a 76 bd 61 c8 57 be
       0.024903115 -0.10013079 -0.06011485 -0.21072532
000090 66 fa ae bd ef cb 0c 3e 59 50 ad bd 82 a7 48 be
       -0.085438535 0.1374967 -0.08462591 -0.19595149
0000a0 e9 bd 04 bd 79 c0 71 be e4 19 91 3d 75 a1 60 3e
       -0.032407675 -0.23608579 0.07085016 0.21936591
0000b0 d0 96 36 3e 86 75 1a bc f6 dc 9f 3d ff 3a 16 3e
       0.17830968 -0.009427434 0.07805817 0.14670943
0000c0 71 37 bc bd 51 0d 13 be aa 1a 1e 3d dd c4 29 3e
       -0.09190262 -0.14360549 0.038599648 0.16579004
0000d0 4a 51 10 3e 6e 22 e0 3d 5b 86 23 be e1 b6 c9 bb
       0.1409351 0.10944067 -0.15969221 -0.006155834
0000e0 cf 9a b4 3d e9 c6 4b 3e ac 4b 51 3e 33 04 1a 3e
       0.0881859 0.19900097 0.20439023 0.15040664
0000f0 9a b5 21 3d 16 b1 2e 3e 69 3d 4d 3d 01 e0 5c be
       0.03947983 0.1705974 0.050107393 -0.21569826
000100 19 2e 29 3e 41 85 6e 3e 39 3e 80 3e 09 ba ba bd
       0.16521491 0.2329302 0.25047472 -0.09117515
000110 1a ee e4 3d 49 e2 59 3c d7 99 56 3d 5d 73 45 3e
       0.11178227 0.0132985795 0.052392807 0.19282289
000120 43 6e 1d bc ce a3 03 3e 1e a4 b3 bd 83 85 01 be
       -0.009608808 0.12855455 -0.08771537 -0.12648587
000130 a8 1c 0a 3e 27 c4 73 3e 5a 82 62 3d b2 1c bf 3d
       0.13487494 0.23805295 0.055300094 0.09331645
000140 8c 30 62 3e b8 bd 44 3e c9 82 fe bd e3 96 86 3d
       0.22088832 0.19212997 -0.12427289 0.06571748
000150 24 fe f3 bd e0 94 e1 3d 06 c4 40 3e 0b 84 33 3e
       -0.11913708 0.11014724 0.18824777 0.17530839
000160 ac 49 7b 3e 93 7c a2 3c 77 2d 92 3e d4 ae 13 bd
       0.24539822 0.019834792 0.28550312 -0.0360554
000170 cf 1f 02 be 19 72 7e 3d fc 1a 66 3e 05 7e dd 3d
       -0.12707447 0.06212053 0.22471231 0.10815052
000180 a5 51 7a be c2 37 71 3e 21 88 39 be 48 59 66 be
       -0.24445207 0.23556426 -0.18118335 -0.22494996
000190 d2 4c 67 3e 1a b7 3c 3d f0 93 bc 3d ad b3 7c 3e
       0.22587898 0.046073057 0.09207904 0.24677916
0001a0 99 d1 ac 3d 77 5f 1e 3b 58 89 f9 bc 53 b2 b5 bd
       0.08438415 0.0024165788 -0.030460998 -0.08871903
0001b0 13 c1 7f 3e 9d 62 38 3e 03 d8 85 bd 3b 1a 54 be
       0.24975996 0.18006368 -0.065353416 -0.20713131
0001c0 c8 76 62 3e 5d a8 85 be 3e a4 2e be 8c 6d 78 3e
       0.22115624 -0.26105013 -0.17054841 0.24260539
0001d0 69 e1 59 be 86 55 95 bd d3 f2 e9 bd b2 a6 b6 bc
       -0.21277393 -0.07291703 -0.11423268 -0.022296283
0001e0 b9 23 8f 3d 89 2c e6 bd 46 5b 09 be fb 19 e8 bd
       0.069892354 -0.11238963 -0.13413724 -0.113330804
0001f0 5d 6a 44 be 8d 8c 44 bd cd 4e 9c 3d 3d 03 16 3e
       -0.191812 -0.047985602 0.076322176 0.14649673
000200 eb 80 00 3e ac 64 71 bd ef e0 55 be 8a 15 67 3e
       0.12549178 -0.0589339 -0.20886587 0.2256681
000210 ed 90 b7 bd ec f8 84 bd 43 03 4b be ee 9b 96 3d
       -0.08963189 -0.064927906 -0.19825463 0.0735396
000220 8b 05 ce bd ba d3 6c bd 4d 5c 1d 3e eb 45 5e be
       -0.10059651 -0.057819106 0.15367241 -0.21706359
000230 a7 b3 51 3e c4 d3 68 3e ff 72 88 3d 5a ad c5 3d
       0.20478688 0.22737032 0.06662559 0.09652205
000240 4e f9 c0 3d c6 59 2c 3d 44 95 3e be 26 4d 16 3e
       0.09422551 0.042077802 -0.18611628 0.14677867
000250 1c 3e 5d be 42 9e 57 3e 5c c0 06 be 9e b1 2b 3d
       -0.21605724 0.21056464 -0.13159317 0.041917436
000260 1a 79 8e 3d 0b 72 54 3e 56 d4 58 3e b4 72 eb 3c
       0.06956692 0.20746629 0.2117475 0.028741218
000270 4c f3 1e 3c 29 77 09 be c0 86 21 3d 77 3a c6 3c
       0.009701561 -0.13424362 0.03943515 0.0241978
000280 ba a6 36 bc 81 50 69 3e c3 01 49 3e 1f fe 64 be
       -0.011148149 0.22784616 0.19629578 -0.22362565
000290 60 8c b3 bd 7a a5 05 bd a3 d4 79 3e 27 59 2a be
       -0.08767009 -0.032628514 0.2439752 -0.16635571
0002a0 1a 8d fd bb 80 d8 03 be 93 50 97 3d a7 29 b4 3d
       -0.007737768 -0.12875557 0.07388415 0.08797007
0002b0 d9 ca 6b be 7c 1d 64 be ec d5 7e be 44 8c b6 bd
       -0.23026599 -0.22276872 -0.24886292 -0.08913472
0002c0 3f 4c 09 be 9e bc 47 3e e9 16 0e be c0 9f 51 be
       -0.13407992 0.19505545 -0.13875927 -0.20471096
0002d0 c5 7b 33 3e 85 e4 5e be 44 bf 51 3e 82 1d b7 bd
       0.17527683 -0.21766861 0.20483118 -0.08941175
0002e0 b9 e1 8f bd 0c d6 16 be 14 55 2d 3c 4c 57 55 be
       -0.07025475 -0.1473009 0.010579366 -0.20834082
0002f0 4a 57 bd 3d 09 19 53 be e4 82 cf 3d 6c de 68 ba
       0.09245165 -0.20615019 0.10132387 -0.0008883241
000300 2f ac 88 bc e2 45 0f 3e 17 6e 87 3d cf c8 80 3d
       -0.016683666 0.13991502 0.06612795 0.06288301
000310 ab 3d 55 be e6 31 fa 3c d7 90 4c 3e 7c 66 1a be
       -0.20824306 0.030541372 0.19977127 -0.15078157
000320 78 a3 39 3d de a9 1e 3d 9d a7 83 3e 12 68 51 3e
       0.04532191 0.038736217 0.25713816 0.20449856
000330 79 dd 00 3d c0 90 3b 3e 5b 8b d7 3c 96 0f 4c be
       0.031461213 0.18316936 0.026311567 -0.1992782
000340 f1 ab 76 3e ae c1 1f 3e 7a d2 55 3d 26 68 3e 3e
       0.24089028 0.15601227 0.05220268 0.18594417
000350 b9 1d 72 be 3b ac 0b bd 86 85 8d bd ae f7 6a 3e
       -0.23644151 -0.0340998 -0.06910233 0.22946045
000360 a5 12 a1 bd 71 b3 bf bd 35 b8 7e 3e 49 c6 bf bd
       -0.07864884 -0.093603976 0.24874957 -0.09363992
000370 76 45 0c 3e d7 27 fa 3d 49 05 41 be 44 34 91 bc
       0.13698372 0.1221463 -0.18849672 -0.017725118
000380 41 99 10 3e 57 f0 09 bd 21 bb 50 3e 1a 2c 84 3e
       0.14120962 -0.03367647 0.20383884 0.25814897
000390 e7 1b 0b be 3c 54 77 3e 91 82 36 3d 44 7d 8d be
       -0.13584863 0.24153227 0.04455811 -0.27634633
0003a0 2a 9d 2f be de 78 6a 3e e6 eb 9c bc b7 78 47 3e
       -0.17149797 0.2289767 -0.019155454 0.19479643
0003b0 80 9b 0e 3d 1a e0 58 3e 17 f4 63 3e 62 3c c8 bd
       0.034816265 0.21179238 0.22261082 -0.09777142
0003c0 6b 10 5e be 82 39 01 be 4d d7 6b 3e 9a 3a be bd
       -0.2168595 -0.12619594 0.2303135 -0.09288521
0003d0 6d 84 76 3d c2 14 b5 3d c4 08 d6 3c 16 7a 38 3e
       0.060184885 0.0884185 0.026127227 0.18015322
0003e0 af 4c 4d 3e 44 95 99 3d df 17 2e 3d a1 10 4e be
       0.20048784 0.07499173 0.042503234 -0.20123531
0003f0 fc 4c cb 3d 87 93 8a 3d 29 a7 2a be a2 ff d1 bd
       0.09926793 0.0676642 -0.16665329 -0.10253836

bias f4 [30]
000000 32 a2 87 be c1 34 9b bd cc 2b 55 3d 99 6e 53 3d
       -0.26490933 -0.075784214 0.05204372 0.051619146
000010 db 49 db 3d f0 00 32 be 4c 00 5a be 4f b7 04 bd
       0.10707446 -0.1738317 -0.21289176 -0.03240138
000020 4a b8 0f 3e af 44 62 3e 0b 51 dc bd 81 c1 7b bd
       0.14035144 0.22096513 -0.10757645 -0.061463837
000030 aa b1 da bd 1f 35 3f be 7b 25 66 3e ad 61 86 bd
       -0.10678418 -0.18672608 0.22475235 -0.06561599
000040 0a 5d a6 3d 9f b0 34 3e 39 93 e0 bd c5 a7 66 3e
       0.081232145 0.176455 -0.109655805 0.22524936
000050 4d 31 f9 3d f9 ae 1a 3e 4a 1e 29 bd 2e 53 ee 3d
       0.121676065 0.1510581 -0.04128865 0.11636959
000060 c1 aa 2b bd cf 04 00 3e ed f7 c6 3c e7 4f d1 3d
       -0.04191089 0.12501834 0.024288142 0.10220318
000070 2e 43 c8 3c e2 c8 94 3d
       0.024446096 0.07264878
