models/ThreeClassifier.pt (torch, 19565 bytes, 11 tensors)

weight f4 [4, 8]
000000 b3 6f ac bf 08 cf 62 3e 6d 2b c6 bf fc 99 85 be
       -1.3471588 0.22149289 -1.5482002 -0.26094043
000010 e5 e0 c0 bf bb 51 75 3e 06 35 50 bf a6 71 5f bf
       -1.5068632 0.23956959 -0.8133091 -0.8728279
000020 0f ca 5a 3f cf 71 91 3d 8c f2 62 bf 7e 75 4e 3d
       0.85464567 0.071017854 -0.8865135 0.050405018
000030 73 9c 41 3f 89 17 b3 3f aa a1 22 3e 1e a6 c4 3f
       0.7562935 1.3991557 0.15881982 1.5363195
000040 23 7b 67 3f e1 4e f1 3e c1 7b d9 bf 0a ea 92 bf
       0.90422267 0.47130492 -1.6990892 -1.1477673
000050 86 2f b8 3e b0 f7 34 bf 1e 82 ad 3d f0 58 d3 be
       0.35973758 -0.7069044 0.084720835 -0.4127879
000060 0b 99 37 3e 82 5b 1c be 9e ce 91 be c3 54 a1 3f
       0.17929475 -0.15269282 -0.2847795 1.2603992
000070 60 82 1e 3f f5 6f 99 be 98 86 97 3f 5a 80 22 3e
       0.61917686 -0.2996823 1.183795 0.15869275

weight_ih_l0 f4 [60, 8]
000000 be 47 b5 3d 98 d6 58 3e ab c0 9c bd ce 97 72 3e
       0.08851574 0.21175611 -0.07653936 0.23690721
000010 79 eb 2f be ac b7 d1 bd 4a d3 49 be 4f 3c b9 3d
       -0.1717967 -0.10240111 -0.19709507 0.09044706
000020 56 6d 75 be b1 4f f5 3c df d7 cd bd 15 f8 4d 3d
       -0.2396749 0.029945226 -0.1005094 0.050285418
000030 32 69 54 bd 24 bf 75 be 1b 12 42 3e cb f2 7c bd
       -0.051858135 -0.23998696 0.18952219 -0.061754983
000040 bd b4 10 3e 11 09 db 3c 07 c2 38 3e 1b 03 e6 3d
       0.14131446 0.026737722 0.18042766 0.11231061
000050 64 6e dd 3c b0 a0 54 3e 6d 17 34 3d 6b 91 34 3e
       0.027030177 0.20764422 0.043967653 0.17633598
000060 8a 8a 43 3e 21 04 c1 bc f3 35 f9 bd 11 00 09 be
       0.19095817 -0.02356154 -0.12168493 -0.13378932
000070 c9 3e 98 bc 58 e4 5c be 6d b4 27 3e b9 77 41 be
       -0.018584626 -0.21571481 0.1637742 -0.18893327
000080 90 7a 87 be 8d 50 d3 3d 34 e3 7c 3d b2 ee cd bd
       -0.26460695 0.10318098 0.061740115 -0.10055293
000090 20 fb 19 3e 79 68 19 3e 79 54 33 be 75 0e 05 3e
       0.15037203 0.1498126 -0.17512693 0.12993796
0000a0 b7 fd 6a bd ff 33 90 3c 5e f0 8b 3d 45 35 4e 3e
       -0.057370868 0.017602919 0.06832956 0.20137508
0000b0 1d 84 38 3d 0b f0 68 3e f8 b1 9e 3c 53 cd 6e be
       0.045047868 0.22747819 0.019371971 -0.23320512
0000c0 24 48 52 be 04 8c 1f bd 93 81 59 3e ea c5 53 3e
       -0.20535332 -0.03895189 0.21240835 0.20680967
0000d0 b7 2a f1 bd b7 fb 27 be e9 d9 82 be e5 50 46 be
       -0.11775725 -0.16404615 -0.25556877 -0.19366796
0000e0 4a c8 92 3e 78 96 02 be 06 a8 c1 bc e8 d6 85 b9
       0.28668433 -0.12752712 -0.02363969 -0.00025527854
0000f0 34 0e 6f 3d 65 62 d3 3d 4f 99 1e 3d ba 4b 7b 3e
       0.058363155 0.10321502 0.038720425 0.24540606
000100 e9 01 07 3d bb c7 2b be 59 e4 48 3e c4 3f 20 3d
       0.032960806 -0.1677541 0.19618358 0.03912331
000110 79 a1 ad 3d 6c 3c 20 be 71 7e 4f 3d 6c 56 3b bd
       0.08478064 -0.15648049 0.050657693 -0.045736715
000120 dc cf 6b 3e 72 8a 3b be 1b 40 25 be e7 de 8f bd
       0.23028511 -0.18314531 -0.16137736 -0.07024937
000130 05 ff a3 bd 01 b4 65 3e 8e a3 73 3e 19 96 5e be
       -0.080076255 0.22431947 0.2379286 -0.21736945
000140 77 dc f4 3c 49 a8 94 3d 3e 83 01 3e e0 0d 12 bd
       0.029890282 0.0725866 0.12647721 -0.035657763
000150 bd 26 18 3e 8f 9e e2 bd ab 5a 38 3e 1f a8 45 3e
       0.14858527 -0.11065399 0.18003337 0.19302414
000160 53 ef df 3d 7c a3 74 be 0e 4c 80 3e f9 f4 17 be
       0.10934319 -0.2389049 0.25058025 -0.14839543
000170 b0 1f 4e 3e 3e ab 3d be df 76 48 be 99 a8 3a 3d
       0.20129275 -0.18522355 -0.19576596 0.045570944
000180 de 8b 07 3e 60 a9 22 be b3 3e de 3c c1 03 9b bd
       0.13236949 -0.15884924 0.027129507 -0.075690754
000190 e6 1b 6f be c5 2b 81 3d 5f 72 0d 3e 67 9a 59 3e
       -0.23350486 0.063071765 0.1381316 0.21250306
0001a0 9d 1a 09 3e d0 2b 83 be 19 52 ca bd e2 49 d3 bd
       0.13389058 -0.25619364 -0.0987894 -0.103168264
0001b0 49 3e 05 be c8 f4 e0 3d a0 72 40 be 59 5d 8b bc
       -0.13012041 0.10984188 -0.18793726 -0.017012285
0001c0 59 55 db 3d 44 22 04 be 18 d5 73 3e 97 a2 63 be
       0.10709638 -0.12903696 0.23811758 -0.22229992
0001d0 49 d2 4f be 2e 40 6c 3e f1 d0 10 be be dd 58 bd
       -0.20295061 0.23071358 -0.14142205 -0.052945845
0001e0 29 05 f3 3d 73 8f 70 3e d9 5f ad bd 0d 1e 36 be
       0.118662186 0.23492222 -0.08465547 -0.17784901
0001f0 88 c0 06 3e b7 0e 8e 3d 91 ed 3e 3e 6d 7c 32 3e
       0.13159382 0.069364004 0.18645312 0.17430277
000200 12 db 2f 3e 2b 6a 27 be f7 8f 11 3e b9 aa 8a 3c
       0.17173412 -0.16349094 0.14215074 0.01692711
000210 7f 8c 3c bd 22 85 71 be 0e f7 e4 3d fd 75 5f be
       -0.046032425 -0.23585942 0.111799344 -0.21822353
000220 0f 8b 72 be 51 9a 36 be 01 be 41 3d 6f 1b 30 bd
       -0.23685859 -0.17832305 0.047300342 -0.042994913
000230 51 91 74 3d 52 21 73 bd 8c 9c 23 3c ad 10 6c 3e
       0.059708897 -0.05935795 0.009986054 0.23053236
000240 dc 3e 2d 3e 6a cc db bd 1f 2b 5d be 37 8a 0b 3e
       0.1691851 -0.10732348 -0.2159848 0.13626944
000250 cc 57 30 be a0 c9 29 be 29 34 8e 3e 11 1d cd bd
       -0.17220992 -0.1658082 0.2777417 -0.100153096
000260 46 24 32 3e dc 7f 31 be 25 0a c2 3d fc 4c 0a be
       0.1739665 -0.1733393 0.09474591 -0.1350593
000270 1b 38 ea 3d 2c 84 f7 3d ca 92 cc 3c 67 f1 58 3d
       0.114364825 0.12085757 0.024972338 0.052964594
000280 17 84 48 be 38 1c 1b 3e dd 38 5b 3e cf 34 d0 3d
       -0.19581638 0.15147483 0.2140841 0.101663224
000290 6f a1 95 3d 8e b5 20 3d 95 61 6f 3d 3f 4e b5 bd
       0.07306182 0.039235644 0.05844267 -0.08852815
0002a0 ab bd 66 3e 57 ae 8b 3d a9 c6 0d 3e 6a 38 26 be
       0.2253329 0.06820362 0.13845314 -0.16232458
0002b0 e1 67 4e 3d fa a7 73 be 22 d9 ab bd 84 eb 66 be
       0.050392035 -0.23794547 -0.08391024 -0.2255078
0002c0 4d 76 77 3e f8 8d 83 3e b7 83 19 be b2 b9 21 3e
       0.24166222 0.2569425 -0.14991651 0.15793493
0002d0 af e1 36 3e df d4 60 3e c4 e2 10 bc 26 7d 8e bd
       0.17859529 0.21956204 -0.008843128 -0.06957464
0002e0 0c 52 41 3e ea 6d 96 3d d4 4b 56 3e a5 a0 71 bc
       0.18878955 0.07345183 0.20927364 -0.014747773
0002f0 15 97 6d 3e 3b c1 b8 bd fa 49 4c bd a7 46 04 3e
       0.23202164 -0.09021231 -0.049875237 0.12917577
000300 fe 14 3a 3e 37 54 d8 bd 42 e6 c5 3d 4f 43 50 bc
       0.1817207 -0.10562938 0.09663059 -0.01271136
000310 b5 ad 48 be bf 55 89 3d b9 fd 74 3e a1 a8 00 3d
       -0.19597514 0.06705808 0.23924913 0.031410817
000320 9a 0c 06 be 1a 52 24 be 9f f2 22 bd 14 8b 3b 3e
       -0.13090745 -0.16046944 -0.039782163 0.18314773
000330 cd 12 aa bd 8e c3 02 3d 7b 67 61 be cc 95 65 3e
       -0.08304367 0.031924777 -0.22012131 0.22420424
000340 9c b1 8b 3e bc e6 99 3d 9d 1b 1a bd 1e 15 db 3c
       0.27283943 0.07514712 -0.03762399 0.026743468
000350 4c 54 0f be 1e d4 29 3c 36 62 09 be de 4b 85 bd
       -0.13997 0.010365514 -0.13416371 -0.06508611
000360 58 e6 88 3c 9b 7b 79 3d b5 9f 09 3e 43 ed a6 bd
       0.016711399 0.060908895 0.1343983 -0.08150723
000370 9c 7e e7 bd 79 31 32 bd 5c c6 b0 bd b9 b8 ab 3d
       -0.11303446 -0.043504212 -0.08631584 0.083848424
000380 e3 89 06 be 8e 11 17 bd ac 79 4e be 90 14 fa 3d
       -0.13138537 -0.036881976 -0.20163602 0.12210953
000390 a3 5e ff 3c 04 cc 81 be 59 e4 23 3e 9d 95 5b 3d
       0.031173056 -0.25350964 0.16005076 0.05360948
0003a0 f3 13 e9 3d 49 97 00 be 6c d1 80 3d 43 fc a0 bd
       0.11380758 -0.1255771 0.06289944 -0.07860615
0003b0 87 92 00 3e be 67 3e 3e 71 33 8e 3e b7 91 43 3e
       0.12555896 0.18594262 0.27773622 0.19098555
0003c0 a1 f1 1c 3e e8 b8 e2 bc e3 08 38 be 64 56 d1 bd
       0.15326549 -0.02767606 -0.1797214 -0.10221556
0003d0 bf 7c b3 3d d4 94 46 3e ae 57 24 be a6 5d a0 ba
       0.08764028 0.19392711 -0.16049072 -0.0012234941
0003e0 53 13 4f 3e c8 ec 13 3e f0 eb 0e be 49 6f 27 3e
       0.20222215 0.14445794 -0.1395719 0.16351046
0003f0 ab 3f 44 bd 89 b6 41 3e 6d 8a 86 be 58 80 23 be
       -0.04791228 0.18917288 -0.26277485 -0.15966928

weight_hh_l0 f4 [60, 15]
000000 3a 3b 6e be ff 9e af 3d 8e 41 b5 bc 43 8d ae 3c
       -0.2326478 0.08575248 -0.022125985 0.021307593
000010 38 8b 3b 3e 5d 2d e2 3d 36 dd 49 be cf 58 f8 3c
       0.18314826 0.110438086 -0.19713292 0.030315785
000020 f7 a1 79 3d e6 cf d3 bc ff f2 74 be 3c 64 4b 3e
       0.060945477 -0.02585597 -0.2392082 0.19862455
000030 68 b2 40 be f9 cf 45 3e 26 83 4d 3e 4f 1c 71 bd
       -0.18818057 0.19317617 0.2006956 -0.058864888
000040 71 a1 8a be e0 b6 65 3c 9d 90 0d 3e bd 6d c5 bd
       -0.27076295 0.014020652 0.13824697 -0.096400715
000050 92 8f 14 bc 20 5c 2b 3e 95 b2 4f 3e dd f2 98 bc
       -0.009067433 0.16734362 0.20282967 -0.018670494
000060 a9 b9 31 be 08 2f 47 3e f4 97 55 be f2 80 20 3d
       -0.1735598 0.19451535 -0.20858747 0.03918547
000070 6c a1 6c be 9c 9a 62 3d 75 3f 47 be 6e f8 6f be
       -0.23108453 0.05532323 -0.194578 -0.23434612
000080 8f 0f d9 bd df 46 4f 3e 49 27 04 be 08 ab ba bd
       -0.10598671 0.20241879 -0.12905611 -0.09114653
000090 5a 4d 71 bd 8a 53 20 be b4 c2 f1 bd d6 d4 40 be
       -0.05891166 -0.15656868 -0.11804715 -0.1883119
0000a0 7a f8 ec 3c 58 f7 b4 bc 89 c2 ad bc 9b ab 53 3c
       0.028927077 -0.022090599 -0.021210926 0.012919332
0000b0 92 e0 7d be 44 1b 67 3e ee e3 e5 3d 72 99 6f 3e
       -0.24792698 0.22568995 0.11225115 0.23398378
0000c0 33 6a 51 be 06 ca 88 be d2 76 72 be 55 e9 10 be
       -0.20450668 -0.26716632 -0.23678139 -0.14151509
0000d0 2f b7 45 bc 01 70 4a bd 7c 3b db bc 88 77 11 be
       -0.0120676 -0.04942322 -0.026761763 -0.14205754
0000e0 6a 7d 18 3e 24 cc 89 3d 19 25 e6 3d 31 72 55 3e
       0.14891592 0.0672839 0.112375446 0.20844342
0000f0 32 99 d6 bd 7d e1 1a 3e ab cc 8a bd a0 c2 65 be
       -0.104784384 0.1512508 -0.067773186 -0.22437525
000100 0c 25 7b 3d ec bd 15 3e 3c cb 65 3e 49 07 f5 3c
       0.061314628 0.1462323 0.22440809 0.0299107
000110 da 21 5d 3d 52 da 3a 3e 0d 77 42 be a2 99 08 3e
       0.05398736 0.18247345 -0.18990727 0.13339856
000120 2d 3e 01 bd 77 bc 40 3e 65 a5 23 3e 40 dd 49 3e
       -0.031553436 0.18821894 0.15981062 0.19713306
000130 5d 0e 70 3d 84 91 a6 3d 68 4b 16 3e c4 bd 2f be
       0.058607448 0.08133224 0.14677203 -0.17162234
000140 e4 1a 49 be a0 79 2a be f8 f3 1f 3e 49 7b 02 be
       -0.19639164 -0.16647959 0.1562041 -0.12742342
000150 e8 e4 3c 3c 77 1a 64 3e da 1b 7b 3e 9b fe 52 be
       0.011529185 0.2227572 0.24522343 -0.20604937
000160 d9 6a 80 be 9e 14 8b 3a 90 f6 da 3d cc 21 c1 bd
       -0.25081518 0.0010611003 0.10691559 -0.09430274
000170 38 a9 8c be 1b 70 1d be b6 28 52 3d 4b a4 eb bd
       -0.27472854 -0.15374796 0.051308356 -0.11505946
000180 37 31 28 bd d6 04 b3 bd 02 e8 44 be 59 0c ec 3d
       -0.04106256 -0.08741157 -0.19229129 0.11525793
000190 20 4d fc 3d bb e1 3d be e0 a4 cd bb e9 2b df 3d
       0.12319398 -0.1854314 -0.006275758 0.10897047
0001a0 47 d5 1b be ae d4 0d 3e 09 54 a6 bd 79 cc bf bd
       -0.15218078 0.13850662 -0.08121497 -0.09365172
0001b0 64 03 5a 3e c2 d2 83 be d7 64 6d bd c9 b5 99 bd
       0.21290356 -0.25746733 -0.057957496 -0.07505376
0001c0 24 45 cb 3d 94 4d 2f 3e 26 55 9b bd 66 c1 bd 3d
       0.09925297 0.17119437 -0.075846 0.092654034
0001d0 0d f6 3f 3e d9 59 3d be c4 c4 3f be 9a a2 ae bd
       0.18746205 -0.18491305 -0.18727404 -0.085271075
0001e0 50 bd b2 bd 7b d9 d2 bd f2 3b 8d be 1b 0a 15 bd
       -0.08727515 -0.10295387 -0.27584797 -0.03638659
0001f0 b7 b5 83 3e 2d 68 28 bd f9 24 11 3e 12 05 48 3d
       0.25724575 -0.041114975 0.1417426 0.04883296
000200 20 a3 1a bd 5c fb fb 3b 77 22 6b 3e 84 c6 a5 3d
       -0.037753224 0.0076898765 0.22962366 0.080945045
000210 24 b7 d2 3d 9d 2a 24 be 96 b6 9a bd b5 12 82 bd
       0.102888376 -0.1603188 -0.07554357 -0.06351224
000220 28 96 53 be 88 7f 92 bc 4e b2 aa 3c f8 0e 3e 3e
       -0.20662749 -0.017883077 0.020836975 0.18560398
000230 de f0 25 3d 6b 98 09 3e b4 e0 02 3e 00 2d 4d 3e
       0.040512912 0.13437049 0.1278103 0.20036697
000240 f8 3e db 3d 85 87 5a 3e f5 25 4a 3e fd 68 58 3e
       0.1070537 0.21340759 0.19741042 0.211338
000250 0b c6 5a be f6 1d 53 3e be 98 fd 3c e3 c3 23 3e
       -0.2136461 0.20616898 0.030956622 0.15992694
000260 ba bb b5 bd 38 84 e4 3c 1d 71 69 be e5 c2 39 be
       -0.088736966 0.027895078 -0.22797056 -0.18140753
000270 e0 91 04 3e 63 3d 2c bd 6a a4 02 be 3d db 64 3e
       0.12946272 -0.04205073 -0.12758031 0.22349258
000280 95 25 f6 bd 42 61 32 3e 03 7d b9 bd 30 f1 76 be
       -0.12018887 0.17419913 -0.09057047 -0.24115443
000290 de d5 ff bd 47 d3 ff 3d 59 ec d7 bd 25 6c 55 3d
       -0.12491964 0.1249147 -0.105431266 0.052105088
0002a0 de 69 aa bc 1a 08 9a 3d aa bd 82 3e 1d 63 0b 3e
       -0.020802435 0.075210765 0.25535327 0.13612027
0002b0 97 76 83 bc 9e 7c 57 3e d2 52 6b 3e 31 d9 22 be
       -0.016047759 0.21043631 0.22980812 -0.15903164
0002c0 a6 39 ff bd 7b 01 35 3e b4 bb 01 3e fe 92 48 bd
       -0.124621674 0.17676346 0.1266926 -0.048968308
0002d0 da 24 19 3e 76 74 2b be bf c6 c1 bc f0 00 06 be
       0.14955464 -0.16743645 -0.02365434 -0.13086295
0002e0 59 8e df bd 4e 7d 73 be 4b 5b cc 3d c3 1c 9e 3d
       -0.109158225 -0.23778269 0.0997835 0.077203296
0002f0 c5 bf 26 bd 49 3f 7f 3e d7 f3 1b 3e e5 34 77 3d
       -0.04071023 0.24926485 0.15229736 0.06035318
000300 49 de 01 be 3e 90 97 bc b3 39 65 be e2 f5 70 3e
       -0.12682451 -0.018501397 -0.22385292 0.23531297
000310 5a 96 1e be 34 16 69 bd 69 46 88 bc b2 c0 9c 3d
       -0.15487042 -0.05690594 -0.016635137 0.07653941
000320 82 a2 67 3e bc ce 4e bb 79 4d 7a be 8e cf 2a 3d
       0.22620586 -0.0031556329 -0.24443616 0.041701846
000330 9d 59 ad 3d 42 eb 13 3e 24 3a 3c be 94 9d 46 3e
       0.08464358 0.14445212 -0.18381554 0.19396049
000340 7e d1 0a 3c 9c 17 3a be 58 20 09 bd 9e ed 7d 3e
       0.008472798 -0.18173069 -0.03347811 0.24797675
000350 9a b6 ce bc 42 9f d5 bc d1 3a 06 3d 5f a7 58 be
       -0.025233556 -0.026076917 0.032770935 -0.21157597
000360 6d 45 a1 3d 74 c3 2b 3c 18 4d 04 be 69 3d 24 3e
       0.0787457 0.010483611 -0.12920034 0.16039051
000370 4d 47 49 3e a7 77 21 be ab 51 72 be 96 21 06 be
       0.19656105 -0.157683 -0.23663966 -0.1309875
000380 30 66 44 3e ce 8f 37 3e 71 8a 0c 3e ae 5f 01 be
       0.19179606 0.17925951 0.13724686 -0.12634155
000390 8b 4d 3a 3e 8f ab 5d be a9 24 2c be ac 26 5e be
       0.18193643 -0.21647476 -0.1681086 -0.2169444
0003a0 7b 9d 56 3e 68 dc 58 bd 99 8a 84 3d 50 2e e8 3d
       0.20958512 -0.05294457 0.06471748 0.113369584
0003b0 43 1a e5 bd 18 5c 18 3d 1a da 3b 3d 11 e7 75 be
       -0.1118665 0.037197202 0.045862295 -0.24013926
0003c0 e2 c9 96 bd 49 23 8d be 17 07 89 bc 12 14 68 be
       -0.07362725 -0.27565983 -0.016727014 -0.22663906
0003d0 f0 21 42 3d bb 86 08 3e 76 cc 9f bd 0c 14 1c be
       0.047395647 0.13332646 -0.0780267 -0.15242022
0003e0 96 2d 98 3c 28 3d 9f bc 1a e5 74 be c6 b9 3d be
       0.018576425 -0.019438341 -0.2391552 -0.18527898
0003f0 e6 81 25 bd 73 d2 44 be 4a 35 f7 bd 4b c9 48 be
       -0.040407084 -0.19220905 -0.12070711 -0.19608037

bias_ih_l0 f4 [60]
000000 7c fe 60 3e b9 8c 46 bc 9a f1 5c be c6 00 e3 bd
       0.21972078 -0.012118512 -0.21576539 -0.11084132
000010 a8 d2 11 3e 68 a7 ac bd 86 36 81 3e d0 08 6c be
       0.14240515 -0.08430368 0.2523691 -0.23050237
000020 7c 2d 52 3d 93 2d 14 3e 16 19 f1 3d b2 83 63 be
       0.05131291 0.1447051 0.11772363 -0.22218207
000030 24 bf 7c be 9d fa 08 be de d7 04 be 60 92 65 be
       -0.2468229 -0.13376851 -0.12972972 -0.22419119
000040 a1 f1 30 3e 71 dd 5c 3d f1 16 3f 3c bb 52 22 3e
       0.17279674 0.05392212 0.0116631845 0.15851872
000050 10 69 3c be 96 b2 23 be 3f db 3e be 2e a8 b7 3c
       -0.18399453 -0.15986094 -0.18638323 0.022419062
000060 a6 e4 4a 3e 3f 3e 14 3e 0a d4 4a be 09 cf 6e be
       0.19813785 0.1447687 -0.19807449 -0.23321165
000070 28 f7 d1 bd 82 aa 88 3e 34 5b 28 3e 80 bd 3b 3e
       -0.102522194 0.26692587 0.16441041 0.18334007
000080 90 36 eb bd 43 cb 26 3e 27 ea 93 bd 70 b6 14 be
       -0.11485016 0.16288476 -0.072223954 -0.1452272
000090 08 3b 45 bd 9f 81 69 be 40 5f 90 be c7 4a 59 be
       -0.048152 -0.22803353 -0.2819767 -0.21219932
0000a0 e9 f7 1c 3e d2 6f de 3c e3 63 09 be 6c 1d e9 bd
       0.15328945 0.02715293 -0.1341701 -0.11382565
0000b0 36 4c 80 be 5f ed 6f be b5 56 74 be ce 82 23 bd
       -0.25058144 -0.23430394 -0.23861201 -0.039919667
0000c0 68 51 3c 3e 68 49 80 3e e2 29 9a bc 0f 0b ac bd
       0.18390429 0.25056005 -0.0188188 -0.08400547
0000d0 03 2e ae 3c 96 b0 e4 3d 6d eb 74 be 99 10 46 be
       0.021262174 0.111664936 -0.23917933 -0.19342269
0000e0 7c 48 bb 3d d2 fa 0b 3e 38 83 56 bd 38 8d 4b 39
       0.09144685 0.13669899 -0.052371234 0.00019412197

bias_hh_l0 f4 [60]
000000 d1 93 09 be f9 09 1d bc 38 5d 7e bd fd 9e 79 3e
       -0.13435294 -0.009584897 -0.06210062 0.24377055
000010 3b 58 70 be 6a 53 cf bd f9 49 16 3e 4a ce 91 bd
       -0.23471157 -0.10123332 0.14676656 -0.07119425
000020 68 2e 4c be 86 39 30 bb 05 cc 62 3e f4 89 53 3e
       -0.19939578 -0.0026889755 0.2214814 0.20658094
000030 08 1d 22 3e 9f fc 1a be 0f fb 4e be 5e 44 5c 3d
       0.15831387 -0.1513543 -0.20212959 0.053776138
000040 b7 f1 6d be 64 03 44 3e c4 23 97 3d 48 f9 4a 3d
       -0.23236738 0.19141918 0.073798686 0.04955414
000050 bb d5 47 3e c4 76 d4 bb d1 17 2c 3c 2b 28 8e 3d
       0.19515125 -0.0064838845 0.010503725 0.06941255
000060 68 c0 5e 3e a3 7d 83 bc 3c 0f 63 be ce 0d ab bc
       0.21753085 -0.01605112 -0.2217378 -0.020880606
000070 92 b2 8a 3c 33 6f 8b bd 7d 20 ce 3d 02 95 57 3e
       0.016930852 -0.06808319 0.100647904 0.21052936
000080 0f a5 54 3d 91 a0 fd bd ec 02 02 be f9 fb 48 be
       0.051915225 -0.12384141 -0.12696427 -0.1962737
000090 67 a7 93 bd f5 42 be 3c 5d e4 02 3e cb b1 8b 3d
       -0.07209664 0.023225287 0.12782426 0.06821021
0000a0 fc 1a 20 be 3f 6b 73 3e 53 4c ff bd ce 08 04 be
       -0.15635294 0.2377138 -0.124657296 -0.12893984
0000b0 80 27 07 be f2 12 72 be 5e 03 81 be ca 7a 1f 3e
       -0.13198662 -0.2364004 -0.2519788 0.15574184
0000c0 48 03 8b 3e e9 4a 41 3e c4 12 47 bc f4 c5 93 3d
       0.2715094 0.18876232 -0.01215047 0.07215491
0000d0 b6 9a d4 bd e1 b2 e7 3c 04 45 87 be 72 1b 79 3e
       -0.10381071 0.028283538 -0.26419842 0.24326876
0000e0 96 fc 20 be 59 f1 69 be 4f b7 e0 bd 45 45 5c 3d
       -0.15721354 -0.22845973 -0.10972463 0.053776998

weight_ih_l1 f4 [60, 15]
000000 97 0a 27 3d fc 60 13 be cd 34 56 bd db 50 ef 3d
       0.040781584 -0.14392465 -0.05229645 0.11685344
000010 01 31 9b bd 4e f6 6b be f2 ed 09 3e 6f 5d 0a 3d
       -0.07577706 -0.23043177 0.13469675 0.03378051
000020 ae 22 ad bd b5 76 78 3e b1 00 55 3e d3 a8 b2 bd
       -0.0845388 0.24264033 0.20801045 -0.08723607
000030 3d 91 63 3e f3 a9 22 be 9b 68 78 bc 02 ea 1f 3e
       0.22223373 -0.15885143 -0.015161659 0.1561661
000040 00 bb 05 3e 10 d9 b2 3d c1 ef 45 3e 63 74 5c 3e
       0.13059616 0.08732808 0.1932974 0.21528773
000050 34 35 9c 3d 89 f1 a7 bd 66 cc 4c be 4a e1 54 be
       0.07627335 -0.08200366 -0.19999847 -0.20789066
000060 cd 6d 9f 3d ce 85 18 3e e2 99 f5 3c 78 4d f7 3d
       0.07784615 0.14894792 0.029980604 0.12075323
000070 09 8f 01 3e 25 98 4b 3d 9e 4f f1 bb 86 94 a4 bb
       0.1265222 0.049705643 -0.0073642274 -0.005022588
000080 35 fd 25 3e 89 20 44 3e 27 b1 63 3e 7f ad 71 3d
       0.16209872 0.19153036 0.22235547 0.05900335
000090 7b 25 2c be 3d 00 55 3d 2e d7 58 be 20 6e 20 3e
       -0.16811173 0.05200218 -0.21175835 0.1566701
0000a0 b2 7e 6a 3e 24 eb 86 3e 20 d8 18 bb 2e c9 f7 3b
       0.22899893 0.26351273 -0.002332218 0.0075618243
0000b0 44 96 3b bc 70 ce a4 3c d5 04 1a 3e a9 a7 6b 3e
       -0.0114494 0.020117968 0.15040906 0.23013176
0000c0 68 16 ea 3c 38 cc 80 3d f5 c9 f9 bd 62 15 bf 3d
       0.028575137 0.06288952 -0.12196723 0.0933025
0000d0 4f 7a 1f be bb c3 3d be d2 11 28 be 79 ea c9 bd
       -0.15574001 -0.18531696 -0.16413048 -0.09859175
0000e0 99 cf a2 3d ec 31 76 3c c6 25 3d 3e 3f d8 9a 3d
       0.07949752 0.015026551 0.1847144 0.07560777
0000f0 3b 32 9b bd ae f5 0c be a8 88 86 be 1b 23 00 3e
       -0.0757794 -0.13765594 -0.26276135 0.12513392
000100 c9 63 b7 3d 04 75 88 be dc e1 0e 3d fb c3 b4 3d
       0.089545794 -0.26651776 0.034883365 0.08826443
000110 13 4a 55 bb 13 b7 40 3e 58 cb 5c 3e b9 cc a8 3d
       -0.0032545372 0.18819837 0.21561944 0.08242173
000120 d1 c9 49 bd bc 2a 47 3e 38 15 9f bc d7 c6 50 bd
       -0.049264733 0.19449896 -0.019419298 -0.05097088
000130 2d a2 47 be 07 32 f5 bd 69 8f 87 3d c9 be 59 be
       -0.19495459 -0.119724326 0.0661915 -0.21264185
000140 01 af 6a 3e ea ca b0 3c 8d 63 4a 3e 69 8e 05 3e
       0.22918321 0.021581132 0.19764538 0.13042606
000150 ed 0a 65 3d 6d 21 4d be 3a 6b 1f 3d 85 91 a0 bd
       0.055918623 -0.20032282 0.03892062 -0.07840256
000160 a2 51 1c 3e b2 da ae 3d ae 29 61 be c8 94 90 3c
       0.15265515 0.085378066 -0.21988556 0.01764907
000170 a6 8c 59 be 37 66 6a be e1 0c d7 3d 44 fb 14 3e
       -0.2124506 -0.22890554 0.10500503 0.14548975
000180 64 90 fb bd c2 79 fd 3d 1d ec 82 3e 57 17 7a bb
       -0.122834 0.12376739 0.25570765 -0.0038160884
000190 9f 20 c9 bd cd 0e 2e be 0c 6c e9 38 cd ea 2f 3c
       -0.09820675 -0.16997834 0.00011130431 0.010737133
0001a0 c9 0d 4e 3c c5 ee ac 3d c8 00 71 be ac 09 9e 3d
       0.012576529 0.08443979 -0.23535454 0.077166885
0001b0 f4 5e 1c 3d 68 1d 1b be 24 eb fa 3d 78 f4 87 3d
       0.03817649 -0.15147936 0.12251881 0.066384256
0001c0 c9 53 e3 3b 48 47 32 be 93 8a 58 3e 7b a5 b5 bc
       0.006937478 -0.17410004 0.21146612 -0.022173634
0001d0 9d a9 5a be 38 78 1f bd 01 b9 0e bb 24 c1 5c be
       -0.21353765 -0.03893301 -0.0021777751 -0.21558052
0001e0 d2 4e 19 be fd f2 b3 3d 36 f8 12 be 51 ca 12 3e
       -0.14971474 0.08786581 -0.14352497 0.1433499
0001f0 d5 a8 8a 3d b0 82 6a 3e 67 92 02 3d d9 d3 e7 bd
       0.067704834 0.22901416 0.0318779 -0.113197036
000200 ac 38 c0 bd 92 25 92 bd b0 99 69 be b6 36 86 3e
       -0.09385809 -0.07136072 -0.22812533 0.26213616
000210 2e db 30 be 40 a3 15 3e 10 ad 69 bd 77 93 65 3e
       -0.1727111 0.14613056 -0.05704981 0.22419535
000220 d7 08 0f 3e c1 1c 6c 3e db 50 84 be 92 79 07 be
       0.13968216 0.23057844 -0.25842938 -0.13229969
000230 d9 1d 54 3e 8f 0f 67 be 81 56 72 be 42 02 47 3a
       0.20714511 -0.22564529 -0.23665811 0.0007591584
000240 55 72 24 3e bc c5 b2 3d 85 65 5a be e8 03 98 bd
       0.16059239 0.08729121 -0.21327789 -0.0742262
000250 bf 33 4e 3e 0f 50 53 3e 3c 87 19 3e 82 16 82 be
       0.20136927 0.20636009 0.14992994 -0.25407797
000260 ac c1 fc 3d 43 88 04 be 4c b2 79 3e 6d 81 06 3e
       0.123416275 -0.12942605 0.24384421 0.1313531
000270 9a fd 73 be e6 5f 18 3d 4b e3 20 be ab a6 4c bd
       -0.2382721 0.03720083 -0.15711705 -0.049963634
000280 c2 91 5f 3e e6 43 23 be c5 e9 87 3d 68 ac 0c bd
       0.21832946 -0.1594387 0.06636385 -0.034344107
000290 a5 86 58 3e aa 5d 2d 3c 16 8c 9b 3d 89 ed 87 bd
       0.21145113 0.010581413 0.07595079 -0.06637103
0002a0 9e fb e8 bd 5a f9 01 bb 9d 1c 25 bd 5e e3 30 be
       -0.11376117 -0.0019832463 -0.04031049 -0.17274234
0002b0 0e 51 e3 bc 0f 95 85 3c e7 aa 4a be 1d 7d f7 3d
       -0.02774861 0.016306428 -0.19791757 0.1208441
0002c0 4a ea 83 3e c1 5a d8 bd ef 17 d3 3d 22 4e 68 3e
       0.25764686 -0.10564185 0.10307299 0.22686055
0002d0 ce 34 8e bd f8 b0 72 be 8a 4d e4 3d 75 a2 8c 3d
       -0.069436654 -0.2370032 0.11147602 0.06866924
0002e0 98 f4 8c bc 3a ca 38 3e 13 18 4c 3d e8 93 04 be
       -0.017206475 0.18045893 0.049827646 -0.12947047
0002f0 36 d9 61 3e 74 02 20 be 47 07 5c be 11 d2 9c bd
       0.22055516 -0.15625936 -0.21487151 -0.076572545
000300 82 2c 0d 3e ce 5e fa 3c 08 84 3c be 5a c8 64 3e
       0.1378651 0.030562785 -0.18409741 0.22342053
000310 b5 79 57 3d 90 14 98 3c 61 e0 5f be f4 a0 23 3e
       0.052606303 0.018564492 -0.21862938 0.15979367
000320 e2 91 ce 3d da 14 e4 3c 6c 64 a9 bd b4 59 80 be
       0.10086419 0.027841974 -0.08271107 -0.25068438
000330 c0 60 07 bd de 8e 27 3e ad 73 b8 bd 5a f2 01 bb
       -0.033051252 0.16363093 -0.090064384 -0.001982829
000340 46 29 8e 3d b4 cd 20 3d e9 03 de bd 7c 15 f9 bc
       0.06941466 0.039258674 -0.108405896 -0.030405752
000350 48 08 81 be fd 9b 2d be 2a cc 85 3e c7 ab 9c 3c
       -0.2520163 -0.16954036 0.26132327 0.019124879
000360 2c 8f 85 3d b8 37 c8 3d 5b 70 24 bc a4 5f 3e 3e
       0.065214485 0.097762525 -0.010036553 0.18591172
000370 9c c8 8d 3d be 6f f5 3c 45 5d 76 be f4 1c 2f bd
       0.06923029 0.02996051 -0.24059017 -0.04275222
000380 2d 66 d3 3d 16 66 a5 3d bd df 3f 3e fc d2 5c be
       0.10322223 0.08076112 0.18737693 -0.21564859
000390 9a 98 45 bd 42 8f d4 3d 92 5a b3 3c 4d 86 c2 bd
       -0.048241235 0.10378887 0.021893773 -0.09498272
0003a0 84 ff fa 3d 62 a2 0c bd 14 9f 4c be 9f e1 1e 3e
       0.12255767 -0.034334548 -0.19982558 0.15515755
0003b0 77 d7 26 3d 03 a8 3a be 16 57 6d be 11 17 30 3e
       0.040732827 -0.18228154 -0.23177752 0.17196299
0003c0 04 6c 81 be 63 a1 bd 3d e1 10 51 3e f2 ff 61 3d
       -0.25277722 0.09259298 0.20416595 0.05517573
0003d0 4c 00 cf bc 3c bc 03 bd 8e 20 2c 3e 92 a2 8b be
       -0.025268696 -0.032161936 0.16809294 -0.2727247
0003e0 d1 cc 31 bd e2 4d 06 3e 2a 55 11 be 9c 86 9b 3d
       -0.04340822 0.13115647 -0.14192644 0.07594034
0003f0 1e 29 2e be ff 2b 10 3e 13 7e f9 3d 76 18 63 be
       -0.17007872 0.14079283 0.1218225 -0.221773

weight_hh_l1 f4 [60, 15]
000000 cc 3a 44 bc 80 90 25 be 9d 49 04 3e 41 57 28 be
       -0.011976909 -0.16168404 0.12918706 -0.16439535
000010 0d 21 b1 bd f8 72 4f 3e d4 4b 82 3e 35 fb 62 be
       -0.08648882 0.20258701 0.25448477 -0.2216614
000020 ad c4 21 3e be 83 a5 bc 3b c0 28 be 5c 98 2b 3c
       0.15797682 -0.020204421 -0.1647958 0.010473337
000030 be 6a 30 be 14 da 54 3d 4f d1 a9 bc 38 11 14 be
       -0.17228219 0.051965788 -0.020729689 -0.14459693
000040 eb 93 8d 3e 66 bc d5 3d 74 db 73 3e 87 f1 42 3e
       0.27651915 0.10436325 0.23814183 0.19037448
000050 d8 fe 63 3e 9a ec 68 be 56 e5 35 3e 43 8c 6d be
       0.22265184 -0.22746506 0.17763266 -0.23198037
000060 7f 9f 61 3d 19 5f aa bd f0 e6 8c be 0e 26 bb 3b
       0.055083748 -0.0831892 -0.2751994 0.0057113236
000070 6b f9 02 be 36 63 00 bd cd 9b 44 be 36 7c f9 bd
       -0.12790458 -0.031344615 -0.19200058 -0.121818945
000080 76 82 65 be ca 3b 0d 3e 93 3f 07 be 12 9e 3a 3d
       -0.22413048 0.13792339 -0.13207845 0.045560904
000090 bb ef 31 3e 28 61 b9 bc 5b 12 3b be 06 1b 8a 3e
       0.17376606 -0.022629336 -0.18268721 0.26973742
0000a0 1e 13 22 be 20 a7 36 bd 8f 87 26 3e c3 fd 64 3e
       -0.15827605 -0.044592977 0.16262649 0.22362427
0000b0 95 39 3e be e8 49 1a be 0b 56 f8 bd f1 4e 98 3d
       -0.18576653 -0.15067255 -0.121257864 0.07436932
0000c0 ab 71 04 3e 48 d3 44 be ab 1a 0c 3e e0 48 83 3e
       0.12933986 -0.19221222 0.13682048 0.25641537
0000d0 87 85 49 bd 3c 10 03 3e 8a 9e 20 be 5f 1f b3 3d
       -0.049199607 0.12799162 -0.15685478 0.08746218
0000e0 e9 48 74 3e 43 c7 2a bd 4a d8 f4 3c e0 f5 08 bd
       0.23855938 -0.041693937 0.02988829 -0.03343761
0000f0 bd bb 92 3e 54 94 10 3e 00 8d f8 bd 97 6c 7c be
       0.28658858 0.14119083 -0.121362686 -0.24650799
000100 37 cc 63 be 90 58 27 3e 9a ce d7 3d 13 74 df bd
       -0.2224587 0.16342378 0.10537453 -0.10910811
000110 fd 0a 4f 3d ad d0 c3 3d 8b 16 5e 3e 61 f6 f1 bd
       0.05054759 0.09561286 0.21688287 -0.11814571
000120 7d a7 3a 3d 53 46 1d 3e 65 5e e3 bd 69 50 7e 3d
       0.045569886 0.15358858 -0.11101989 0.062088404
000130 09 31 41 be 51 6c 49 be b6 e4 6d 3e 39 ee be 3d
       -0.18866362 -0.19670226 0.23231778 0.09322781
000140 68 b6 52 3c 91 78 f0 bd 35 3f 70 3e a2 e6 67 3d
       0.012860872 -0.11741746 0.23461612 0.056616433
000150 43 f0 20 bd 62 ce a6 bd 6e 00 df bc 1e fd bd 3c
       -0.03929163 -0.08144833 -0.027221885 0.023191985
000160 87 45 ab bd 5f c1 9a 3d a8 0d a3 3d 72 4a 3d be
       -0.08362871 0.07556414 0.07961589 -0.1848543
000170 58 bd 89 3d ea 0e 41 bd fb 73 50 bd de bb 33 3d
       0.067255676 -0.047133364 -0.050891858 0.043880336
000180 c9 23 eb bd 63 5a 11 3e cc 71 1e 3e c7 fe b2 3d
       -0.11481435 0.14194636 0.15473098 0.08740001
000190 16 05 82 3e d8 2d f9 bd c5 c8 6d 3e d4 81 a7 3d
       0.25394505 -0.12166947 0.23221119 0.081790596
0001a0 a3 46 3e 3e 03 8e 7c bc 30 af 95 3d ad 3d 37 be
       0.18581633 -0.015414718 0.07308805 -0.17894621
0001b0 3d 37 49 be 54 09 72 3c 2e 93 09 3c 16 47 82 3c
       -0.19649978 0.014772732 0.008396907 0.015903037
0001c0 5f bd b9 39 93 e3 4d 3e e1 2e a3 bd 12 ef 69 bd
       0.00035427042 0.20106344 -0.07967926 -0.05711276
0001d0 26 5c e5 bc af e4 76 3d dc ca 82 bd bc 97 7e 3d
       -0.027998041 0.060276683 -0.063863486 0.062156424
0001e0 59 67 52 3e 51 cd 9d 3d f5 d8 2f 3d 72 9f 2d 3e
       0.20547237 0.077051766 0.042931516 0.16955355
0001f0 b2 c9 cb 3c 33 9d 6c bc fe 1d 26 be 04 da f4 bc
       0.02487645 -0.014441776 -0.16222379 -0.029889114
000200 be 76 6c be 77 8f 19 3e 05 74 a2 bd c1 8f 52 be
       -0.23092172 0.14996134 -0.07932285 -0.2056265
000210 f1 88 1b 3e fc 31 ca bd b4 f4 11 3e 1b a3 79 3d
       0.15188958 -0.09872815 0.14253503 0.060946565
000220 7a 6b c4 3d a9 40 bd bd 8a 88 24 be 25 e4 0b 3d
       0.09590812 -0.092408486 -0.1606771 0.034153122
000230 3d 59 5f 3e 52 8c 99 bc 58 00 26 3e 6e b5 48 bc
       0.21811385 -0.018743668 0.16211069 -0.012250287
000240 ef c6 cb 3d 07 02 34 be b2 f1 dc bd 1a 0e b0 3d
       0.09950053 -0.17578898 -0.10788287 0.0859644
000250 e8 0e b9 bd 4d c6 50 3e f6 70 8c be 6c 76 05 3e
       -0.09036046 0.20388146 -0.27429932 0.13033456
000260 c7 2a 61 3e 66 d9 05 bd 5a 07 73 be 9d b3 fa bd
       0.21988975 -0.03267803 -0.23733273 -0.1224129
000270 74 f3 65 3d 92 6c 21 bc b9 c6 34 3c d1 57 63 bd
       0.056140378 -0.009852545 0.011033707 -0.05550367
000280 58 c1 bf bc d1 13 39 be c2 cf 44 3e 9f b5 57 3e
       -0.023407623 -0.18073966 0.19219878 0.21065377
000290 8d 80 eb 3d 1f b8 53 3b 57 b6 4c 3e 73 b1 10 3e
       0.114991285 0.003230579 0.19991432 0.14130192
0002a0 5d da ac bc 50 92 04 3e a4 4d 3f 3c 82 d2 2a be
       -0.021100217 0.12946439 0.011676226 -0.16681865
0002b0 0b 66 a2 bb ce d2 02 3e 1b bc 7f be 83 20 ae 3c
       -0.004956012 0.12775728 -0.249741 0.021255737
0002c0 8b 19 a5 bd fe c2 93 bc bc 4d 09 be 9a 5f 39 bd
       -0.080615126 -0.018037315 -0.1340856 -0.04525719
0002d0 85 3a d5 bd 8b 7a 56 be 5d ed 62 3e 35 52 45 3e
       -0.10411552 -0.20945184 0.2216086 0.1926964
0002e0 3f e1 1d 3e bf 0d a8 3d 7f 4d 58 be 9b 7a c1 3d
       0.15417956 0.08205747 -0.21123312 0.09447213
0002f0 8c 45 23 be 0a e9 52 be ac 1b 84 3e ee 5f ad 3d
       -0.15944499 -0.2059671 0.25802362 0.08465563
000300 2f 04 d0 3c ff 28 88 bd d4 cb 8e 3d 06 28 34 3d
       0.02539262 -0.066484444 0.06972471 0.04398348
000310 eb 08 f6 bd cf 99 c7 bd fc 5c 55 be a5 a1 31 3e
       -0.1201342 -0.097461335 -0.20836252 0.17346819
000320 41 9f 80 bc 97 84 42 be be d7 36 be 64 b4 85 3e
       -0.015700938 -0.18995892 -0.17855737 0.2611419
000330 bf b1 6e be 14 dd 88 bc db ed 44 3e 76 97 00 3e
       -0.23309992 -0.01670698 0.1923136 0.12557778
000340 b2 4b 22 3e cc 87 78 3e 6c f8 7a bc 76 4f 89 be
       0.15849188 0.24270552 -0.015318017 -0.26818436
000350 d4 22 e5 bc 2e a8 87 3d 6b f0 51 be af ae 8a 3d
       -0.027970709 0.066238746 -0.20501868 0.067715995
000360 4c 5e 1c be 6f 88 c2 bd 76 bd ba bd 85 8d 46 3e
       -0.15270346 -0.09498679 -0.09118168 0.19389923
000370 9a 88 58 be dd bd 33 be 4c 7e fc 39 91 32 35 be
       -0.2114586 -0.17552896 0.00048159284 -0.17695071
000380 ef 11 6e 3d f8 ea 5a be 09 9c ba bd 25 e1 bf bd
       0.05812257 -0.21378696 -0.091117926 -0.09369115
000390 48 7b 1f 3e b2 d9 bf bd 0c 53 1c 3e 09 31 1f be
       0.15574372 -0.09367694 0.15266055 -0.15546049
0003a0 b9 02 4d 3e 90 7d 02 3e fa 0c 1f 3e b7 a4 36 bc
       0.2002057 0.12743211 0.15532294 -0.0111476695
0003b0 ae 0b b1 bc a3 b7 64 be 1b 0d 0a be 5e e0 bc bd
       -0.021612015 -0.22335677 -0.13481562 -0.09222482
0003c0 e8 ea 40 3e f3 d8 62 be 31 fe 7d be 1d 71 52 3e
       0.1883961 -0.22153072 -0.24803998 0.20550962
0003d0 f3 f2 e9 bd 67 1e 58 3e 0d 90 9f 3d ed 00 2f 3e
       -0.11423292 0.21105348 0.077911474 0.17090197
0003e0 f2 8d 4d be d4 fb dc 3d bc 79 23 3e 2a 13 df 3d
       -0.20073679 0.1079022 0.15964407 0.10892327
0003f0 3e b0 8b be cb 4e ce bd bb ea 4d 3e cc d1 e3 3c
       -0.272829 -0.10073622 0.20109074 0.02781

bias_ih_l1 f4 [60]
000000 4c 46 25 be e2 64 17 bd 42 32 14 3e 83 fe 2a 3e
       -0.16140097 -0.036961444 0.14472297 0.16698651
000010 63 1c 3c 3e f7 91 53 be c4 48 04 3e aa 23 06 be
       0.18370204 -0.2066115 0.12918383 -0.13099542
000020 7b cd 20 be 32 07 6a be 63 66 07 be 65 c7 d6 3c
       -0.15703385 -0.22854307 -0.13222651 0.026218126
000030 bc 00 91 bc 52 42 00 3e 62 08 1a bb 22 a3 02 be
       -0.017700545 0.12525299 -0.0023503532 -0.12757543
000040 80 7f 7b 3d 44 a2 4e be 30 3a 58 be 68 48 00 bd
       0.06140089 -0.20179087 -0.21115947 -0.031319052
000050 cb 29 07 bc d0 d3 65 be 34 4f 5c 3e 89 85 31 3d
       -0.00824971 -0.22444081 0.21514589 0.04334024
000060 57 62 8c be 6a f4 f4 3d 06 79 01 bd 0f 1e 1f bd
       -0.27418777 0.11960681 -0.031609558 -0.038847025
000070 e3 55 8f 3e ca d6 de bd b4 91 37 3c 63 17 d0 3d
       0.27995214 -0.108808115 0.011204172 0.10160711
000080 81 be 9c bd 1f 2d bf bd 45 b5 9b 3d 61 db ce bd
       -0.07653523 -0.09334778 0.07602934 -0.10100437
000090 71 6b 90 3d b8 d3 59 be 76 35 b7 3c 73 2c b8 3d
       0.07051743 -0.2127217 0.02236436 0.08992853
0000a0 34 0b 35 3d 3b 50 5a 3e d0 6f 60 3e b8 86 74 be
       0.044200137 0.21319668 0.21917653 -0.23879516
0000b0 50 de 75 bd 0f 66 28 3e fb 3d 7c bd 6e 1e 9d bd
       -0.060026467 0.16445182 -0.061582547 -0.076718196
0000c0 2a 0a 55 3e 5a ad ee bd 6d d7 1d bd 43 88 df bc
       0.20804659 -0.11654158 -0.038535524 -0.027286654
0000d0 7e 4b a2 3c 7e d9 f3 bd 63 c2 13 3e 2a a5 97 bc
       0.019811388 -0.11906718 0.14429621 -0.018511374
0000e0 f9 f5 44 3e a5 db 84 3d 16 73 5c 3d 93 c0 85 3e
       0.19234456 0.06487206 0.053820692 0.26123485

bias_hh_l1 f4 [60]
000000 5b 63 05 bb 8b 75 d5 bd a0 fa 84 bb ce 81 ef bd
       -0.002035341 -0.1042281 -0.004058197 -0.1169468
000010 40 17 18 be 03 b8 6b be 36 0a 52 be c3 bf 0f 3d
       -0.14852619 -0.23019414 -0.20511708 0.035094988
000020 3f e7 93 ba 42 a4 e0 bc a8 b8 3b 3d c9 73 6f 3e
       -0.0011284127 -0.027422074 0.0458304 0.23384012
000030 9b 95 94 bc b7 72 ac 3d 23 85 7c 3d 2e 29 ec 3c
       -0.018137744 0.084203176 0.061650407 0.02882823
000040 e5 bd a6 3d e5 4f 2c be a1 b5 78 be c0 64 59 be
       0.08141688 -0.16827352 -0.24288036 -0.2122984
000050 1c af 0d be 13 f1 56 3e 11 51 22 be db ae 76 3e
       -0.1383633 0.209904 -0.15851237 0.2409014
000060 cb a3 23 be 54 d9 b5 bd 9f d5 43 be 34 f5 26 be
       -0.15980451 -0.08879343 -0.19124459 -0.16304475
000070 ca ea 53 be f3 1c ac 3d 25 18 32 3e 25 f2 11 be
       -0.20695034 0.08403959 0.17392023 -0.14252527
000080 ea 7d 64 3e d4 15 16 3d 44 23 c0 bc 8c 57 f8 bc
       0.22313657 0.03664191 -0.023454316 -0.030315183
000090 ee d1 21 be 80 d2 d9 3d 6b ce 15 3d 59 f2 30 bd
       -0.15802738 0.10635853 0.03657381 -0.04319987
0000a0 ab b0 5e be fb ab 6c 3e 45 f6 7c bd 15 cf 45 3d
       -0.21747081 0.2311248 -0.0617583 0.048293192
0000b0 6a cb 86 3e f1 ab 27 3e 94 77 ea 3d 12 65 3f 3e
       0.26327068 0.16374184 0.11448589 0.18690899
0000c0 88 d8 5b 3e 55 c6 a4 3d 92 eb 87 bd f3 f6 c4 3b
       0.21469319 0.08045641 -0.06636728 0.006010884
0000d0 97 16 8e bd 1b 6e 1d be 31 43 28 be 6b 6a f6 bd
       -0.069379024 -0.15374033 -0.16431881 -0.12032016
0000e0 1b b4 11 3e 39 00 b0 bd 20 3c 2a 3e b3 aa 01 3e
       0.14228861 -0.085937925 0.16624498 0.12662773

weight f4 [3, 15]
000000 88 09 8e 3d 89 1f 14 3e 6b d6 07 3e 5b 8e 5a bd
       0.06935412 0.14465155 0.13265388 -0.053358417
000010 63 1e 37 be f9 7d ac 3d 18 ee 76 bd a7 da 60 be
       -0.17882685 0.08422465 -0.060285658 -0.21958409
000020 e2 ad 18 be 84 8b 1a 3e 9f 09 93 bb 05 73 9a 3d
       -0.14910081 0.15092283 -0.004487231 0.075414695
000030 17 70 ce 3d 0d 5f 79 3e 9b 78 92 be 33 80 b5 bd
       0.10079973 0.24352665 -0.2860764 -0.08862343
000040 74 63 48 3e a2 25 8a 3e 40 1e c6 3d 25 74 04 3e
       0.19569188 0.26981837 0.096737385 0.1293493
000050 89 4f 04 3e 78 e8 96 3c 75 ab 48 3e a6 5d 16 be
       0.12920965 0.018421397 0.19596656 -0.14684162
000060 ac 5c 1e 3e db 03 13 3d d4 93 6a 3e bf 0c 87 3e
       0.15465039 0.03589235 0.22907954 0.26376912
000070 d6 6a 70 3d cc b6 4e be aa a7 d1 bd de 56 64 3e
       0.058695637 -0.20186919 -0.102370575 0.22298762
000080 55 9e 82 3e 8f 19 1a be 20 29 04 3d 6b e1 35 be
       0.25511423 -0.15048812 0.032265782 -0.17761771
000090 61 2f a6 3c 3d 0f 03 3d 08 2d c4 3a 3b a4 33 be
       0.020286264 0.031996954 0.0014967034 -0.17543118
0000a0 4e 0d 72 3d 80 79 2f bc 35 ac 39 3d e0 cf dd bd
       0.05909472 -0.01071012 0.045330245 -0.10830665
0000b0 a0 05 2f be
       -0.1709199

bias f4 [3]
000000 76 39 81 be 70 15 21 3e ed 85 3f 3e
       -0.25239152 0.15730834 0.18703432
