models/TwentyClassifier.pt (torch, 26343 bytes, 7 tensors)

weight f4 [4, 8]
000000 00 00 00 00 00 00 00 00 00 00 00 00 00 00 00 00
       0.0 0.0 0.0 0.0
000010 00 00 00 00 00 00 00 00 00 00 00 00 00 00 00 00
       0.0 0.0 0.0 0.0
000020 c3 f0 b9 be b6 14 05 bf 08 f9 d8 3e 6b 66 86 bf
       -0.363165 -0.5198473 0.42377496 -1.0500005
000030 be 23 d2 be 36 43 99 bf e0 b7 d6 3f de 9e ed 3d
       -0.41042894 -1.1973636 1.6774864 0.11602567
000040 63 ca 6d 3e 2e a0 39 3e f1 5f d1 3f 07 93 79 bf
       0.23221736 0.1812751 1.6357404 -0.9748997
000050 7e 35 76 be 18 26 52 bd c4 c5 34 3f d0 f6 be 3e
       -0.24043843 -0.05130586 0.70614266 0.37297678
000060 66 68 ac bf a3 3b 1a 3d 66 7f 0a c0 4f 37 2e 3f
       -1.346936 0.03765453 -2.1640258 0.68053144
000070 80 cb 63 3c c7 27 2d bf f6 bd 27 3f 5b 32 40 3f
       0.013903499 -0.6763882 0.6552423 0.75076836

weight_ih_l0 f4 [120, 8]
000000 61 86 1c be de 4e af 3b 25 b5 e2 3c 26 bc 56 bc
       -0.15285636 0.005349978 0.027674267 -0.0131063815
000010 2a 3e 6f bb ea 07 4a be 04 c5 55 bd 79 9d d2 3d
       -0.0036505559 -0.19729581 -0.052189842 0.10283942
000020 33 50 15 be 99 7a e8 3b ee 95 5b bd 36 14 15 3e
       -0.14581375 0.007094693 -0.05360978 0.14558491
000030 0e c7 51 bd 3c f6 5c bc 9a 71 c6 bc 0f 55 53 3c
       -0.051215224 -0.013486441 -0.024224091 0.0128986975
000040 10 20 71 be b3 1f 1e 3e 79 c9 e4 3d fc 65 b7 3d
       -0.23547387 0.1544178 0.1117124 0.08954999
000050 bf 44 27 3e 5a f8 b3 3c a0 e6 86 bd a2 d7 87 3e
       0.16334818 0.02196901 -0.06586957 0.26531702
000060 c2 b7 b2 bd db 42 af bd a3 ca bd 3c a5 60 6e be
       -0.08726455 -0.085576735 0.023167914 -0.23279054
000070 82 6f e5 bd fe 7d 3c be 36 69 07 3e 0f a9 2c 3e
       -0.11202909 -0.18407437 0.13223729 0.16861366
000080 3d c2 26 3e 65 76 18 3d b8 a6 a9 3d 39 8b eb bd
       0.16285034 0.037222285 0.08283752 -0.11501164
000090 f7 a6 2c 3d 06 49 66 3e 06 a4 37 be 90 43 05 3e
       0.042151418 0.22488794 -0.17933664 0.13014054
0000a0 3b 8a 2c 3d fd 40 fa bd 9c d9 a5 3d 09 d4 a7 3d
       0.042124014 -0.12219427 0.08098146 0.08194739
0000b0 c1 88 72 3d af 4d 00 3e 74 4c 50 be ba 59 96 bc
       0.05921245 0.12529634 -0.20341665 -0.018353332
0000c0 e4 ba 0e be b3 e3 49 be 08 8e f8 3d dc 7f 2f be
       -0.1393848 -0.19715767 0.12136465 -0.17138618
0000d0 a0 3c b2 bd f1 1e 8b 3d dd e9 96 3d cd 3b cc 3c
       -0.087029696 0.06793011 0.07368825 0.024930859
0000e0 e7 f7 f9 bc 81 e0 58 3e 54 86 98 bd bc 73 cd 3c
       -0.030513717 0.21179391 -0.07447496 0.0250796
0000f0 c6 c4 04 be 4c 7f 0a 3d 11 ff 62 bd 48 2c 5d bd
       -0.12965688 0.033812806 -0.05541903 -0.053997308
000100 50 2e 8d be 46 10 69 be f2 67 23 be e0 6f 34 3e
       -0.27574396 -0.22760114 -0.1595762 0.17620802
000110 e9 84 c5 3d 5f a9 28 be 01 48 e1 bc 82 25 dc bc
       0.09644491 -0.1647086 -0.027500154 -0.026873354
000120 f9 06 81 3d 46 27 4e bb 62 4d cf 3d b5 5f 51 3e
       0.06300158 -0.0031456514 0.101221815 0.20446666
000130 c1 95 2d 3e fb c5 d8 bc 42 d3 bf 3d 60 db 3e be
       0.16951658 -0.026461592 0.09366466 -0.18638372
000140 7d 65 3d bc 1d ab a5 3d 69 51 21 3e 81 33 91 bd
       -0.011559841 0.08089278 0.15753712 -0.07089902
000150 55 ca a3 bd 98 8b 17 3e fe bf d5 3d 5e 01 bd 3d
       -0.07997576 0.14799345 0.1043701 0.092287764
000160 37 6d 22 be 6a 18 84 3d 0e dc 15 3e f6 2f c9 3d
       -0.15861975 0.06449969 0.14634725 0.09823601
000170 44 72 31 3e 0a a5 80 bd 78 f2 1e bc 67 58 e5 bd
       0.17328745 -0.06281479 -0.009701364 -0.11198502
000180 8e c4 e1 bd c2 bb 86 bd 7c 07 d5 3d 8a 45 79 bd
       -0.11023818 -0.06578781 0.10401818 -0.060857333
000190 22 d6 8e bd 53 f6 74 be 8d 4f 4a 3e a4 93 a1 b9
       -0.06974436 -0.2392209 0.19756909 -0.00030818314
0001a0 b8 5b 89 bc b2 ae 8d b9 5e 28 f7 3d 20 96 29 bd
       -0.016767368 -0.00027023774 0.12068246 -0.041402936
0001b0 30 84 8e bd a0 5d 0d be 12 a3 21 3e fb b7 68 3d
       -0.069588065 -0.13805246 0.15784863 0.056816082
0001c0 17 32 5d bd 2c e6 7a 3d fe a9 68 be 55 13 88 3e
       -0.054002848 0.061254665 -0.22721097 0.2657725
0001d0 3c 28 e6 bc 6c 4e d0 3d 1e e0 bd 3d 5e b2 bc bc
       -0.028095357 0.10171208 0.092712626 -0.02303427
0001e0 87 65 a8 bd 94 89 1b bd 00 a6 f1 3d 95 8e 76 3c
       -0.0822249 -0.037973 0.1179924 0.015048643
0001f0 eb 99 57 be 2f f1 e9 bb 93 39 44 3d fb 7f 44 3e
       -0.21054809 -0.007139347 0.04790647 0.19189446
000200 be 2b 3b bd d7 fd c3 bd 3e c6 0e bd 98 94 28 bd
       -0.045696013 -0.095699005 -0.034857027 -0.041157335
000210 51 7c 7e bd a2 b9 24 bc 61 7e 45 3e 80 ec 6f bd
       -0.062130276 -0.010054024 0.19286491 -0.058575153
000220 44 0d 43 bc b9 48 69 be 5c 06 8b be 3f 9c 5c bd
       -0.011905018 -0.22781648 -0.2715329 -0.053859945
000230 85 28 15 3e e9 fe 3e be 38 aa b9 3d 21 bf 64 3e
       0.14566238 -0.18651928 0.0906567 0.22338535
000240 33 b2 43 be 54 26 00 3d 32 b6 83 bd 79 bb 26 be
       -0.19110946 0.031286553 -0.064312354 -0.16282453
000250 25 e8 4d be 38 90 02 3d 0f 39 81 bd ea bf 3b 3e
       -0.20108087 0.03187582 -0.06309711 0.18334928
000260 12 53 da bd 88 4f e9 3d 49 5c 14 3e 07 a2 ee bb
       -0.10660376 0.113921225 0.14488329 -0.0072824988
000270 29 fe 57 3d d7 57 dd bd 62 f6 bc bd c3 3f b1 3d
       0.05273262 -0.1080777 -0.09226681 0.0865474
000280 92 e9 34 bd e6 ab 0b 3d 85 63 5a 3d 41 70 69 bc
       -0.044168063 0.034099482 0.053317565 -0.014247955
000290 b6 67 27 be 8f f8 b6 3d c1 64 b9 bd bd a7 d6 3d
       -0.16348156 0.089341275 -0.090524204 0.10481212
0002a0 da 00 80 3e 4e 7e 70 bd 2b f3 b9 3d 46 d2 85 be
       0.2500065 -0.058714204 0.09079584 -0.26136988
0002b0 39 f9 04 be 88 18 2e bb 5a dc db 3d bc c2 1b bb
       -0.12985696 -0.0026564915 0.10735388 -0.0023767194
0002c0 7e 32 3d bd cc 20 e8 3d 2e 90 00 3e af 59 3b be
       -0.04619073 0.113343805 0.12555 -0.1829593
0002d0 e8 70 b5 3d 61 96 12 3d e6 da ae 3b 3a 44 e0 3d
       0.08859426 0.035787944 0.0053361533 0.10950513
0002e0 5f 5b 1d be ac b0 7c 3d 38 50 79 3c d8 b2 f0 3d
       -0.15366887 0.061691925 0.01521688 0.11752862
0002f0 3d 8d 2c 3d 00 cd a4 bd 28 57 10 bc 73 a5 67 3d
       0.042126883 -0.08046913 -0.008809842 0.05655427
000300 d3 20 3e 3e 39 28 b1 3d 18 b7 fd 3d 5c 42 ec bd
       0.18567209 0.0865025 0.12388438 -0.115360945
000310 83 b7 47 be d5 73 24 3e 4a ae 31 3e bc e9 2b be
       -0.19503598 0.16059811 0.17351642 -0.16788381
000320 20 cf 44 be 02 2b 9e 3d 3f 34 50 3d 61 c9 ca bd
       -0.19219637 0.07723047 0.050831076 -0.09901691
000330 8b 45 46 3d 8a 3f 56 be 7a 6f 83 3d 14 21 89 3d
       0.048406165 -0.20922676 0.06417747 0.06695762
000340 3b cf 0b bd 45 1b d8 3c 4a bc 72 3e 03 bd 8a be
       -0.034133177 0.02638019 0.23704639 -0.2709733
000350 f8 dd 0d be cf 5b 20 bd a3 03 ed bd 8f 7c 8a 3d
       -0.13854206 -0.039150055 -0.11572959 0.06762039
000360 e8 83 27 bd 1f 65 b9 bb 7c 12 7d be fa 4c b8 3d
       -0.04089728 -0.0056578065 -0.24714082 0.08999057
000370 d1 89 32 be 1e ca 50 be 25 55 b7 3d 1a 2d 8d bd
       -0.17435385 -0.20389602 0.08951787 -0.06893368
000380 20 6c b6 bd c9 46 49 be fa 78 60 3e 6a 70 17 bd
       -0.08907342 -0.19655909 0.21921149 -0.03697244
000390 b3 2b c5 3c 48 01 6f be df be 16 bd c9 3f 26 3c
       0.024068689 -0.23340333 -0.036803123 0.0101470435
0003a0 ce b6 32 3e e0 2a 2b be 22 7b 13 3e ca be 40 be
       0.17452547 -0.16715574 0.1440244 -0.1882278
0003b0 d0 07 71 be 9c eb 03 be 0c 94 70 3e b2 e6 fc bc
       -0.23538136 -0.12882847 0.23493975 -0.030871723
0003c0 0c b0 b5 3d f0 ff 94 be 09 b7 eb bd 0b da d2 bd
       0.08871469 -0.29101515 -0.115095206 -0.10295495
0003d0 56 12 8c 3d 7b 93 6f be 0a c0 4f 3d 2c 80 17 3e
       0.06839435 -0.23396103 0.050720252 0.14794987
0003e0 8e 92 b5 bd 9f 2b 01 be 28 3b c6 bd 89 5b d5 bd
       -0.08865844 -0.12614296 -0.09679252 -0.104178496
0003f0 be 00 4d 3d 9d 37 fb bd d7 a8 5b 3c 7c fd 02 3d
       0.050049536 -0.12266467 0.013406954 0.031980023

weight_hh_l0 f4 [120, 30]
000000 53 52 19 bd c4 76 08 3a 10 3d 6c 3e 9f e8 89 3e
       -0.037432026 0.0005205686 0.23070168 0.26935288
000010 9b b3 4d 3e a8 3c 18 3d 20 59 fe 3c 67 48 c2 3d
       0.20088045 0.03716722 0.031048357 0.09486466
000020 27 db 5c bd e2 de 06 3e 33 2b cb bc 18 c5 32 be
       -0.053919937 0.1317096 -0.024800872 -0.17457998
000030 b7 b6 f0 bc 11 1d 45 3d 3d 33 71 be 78 81 bb bd
       -0.029384 0.048123423 -0.23554702 -0.091555536
000040 4d 8e 9d 3b 37 89 6c bd d5 91 08 be 01 44 2f 3d
       0.0048082233 -0.057748046 -0.1333688 0.042789463
000050 cf 59 4f 3e e4 fe 3c 3e 41 67 00 be ed bb 17 3b
       0.20249103 0.18456608 -0.12539388 0.0023152784
000060 87 dd 34 bd f1 3a 63 bd 52 54 af 3d cf 8d 0f 3e
       -0.044156577 -0.055476133 0.08561005 0.1401894
000070 e5 e9 95 3d d5 7e 91 3c d6 02 b7 bd d8 53 4c be
       0.073200025 0.017760674 -0.08936088 -0.19953859
000080 ab c2 0c 3e 24 59 8f bc 67 eb 66 3e 4d ed e6 bd
       0.13746135 -0.01749856 0.22550736 -0.1127573
000090 59 5a 54 be 34 fb 06 3d 68 5f 29 3e 29 1e 65 bd
       -0.2073759 0.03295441 0.16540301 -0.055936966
0000a0 9e ca 57 be 84 65 35 be 31 21 4b 3d 3d c5 41 bd
       -0.21073386 -0.17714506 0.0495922 -0.04730724
0000b0 32 02 63 be c2 04 8a 3b b9 d3 7a bd ad a4 09 bd
       -0.22168806 0.004211993 -0.06123707 -0.033604313
0000c0 f7 f5 23 ba c7 1d 38 3e 90 02 b3 3d 52 1c 02 3e
       -0.0006254608 0.17980109 0.08740723 0.12706116
0000d0 78 37 2a be 2a 81 7c 3c 47 30 3e be 04 aa 5a be
       -0.16622722 0.0154116545 -0.18573104 -0.21353918
0000e0 a5 37 b2 bd e5 9e ae 3d a8 70 15 3c 25 ec 06 3e
       -0.087020196 0.085264005 0.009121098 0.1317602
0000f0 36 ff 22 3d b0 74 07 be 94 01 af bd f2 69 09 3e
       0.03979417 -0.13228106 -0.08545223 0.13419321
000100 eb fa 2b 3e 51 2e e7 bd 36 dd e5 bd 1a 8e 07 3e
       0.16794936 -0.11288131 -0.11223833 0.13237801
000110 79 59 70 3d 38 8e 23 3e e3 71 17 bc 25 4d 9e bd
       0.058679078 0.15972221 -0.009243461 -0.07729558
000120 c7 34 ff bd dc d1 59 3e c7 3f b2 bd 01 67 cf 3c
       -0.12461238 0.21271461 -0.08703571 0.02531767
000130 68 29 db 3a c4 e6 a3 bd 6c d0 fd 3c 57 d6 1a 3d
       0.0016720714 -0.080029994 0.030983172 0.037802067
000140 7f 31 5e 3d 36 37 29 3e 24 a6 43 bd 15 5d 89 3d
       0.054246422 0.16524968 -0.047765866 0.06707207
000150 9e 23 f8 3c 8f 44 3c be df 2e 1a be a2 a4 fa bc
       0.030290421 -0.18385528 -0.15056942 -0.030596081
000160 3b 0e e5 3d 64 74 63 3e 71 12 2d be 12 ed 83 3d
       0.11184355 0.22212368 -0.16901566 0.06441702
000170 9a eb ff 3d a4 28 c8 bd 1f 45 bf bd af 23 77 3e
       0.12496109 -0.097733766 -0.09339356 0.24134706
000180 9e b6 9e 3d 9c e0 ba bc 17 75 10 3e a8 4d f5 3d
       0.07749675 -0.02281218 0.14107166 0.119777024
000190 e2 82 c0 3d 93 b7 5f bd 01 9f 08 3e 9a de e2 3d
       0.09399964 -0.05461843 0.13341905 0.11077614
0001a0 37 77 43 be 95 20 95 bb 1e d5 77 3d 83 5a 14 3e
       -0.19088446 -0.004551003 0.06050598 0.14487652
0001b0 48 b5 e8 3c 52 8d 1a 3e 0a b0 c5 bc e6 04 0a 3d
       0.028406754 0.15092972 -0.024131794 0.033696078
0001c0 a7 70 51 3d fe ea e5 bd 9f 9d 1c 3b 11 19 9d be
       0.051132824 -0.11226462 0.002389766 -0.30683187
0001d0 2b ec e1 3d d5 7f d0 3d 2e a7 19 be f0 67 2f 3d
       0.110313736 0.10180632 -0.1500518 0.042823732
0001e0 2f 53 81 3d 87 c4 44 3c a6 6a af 3c 02 a8 b7 bb
       0.06314694 0.012009746 0.021413159 -0.005604745
0001f0 2f 80 4f 3d 11 41 6c bd eb 6c ac bd 7d 7a 3e 3d
       0.050659355 -0.05767924 -0.08419212 0.046503533
000200 9e 25 de 3d b9 df f0 3d 8e ab 7a 3d 6c 74 24 be
       0.10847019 0.11761422 0.061198764 -0.16060036
000210 1f 69 47 3b 57 77 19 be d4 88 87 3b c1 0f 15 be
       0.0030427647 -0.14986931 0.004136184 -0.14556791
000220 7b 4b 6b bd 86 d5 78 3e 99 90 58 be f7 24 80 3e
       -0.05744503 0.24300203 -0.2114891 0.25028202
000230 d3 99 7b 3e 8e 15 59 3e 73 63 2d be f0 d0 69 3d
       0.24570398 0.21199629 -0.16932468 0.057084024
000240 d5 63 e0 bd a4 59 2f 3d c8 a6 87 bc 19 c0 fb bc
       -0.109565414 0.042810097 -0.01655902 -0.030731248
000250 43 eb 81 be cf b3 08 3e ff 97 ee 3c a2 9d 1f be
       -0.25374803 0.13349842 0.029125212 -0.15587476
000260 50 4e 3a bd ab 56 ed bc 93 7d 0c bd 98 f2 c4 bd
       -0.04548484 -0.02897199 -0.034299444 -0.096165836
000270 c5 85 69 be 2a ae d8 bc 61 42 fa 3d e5 49 34 3e
       -0.22804935 -0.026450235 0.12219692 0.17606314
000280 61 45 bd 3d 00 be 61 3c e4 50 45 3e 4c cc 6d 3b
       0.092417486 0.01377821 0.19269139 0.00362851
000290 c1 eb 6e bd 22 76 03 bc 5d d6 9f 3c 77 1b 3f 3d
       -0.0583303 -0.0080237705 0.019511396 0.046657052
0002a0 fc f8 2e 3e 61 aa 4b 3e d8 35 47 3d 2d 9e 1b bd
       0.17087168 0.19889213 0.048635334 -0.037992645
0002b0 c2 1d c5 bc 63 7d 06 be 6d d6 11 be 13 1f ae 3d
       -0.024062041 -0.13133769 -0.14241953 0.08502021
0002c0 1b ed 99 bd fd c2 fe 3d 30 ea 06 be 8a c3 71 be
       -0.075159274 0.12439535 -0.13175273 -0.23609748
0002d0 2e 68 54 be 58 d0 0c be da 02 a6 bd 5f b1 4f 3e
       -0.20742866 -0.13751352 -0.08106013 0.20282505
0002e0 62 dd 00 3d c6 f3 db 3d a1 e4 f7 bd 74 c5 dd 3d
       0.031461127 0.107398555 -0.121041544 0.10828677
0002f0 c8 79 e0 3a 24 87 a9 3c 7e 26 4f bd 24 5d be bd
       0.0017126137 0.020694323 -0.05057382 -0.09295109
000300 18 09 00 3e 50 f7 00 3d 9c 5d 13 3d 61 92 af 3c
       0.12503469 0.031485856 0.035977945 0.021432104
000310 18 ee 3e 3e 90 07 84 3c 53 9a 2b 3e ef 56 4e 3e
       0.18645513 0.016116887 0.16758089 0.2015035
000320 8e f6 15 3e 47 89 fe 3d a9 55 e3 bd 06 dc 3e be
       0.14644834 0.12428527 -0.11100323 -0.1863862
000330 69 bf 6b be 7a 5f 25 3e 59 59 9c 3d 72 13 a4 bb
       -0.23022236 0.16149703 0.07634229 -0.005007201
000340 66 a5 35 be ee 4a 21 be 02 d8 39 3c c9 dc 4a bd
       -0.17738876 -0.1575124 0.011343004 -0.049526963
000350 75 76 b3 3d 4a 70 8a bd f8 a3 e9 bc c1 1a f4 bd
       0.08762828 -0.06759699 -0.02852057 -0.119191654
000360 33 b7 5d 3d 70 c9 4d bc 72 54 53 bd d3 d7 a4 3d
       0.05412979 -0.0125602335 -0.051594205 0.08048978
000370 89 4a 54 be a0 20 1d 3d a1 77 1f 3e d0 47 d9 3d
       -0.20731558 0.03836119 0.15572979 0.106094
000380 40 b4 66 be c6 1a a3 bd 44 4a ca bd 9d d5 10 be
       -0.22529697 -0.07964091 -0.09877446 -0.14143987
000390 17 77 a7 bd 57 98 3b bd a2 1e a8 3d 3a a8 98 3c
       -0.081770115 -0.04579958 0.08208968 0.018634904
0003a0 a4 76 8b 3d f9 a6 1b be bb 5f ae 3c 9f 2d 2a be
       0.06809738 -0.15200414 0.021285882 -0.16618966
0003b0 d4 4f 80 3c 6b 9d 83 ba f6 41 2a be 51 84 e2 bd
       0.015663065 -0.0010041421 -0.16626725 -0.110603936
0003c0 8a 60 97 bd 0b a6 66 3d 94 26 0e 3e 18 19 93 3c
       -0.0739146 0.056310695 0.13881904 0.017956302
0003d0 6c bc d0 3d 59 ff 6e 3d 14 bc c3 bd 94 0e 9f bd
       0.101921886 0.058348987 -0.095573574 -0.077664524
0003e0 22 b4 4d 3d af 51 a0 3d b6 e4 d0 3d 98 14 17 be
       0.050220616 0.0782808 0.10199873 -0.1475395
0003f0 92 0a 41 3e e8 e7 20 be c2 a9 48 be 0b a1 b5 bd
       0.18851689 -0.15713465 -0.19596007 -0.08868607

bias_ih_l0 f4 [120]
000000 13 ed 81 3e 8c 10 96 3d e0 ca 1b bd 68 4d 9a 3d
       0.25376186 0.07327375 -0.038035274 0.07534295
000010 70 25 a9 bd 48 44 c1 3c 45 1c 01 be fe 21 44 3e
       -0.08259094 0.02359213 -0.1260844 0.19153592
000020 2a 0e e3 bd 31 87 cd bd 46 d5 14 be 02 df 18 3e
       -0.11086686 -0.10035551 -0.14534482 0.1492882
000030 db ef 36 bc 66 e8 6b bd 0d df 71 3e 57 ea 0f bc
       -0.011165584 -0.05759468 0.23620243 -0.008783898
000040 2d b7 8b bd 81 8d d7 3d c7 32 32 3e 76 89 36 3e
       -0.068220474 0.105250366 0.17402183 0.17825875
000050 be 3f 52 3e 5f ff 67 3e d0 21 a0 bd 19 52 64 3e
       0.20532128 0.2265601 -0.07818949 0.22296943
000060 19 b1 1f 3e 75 76 97 3d 70 a7 a1 3c f3 04 05 3e
       0.15594901 0.07395641 0.01973316 0.12990169
000070 8f db 6e bd 4b a9 1f bd 68 05 fa bc de 8e 4b 3b
       -0.058314856 -0.03897981 -0.030520156 0.0031060497
000080 30 5f ea bd e6 9b 8b 3d 3c 86 b5 3d 1f 68 f5 bb
       -0.11443937 0.06816845 0.08863494 -0.007489219
000090 8e 2e 92 3d 46 13 74 3e 1c 64 ab bd f0 7b 17 bd
       0.07137786 0.23835477 -0.08368704 -0.03698343
0000a0 06 3b 5a 3e e8 07 5d bd ec 08 93 3e cc 5a 8c 3e
       0.21311578 -0.053962618 0.28717744 0.27413023
0000b0 cb 48 00 3e fa 14 aa bd ab 8c f6 3d 53 2f 11 3e
       0.12527768 -0.08304782 0.12038549 0.14178209
0000c0 ba c6 6b 3d b8 d9 98 bd 48 a8 ff bd a8 a0 06 bc
       0.057562567 -0.074634016 -0.12483269 -0.008217014
0000d0 36 ea d2 bd 4b c3 17 3e 9f 9b 4b 3e a2 99 08 3d
       -0.102985784 0.14820592 0.19883583 0.03334964
0000e0 46 6d 90 3e eb 21 00 be 4e 5f 73 3e ef 7a 2a 3b
       0.2820837 -0.12512939 0.23766825 0.0026013216
0000f0 31 fd f8 bd 29 fa 02 be fe e4 4c bd e6 48 4d 3e
       -0.121576674 -0.12790741 -0.05002307 0.2004734
000100 d0 db 05 3e ae 7f c1 3d fe 9d 28 be 38 d0 9d bd
       0.13072133 0.09448181 -0.16466519 -0.0770573
000110 94 94 a6 3d 33 06 c8 3d 37 93 49 be 87 e3 61 be
       0.08133808 0.097668074 -0.19685064 -0.22059451
000120 9e 8d 9d 3d 83 f4 c8 bd 71 2c a7 bc d0 1f 86 bd
       0.07693027 -0.09812262 -0.020406934 -0.065490365
000130 4b 86 20 3e 98 6b 1b 3e f0 34 ed bd dd 28 3c 3e
       0.15676229 0.15177763 -0.11582363 0.18374963
000140 79 88 a7 3d 5a 9b 90 bd cd 1c 15 be 49 f5 80 bd
       0.08180327 -0.07060881 -0.14561768 -0.062967844
000150 d6 42 81 3d 4d 39 4c be ba bb 2b be 0e da 03 3e
       0.06311576 -0.19943734 -0.16770831 0.1287615
000160 bb f9 0f 3d c7 2a 44 3d 5d 2c b8 3d 33 88 d8 3d
       0.03515027 0.04789236 0.089928366 0.10572853
000170 7c f1 22 3e 5a 3f d3 3d db 0c 47 bd c0 ee 7e bd
       0.15912431 0.10314818 -0.048596244 -0.06223941
000180 2b 33 cc bd bf 6b 60 3e aa a1 a9 bd 45 cc 5e 3c
       -0.09970697 0.21916102 -0.08282788 0.013598506
000190 2b 7b f4 bd c7 e6 e7 3c 5f 2b 13 bd d5 38 5c 3e
       -0.11937555 0.028308285 -0.035930034 0.21506055
0001a0 3b b9 20 3d c1 b9 5e bd cd 66 04 3e 17 fe 81 3e
       0.03923915 -0.054376367 0.1292984 0.25389168
0001b0 78 82 49 3e cc a0 9e 3d e3 87 f0 bd 27 f0 94 3e
       0.19678676 0.07745513 -0.11744668 0.29089472
0001c0 51 dc e8 3d b9 11 61 3e c5 4f 2b 3e 8c f6 a7 bd
       0.11370147 0.21979417 0.16729648 -0.08201322
0001d0 57 76 00 3e ab ee 7e 3d 0a 51 68 bd 8b 0c 70 3e
       0.12545143 0.06223933 -0.05671791 0.23442285

bias_hh_l0 f4 [120]
000000 64 21 5f bd 9f fd 31 3e 47 ab 51 3e 02 29 33 3d
       -0.054475203 0.17381905 0.20475493 0.04374028
000010 f0 69 80 3e d3 9b 3c 3e bf eb e9 bc 02 66 32 3e
       0.25080824 0.18418817 -0.028554795 0.17421725
000020 9a d2 c7 bd 32 79 4b 3e 0f af 54 bd 7f 08 e8 bd
       -0.09756966 0.19870451 -0.05192476 -0.113297455
000030 76 e1 dc bc 82 2d a4 3d a7 d6 6c 3e fe 09 68 3e
       -0.026962977 0.080164924 0.23128758 0.22660062
000040 56 cb 5e 3e b0 e7 ca bb 18 f1 9b bc 02 e7 7d 3e
       0.21757254 -0.00619217 -0.01903586 0.24795154
000050 2c ef 88 bd 1f ca 37 bd 5f 3d 8b bd 99 3c 9f bb
       -0.066862434 -0.044870492 -0.06798815 -0.0048595187
000060 39 42 50 3d 0a 79 7e bd ba 9c 05 3e 15 07 e0 bd
       0.050844405 -0.06212715 0.13048068 -0.10938851
000070 37 6b 12 3e 1a 03 22 bd 7f a1 20 3e f9 e0 bf bd
       0.14298712 -0.03955374 0.15686606 -0.09369082
000080 55 69 01 39 e9 59 5a 3e 37 21 07 3e 93 40 53 3c
       0.00012341638 0.2132336 0.13196264 0.012893814
000090 6c 4d 4b 3e 44 50 48 3e c2 be 76 3e 5b 76 98 3d
       0.19853753 0.19561869 0.24096206 0.074444495
0000a0 df f9 0b 3e fb fe d9 3d 6b dd af 3d bf 42 70 3d
       0.13669537 0.10644337 0.08587154 0.058657404
0000b0 0c df 49 3c b3 fb dd 3d 19 29 7c 3e 97 3e 70 bd
       0.012321245 0.108390234 0.24625053 -0.05865344
0000c0 9f ea 48 3e 62 d5 0a 3e ea 5f 7f ba a2 5b fa 3c
       0.19620751 0.13557962 -0.00097417703 0.030561272
0000d0 98 d3 88 3d cf 60 e5 3d 87 ab dc 3d 55 40 26 be
       0.06680983 0.112001054 0.10774904 -0.16235478
0000e0 81 51 03 3e cf b1 1a 3d 6f 1e 49 3e a5 e0 79 3c
       0.1282406 0.037767228 0.19640516 0.015251313
0000f0 02 5c a6 3d 44 01 a0 3c a4 06 e6 3d d0 ef ad ba
       0.08123018 0.019531853 0.11231735 -0.0013270322
000100 3e cd 1a 3e 4a ab 1b 3e d1 19 c2 bd de cd 0b 3e
       0.15117356 0.1520206 -0.0947758 0.13652751
000110 0c aa 44 3e 16 40 2d 3e 73 f7 05 be 6f ce f4 bd
       0.19205493 0.16918978 -0.13082676 -0.119534366
000120 16 82 3b 3e 27 1f 9a bd 2d 3e c3 3c d3 55 bc bd
       0.18311343 -0.07525473 0.023833359 -0.09196057
000130 51 29 d8 3d 03 87 04 bd 52 a9 b2 bd 6e a4 80 3d
       0.105547555 -0.03235532 -0.087237015 0.062813625
000140 ed fb 48 3e 8f 44 c5 3d 37 b1 59 bd a8 8e f5 3d
       0.19627352 0.09632217 -0.05314752 0.119901
000150 f9 b1 0e be 99 96 a2 3d b0 32 88 3c 3b 30 18 3d
       -0.13935079 0.079388805 0.016625732 0.03715537
000160 d0 95 6b 3c b5 e4 f4 3d 98 c4 a3 3d d1 cc 41 bd
       0.01437898 0.11957685 0.07996482 -0.04731447
000170 c8 7a ff bc 52 b3 78 3e 92 ff 01 3e b7 1c 69 3e
       -0.031186476 0.24287155 0.12695149 0.2276486
000180 bd e2 f0 3c 74 e6 af bd c7 6f b0 3d 16 1c d2 3c
       0.029404992 -0.08588877 0.0861507 0.025648158
000190 3f ee ee 3c 28 90 49 3c 9d ba 22 3e a4 9a 4a 3e
       0.029166339 0.012302436 0.158915 0.19785553
0001a0 5b f8 37 3e c9 73 0d 3d 8f 45 57 3a af 2c 8f 3d
       0.17965834 0.03453425 0.0008211964 0.069909446
0001b0 33 25 20 3e 3c 06 1b 3e 6b 4c 67 3e 39 53 2e 3e
       0.1563919 0.15139097 0.22587745 0.17023934
0001c0 29 58 69 3e 45 20 e1 3d a7 24 31 3e 67 81 14 3e
       0.22787537 0.10992483 0.17299138 0.14502488
0001d0 77 0a 5f bd a1 3f 3e 3e fd 87 9f 3c 21 a2 b3 bd
       -0.05445334 0.1857896 0.019474024 -0.08771158

weight f4 [20, 30]
000000 95 e8 97 be 78 67 58 be b4 6d 94 3d dd cf 2f 3d
       -0.29669634 -0.2113322 0.07247487 0.042922843
000010 d2 fa 61 3e 8c 8a 88 3e af 0f 5e be 9d 66 53 be
       0.22068337 0.26668203 -0.2168567 -0.20644613
000020 d3 78 75 3d f6 0f 34 3e 0f d1 76 be db 4e 5a 3e
       0.05992968 0.17584214 -0.24103187 0.21319143
000030 9f f9 ae 3e 2d c2 53 be 73 46 8f be 7e 75 80 be
       0.3417482 -0.20679541 -0.27983436 -0.2508964
000040 aa 18 c5 3d 7d 9e af 3e 92 3f 8a 3e b3 6b 87 3e
       0.09623845 0.34300604 0.27001625 0.26449355
000050 a3 cb 0f be a3 40 ab 3e af 91 a3 3e 02 56 75 be
       -0.14042525 0.3344775 0.31947085 -0.2395859
000060 39 d2 92 be 73 cf a6 3d 5c 0b 96 be ec 89 6c be
       -0.28676012 0.081450365 -0.29305542 -0.23099488
000070 e4 f7 57 be 52 fc 49 be 0e 0b 0a bd 5c 16 38 3d
       -0.21090657 -0.19725159 -0.03370195 0.0449432
000080 ac b6 db bd 23 9b 0a 3e 6a cf bf bd 4d f0 58 be
       -0.10728201 0.13535742 -0.09365733 -0.21185417
000090 57 91 55 3e e4 cd c2 3d 14 fe 10 3d 69 47 ed bc
       0.20856224 0.09511927 0.035398558 -0.028964715
0000a0 0d a9 8f bd e0 cb 0b 3e 40 c4 dd bd 4c 89 5b 3e
       -0.07014666 0.13651991 -0.10828447 0.21439093
0000b0 04 9c 79 3e e5 99 2e 3c 41 5f 21 bd 4c 6d 0a 3d
       0.24375921 0.0106568085 -0.03939748 0.03379564
0000c0 84 1a 29 3d 50 d0 9c 3d 9c 29 29 3d 1a ec 0d 3e
       0.041285053 0.0765692 0.041299447 0.13859597
0000d0 15 13 ea bd 8d be 72 3e 5d 4c a4 3d 43 d4 0b bd
       -0.11429421 0.23705502 0.08022378 -0.034137975
0000e0 db 22 f8 bd 3c 03 ea 3c 0f f3 57 3c 9f d2 43 be
       -0.12116023 0.028565995 0.013180508 -0.19123314
0000f0 bc aa cc 3d 1a 66 48 be 43 b6 f6 bd ff 56 98 3d
       0.099935025 -0.19570199 -0.120464824 0.07438468
000100 99 dc 07 be ae ce 53 3d 8a aa 7d 3c 25 d6 5b be
       -0.13267745 0.051710777 0.015482554 -0.21468408
000110 8e 86 22 be d4 be ab bd ef 21 3e bd bc c5 35 be
       -0.15871641 -0.08386007 -0.04641908 -0.17751211
000120 0a a4 1c bd 53 95 32 3e 96 0e 07 3e 90 e1 47 be
       -0.038242377 0.17439775 0.13189158 -0.19519639
000130 de 4a bb bd 39 d0 79 bc 80 4b c6 bd b9 78 98 bd
       -0.09145139 -0.015247398 -0.09682369 -0.07444901
000140 05 c0 0f 3e a2 d7 19 3e 4e 17 4a be fe 64 f4 3d
       0.14038093 0.15023664 -0.19735453 0.11933325
000150 b1 8f b7 3d ee 38 e4 3d d2 14 87 bc 53 1a 4e 3d
       0.08962954 0.11143671 -0.01648942 0.050318073
000160 74 26 0b 3d 78 2a 83 bd cf 95 1d 3c 08 0c a5 bd
       0.03397222 -0.06404585 0.009618237 -0.080589354
000170 82 25 84 bd fc 46 56 3e a6 01 62 be de 26 5d 3d
       -0.064524665 0.20925516 -0.22070941 0.053992145
000180 f4 c9 d6 bd 80 a6 04 3e 7f 0e 4d be 1a c2 07 bd
       -0.10487738 0.1295414 -0.20025061 -0.033144094
000190 e1 f8 88 bd c0 12 f4 bd 08 48 02 bd 41 1d 1e 3d
       -0.06688095 -0.11917639 -0.031806976 0.038602117
0001a0 de 90 18 3e 26 b6 e8 bd 17 f3 89 3d 30 21 08 be
       0.14899012 -0.11362867 0.06735819 -0.1329391
0001b0 dd ad d4 38 0c bc a6 3d d8 74 a4 3d a0 e8 9d bd
       0.00010141332 0.08141336 0.08030099 -0.07710385
0001c0 f6 b1 14 be 86 56 3a 3b 42 31 0d be be e6 54 3c
       -0.14521012 0.002843292 -0.13788322 0.012994466
0001d0 16 7a db 3c 6a ee 5d 3e a7 de 68 bd e8 8e 8c bc
       0.026791614 0.21672979 -0.056852963 -0.017157987
0001e0 2f c4 0b 3e 88 0a d6 3d d8 88 dc 3d 00 f6 03 3d
       0.13649057 0.104512274 0.107682884 0.032217026
0001f0 20 6a dd bd 91 24 04 bb c2 16 b4 bd 23 b3 54 3e
       -0.10811257 -0.0020163397 -0.08793403 0.2077146
000200 75 5a 53 be 16 77 ed 3d 52 02 c2 bd b9 67 06 3e
       -0.20639975 0.115949795 -0.09473099 0.13125505
000210 d5 1e 0d be 0c d0 dd bd b1 be bb 3d 67 e7 53 bc
       -0.13781293 -0.108306974 0.09167231 -0.012933589
000220 78 68 84 3c c7 01 34 3d d3 65 47 3e c8 0e 32 3d
       0.016163096 0.043947008 0.19472437 0.043471128
000230 5f 6b 07 3e 4b 82 0e bd de be 67 3d 92 db 86 3d
       0.13224553 -0.034792226 0.05657851 0.065848485
000240 87 5f 71 3e ca 03 da 3c 8a 87 02 3d 37 82 23 3e
       0.23571597 0.026613135 0.03186754 0.15967642
000250 ac c9 6d 3e a2 54 10 be 29 f4 c8 3c 0e cb 98 bc
       0.23221463 -0.14094785 0.024530487 -0.018651512
000260 6d 4f 00 bd 37 0b 3a be 15 75 80 bd 01 d9 6b 3d
       -0.031325746 -0.1816834 -0.062723316 0.057579998
000270 2b 0d 79 bd 75 39 17 3d 4f ad 00 be 84 b4 ff bd
       -0.060803574 0.03692003 -0.12566112 -0.124856025
000280 10 aa 15 3e da f5 66 bc e2 da d4 bd 2f a6 c5 bd
       0.14615655 -0.0140967015 -0.10393311 -0.09650838
000290 5a 8f 30 3e 08 73 5c bd 0e 8f 0d be 5c 42 0d be
       0.17242184 -0.05382064 -0.13824102 -0.13794845
0002a0 eb 38 ac bd cd bd 02 be 17 bb 99 bd 14 28 3e be
       -0.08409294 -0.12767716 -0.07506388 -0.18569976
0002b0 8d 12 2d 3e 16 88 0b 3d 38 ae 97 3d 06 66 56 bd
       0.16901608 0.03406533 0.074062765 -0.05234339
0002c0 de 97 f4 3c f2 7e d6 3d ac 36 03 be 33 c5 59 bc
       0.029857572 0.10473432 -0.12813824 -0.013291645
0002d0 01 ce 0a bd 01 7d 5e bd 61 d5 ee 3d f1 ae 4e be
       -0.033887867 -0.05431843 0.116617925 -0.20183922
0002e0 fa fb 09 be f2 d4 b7 3b 40 7a 02 3e fb 0d c4 bd
       -0.13475028 0.005610102 0.12741947 -0.09572979
0002f0 3a 5d f7 3c 16 a2 48 bd 43 e4 dd 3d 3a ef 97 3a
       0.030195821 -0.048982702 0.10834553 0.0011591681
000300 ec ae 09 be f5 32 05 3e ae 86 bc bd 4f a1 7e bc
       -0.13445634 0.1300772 -0.092053756 -0.015541389
000310 d9 78 3d 3e 8b 38 bb 3d 8e e0 03 3c 5f ee bb 3d
       0.18503131 0.09141644 0.0080491435 0.09176325
000320 6c 7e f4 3c 60 d9 37 be 6e 44 da bc a4 19 05 be
       0.029845439 -0.17954016 -0.026643958 -0.12998062
000330 03 51 25 3e 40 fe 72 3c bb 8b 77 ba a0 46 2b 3e
       0.16144185 0.014831126 -0.00094431237 0.1672616
000340 8d 57 d9 3d a9 3f 3e bd cd 30 31 3d 84 58 b5 bd
       0.10612402 -0.04644743 0.04325943 -0.08854774
000350 24 44 5e 3d 23 64 2e be 7d 4d 39 be eb 18 db bd
       0.054264203 -0.17030387 -0.18095966 -0.10698112
000360 b0 69 8a 3d dd 03 15 be 45 fd 95 3d 77 44 a6 bd
       0.067584395 -0.14552255 0.07323698 -0.081185274
000370 d3 6e a0 3d 59 57 e6 3d 73 ad 13 be 71 c8 d2 bd
       0.07833638 0.11247129 -0.14421634 -0.102921374
000380 8d e2 59 3e ee 5c b7 3d b7 e4 94 3d b3 2a e8 3d
       0.21277829 0.08953272 0.072701864 0.11336269
000390 19 07 0e 3d 4d b6 21 be f0 f0 22 bc 23 ae 95 3d
       0.034674738 -0.15792198 -0.009945139 0.073086046
0003a0 65 2a 0a be 0c 33 cb bd 5f 48 ea bc a0 34 8f 3d
       -0.13492735 -0.09921846 -0.028598962 0.06992459
0003b0 9d 0d d6 bc b1 eb b8 3d af 13 2b 3c f3 e3 b1 3d
       -0.026129538 0.090293296 0.010441705 0.08686056
0003c0 4e 69 85 bb 96 4f c0 3d c0 1a 17 3e 49 ef 29 bd
       -0.004071391 0.0939018 0.14756298 -0.041487966
0003d0 2f 27 94 bd 40 4a 95 3d 37 dd 45 3e 86 e3 19 be
       -0.07234036 0.07289553 0.19322668 -0.150282
0003e0 e6 bb bb bd 50 70 63 bd 2f ed f3 bc ac 45 c6 bd
       -0.09166698 -0.05552703 -0.029776184 -0.096812576
0003f0 b3 92 4b be 08 7c 0d 3d 3c eb 56 3e 2f ff be 3c
       -0.1988018 0.034542114 0.20988172 0.02331504

bias f4 [20]
000000 a6 f9 9c bd 85 32 8d 3c 99 d0 01 be 8b d9 19 be
       -0.07664804 0.017236004 -0.1267723 -0.15024392
000010 61 a0 46 bc ca 11 31 3d b9 8b 23 3d 26 f0 d3 3d
       -0.012123198 0.043229856 0.03992817 0.10348539
000020 ba 67 05 be bb b8 9f 3d 54 30 ec 3d 2b da c5 3d
       -0.1302785 0.077989064 0.11532655 0.09660753
000030 5a 3c 15 be 29 1c ff 3c 41 50 8f bd 9c c0 96 bd
       -0.14573804 0.031141357 -0.06997729 -0.07360956
000040 26 2e 56 3c 7b 4c 4b bd 65 54 d3 bd d0 5b 5e bd
       0.013072526 -0.049633484 -0.10318831 -0.054286778
