models/TwentyClassifier.pt (torch, 20668 bytes, 11 tensors)

weight f4 [4, 8]
-0.83395135 -0.48158196 -1.8295159 -0.43201408 0.7894074 -0.35221097 0.8738026 1.5497794
-2.184218 0.94923425 0.40377888 0.09347344 -0.4241688 -1.0186561 0.52110714 -0.4042483
-0.49254784 1.9426316 1.900423 -1.2947626 -0.5676692 -1.2041367 0.096974164 -0.79525036
-0.88358164 -1.0382714 -0.3298956 -0.3707827 0.04268373 0.9480496 0.24576154 0.66992867
00000000: d67d 55bf e991 f6be 942d eabf f330 ddbe
00000010: 9a16 4a3f ff54 b4be 87b1 5f3f 2c5f c63f
00000020: 3aca 0bc0 0401 733f 1bbc ce3e 016f bf3d
00000030: a72c d9be 5363 82bf 4767 053f a2f9 cebe
00000040: 3b2f fcbe 27a8 f83f 1041 f33f c8ba a5bf
00000050: c552 11bf 2721 9abf 649a c63d 8795 4bbf
00000060: 6832 62bf 14e6 84bf 13e8 a8be 3bd7 bdbe
00000070: 23d5 2e3d 61b3 723f eaa8 7b3e 7280 2b3f

weight_ih_l0 f4 [60, 8]
0.080896 0.021259945 -0.19107552 0.0658664 0.12015416 -0.22463955 0.0037279683 -0.1277282
-0.25085422 -0.026701532 0.031639956 0.025499385 -0.30065015 -0.2617835 0.21778522 -0.15989581
-0.055942737 -0.12648934 0.21925475 -0.026841871 -0.034223203 0.058259312 -0.013961588 -0.044968512
-0.22938955 0.26941994 -0.009123438 -0.15381657 0.10233318 -0.23914236 0.035729125 0.30478987
0.015218046 0.011394756 0.08211772 0.19897752 -0.09709198 -0.06835838 0.19372481 0.20285387
-0.0068143113 0.0028922118 -0.021929018 0.14258544 -0.19903041 -0.19083393 0.14482668 -0.1791858
-0.067763396 -0.055211492 -0.1921771 -0.28938368 -0.21630222 -0.011074637 0.21550725 0.24459223
-0.18248786 -0.07186596 -0.30418697 -0.21472488 -0.1970314 0.0438211 -0.13136896 0.22219484
0.1470251 0.10005812 0.070678964 0.032312524 -0.15357594 -0.1379625 -0.017793918 0.009287345
0.19650382 -0.1827227 -0.22473185 0.18251139 0.18282852 0.082992986 0.1595517 0.046023794
0.03210686 0.17253993 -0.28048393 0.04988119 -0.09992919 -0.043612767 -0.01623 -0.13039522
-0.08552688 0.14522624 -0.01154774 -0.14187418 -0.1641837 -0.21825382 0.12657943 -0.16110024
-0.3055815 0.20123833 0.2845324 -0.15645337 -0.30029738 -0.20583406 0.21492793 0.021162484
0.14081377 0.009473415 -0.12666813 -0.27226377 -0.16876222 0.06241594 0.19947144 0.019593636
0.20995466 0.3057341 -0.12729017 -0.04965761 -0.061184414 0.15688887 0.14751723 0.007641039
-0.07840691 0.16140766 -0.12402783 -0.20254424 -0.13757116 -0.14320865 -0.15670471 0.22410953
0.20454541 0.053454973 0.22937141 0.0036759244 0.14786674 -0.14496249 -0.10821241 0.109989166
0.115537636 0.16134043 -0.19682047 -0.18064307 -0.15561894 0.16534607 -0.17260145 0.0699331
0.06899161 0.25139257 0.0034939 -0.22840866 0.121176824 -0.015792156 0.20048285 0.26744568
-0.04025904 0.25446725 0.26642507 0.15840217 0.15021706 0.18085769 -0.008477626 -0.08606046
-0.21749799 0.12208638 -0.08658384 -0.25684553 0.059453096 0.040257577 0.20871536 0.03613552
-0.12398216 -0.06723633 -0.10457506 -0.3014834 -0.09137526 -0.20905434 0.13690916 -0.07480841
-0.18478507 -0.085901275 -0.0156165445 0.2765309 0.30619743 -0.18514392 0.26426712 -0.20051597
-0.28943264 -0.03152292 0.23465654 0.0073047644 -0.31214985 -0.24475534 -0.22340138 0.08600463
-0.14195569 -0.02387308 0.13484788 -0.056003164 -0.07741491 -0.18405072 -0.2766166 -0.12395739
0.07611779 -0.15375768 0.17581591 -0.12359719 -0.0032731337 -0.24992 0.08850171 0.024337407
-0.24547616 0.05683874 -0.0099877035 0.17038378 0.18477835 -0.21696633 0.035665687 0.27828094
0.22365616 -0.1388305 0.039316323 -0.14229262 -0.20426637 -0.19978419 -0.029032867 -0.1733672
0.17068659 0.28596252 -0.036859907 -0.14377409 0.2376158 -0.23289023 0.24688625 -0.19275084
0.1410719 -0.18794225 -0.12636863 0.05058737 0.031445906 -0.0050416025 0.21988292 0.022493107
0.2481005 -0.065202825 0.1188086 0.1639761 -0.013895964 0.1986957 0.1786015 0.28052497
0.08126412 -0.20555861 0.07410592 0.045954682 0.016053256 0.1318621 0.13772663 0.014455365
00000000: cdac a53d 5629 ae3c 4da9 43be f7e4 863d
00000010: 6213 f63d e907 66be ee50 743b 2ecb 02be
00000020: f76f 80be 2cbd dabc e698 013d 16e4 d03c
00000030: d1ee 99be 7d08 86be 1703 5f3e babb 23be
00000040: 3624 65bd 6c86 01be 5184 603e 7ce3 dbbc
00000050: a12d 0cbd 51a1 6e3d 25bf 64bc e730 38bd
00000060: 18e5 6abe 69f1 893e 797a 15bc 1782 1dbe
00000070: 0f94 d13d bce1 74be b458 123d 6b0d 9c3e
00000080: 1c55 793c 12b1 3a3c 562d a83d c3c0 4b3e
00000090: 29d8 c6bd 7aff 8bbd cc5f 463e edb8 4f3e
000000a0: 964a dfbb 438b 3d3b 7ca4 b3bc eb01 123e
000000b0: a1ce 4bbe f869 43be 724d 143e 7b7c 37be
000000c0: 89c7 8abd 7225 62bd 13ca 44be 192a 94be
000000d0: 547e 5dbe 6572 35bc efad 5c3e 6376 7a3e
000000e0: 19de 3abe 762e 93bd 65be 9bbe d7e0 5bbe
000000f0: 99c2 49be c17d 333d 9685 06be 0b87 633e
00000100: bf8d 163e 46eb cc3d 22c0 903d 235a 043d
00000110: 0343 1dbe 0b46 0dbe 8dc4 91bc f329 183c
00000120: 4c38 493e a91b 3bbe 1b20 66be 44e4 3a3e
00000130: 6637 3b3e 3af8 a93d 8561 233e 7283 3c3d
00000140: 7c82 033d 4fae 303e 979b 8fbe 3850 4c3d
00000150: ada7 ccbd 4da3 32bd c7f4 84bc 5386 05be
00000160: b828 afbd 30b6 143e bb32 3dbc 7747 11be
00000170: c61f 28be ee7d 5fbe 0a9e 013e 76f7 24be
00000180: 2e75 9cbe 6c11 4e3e 3bae 913e 5035 20be
00000190: 94c0 99be 2ac6 52be 1116 5c3e f25c ad3c
000001a0: 7c31 103e 6236 1b3c 4ab5 01be 2866 8bbe
000001b0: 01d0 2cbe dba7 7f3d 3e42 4c3e d582 a03c
000001c0: 5bfe 563e 2e89 9c3e 5b58 02be c765 4bbd
000001d0: 829c 7abd 7aa7 203e c20e 173e ae61 fa3b
000001e0: cd93 a0bd 0d48 253e 4e02 febd c267 4fbe
000001f0: 74df 0cbe 4aa5 12be 3377 20be f87c 653e
00000200: 5a74 513e 9af3 5a3d 57e0 6a3e c7e7 703b
00000210: 616a 173e 0c71 14be 789e ddbd 0042 e13d
00000220: ff9e ec3d 6d36 253e 4e8b 49be 7ffa 38be
00000230: 925a 1fbe 7b50 293e 6fbe 30be 1639 8f3d
00000240: 794b 8d3d 87b6 803e eaf9 643b f6e3 69be
00000250: 8e2b f83d 8d5e 81bc 604b 4d3e a4ee 883e
00000260: aae6 24bd 8849 823e de68 883e 2e34 223e
00000270: 80d2 193e c232 393e bee5 0abc 7740 b0bd
00000280: cbb7 5ebe 6d08 fa3d de52 b1bd 4281 83be
00000290: 1785 733d 21e5 243d 7bb9 553e d702 143d
000002a0: 5cea fdbd 33b3 89bd 732b d6bd 085c 9abe
000002b0: f422 bbbd 5712 56be ea31 0c3e 2735 99bd
000002c0: 4c38 3dbe 02ed afbd 89dc 7fbc 7595 8d3e
000002d0: e9c5 9c3e 5e96 3dbe 054e 873e 0f54 4dbe
000002e0: 8430 94be 2d1e 01bd ce49 703e ce5c ef3b
000002f0: 1bd2 9fbe 25a1 7abe 55c3 64be 3223 b03d
00000300: d55c 11be 7a91 c3bc 9015 0a3e 9363 65bd
00000310: b58b 9ebd cb77 3cbe b1a0 8dbe 5fdd fdbd
00000320: a5e3 9b3d a772 1dbe 1609 343e 8620 fdbd
00000330: 1282 56bb 07eb 7fbe 6240 b53d 3e5f c73c
00000340: 1a5e 7bbe bdcf 683d 77a3 23bc 1679 2e3e
00000350: 8936 3d3e 6c2c 5ebe 2f16 123d d77a 8e3e
00000360: 1f06 653e 9529 0ebe 270a 213d 28b5 11be
00000370: 342b 51be 3a94 4cbe 56d6 edbc 2c87 31be
00000380: 77c8 2e3e ae69 923e 6afa 16bd 8439 13be
00000390: 8e51 733e c77a 6ebe c0cf 7c3e 7a60 45be
000003a0: 2775 103e ef73 40be c766 01be b434 4f3d
000003b0: 6ccd 003d 0734 a5bb fd28 613e 7743 b83c
000003c0: 0f0e 7e3e 0f89 85bd ec51 f33d 5ae9 273e
000003d0: e6ab 63bc e376 4b3e 50e3 363e f8a0 8f3e
000003e0: ce6d a63d f57d 52be d8c4 973d fa3a 3c3d
000003f0: 1e82 833c dc06 073e 3608 0d3e 32d6 6c3c

weight_hh_l0 f4 [60, 15]
0.08798274 0.019086048 0.2204862 -0.07817592 -0.2918976 -0.2658941 0.09823452 0.121003285
0.13692218 0.20557593 -0.20839615 -0.08763503 0.17766465 -0.18287337 0.071545035 -0.05679574
0.14254268 -0.1570233 0.3177829 0.17806338 0.117028 0.08885899 -0.15845573 0.278323
-0.09356886 -0.33283907 0.09296287 -0.29260236 0.013039142 0.17429416 -0.3293664 0.13172758
0.20038913 -0.12296883 -0.12608956 -0.073847055 0.14001307 -0.011279098 0.31857413 0.061770704
0.16544536 -0.08355932 -0.16197847 -0.18876375 -0.10682032 -0.0812068 0.05249865 0.29242703
0.2962344 -0.12799172 0.15782662 -0.20798287 0.18233423 -0.00025892333 0.27613154 -0.26263553
0.17942786 0.12407637 -0.26840776 0.06551976 0.20163992 -0.20790854 0.057112943 0.27014175
-0.13121453 0.074157275 -0.12553301 -0.078080595 0.275443 0.22643639 -0.096556164 0.2714967
-0.28534362 -0.071867764 -0.17197175 -0.11476069 -0.10819193 -0.079593286 -0.04860251 -0.0118812
0.018479588 0.109630436 -0.22313237 0.30966705 0.15277791 0.027286073 0.24284059 0.17710556
0.0038840235 -0.323223 0.07094725 -0.026162887 0.29770902 0.0738 -0.038176138 -0.11364176
0.1215273 -0.20866118 -0.09970889 0.0033054159 0.027785858 -0.04800207 0.03332751 -0.18166958
0.16396284 -0.048593327 -0.18119393 -0.110710755 -0.25574508 -0.188142 0.052989367 0.008729002
-0.14430043 0.17499442 0.20336667 -0.14951448 -0.026062729 -0.13385265 0.2393221 -0.107220925
-0.111193106 -0.29241434 -0.015769754 0.14940034 0.16038908 -0.113356896 -0.23602119 -0.18650235
-0.19001667 -0.19362295 -0.14493419 -0.09364346 -0.1815598 -0.00016493283 0.0644963 -0.16321765
-0.08353651 0.12906335 0.10261221 0.099738725 0.20084572 -0.09570879 -0.026050832 0.008012241
-0.08703545 0.20662965 -0.0025594349 -0.28393805 -0.12383526 -0.11464414 -0.3260029 -0.10597747
-0.05425816 -0.03357646 -0.033952072 -0.29985744 0.1306501 0.18130536 -0.09057562 0.17947175
-0.30053744 0.30024564 0.08513298 -0.18045793 0.12579235 -0.05600645 0.09074103 0.06597134
-0.100986525 0.16466789 -0.07928385 -0.1760081 -0.238409 0.081626676 0.2587945 -0.042317726
0.13630094 -0.26981705 -0.28427327 -0.2053626 -0.25678757 -0.1315209 0.014818213 0.23700869
0.25168318 -0.0671434 -0.19307804 -0.27156246 0.034768585 0.11120471 -0.044609334 0.03634886
0.015704433 0.1605534 -0.070985295 -0.20962793 0.087605365 0.14284936 -0.12342628 0.0721104
-0.2465484 0.17259999 -0.19619398 -0.175193 -0.21674275 0.039233573 0.07638323 -0.25396293
-0.21251747 -0.061256472 -0.06739371 0.19738542 0.29207036 -0.21312167 -0.10960011 -0.042626627
-0.20215273 0.15619531 -0.11517925 0.120264746 -0.25801155 0.2974578 0.14934024 0.14070809
-0.14999719 -0.26366132 -0.0062260423 0.26702052 0.17533268 0.094296895 -0.045926835 -0.24549171
0.17347023 -0.15878265 -0.11788685 -0.17592458 -0.23872338 0.20460483 -0.24335219 -0.119155824
-0.13325319 -0.029347887 0.12558018 0.02540132 -0.08978142 0.1580333 0.11334602 0.19782542
0.20354132 -0.12485488 -0.013378207 0.007542229 0.1830632 -0.103752345 -0.25667438 -0.28210938
00000000: 4b30 b43d 585a 9c3c 22c7 613e b21a a0bd
00000010: 9a73 95be 4523 88be 2e2f c93d 92d0 f73d
00000020: 5435 0c3e 7f82 523e cd65 55be ff79 b3bd
00000030: b9ed 353e 2843 3bbe 3486 923d a6a2 68bd
00000040: b5f6 113e b7ca 20be 71b4 a23e 3f56 363e
00000050: 60ac ef3d b4fb b53d 3842 22be 5a80 8e3e
00000060: 08a1 bfbd e269 aabe 5163 be3d facf 95be
00000070: 20a2 553c 2b7a 323e b6a2 a8be 98e3 063e
00000080: cf32 4d3e 15d7 fbbd 9f1d 01be 203d 97bd
00000090: 965f 0f3e f7cb 38bc 261c a33e 4703 7d3d
000000a0: 826a 293e 2621 abbd afdd 25be 494b 41be
000000b0: 9dc4 dabd c04f a6bd d308 573d ffb8 953e
000000c0: 09ac 973e 4310 03be 4d9d 213e 76f9 54be
000000d0: d3b5 3a3e 1ac0 87b9 1d61 8d3e 2a78 86be
000000e0: f0bb 373e c01b fe3d be6c 89be 392f 863d
000000f0: b27a 4e3e fae5 54be 43ef 693d 0550 8a3e
00000100: 1a5d 06be c5df 973d ba8b 00be b8e8 9fbd
00000110: dd06 8d3e f1de 673e 3dbf c5bd 9e01 8b3e
00000120: 8f18 92be 682f 93bd 5d19 30be a707 ebbd
00000130: bb93 ddbd ce01 a3bd 6d13 47bd 5da9 42bc
00000140: 8162 973c ec85 e03d d07c 64be ae8c 9e3e
00000150: d071 1c3e 0b87 df3c 34ab 783e 295b 353e
00000160: 1a8b 7e3b 7c7d a5be cb4c 913d 8d53 d6bc
00000170: 516d 983e 7424 973d 955e 1cbd 03bd e8bd
00000180: 4ee3 f83d 47ab 55be 2d34 ccbd ad9f 583b
00000190: 2b9f e33c d29d 44bd 6d82 083d 9707 3abe
000001a0: e0e5 273e cc09 47bd e78a 39be 52bc e2bd
000001b0: 05f1 82be 4ca8 40be 610b 593d 1704 0f3c
000001c0: 7ec3 13be bd31 333e 5a3f 503e 531a 19be
000001d0: 8181 d5bc ab10 09be da10 753e a596 dbbd
000001e0: 36b9 e3bd 55b7 95be 922f 81bc 67fc 183e
000001f0: 093d 243e a927 e8bd 8aaf 71be 79fa 3ebe
00000200: bb93 42be 1845 46be a169 14be 24c8 bfbd
00000210: d0ea 39be d2f1 2cb9 a316 843d 8722 27be
00000220: 3115 abbd 2f29 043e 5a26 d23d d143 cc3d
00000230: 80aa 4d3e f802 c4bd 8e68 d5bc c645 033c
00000240: a43f b2bd b996 533e 31bc 27bb 5460 91be
00000250: 579d fdbd 8cca eabd dae9 a6be b70a d9bd
00000260: ce3d 5ebd 7887 09bd 5411 0bbd ea86 99be
00000270: 24c9 053e 1da8 393e b67f b9bd 71c7 373e
00000280: 0be0 99be ccb9 993e 335a ae3d f7c9 38be
00000290: b6cf 003e 0567 65bd 6fd6 b93d fb1b 873d
000002a0: 06d2 cebd b39e 283e 925f a2bd 783b 34be
000002b0: 7d21 74be e32b a73d b680 843e 5a55 2dbd
000002c0: 7992 0b3e 7625 8abe 448c 91be 934a 52be
000002d0: a979 83be 6aad 06be 17c8 723c 68b2 723e
000002e0: 9edc 803e 7b82 89bd 40b6 45be 3c0a 8bbe
000002f0: 8169 0e3d 4cbf e33d 47b8 36bd 8be2 143d
00000300: 95a6 803c 1c68 243e bd60 91bd b4a8 56be
00000310: 716a b33d 1a47 123e ebc6 fcbd 9eae 933d
00000320: 2f77 7cbe 0dbe 303e 13e7 48be cb65 33be
00000330: d0f1 5dbe 62b3 203d d06e 9c3d 6e07 82be
00000340: 2e9e 59be 11e8 7abd b705 8abd 671f 4a3e
00000350: 3f8a 953e 913c 5abe 0676 e0bd 4299 2ebd
00000360: 2001 4fbe aaf1 1f3e 19e3 ebbd 5d4d f63d
00000370: 171a 84be 644c 983e a6ec 183e c815 103e
00000380: dd98 19be 9efe 86be d403 ccbb eab6 883e
00000390: 698a 333e bb1e c13d c71d 3cbd 2e62 7bbe
000003a0: 2ea2 313e eb97 22be a96e f1bd 9325 34be
000003b0: e773 74be ee83 513e 5131 79be f807 f4bd
000003c0: 8673 08be fb6a f0bc 1798 003e 6e16 d03c
000003d0: 52df b7bd 7bd3 213e f521 e83d bf92 4a3e
000003e0: 236d 503e eab3 ffbd 4430 5bbc cd24 f73b
000003f0: eb74 3b3e 1c7c d4bd d36a 83be a470 90be

bias_ih_l0 f4 [60]
-0.16807635 -0.11782379 0.3034075 0.056583453 0.006817301 0.0969875 -0.18051067 0.013110667
-0.16629137 -0.19498934 0.2671316 -0.07908834 -0.1266826 0.0048244554 -0.077242784 -0.14086577
0.20907624 -0.124238394 -0.01604005 -0.030115124 -0.16111827 -0.07003786 -0.0756297 0.18101297
-0.17359811 0.03925695 -0.05567501 0.2350399 -0.17244889 0.01429609 0.055767126 -0.11215899
0.23442216 0.24065992 -0.069063835 0.1408338 0.009416166 -0.05574672 0.25065807 0.13983877
-0.013698516 -0.004536327 0.008586346 -0.1334317 0.15057078 0.10490305 0.089788266 0.042160474
-0.1372297 -0.070477694 -0.03541728 0.119352765 0.24554966 0.13889219 0.033023935 0.1603716
-0.045591053 0.044488065 0.22356752 0.077512875
00000000: 351c 2cbe 994d f1bd 3a58 9b3e 0dc4 673d
00000010: aa63 df3b 62a1 c63d cad7 38be 1fce 563c
00000020: 4948 2abe 49ab 47be 79c5 883e 11f9 a1bd
00000030: 15b9 01be 7716 9e3b 7731 9ebd 1e3f 10be
00000040: 1518 563e b370 febd 6c66 83bc feb3 f6bc
00000050: 30fc 24be 0270 8fbd bfe3 9abd 775b 393e
00000060: b4c3 31be e5cb 203d 7b0b 64bd 4dae 703e
00000070: 7196 30be 263a 6a3c 126c 643d 9db3 e5bd
00000080: 5d0c 703e 8e6f 763e 5771 8dbd bc36 103e
00000090: 4346 1a3c ac56 64bd 4156 803e e531 0f3e
000000a0: be6f 60bc 78a5 94bb bfad 0c3c 52a2 08be
000000b0: 3a2f 1a3e 69d7 d63d e9e2 b73d 76b0 2c3d
000000c0: f185 0cbe 9c56 90bd b611 11bd 396f f43d
000000d0: 5f71 7b3e c139 0e3e 1b44 073d 7438 243e
000000e0: afbd 3abd 1e39 363d e2ee 643e 12bf 9e3d

bias_hh_l0 f4 [60]
-0.19554807 -0.16182753 0.16544083 -0.042984735 0.15911596 0.012320041 -0.14404485 -0.039480913
0.27524218 -0.15477243 -0.06510986 0.027204322 0.024797687 0.28424227 0.061494727 0.1693816
0.19117297 0.17246023 -0.19966781 -0.12817039 0.15242119 0.012758269 0.060241755 0.13921526
-0.032395378 -0.17936487 0.14344695 -0.18860936 0.20207202 -0.15754905 -0.071906395 -0.18562101
0.2570795 0.11506013 0.19463131 -0.2619125 -0.2579763 -0.22396363 0.11851478 0.08122719
-0.17346969 -0.009478482 -0.12062845 -0.022800518 -0.21324879 0.25841263 -0.04313776 -0.012472493
-0.14239831 0.05116629 -0.16578922 -0.09905052 0.11744936 0.21122994 0.11713919 -0.10031869
0.069767885 0.06435728 0.08695206 0.22355458
00000000: c13d 48be 1eb6 25be 5269 293e c310 30bd
00000010: 4bef 223e ffd9 493c 7e80 13be bdb6 21bd
00000020: 8bec 8c3e aa7c 1ebe 5158 85bd 99db de3c
00000030: 8524 cb3c 3488 913e e5e1 7b3d 5f72 2d3e
00000040: d9c2 433e 6a99 303e b875 4cbe 193f 03be
00000050: 4d14 1c3e 0f08 513c 0fc0 763d 728e 0e3e
00000060: 04b1 04bd 6dab 37be c2e3 123e d022 41be
00000070: f8eb 4e3e 8a54 21be a943 93bd 6f13 3ebe
00000080: ed9f 833e a5a4 eb3d 6e4d 473e 6519 86be
00000090: 7815 84be b956 65be e1b7 f23d 715a a63d
000000a0: 0aa2 31be a34b 1bbc 0c0c f7bd 27c8 babc
000000b0: e45d 5abe a94e 843e 38b1 30bd 6d59 4cbc
000000c0: ddd0 11be be93 513d a6c4 29be 00db cabd
000000d0: 4a89 f03d a94c 583e ace6 ef3d e373 cdbd
000000e0: 77e2 8e3d c0cd 833d ec13 b23d 7eeb 643e

weight_ih_l1 f4 [60, 15]
0.20656678 -0.1289717 -0.2423653 0.20706582 -0.0645348 0.029472819 0.14894296 0.25124988
0.15285976 0.06642067 0.09343589 -0.16825904 0.10989027 0.03971864 0.017076341 0.13130097
-0.104372345 -0.24682735 -0.20309427 0.2574403 -0.20011653 0.021507613 0.24459364 -0.010088201
0.07961416 0.020097923 -0.08793326 -0.22294134 0.2755143 0.16763027 0.03339589 -0.1733574
-0.046620093 -0.08808487 0.18731862 -0.06473868 0.13408321 -0.058002286 -0.09873799 -0.033717893
-0.13615924 0.20367202 -0.12080087 0.013699709 -0.06803067 -0.14869769 0.15912364 -0.08611943
0.16952044 0.20394091 -0.06847062 0.17789128 0.17101339 0.04249122 -0.02055489 -0.26632786
0.16838273 0.09414142 0.08014491 0.09867128 0.08800222 -0.16358882 -0.11939508 -0.15297249
0.25338277 0.12493823 -0.20338264 -0.038771406 -0.15495029 0.16240774 -0.2637427 -0.006271516
0.13451873 -0.19086154 0.2035048 -0.27935696 -0.04079543 0.24657974 0.27520803 0.03869953
-0.18566065 0.06792918 -0.22251795 -0.2033158 0.23024626 -0.14393173 0.033273876 0.068851955
-0.09578079 -0.06915485 -0.20315582 0.010408637 0.14135285 0.22748974 -0.10547169 -0.119108886
0.12380041 -0.08953611 -0.0024266795 0.032778185 -0.09455512 0.04582268 -0.086382754 -0.023321847
-0.044670667 -0.045482323 -0.15760884 0.23380549 0.016828848 0.21663901 0.1361767 -0.093206696
-0.08677413 0.1971217 0.08109684 -0.27274773 0.09395986 0.030294243 -0.28593242 -0.0769969
-0.03627925 -0.003167329 0.23320305 0.0137619795 -0.0061013307 0.009473632 -0.2792822 -0.11126917
0.13780788 0.15135907 -0.12443341 0.19938564 -0.021169987 -0.0069815884 -0.14429636 0.029941175
-0.09346877 0.033974446 0.13496731 0.021913204 -0.26380348 -0.011105871 0.072472446 0.19282694
0.1921048 0.19857144 0.09988986 0.15236658 -0.16046007 0.21153115 -0.076706745 -0.23466407
-0.088988684 -0.0033503228 0.08414963 -0.27846944 0.07929227 0.04355351 -0.11910835 0.19927694
0.06446423 -0.019522605 -0.20078631 0.034317553 -0.33177844 -0.057397373 0.14739412 -0.17415842
-0.24923693 0.068450995 0.02780998 -0.037683014 -0.030655552 -0.007993567 -0.13106318 -0.2316148
-0.19272977 -0.15239272 -0.031693906 0.1687584 0.24514665 -0.06472359 -0.1779424 -0.17613263
0.08559201 -0.11969182 -0.19293782 -0.0864227 0.26229888 0.22335479 -0.10472551 -0.04056664
-0.16157044 -0.16557048 0.043156154 0.09494036 0.24851526 0.07101679 -0.16069344 0.31854302
-0.12087248 -0.13841127 -0.0639738 -0.25692475 -0.1194905 0.21496685 -0.16572411 -0.16507447
0.102241375 -0.22798541 0.14948423 -0.11486911 -0.14313442 -0.16233875 0.076400355 -0.2493652
0.17614007 -0.22374901 0.11019349 -0.027238665 -0.22802061 -0.030403774 -0.12686682 -0.14017357
0.13528898 -0.062763385 0.13936605 0.14979614 -0.00095998304 -0.24177207 0.13119516 0.06319663
-0.23137067 -0.039463088 -0.1386329 0.0825665 0.11325672 0.2476882 0.020790892 0.20895804
-0.0017067465 0.044695914 -0.14052634 0.036165074 0.06464733 -0.020739848 0.22921512 -0.23419446
0.03197188 -0.18800871 0.23007193 -0.15375909 -0.08381148 -0.14145842 0.121341296 0.037646636
00000000: 3e86 533e 2811 04be 9c2e 78be 1009 543e
00000010: d22a 84bd fb70 f13c 8184 183e d3a3 803e
00000020: 4587 1c3e 8f07 883d 515b bf3d 194c 2cbe
00000030: 260e e13d 03b0 223d afe3 8b3c c373 063e
00000040: 2bc1 d5bd 4fc0 7cbe f2f7 4fbe 37cf 833e
00000050: 59eb 4cbe bc30 b03c c176 7a3e fb48 25bc
00000060: c00c a33d 66a4 a43c 5a16 b4bd bc4a 64be
00000070: 3610 8d3e 45a7 2b3e 21ca 083d 9a84 31be
00000080: b6f4 3ebd d765 b4bd 74d0 3f3e b795 84bd
00000090: 1c4d 093e ce93 6dbd 2537 cabd c61b 0abd
000000a0: 546d 0bbe 668f 503e 7266 f7bd bf74 603c
000000b0: aa53 8bbd 3544 18be 4ff1 223e 625f b0bd
000000c0: c496 2d3e e3d5 503e 533a 8cbd 2229 363e
000000d0: 221e 2f3e 460b 2e3d bb62 a8bc 205c 88be
000000e0: 866c 2c3e 38cd c03d 0423 a43d 2b14 ca3d
000000f0: 823a b43d d483 27be 6885 f4bd d2a4 1cbe
00000100: 63bb 813e 9ddf ff3d 8a43 50be c4ce 1ebd
00000110: 4aab 1ebe 374e 263e 4809 87be 4a81 cdbb
00000120: 47bf 093e 3571 43be 9063 503e e007 8fbe
00000130: 1c19 27bd 667f 7c3e 11e8 8c3e 6683 1e3d
00000140: d31d 3ebe 741e 8b3d bfdb 63be 0432 50be
00000150: adc5 6b3e d762 13be 304a 083d 4102 8d3d
00000160: b828 c4bd 0fa1 8dbd 1408 50be fd88 2a3c
00000170: cdbe 103e 12f3 683e 8b01 d8bd 5cef f3bd
00000180: 128b fd3d b55e b7bd ed08 1fbb 6b42 063d
00000190: 1da6 c1bd 90b0 3b3d 71e9 b0bd 750d bfbc
000001a0: 97f8 36bd ac4b 3abd 3664 21be b56a 6f3e
000001b0: a7dc 893c 9ed6 5d3e e871 0b3e 27e3 bebd
000001c0: a3b6 b1bd 45da 493e 1a16 a63d 97a5 8bbe
000001d0: 076e c03d a22b f83c bc65 92be 8db0 9dbd
000001e0: 8d99 14bd f692 4fbb c8cc 6e3e ed79 613c
000001f0: aced c7bb 4b37 1b3c 14fe 8ebe 17e1 e3bd
00000200: 821d 0d3e dffd 1a3e f2d6 febd c02b 4c3e
00000210: ae6c adbc cfc5 e4bb 6dc2 13be 3247 f53c
00000220: 8e6c bfbd ca28 0b3d df34 0a3e 5283 b33c
00000230: 4011 87be 66f5 35bc 6f6c 943d 6d74 453e
00000240: 1fb7 443e 5056 4b3e 0e93 cc3d fc05 1c3e
00000250: a54f 24be 9f9b 583e 6d18 9dbd c74b 70be
00000260: b33f b6bd 1791 5bbb a456 ac3d 8c93 8ebe
00000270: fc63 a23d 2a65 323d 14ef f3bd 410f 4c3e
00000280: d205 843d dfed 9fbc ed9a 4dbe 9090 0c3d
00000290: ddde a9be 8219 6bbd 7cee 163e 9656 32be
000002a0: f737 7fbe 0930 8c3d c1d1 e33c 8159 1abd
000002b0: 5a21 fbbc 73f7 02bc 6d35 06be 6e2c 6dbe
000002c0: f45a 45be d60c 1cbe 78d1 01bd 01cf 2c3e
000002d0: b907 7b3e cd8d 84bd 8836 36be 1d5c 34be
000002e0: dd4a af3d fc20 f5bd 7e91 45be 62fe b0bd
000002f0: 0a4c 863e 1eb7 643e 547a d6bd 3529 26bd
00000300: b972 25be 4f8b 29be 82c4 303d 1770 c23d
00000310: c97a 7e3e 4071 913d d28c 24be 1218 a33e
00000320: fe8b f7bd afbb 0dbe b204 83bd a48b 83be
00000330: 6fb7 f4bd 4520 5c3e 95b3 29be 4809 29be
00000340: ed63 d13d 0275 69be 6512 193e 7f40 ebbd
00000350: d491 12be 213c 26be ca77 9c3d 9759 7fbe
00000360: 105e 343e 761e 65be 20ad e13d 9f23 dfbc
00000370: 3c7e 69be 5611 f9bc 60e9 01be a989 0fbe
00000380: 3289 0a3e 178a 80bd f9b5 0e3e 2964 193e
00000390: 5fa7 7bba 1993 77be 0658 063e 3c6d 813d
000003a0: 6fec 6cbe 0ca4 21bd c8f5 0dbe a018 a93d
000003b0: 24f3 e73d faa1 7d3e a951 aa3c 19f9 553e
000003c0: e9b4 dfba 1013 373d 23e6 0fbe d421 143d
000003d0: d265 843d 9de6 a9bc 5eb7 6a3e acd0 6fbe
000003e0: f2f4 023d 5b85 40be fa97 6b3e 0673 1dbe
000003f0: 5aa5 abbd 7ada 10be c981 f83d 5c33 1a3d

weight_hh_l1 f4 [60, 15]
0.18388242 -0.06533032 0.12843919 -0.102930285 -0.03708333 -0.21436478 0.14869224 -0.2426925
-0.077735595 0.24870588 0.018498639 0.08353881 0.2637093 -0.048122 0.25866914 0.054876838
0.10744478 0.21683106 -0.0058139665 0.1676034 0.1294855 0.18765956 0.22407544 -0.022934057
-0.17216146 0.12007376 0.04138963 -0.20740764 0.12239473 -0.1104077 0.029543905 0.18458425
-0.010863194 0.17493281 -0.2099598 -0.29283354 0.20908694 0.28893766 0.32138252 -0.016642509
0.29993245 -0.04399478 0.19570607 0.056040976 0.07708356 -0.041925076 0.31171784 -0.15053698
-0.122434884 0.19024305 -0.26620033 0.23798488 0.28032875 0.31815115 0.119407125 0.3500785
-0.03520239 0.2215923 0.06924334 0.0334373 -0.13229978 -0.21242169 0.26107728 -0.11787981
-0.20823242 0.1837831 0.04399544 -0.20420712 -0.053445406 0.026517717 -0.19521461 0.24101496
-0.24275157 0.054145556 0.02971684 0.08460924 -0.15414174 0.10301728 0.0003777765 -0.01943811
-0.17817092 -0.2608985 -0.17688133 -0.017354503 0.1012477 -0.21380089 -0.1415529 -0.22678956
0.0039135157 0.10695781 -0.012840916 -0.23077826 -0.08508293 -0.09838777 -0.08915205 0.20616177
0.009436326 0.1986287 0.20699158 0.083561525 0.010257687 -0.0063269925 0.016521001 0.112529725
0.14136125 -0.009144805 0.10965339 -0.33618796 -0.09760876 0.0757758 0.050386984 -0.018315902
-0.09229667 0.23195986 0.2945939 0.23381007 0.12919931 0.008940352 -0.12787855 -0.3042937
0.040964685 -0.046613563 -0.00059627055 0.18783592 0.052617967 -0.16235271 0.10439801 -0.03542506
0.28555402 0.18840514 0.075858645 0.09031174 0.21460253 0.15404116 -0.100470595 -0.21406136
0.29720291 0.10203874 -0.21804947 -0.15151225 -0.15260148 0.20721427 -0.047482062 -0.17181087
-0.05365224 0.042142496 0.11990702 -0.106475845 -0.24324003 -0.25865933 0.103282064 0.025044048
-0.2631805 0.097222045 0.011616261 -0.16348523 -0.099047445 -0.17098492 -0.10454007 0.24627139
-0.0769941 -0.09658446 0.07570306 -0.1426815 0.010288961 0.25010186 0.2177405 -0.0064797085
-0.12037603 -0.10366334 0.15721808 0.055841025 -0.18506071 -0.1276571 0.19082892 -0.2715296
0.22300284 0.13007332 -0.23232743 0.04461927 -0.18308608 0.03400583 0.12828961 0.2667673
-0.08391773 -0.22354878 -0.23559538 -0.035905194 0.07801686 0.046575125 -0.06599275 -0.050016787
0.20048095 0.17395973 0.06825117 -0.21499735 0.12950233 0.31361675 0.2162718 0.1925013
-0.06827186 -0.061541278 -0.14365216 0.19988716 0.21955168 -0.017766373 -0.08947872 0.031244252
-0.22298078 0.09881857 -0.045632664 -0.25774837 -0.18499458 0.16114128 0.123030454 0.2237729
0.071779944 -0.042434886 0.0075576846 0.15256745 0.1604521 0.08514188 0.17811003 -0.083171524
0.023613336 -0.13461578 0.02279033 -0.13278891 0.22228783 -0.07924263 -0.21527933 -0.017131772
-0.057344794 0.036316138 -0.23292586 -0.070468105 -0.19938812 0.16081549 -0.031822648 -0.10033915
-0.23147933 0.264098 0.20116708 -0.017209915 0.20375347 0.059242398 -0.17170162 -0.22381854
0.07987977 0.25037247 0.05683028 -0.19377431 -0.0022202227 -0.07431884 -0.011456239 -0.30173346
00000000: ac4b 3c3e e7cb 85bd 9085 033e 1dcd d2bd
00000010: b1e4 17bd 7182 5bbe c742 183e 6284 78be
00000020: d733 9fbd c1ac 7e3e 758a 973c 6516 ab3d
00000030: e804 873e 931b 45bd 4870 843e 89c6 603d
00000040: 020c dc3d f608 5e3e 1683 bebb 3aa0 2b3e
00000050: d997 043e d429 403e 0874 653e 34e0 bbbc
00000060: 184b 30be 3be9 f53d 2c88 293d ab62 54be
00000070: 17aa fa3d 6f1d e2bd 0f06 f23c a703 3d3e
00000080: 8afb 31bc 9621 333e b4ff 56be 47ee 95be
00000090: e31a 563e a3ef 933e 408c a43e df55 88bc
000000a0: bf90 993e df33 34bd 2c67 483e 398b 653d
000000b0: fcdd 9d3d a1b9 2bbd 7b99 9f3e 5e26 1abe
000000c0: 24bf fabd 13cf 423e 694b 88be 4fb2 733e
000000d0: 4087 8f3e b5e4 a23e b98b f43d 7d3d b33e
000000e0: 6230 10bd 18e9 623e 74cf 8d3d 8df5 083d
000000f0: 9879 07be 1285 59be ecab 853e f86a f1bd
00000100: e13a 55be a331 3c3e 9034 343d ac1b 51be
00000110: 92e9 5abd af3b d93c 57e6 47be a0cc 763e
00000120: de93 78be bbc7 5d3d bb70 f33c 9c47 ad3d
00000130: 55d7 1dbe b9fa d23d 4e10 c639 ac3c 9fbc
00000140: 7072 36be 7d94 85be 6120 35be 082b 8ebc
00000150: f45a cf3d 9fee 5abe 3ef3 10be 863b 68be
00000160: f33c 803b b20c db3d b562 52bc 2351 6cbe
00000170: f63f aebd 877f c9bd 5a95 b6bd 121c 533e
00000180: d29a 1a3c 5265 4b3e 9af5 533e 4e22 ab3d
00000190: dc0f 283c a952 cfbb 0d57 873c fc75 e63d
000001a0: 01c1 103e 18d4 15bc f591 e03d d420 acbe
000001b0: 1ae7 c7bd 5830 9b3d 9562 4e3d 3b0b 96bc
000001c0: 0906 bdbd e386 6d3e 03d5 963e e86b 6f3e
000001d0: d34c 043e 8e7a 123c 98f2 02be 62cc 9bbe
000001e0: 96ca 273d dded 3ebd 0a4f 1cba 0f58 403e
000001f0: f085 573d ca3f 26be a0ce d53d de19 11bd
00000200: 2334 923e 47ed 403e c75b 9b3d 5df5 b83d
00000210: c4c0 5b3e f7bc 1d3e 87c3 cdbd e732 5bbe
00000220: fb2a 983e b0f9 d03d 5c48 5fbe 0726 1bbe
00000230: 9043 1cbe fa2f 543e 8d7c 42bd 30ef 2fbe
00000240: 74c2 5bbd 9c9d 2c3d d091 f53d 0210 dabd
00000250: ea13 79be ff6e 84be 8c85 d33d 2d29 cd3c
00000260: 98bf 86be 5a1c c73d 2152 3e3c ac68 27be
00000270: 63d9 cabd ac16 2fbe 1b19 d6bd 912e 7c3e
00000280: 15af 9dbd 13ce c5bd 350a 9b3d 191b 12be
00000290: 0893 283c 5a0d 803e 5ef7 5e3e bc53 d4bb
000002a0: b587 f6bd 724d d4bd c7fd 203e 8fb9 643d
000002b0: 8e80 3dbe 8bb8 02be a868 433e ed05 8bbe
000002c0: db5a 643e f131 053e 3ee7 6dbe b2c2 363d
000002d0: eb7a 3bbe b249 0b3d 5a5e 033e b995 883e
000002e0: 0fdd abbd f9e9 64be ea3f 71be 5311 13bd
000002f0: 4ec7 9f3d 8fc5 3e3d 3527 87bd 67de 4cbd
00000300: e14a 4d3e 8022 323e 45c7 8b3d 4428 5cbe
00000310: 429c 043e 6092 a03e 5b76 5d3e 101f 453e
00000320: 1ed2 8bbd b512 7cbd 8d19 13be 38af 4c3e
00000330: 28d2 603e c98a 91bc 9f40 b7bd f2f3 ff3c
00000340: 1355 64be 6461 ca3d 51e9 3abd 98f7 83be
00000350: 386f 3dbe 3802 253e 64f7 fb3d b924 653e
00000360: 5d01 933d 34d0 2dbd 74a6 f73b a43a 1c3e
00000370: 8e4d 243e de5e ae3d 7a62 363e d555 aabd
00000380: c170 c13c b8d8 09be c9b2 ba3c d1f9 07be
00000390: 6c9f 633e f649 a2bd 2f72 5cbe ee57 8cbc
000003a0: 60e2 6abd 3bc0 143d 1e84 6ebe 9551 90bd
000003b0: 662c 4cbe d1ac 243e 7758 02bd 9d7e cdbd
000003c0: eb08 6dbe da37 873e befe 4d3e cffb 8cbc
000003d0: c0a4 503e 28a8 723d 8dd2 2fbe b030 65be
000003e0: 0198 a33d d230 803e dec6 683d c66c 46be
000003f0: 2881 11bb 7a34 98bd f3b2 3bbc cf7c 9abe

bias_ih_l1 f4 [60]
-0.11978859 -0.105266094 -0.19017407 -0.019606704 -0.06724756 0.2872782 -0.10958959 -0.12235788
0.077142194 -0.11989146 0.14341561 -0.1999177 0.14207526 -0.28552645 -0.13835794 0.15395364
-0.04543622 -0.0047840397 -0.091913916 -0.08232541 -0.27108216 0.18392053 0.30084747 0.27572808
0.020934729 -0.063611254 -0.055782616 -0.12190884 0.18454191 -0.14718246 -0.19150896 -0.21382444
-0.28754738 0.15883107 -0.026458323 0.16967434 0.08092222 -0.013202143 0.26229587 0.023715347
-0.055374082 -0.012662328 -0.038375452 0.10838622 -0.3049135 -0.120853834 0.11963821 0.16946693
0.011016806 -0.013812334 -0.15409811 0.2064064 0.29578638 -0.006624661 0.25572723 -0.057222765
-0.033426255 -0.13030593 -0.16017324 0.28020766
00000000: b853 f5bd c095 d7bd febc 42be 3d9e a0bc
00000010: 17b9 89bd 2116 933e 8270 e0bd c596 fabd
00000020: bafc 9d3d a789 f5bd 8bdb 123e 3ab7 4cbe
00000030: 2d7c 113e 8630 92be b4ad 0dbe 06a6 1d3e
00000040: 541b 3abd 6fc3 9cbb 5d3d bcbd 399a a8bd
00000050: 48cb 8abe aa55 3c3e ae08 9a3e 3b2c 8d3e
00000060: 4f7f ab3c 9e46 82bd 507c 64bd 58ab f9bd
00000070: 8ef8 3c3e 00b7 16be ed1a 44be cbf4 5abe
00000080: 6939 93be 9da4 223e 20bf d8bc 1cbf 2d3e
00000090: 8dba a53d cd4d 58bc a54b 863e b046 c23c
000000a0: efcf 62bd a775 4fbc 942f 1dbd 98f9 dd3d
000000b0: 9f1d 9cbe 3782 f7bd e104 f53d bd88 2d3e
000000c0: d57f 343c 214d 62bc e5cb 1dbe 335c 533e
000000d0: 5071 973e af13 d9bb aeee 823e 6b62 6abd
000000e0: f8e9 08bd eb6e 05be 7404 24be 6177 8f3e

bias_hh_l1 f4 [60]
-0.1990353 -0.12113319 0.036496647 0.0051070508 0.12757671 0.2754423 0.06283134 0.15799144
0.061449096 -0.18963662 -0.002051539 0.08835487 0.12741143 0.18064864 -0.086216405 0.0383843
0.15257122 0.18313006 0.104767375 0.20301373 -0.13690221 -0.0011974393 0.119136676 0.04763522
-0.07674519 0.116185956 -0.22986569 0.20870516 -0.16659789 0.30619764 -0.04726631 0.06147637
0.102407694 -0.05351017 0.19751963 -0.0075705014 0.19137272 0.045902077 -0.03222655 0.23093514
0.14094245 0.021982888 0.06874161 0.06254413 -0.14085193 0.012474934 -0.09188904 0.2971865
0.2336489 0.108673714 0.16571537 -0.16145705 0.2715222 0.14511237 -0.19239263 0.28918502
-0.094022565 -0.23064199 0.06828029 -0.09884295
00000000: e9cf 4bbe ae14 f8bd 827d 153d 0c59 a73b
00000010: 78a3 023e c606 8d3e b8ad 803d 82c8 213e
00000020: 0cb2 7b3d 1a30 42be 1d73 06bb 66f3 b43d
00000030: 2478 023e f5fb 383e 3a92 b0bd db38 1d3d
00000040: a13b 1c3e 7286 3b3e 4790 d63d d5e2 4f3e
00000050: 1830 0cbe 65f3 9cba eefd f33d 261d 433d
00000060: 952c 9dbd e7f2 ed3d e961 6bbe ceb6 553e
00000070: a398 2abe f0c5 9c3e 519a 41bd a5ce 7b3d
00000080: 20bb d13d 7b2d 5bbd 9642 4a3e f811 f8bb
00000090: 36f7 433e d103 3c3d fdff 03bd 437a 6c3e
000000a0: 3853 103e 7515 b43c 67c8 8c3d 2317 803d
000000b0: 7d3b 10be aa63 4c3c 5230 bcbd d428 983e
000000c0: a841 6f3e 5390 de3d 4ab1 293e ff54 25be
000000d0: f504 8b3e 5698 143e 9302 45be 0f10 943e
000000e0: e78e c0bd 6a2d 6cbe 89d6 8b3d 2c6e cabd

weight f4 [20, 15]
0.0023320538 0.09049413 0.19525973 -0.37748393 0.14842477 0.03297437 0.15369228 -0.29093152
-0.27162004 -0.19733506 -0.2835075 -0.14695142 -0.25505406 -0.0072319545 0.24417125 -0.006424975
-0.04987587 -0.0735012 0.2051009 0.051840827 0.14175415 0.20262703 -0.08310356 -0.22961813
0.1243257 0.14579938 0.007926629 0.10151353 0.10264378 -0.18108076 -0.23104653 -0.12779038
0.04673536 0.20969212 0.1755507 -0.21319741 0.24227615 -0.033382967 0.1277447 -0.06274411
0.26526693 0.0065373434 -0.26661113 -0.046256363 -0.025053576 -0.0044949856 0.03469374 0.22666389
0.0895542 -0.2838878 -0.12600417 -0.0024599298 -0.006696067 0.09481319 -0.27186084 0.18249331
0.19198029 -0.11889995 0.13284226 -0.19070205 0.054387726 0.117655955 -0.229478 -0.027612275
0.20330621 0.2548853 -0.024662316 -0.08017896 0.15424572 0.1414509 -0.0055082384 0.124028146
-0.23444566 -0.0120851 0.1179613 0.09423074 -0.04346524 -0.25738382 0.10219411 -0.15607975
0.191402 0.19446282 0.20711005 0.26629275 -0.036561012 -0.2180368 0.13660641 -0.15001316
0.15858623 0.1157167 -0.14517543 0.1690786 -0.05892569 0.13736537 0.1410309 -0.13581836
-0.23667222 -0.1388189 0.033357963 -0.079468176 0.11761282 0.19142906 0.23320052 -0.18234134
-0.03082129 -0.011329197 0.2479793 0.16851433 0.16059808 0.23066555 -0.1507352 -0.15886891
0.2722773 -0.038435202 0.07910006 -0.0964601 0.00075146917 -0.051982217 -0.18587449 0.10159247
-0.1829483 0.076261975 -0.20518973 -0.048106734 -0.21700668 0.10795574 0.07865635 0.24039276
-0.13761985 -0.24323036 0.2322865 0.07584998 0.082199425 -0.22557773 -0.031231213 0.22806694
-0.1989863 -0.15994315 -0.12941581 -0.031546354 0.18605442 -0.22790384 0.05487243 0.14634295
0.12508614 -0.15090086 -0.2036313 0.04836198 -0.071835645 -0.22185856 0.023650635 0.025862549
0.10518675 0.24013145 0.23163144 -0.05784023 0.053447437 0.06141837 -0.1664575 0.1046758
0.26183817 0.06338149 0.17849733 -0.05988142 0.22473323 -0.13444877 -0.013661598 0.15996845
-0.13770683 0.19330099 0.1485483 0.23406191 0.10246185 0.13460796 0.21229571 -0.016450321
-0.08083102 0.14947747 -0.035520762 -0.07991021 0.006088298 -0.112762906 -0.15933447 -0.14659981
-0.07971436 0.3036721 -0.049264226 -0.25991705 -0.006696001 -0.080803044 0.11724912 -0.12506744
0.058875374 0.025962278 -0.10860799 -0.1083698 0.18077858 -0.18519619 0.10363365 0.058701836
-0.13921936 0.18096043 0.14406788 -0.1832502 -0.23573463 0.00997199 0.03525741 0.012535523
-0.04469164 0.19556023 -0.16776952 0.16506107 0.01429634 0.18920635 -0.1485981 0.18262349
-0.20449175 -0.13185461 -0.082823 0.26249814 -0.09666702 0.12174246 0.069044575 0.23866455
-0.09604727 0.15967189 0.21205583 -0.17039353 0.10051924 0.1735568 0.027637951 -0.2187852
0.1442167 -0.19694582 -0.21331318 0.22381084 0.11787806 -0.082341395 0.16744134 0.13680802
0.08838441 -0.23685905 -0.15040813 -0.066276595 -0.17393169 0.1618293 -0.1015046 0.14293362
0.23297359 0.1456976 0.15618819 -0.07726762 -0.066705406 0.24884276 0.18239354 0.13946506
00000000: 5fd5 183b fd54 b93d 2bf2 473e 9345 c1be
00000010: aafc 173e 2210 073d 8261 1d3e faf4 94be
00000020: c811 8bbe 3412 4abe e527 91be 6f7a 16be
00000030: 7296 82be 08fa ecbb 0708 7a3e 9988 d2bb
00000040: a44a 4cbd cc87 96bd f805 523e 0c57 543d
00000050: 0028 113e 767d 4f3e 3332 aabd 0421 6bbe
00000060: 799e fe3d 6f4c 153e b1de 013c 53e6 cf3d
00000070: e736 d23d 3c6d 39be 7697 6cbe 7bdb 02be
00000080: 946d 3f3d 88b9 563e 90c3 333e 6c50 5abe
00000090: 3d17 783e 94bc 08bd 82cf 023e fc7f 80bd
000000a0: 11d1 873e 3637 d63b 4181 88be 5077 3dbd
000000b0: 283d cdbc ac4a 93bb 061b 0e3d 941a 683e
000000c0: 3168 b73d be59 91be 3d07 01be c636 21bb
000000d0: ae6a dbbb 6b2d c23d 5831 8bbe 87df 3a3e
000000e0: 7b96 443e d181 f3bd cd07 083e 6647 43be
000000f0: aac5 5e3d 9bf5 f03d 48fc 6abe 2333 e2bc
00000100: 812f 503e 5380 823e a008 cabc de34 a4bd
00000110: 97f2 1d3e 81d8 103e 747e b4bb 7802 fe3d
00000120: 8612 70be 9500 46bc b295 f13d 0cfc c03d
00000130: 9c08 32bd d0c7 83be 254b d13d 5fd3 1fbe
00000140: e3fe 433e 4321 473e a814 543e 8657 883e
00000150: 00c1 15bd 0a45 5fbe 8de2 0b3e 0d9d 19be
00000160: 6e64 223e e1fc ec3d dea8 14be f122 2d3e
00000170: 105c 71bd 82a9 0c3e 676a 103e f813 0bbe
00000180: 345a 72be 8b26 0ebe 5ca2 083d 36c0 a2bd
00000190: fdde f03d fb05 443e 1ecc 6e3e b0b7 3abe
000001a0: ee7c fcbc 199e 39bc 49ee 7d3e 058f 2c3e
000001b0: d373 243e 9733 6c3e 545a 1abe 88ae 22be
000001c0: ee67 8b3e 3b6e 1dbd 36ff a13d df8c c5bd
000001d0: 3efe 443a 4eeb 54bd e255 3ebe b70f d03d
000001e0: cd56 3bbe 3d2f 9c3d 421d 52be 910b 45bd
000001f0: 0037 5ebe e617 dd3d 9516 a13d 8529 763e
00000200: 38ec 0cbe 6111 79be 83dc 6d3e 3c57 9b3d
00000210: 2c58 a83d d9fd 66be 9ad8 ffbc 618a 693e
00000220: 11c3 4bbe 23c8 23be 9485 04be c036 01bd
00000230: 0d85 3e3e a05f 69be eac1 603d edda 153e
00000240: 9516 003e c185 1abe b984 50be 3617 463d
00000250: 911e 93bd e42e 63be fabe c13c b2dd d33c
00000260: 276c d73d 05e5 753e cb30 6d3e e1e9 6cbd
00000270: b3eb 5a3d d491 7b3d d673 2abe 4460 d63d
00000280: a70f 863e 28ce 813d 01c8 363e 3846 75bd
00000290: 7820 663e f0ac 09be e5d4 5fbc c5ce 233e
000002a0: 0503 0dbe b2f0 453e 0c1d 183e edad 6f3e
000002b0: 85d7 d13d abd6 093e 0c64 593e d3c2 86bc
000002c0: bc8a a5bd 9f10 193e 387e 11bd f7a7 a3bd
000002d0: 5880 c73b 3df0 e6bd 9328 23be 431e 16be
000002e0: 4841 a3bd e97a 9b3e 49c9 49bd d913 85be
000002f0: 216a dbbb 117c a5bd 4e20 f03d ae11 00be
00000300: 4e27 713d d8ae d43c de6d debd fcf0 ddbd
00000310: 051e 393e 12a4 3dbe e13d d43d 5671 703d
00000320: 858f 0ebe b14d 393e 8886 133e f1a5 3bbe
00000330: 6b64 71be 8f61 233c 136a 103d cb61 4d3c
00000340: 950e 37bd f140 483e c6cb 2bbe c505 293e
00000350: 323b 6a3c 4fbf 413e 1a2a 18be a701 3b3e
00000360: 4966 51be e504 07be 1b9f a9bd 2866 863e
00000370: 5cf9 c5bd 1c54 f93d 3e67 8d3d 7b64 743e
00000380: 6eb4 c4bd 0781 233e 2a25 593e a47b 2ebe
00000390: 08dd cd3d e0b8 313e fc68 e23c 3a09 60be
000003a0: 8bad 133e 2aac 49be c56e 5abe ab2e 653e
000003b0: 0d6a f13d 9ba2 a8bd be75 2b3e 6717 0c3e
000003c0: e302 b53d 2e8b 72be 9704 1abe 06bc 87bd
000003d0: 261b 32be 94b6 253e a5e1 cfbd 315d 123e
000003e0: a190 6e3e c031 153e ccef 1f3e 7c3e 9ebd
000003f0: d89c 88bd a3d0 7e3e 5fc5 3a3e eecf 0e3e

bias f4 [20]
-0.26689342 0.10011252 0.06926127 0.17783993 0.17707379 -0.018498765 0.054506883 0.16537882
0.04180721 0.13657111 0.1530579 0.05336484 0.24727787 0.24743417 0.14922452 0.12016905
0.01892521 -0.12400426 0.1490361 0.25322938
00000000: 41a6 88be cb07 cd3d dad8 8d3d ac1b 363e
00000010: d552 353e b98a 97bc 9c42 5f3d 1159 293e
00000020: 093e 2b3d 4cd9 0b3e 36bb 1c3e 1795 5a3d
00000030: 6936 7d3e 625f 7d3e 50ce 183e 311b f63d
00000040: 0b09 9b3c f2f5 fdbd eb9c 183e 48a7 813e
