models/TwentyClassifier.pt (torch, 20668 bytes, 11 tensors)

weight f4 [4, 8]
0.19383225 1.2372593 1.1255006 -0.11300216 0.039116316 0.33380246 1.4093788 0.16739598
-1.0330708 -0.24588522 0.27363667 -0.6394969 1.5846218 -0.6291753 -1.5930417 1.2511762
1.0830339 -0.5929662 0.09486558 0.10923353 1.5055666 0.7997299 -1.0404497 -1.3501825
1.8954155 1.528671 0.7713772 -0.46403015 -1.2813499 -0.61928356 0.3011075 -0.84530926
00000000: f67b 463e 835e 9e3f 6710 903f ad6d e7bd
00000010: 6e38 203d 28e8 aa3e 8666 b43f da69 2b3e
00000020: aa3b 84bf 56c9 7bbe 1b1a 8c3e 12b6 23bf
00000030: e3d4 ca3f a211 21bf cae8 cbbf 8b26 a03f
00000040: dba0 8a3f a2cc 17bf e348 c23d d4b5 df3d
00000050: 68b6 c03f 19bb 4c3f 752d 85bf c8d2 acbf
00000060: fa9c f23f 7eab c33f fa78 453f 5c95 edbe
00000070: 4603 a4bf 5e89 1ebf c32a 9a3e 3066 58bf

weight_ih_l0 f4 [60, 8]
0.009690523 -0.12281448 0.09488009 -0.2644206 0.263669 -0.13562325 -0.07515806 -0.09828709
0.068887606 0.14086133 0.24241592 -0.09880075 -0.001746155 0.13282026 -0.22129594 0.2790925
-0.113403484 -0.07550858 -0.19971713 0.043763153 -0.23358539 -0.2133673 0.08066431 -0.058519185
0.04537494 -0.11199682 0.14906155 -0.20156349 0.037013378 0.21412411 -0.16322325 0.18115826
-0.15270694 0.14409125 -0.02661168 0.16800085 0.0365776 -0.09655821 -0.15836924 0.07305189
-0.13464437 -0.0362131 -0.2158391 0.19694036 -0.06923347 -0.09552836 -0.14532107 -0.22811767
-0.16147058 0.040055357 -0.12475434 0.029998723 -0.061617833 0.19366303 -0.08441609 0.24305278
-0.0536697 -0.02624992 0.12565412 0.2501023 -0.15287939 0.14142856 0.027449332 -0.21239105
-0.043698754 -0.14967088 0.20864645 0.14256316 -0.0441042 -0.27136934 -0.00295314 0.118907645
0.23253243 -0.18506001 -0.23029087 -0.12526198 -0.14456493 0.01088559 0.08386973 -0.16736852
-0.025853558 -0.07776282 0.064786345 0.22561638 -0.08843342 -0.07722975 -0.059148435 0.10558406
0.2635065 -0.091558315 -0.08396764 0.16319895 0.10932613 -0.15713239 0.19678186 -0.23265922
-0.1951305 0.15393527 0.0767403 0.15270838 -0.18674767 -0.29507923 -0.22906053 0.22651634
-0.122733444 -0.028959347 0.27282324 -0.19727434 0.03597877 -0.051634375 -0.22284544 -0.0904301
0.059623227 0.055967256 0.29819062 -0.28522936 0.25561824 -0.06548867 -0.18879104 0.115465015
0.241531 -0.028888151 0.26728007 -0.3664645 -0.23283997 0.17889461 0.050304793 -0.1280125
-0.16004868 0.06706819 -0.024991835 -0.1104006 0.2216433 0.011222163 0.08016595 -0.20977457
-0.22778404 -0.1672474 -0.018674877 -0.22838363 -0.15768817 -0.04646831 -0.18872935 -0.18362695
0.19433868 0.23254071 -0.07589344 -0.20682143 -0.015534499 -0.00579126 -0.07768438 -0.17166235
-0.16681649 0.29348025 0.00994334 -0.013191247 0.08940589 -0.086604655 0.15697274 0.06813763
0.16418001 0.022820013 0.018143322 0.21579376 0.11187576 0.12410562 -0.043314684 -0.2839666
-0.21071719 0.12217398 -0.13283196 -0.1413142 -0.13141061 0.030933052 -0.04229488 0.14673582
-0.20974936 0.23185365 -0.06809851 0.22538985 0.08879332 0.25451937 0.25990835 0.20616998
0.11041289 -0.19121045 -0.089516714 0.021013737 -0.1683286 -0.14956787 -0.09160473 0.11409057
0.23710653 -0.090431355 0.10817874 0.29047674 -0.014911425 -0.13923155 -0.17811504 -0.01621167
0.02248338 -0.22630535 -0.049038008 -0.20319134 0.16745646 -0.019550892 0.18112984 0.006561413
-0.10692795 0.07914923 0.17697813 0.07552461 -0.048946254 0.26601955 0.0012640585 0.0808635
-0.02562664 -0.21657793 -0.023756154 -0.03237175 -0.12538162 0.16243303 0.0009382258 -0.014314231
0.042448327 0.014471254 -0.07250774 -0.15904906 -0.11858642 0.24352558 0.0520016 0.007139074
-0.107783735 0.13435325 0.061706506 -0.3582721 -0.007803357 0.08212459 0.23924951 0.011653008
0.16038029 -0.1907614 0.21758829 -0.22947967 0.13809885 -0.19676869 -0.25031918 0.31701148
0.1914431 0.18452011 -0.23082685 0.20577925 0.19077548 -0.11165287 -0.23458672 0.26090783
00000000: 00c5 1e3c 2886 fbbd 7e50 c23d 2362 87be
00000010: a0ff 863e d2e0 0abe 78ec 99bd be4a c9bd
00000020: f214 8d3d f43d 103e e13b 783e 0c58 cabd
00000030: 3ddf e4ba 0902 083e 679b 62be 36e5 8e3e
00000040: 1640 e8bd 3ea4 9abd a682 4cbe fe40 333d
00000050: 0231 6fbe f57c 5abe 5433 a53d d0b1 6fbd
00000060: 13db 393d 975e e5bd 97a3 183e a966 4ebe
00000070: 579b 173d 5a43 5b3e ff23 27be 8d81 393e
00000080: 355f 1cbe a88c 133e bd00 dabc 6a08 2c3e
00000090: 65d2 153d 50c0 c5bd 8c2b 22be 3b9c 953d
000000a0: 37e0 09be 3054 14bd ed04 5dbe bcaa 493e
000000b0: 47ca 8dbd 5fa4 c3bd 0ccf 14be ae97 69be
000000c0: 8b58 25be 1611 243d 347f ffbd e2bf f53c
000000d0: fb62 7cbd 9a4f 463e 58e2 acbd d4e2 783e
000000e0: c2d4 5bbd 120a d7bc 79ab 003e 690d 803e
000000f0: 6a8c 1cbe a6d2 103e 6cdd e03c 0a7d 59be
00000100: 77fd 32bd 5343 19be 6aa7 553e 14fc 113e
00000110: 9ba6 34bd ecf0 8abe 7889 41bb da85 f33d
00000120: fb1c 6e3e 5f80 3dbe 5fd1 6bbe ad44 00be
00000130: d408 14be 7959 323c e5c3 ab3d a762 2bbe
00000140: d7ca d3bc 1d42 9fbd b4ae 843d fb07 673e
00000150: 951c b5bd a22a 9ebd a145 72bd 753c d83d
00000160: 53ea 863e ed82 bbbd 3af7 abbd a01d 273e
00000170: 61e6 df3d 50e7 20be 2f81 493e 383e 6ebe
00000180: 4ad0 47be 35a1 1d3e 052a 9d3d 965f 1c3e
00000190: c83a 3fbe a014 97be d88e 6abe e6f3 673e
000001a0: ac5b fbbd 273c edbc 7daf 8b3e 4902 4abe
000001b0: 7a5e 133d 917e 53bd 9831 64be 6b33 b9bd
000001c0: 7c37 743d ec3d 653d 71ac 983e 9509 92be
000001d0: 65e0 823e ec1e 86bd 7052 41be ec78 ec3d
000001e0: e753 773e d8a6 ecbc efd8 883e 3ca1 bbbe
000001f0: 9a6d 6ebe 2630 373e 660c 4e3d b515 03be
00000200: cde3 23be 0c5b 893d adbb ccbc b619 e2bd
00000210: 76f6 623e 2add 373c 0c2e a43d 25cf 56be
00000220: 3840 69be e742 2bbe 0efc 98bc 66dd 69be
00000230: 0279 21be 8e55 3ebd 4442 41be b408 3cbe
00000240: b800 473e 271f 6e3e 056e 9bbd ffc8 53be
00000250: 6984 7ebc 9cc4 bdbb fd18 9fbd 41c8 2fbe
00000260: f1d1 2abe 0b43 963e 64e9 223c 1a20 58bc
00000270: 6f1a b73d c85d b1bd 76bd 203e be8b 8b3d
00000280: ce1e 283e 09f1 ba3c 4ea1 943c 0af9 5c3e
00000290: 1e1f e53d 162b fe3d bd6a 31bd 1264 91be
000002a0: 3fc6 57be 5a36 fa3d 1a05 08be abb4 10be
000002b0: 8190 06be 5067 fd3c 653d 2dbd ea41 163e
000002c0: 89c8 56be 0b6b 6d3e 3b77 8bbd 99cc 663e
000002d0: 46d9 b53d 5d50 823e b512 853e 391e 533e
000002e0: 2720 e23d accc 43be 8a54 b7bd 0025 ac3c
000002f0: 555e 2cbe 5228 19be 439b bbbd 51a8 e93d
00000300: 0ecc 723e 1334 b9bd d18c dd3d 5eb9 943e
00000310: 0d4f 74bc b792 0ebe ca63 36be 56ce 84bc
00000320: 112f b83c 97bc 67be 14dc 48bd 6411 50be
00000330: b579 2b3e 3129 a0bc 1a7a 393e 1f01 d73b
00000340: 0bfd dabd fe18 a23d c139 353e a6ac 9a3d
00000350: de7b 48bd b733 883e c4ae a53a c39b a53d
00000360: f6ee d1bc 9bc6 5dbe 449c c2bc 3d98 04bd
00000370: 0a64 00be d854 263e 45f3 753a 3d86 6abc
00000380: 4cde 2d3d d718 6d3c f07e 94bd c2dd 22be
00000390: 70dd f2bd c55e 793e a1ff 543d e5ee e93b
000003a0: b8bd dcbd e693 093e f6bf 7c3d 716f b7be
000003b0: 4eb3 ffbb f030 a83d d3fd 743e 42ec 3e3c
000003c0: bb3a 243e f556 43be 77cf 5e3e b8fc 6abe
000003d0: c969 0d3e bb7d 49be d629 80be 544f a23e
000003e0: a909 443e d7f2 3c3e e05d 6cbe ccb7 523e
000003f0: a65a 433e 43aa e4bd 8037 70be b695 853e

weight_hh_l0 f4 [60, 15]
-0.2013202 -0.045499884 -0.27314678 -0.13082947 -0.13576376 0.0180987 -0.20757824 0.07928452
0.030448055 -0.24750692 0.11025806 -0.14801805 0.0061062076 0.07018644 -0.087679565 -0.041552752
-0.054842763 -0.11793737 0.05396856 -0.035163432 -0.11587854 -0.04950661 0.22539406 0.23031147
0.114147164 -0.221704 0.036053695 -0.15343915 0.18937004 0.25462887 0.22007279 0.25902823
-0.1859334 0.16705683 -0.21895048 -0.008774787 -0.1658729 -0.1172556 0.15284592 0.09601696
0.08057087 0.10992474 0.1647975 -0.083799906 -0.030806504 0.19634277 0.15000993 0.13569604
0.13335657 -0.33823207 -0.20502591 0.0626685 -0.030319555 0.15184309 -0.0820109 -0.06319964
0.25683033 -0.07175464 -0.011021139 0.11836144 0.18643217 -0.17217775 -0.14786237 -0.17689508
0.037063513 -0.21803987 0.054763306 -0.13908382 0.3083106 -0.22385167 -0.123872496 -0.05718036
-0.085417 -0.090473525 -0.06623048 -0.16205388 0.03147044 -0.25899398 0.20384638 0.060182508
-0.18770061 0.10284159 -0.08757271 -0.08027946 -0.17118622 0.16559194 0.32728508 0.23044991
-0.12042169 -0.30049938 0.020029554 -0.24414206 -0.31024006 -0.059466153 -0.18997191 0.12083007
0.062404864 -0.084732845 -0.166772 -0.26273865 -0.18037072 -0.041625027 -0.078768626 -0.0689049
-0.0016407886 -0.20357664 0.042727426 -0.103970304 -0.20890705 -0.20457007 0.029220529 0.21038708
-0.072117604 -0.25002828 0.1252022 -0.17705269 0.10384147 0.0675273 0.20995243 0.05475197
-0.18257923 0.17277032 -0.21233986 -0.008605603 -0.2416217 -0.1852557 -0.27871603 -0.14358854
0.25258029 0.045752406 -0.033890437 0.27104813 -0.16865298 -0.24469958 0.048574947 -0.2641358
0.2175538 0.07554238 0.30394208 0.28257883 -0.30165833 0.25935328 -0.14426446 0.13828214
0.030549772 -0.026343301 0.20940141 -0.019740675 0.08084053 -0.043426167 -0.042899333 0.21439828
-0.06188081 0.21798623 0.20861073 -0.061348397 -0.17082791 0.046261817 0.19762084 0.054021895
-0.18718979 0.07468845 -0.24060687 -0.046002727 0.10961621 0.12512667 -0.061167877 -0.03258204
-0.18302324 0.1311221 0.043490697 0.064418375 -0.007886908 0.2306284 -0.13562436 0.114297494
-0.15585892 0.21865864 -0.0069759996 0.09605505 0.03784262 0.24793674 0.10892814 -0.010141681
0.22983809 -0.00295584 -0.19491614 0.09696688 -0.010971337 -0.06656781 0.104349315 0.11359183
-0.08764062 0.22165379 -0.23907018 -0.022395995 0.27627915 0.10178673 0.18300045 0.15993519
0.17312443 0.1084714 -0.16223112 0.029141245 0.1419556 -0.079190284 -0.042217564 0.03728553
-0.19115536 0.014743394 0.14373012 -0.11544625 0.08020961 -0.052260704 0.0052222884 0.19610259
-0.040288556 0.20900539 -0.054181833 -0.27324194 0.04508059 -0.15364417 -0.22686137 -0.23673478
0.06415983 0.123049386 0.048957713 0.10836409 0.21103798 -0.27238852 -0.14623404 0.0010306621
0.051531494 0.029906038 -0.27216622 0.18619972 -0.036314998 0.13109751 0.2533329 -0.09583244
-0.06416543 -0.14420995 -0.26734227 0.15890379 0.12520066 -0.021880792 -0.19044165 -0.13210572
0.23735346 -0.23556727 0.2326068 0.089656934 -0.11240573 -0.03433284 0.1466231 -0.19906443
00000000: e226 4ebe 165e 3abd e5d9 8bbe 29f8 05be
00000010: a805 0bbe ba43 943c 648f 54be ec5f a23d
00000020: 336e f93c 7472 7dbe face e13d 0b92 17be
00000030: 9516 c83b e9bd 8f3d 5891 b3bd 3833 2abd
00000040: cea2 60bd 2689 f1bd 230e 5d3d 8807 10bd
00000050: ba51 edbd 71c7 4abd b3cd 663e c5d6 6b3e
00000060: fdc5 e93d 6006 63be 0aad 133d 271f 1dbe
00000070: 38ea 413e b75e 823e c35a 613e 599f 843e
00000080: 5365 3ebe f210 2b3e 8e34 60be 20c4 0fbc
00000090: 96da 29be b423 f0bd a483 1c3e 8aa4 c43d
000000a0: 5702 a53d 3920 e13d adc0 283e 499f abbd
000000b0: ec5d fcbc 140e 493e 349c 193e e7f3 0a3e
000000c0: a08e 083e c12c adbe 50f2 51be 5858 803d
000000d0: b760 f8bc c17c 1b3e 55f5 a7bd d06e 81bd
000000e0: 447f 833e 19f4 92bd 0292 34bc 7c67 f23d
000000f0: 13e8 3e3e 5d4f 30be 3c69 17be fc23 35be
00000100: e9cf 173d d845 5fbe 7d4f 603d fd6b 0ebe
00000110: e3da 9d3e 5f39 65be ddb0 fdbd f435 6abd
00000120: 1cef aebd 2f4a b9bd d9a3 87bd 74f1 25be
00000130: 26e7 003d dc9a 84be 1bbd 503e ef81 763d
00000140: 9734 40be 9d9e d23d 5259 b3bd 8f69 a4bd
00000150: 714b 2fbe ef90 293e e991 a73e 10fb 6b3e
00000160: a69f f6bd 0edb 99be 0515 a43c 6000 7abe
00000170: c9d7 9ebe c892 73bd ff87 42be c175 f73d
00000180: 3e9c 7f3d 6a88 adbd 47c6 2abe ae85 86be
00000190: 1ab3 38be 017f 2abd 7251 a1bd 031e 8dbd
000001a0: bb0f d7ba 6576 50be f402 2f3d 62ee d4bd
000001b0: bbeb 55be d17a 51be e45f ef3c b66f 573e
000001c0: 65b2 93bd b503 80be 0135 003e 4d4d 35be
000001d0: d6aa d43d c14b 8a3d c5fd 563e 9a43 603d
000001e0: 0df6 3abe b4ea 303e 9f6f 59be 84fe 0cbc
000001f0: ae6b 77be acb3 3dbe deb3 8ebe e008 13be
00000200: 3452 813e e066 3b3d b3d0 0abd d2c6 8a3e
00000210: 5eb3 2cbe 8792 7abe 86f6 463d cf3c 87be
00000220: 6cc6 5e3e f7b5 9a3d 4c9e 9b3e 2cae 903e
00000230: f672 9abe f4c9 843e 10ba 13be d599 0d3e
00000240: 8443 fa3c e8cd d7bc 536d 563e 32b7 a1bc
00000250: b88f a53d a3df 31bd 36b7 2fbd 398b 5b3e
00000260: bb76 7dbd c837 5f3e 0d9e 553e 7548 7bbd
00000270: 83ed 2ebe 087d 3d3d 1e5d 4a3e 1046 5d3d
00000280: aeae 3fbe 42f6 983d a661 76be 5b6d 3cbd
00000290: 777e e03d 3521 003e 2b8b 7abd bf74 05bd
000002a0: 726a 3bbe df44 063e 4d23 323d c8ed 833d
000002b0: 1738 01bc da29 6c3e 1de1 0abe ce14 ea3d
000002c0: 7b99 1fbe 0de8 5f3e ed96 e4bb 83b8 c43d
000002d0: dd00 1b3d 21e3 7d3e b715 df3d 4b29 26bc
000002e0: ad5a 6b3e c4b6 41bb 1998 47be 9296 c63d
000002f0: 1fc1 33bc b454 88bd 18b5 d53d d5a2 e83d
00000300: ed7c b3bd 36f9 623e d0ce 74be ce77 b7bc
00000310: 7674 8d3e 9075 d03d 7864 3b3e 0dc6 233e
00000320: 8847 313e 4126 de3d ea1f 26be 9fb9 ee3c
00000330: cf5c 113e 842e a2bd 53ec 2cbd b6b8 183d
00000340: 3bbe 43be 478e 713c fd2d 133e 156f ecbd
00000350: f044 a43d 520f 56bd bb1f ab3b 1ecf 483e
00000360: 9d05 25bd 8205 563e c5ed 5dbd 5ee6 8bbe
00000370: 6da6 383d e654 1dbe 594e 68be 9a6a 72be
00000380: 3b66 833d 5101 fc3d e287 483d feed dd3d
00000390: 571a 583e 8276 8bbe 60be 15be 4817 873a
000003a0: b012 533d 82fd f43c 5f59 8bbe 24ab 3e3e
000003b0: 09bf 14bd 6d3e 063e dab4 813e cc43 c4bd
000003c0: 2a69 83bd c6ab 13be 16e1 88be adb7 223e
000003d0: 9a34 003e 593f b3bc 2303 43be b946 07be
000003e0: c90c 733e 8c38 71be 7a30 6e3e 0e9e b73d
000003f0: fa34 e6bd 98a0 0cbd 5e24 163e 8cd7 4bbe

bias_ih_l0 f4 [60]
-0.065831095 0.057923187 -0.16603847 0.14600945 0.24435656 -0.12918639 0.21271114 -0.2533039
0.18347338 -0.115812786 0.22422682 0.16484816 -0.101098605 -0.057676822 0.2361706 0.055126633
0.09594202 0.06548839 -0.12632762 0.16752213 -0.18603413 0.23724593 0.052226048 -0.013533546
0.10422594 -0.1684098 0.3054172 -0.032568093 0.024522537 -0.044523794 -0.17845768 -0.015311591
-0.24261616 -0.22599499 -0.0074306866 -0.20288296 -0.14679706 0.16719879 0.17556347 -0.10271556
0.0706621 0.13650562 -0.006112109 0.04362756 -0.036411393 0.1635757 0.20442247 -0.117891796
0.21219364 -0.16921039 0.1694897 0.08781937 -0.13824143 0.29881868 0.07555749 0.18495433
0.1302755 -0.06351472 -0.07409907 0.25511774
00000000: 74d2 86bd dd40 6d3d fd05 2abe 8083 153e
00000010: 9b38 7a3e 7049 04be f3d0 593e 0cb1 81be
00000020: 72e0 3b3e 412f edbd b79b 653e f5cd 283e
00000030: c90c cfbd 883e 6cbd b5d6 713e 77cc 613d
00000040: 407d c43d c71e 863d 075c 01be ec8a 2b3e
00000050: bb7f 3ebe 99f0 723e fbea 553d cebb 5dbc
00000060: 6974 d53d 9e73 2cbe a55f 9c3e 1f66 05bd
00000070: 7de3 c83c 955e 36bd 9cbd 36be 78dd 7abc
00000080: 5f70 78be 3b6b 67be 1e7d f3bb 8dc0 4fbe
00000090: f851 16be 2936 2b3e e9c6 333e 895c d2bd
000000a0: 4bb7 903d 21c8 0b3e 1648 c8bb d0b2 323d
000000b0: 1d24 15bd 6380 273e 2054 513e 4171 f1bd
000000c0: 4a49 593e 7d45 2dbe b58e 2d3e a4da b33d
000000d0: 298f 0dbe c3fe 983e e3bd 9a3d ab64 3d3e
000000e0: f166 053e 0114 82bd 41c1 97bd cb9e 823e

bias_hh_l0 f4 [60]
0.16776188 0.09683275 -0.030575844 0.26453653 -0.049771484 0.033076018 0.14327784 0.10187084
0.2506758 0.06558809 0.19522725 -0.014763752 -0.101737134 0.09790703 0.24683887 -0.12666555
-0.16027966 -0.21169777 0.1572782 0.056438044 -0.16689855 -0.19117041 -0.036379367 0.24916331
-0.012397088 0.21894252 0.10321796 0.12422903 -0.10111055 0.035990108 -0.24386378 0.020105675
-0.14279199 0.030422017 -0.2558793 -0.031127516 -0.24312435 0.17645429 0.25822824 -0.16525316
-0.13946496 0.050718572 -0.1968315 -0.19264135 0.054216847 -0.102307215 -0.062449362 -0.014523051
0.10614921 -0.04187521 0.24077675 0.05095021 -0.03283159 -0.14510375 0.1375446 -0.21931465
0.25663796 -0.20003499 0.009932181 -0.029802822
00000000: c5c9 2b3e 4050 c63d 317a fabc 5571 873e
00000010: 2fdd 4bbd b87a 073d 6db7 123e a9a1 d03d
00000020: 9458 803e 0c53 863d a7e9 473e aae3 71bc
00000030: 8f5b d0bd 7b83 c83d 54c3 7c3e 9db4 01be
00000040: 5a20 24be 4dc7 58be 890d 213e 942b 673d
00000050: 74e7 2abe 2dc2 43be 8802 15bd ab24 7f3e
00000060: 281d 4bbc 7832 603e f063 d33d ca6b fe3d
00000070: 0c13 cfbd 5d6a 133d 6db7 79be a8b4 a43c
00000080: 1038 12be 9837 f93c 9d02 83be 22ff febc
00000090: 97f5 78be 6fb0 343e 7e36 843e 2038 29be
000000a0: e7cf 0ebe 47be 4f3d 328e 49be c643 45be
000000b0: 7c12 5e3d 7286 d1bd e7ca 7fbd 17f2 6dbc
000000c0: c264 d93d 5785 2bbd 2e8e 763e 2bb1 503d
000000d0: 6b7a 06bd 1496 14be 7ed8 0c3e 0594 60be
000000e0: 0d66 833e f9d5 4cbe 96ba 223c 0c25 f4bc

weight_ih_l1 f4 [60, 15]
0.2603899 -0.15342665 -0.075808965 0.01802721 -0.19449261 0.025432145 0.11645149 0.007899915
0.22191083 -0.024738813 0.22368917 0.18572831 0.028350834 0.20561059 0.13308495 0.31002772
0.0143982265 0.12409082 0.01979785 -0.21233165 0.10314285 -0.11458917 0.04029319 0.26945555
0.07723884 -0.22383726 0.12010624 0.025847288 0.0025792262 0.07967641 -0.17599611 -0.06706235
-0.23837385 -0.11268896 -0.19455187 -0.044169273 0.21041377 0.14126496 -0.0804678 0.15870105
0.13237932 0.065960795 -0.1346057 0.09153752 -0.1312629 -0.014136648 -0.07050941 -0.11676359
-0.1674638 -0.021623185 -0.010788327 -0.13521048 -0.08125371 -0.06760165 0.06498526 0.18074813
0.027388118 0.09427806 -0.14537703 -0.098520406 -0.09160372 -0.08058538 -0.21476479 0.22310913
0.08157705 -0.31632456 -0.22765088 0.0354803 0.088968545 0.065007746 -0.10711603 0.035558842
0.14508012 -0.10236495 0.0071537434 0.10988618 -0.13141991 0.038655605 0.25082737 -0.14057098
-0.22203505 0.072354466 -0.059932154 0.029497758 0.12680827 0.11325965 0.14298235 0.11492952
-0.21373296 -0.04650072 0.18496005 0.16178527 0.2033391 0.08976006 0.028034741 -0.039295264
-0.27164608 -0.16187032 0.20557986 -0.00029890577 0.20351075 -0.18744639 0.04187677 -0.17711745
-0.01045123 0.21981445 0.032939475 0.10450754 0.16761288 -0.050831262 -0.08168989 0.04228565
-0.0571791 -0.037012223 -0.20858827 0.14910085 0.2374653 -0.18238026 -0.17479664 -0.19039051
-0.20639513 0.117664404 -0.14440706 0.040169664 -0.059989896 0.11777153 0.17760406 0.22042067
-0.053406693 0.098001204 -0.23966192 0.09866838 0.21908891 0.14613426 -0.20355366 0.08915758
-0.22358179 -0.03570451 -0.06105436 0.21387975 0.0815067 -0.2838484 -0.060328476 0.149767
-0.25059006 -0.028870514 -0.034993555 -0.11712023 -0.22699866 -0.08773669 -0.24530256 -0.026661176
0.06051107 0.26787123 0.015073244 -0.048102744 -0.07311437 -0.08604004 -0.1550332 -0.28877237
-0.19664411 0.30778998 -0.10866541 0.08989409 0.059487212 -0.17205076 0.007115415 -0.25321576
0.00815424 -0.2294527 0.08200985 -0.16518639 0.16791162 0.06851888 2.5226713e-05 -0.14781067
0.17131485 -0.25851 -0.10038447 -0.08467604 0.042230505 -0.116087355 0.07163474 0.116810724
-0.011440377 -0.06548072 0.18840228 -0.27270103 0.30812877 -0.14130236 0.04927259 0.20974381
-0.18090197 0.1920482 0.09251402 -0.0522724 0.042286016 0.06527441 0.04282992 0.03584703
0.11166619 0.056038573 -0.26140222 -0.130476 -0.1929783 -0.13235113 0.0146127315 -0.23906128
0.19078211 0.20383394 -0.290991 -0.069060124 0.12957339 0.20896241 0.118303075 -0.09311391
-0.18309364 0.11588913 0.21978223 -0.24925715 -0.22423217 0.22813705 0.23791501 -0.14887665
-0.203969 0.11591653 0.05694213 0.036897045 -0.06919835 -0.17544413 0.15696512 -0.24077998
0.03295455 0.05045048 -0.057154324 0.19016276 0.19719298 0.04791824 0.03732194 -0.20276247
0.2675634 0.22255121 -0.28173524 -0.28321752 -0.11822839 0.25891253 0.11627764 0.053247664
-0.19080697 0.08096623 0.1087767 -0.09133475 -0.18978412 0.23195063 0.016031323 0.08511792
00000000: d351 853e e01b 1dbe bb41 9bbd cdad 933c
00000010: 1229 47be 1357 d03c 1e7e ee3d a56e 013c
00000020: 983c 633e 0da9 cabc c60e 653e 902f 3e3e
00000030: 0240 e83c 958b 523e 6c47 083e f4bb 9e3e
00000040: 8ae6 6b3c 5423 fe3d 1a2f a23c 786d 59be
00000050: 8f3c d33d baad eabd 790a 253d 14f6 893e
00000060: 662f 9e3d 9835 65be 43fa f53d b1bd d33c
00000070: 3c08 293b 632d a33d 5338 34be fc57 89bd
00000080: 4618 74be 78c9 e6bd 9b38 47be d7ea 34bd
00000090: b576 573e c3a7 103e 4dcc a4bd 8782 223e
000000a0: 728e 073e 7416 873d 14d6 09be 0678 bb3d
000000b0: c869 06be 669d 67bc 3d67 90bd c021 efbd
000000c0: a17b 2bbe 1b23 b1bc 86c1 30bc 9e74 0abe
000000d0: 5868 a6bd bc72 8abd fe16 853d 0a16 393e
000000e0: 0c5d e03c db14 c13d b7dd 14be 11c5 c9bd
000000f0: bb9a bbbd f309 a5bd 4deb 5bbe b876 643e
00000100: de11 a73d 4bf5 a1be 501d 69be cb53 113d
00000110: 2435 b63d c822 853d a65f dbbd 26a6 113d
00000120: e28f 143e b7a4 d1bd f369 ea3b 010c e13d
00000130: f192 06be 5755 1e3d 726c 803e d7f1 0fbe
00000140: 285d 63be 942e 943d 6b7b 75bd 48a5 f13c
00000150: 07da 013e adf4 e73d f769 123e 2b60 eb3d
00000160: d0dc 5abe 8a77 3ebd 2b66 3d3e 0aab 253e
00000170: 2038 503e 1fd4 b73d 1da9 e53c 12f4 20bd
00000180: 3215 8bbe 55c1 25be 8783 523e 74b6 9cb9
00000190: 1f65 503e f2f1 3fbe fa86 2b3d 475e 35be
000001a0: a33b 2bbc 0a17 613e 8beb 063d 0d08 d63d
000001b0: b6a2 2b3e 7134 50bd 074d a7bd b833 2d3d
000001c0: a234 6abd 219a 17bd 2a98 55be e5ad 183e
000001d0: 1b2a 733e e4c1 3abe e4fd 32be bbf5 42be
000001e0: 3f59 53be 09fa f03d 72df 13be f288 243d
000001f0: f7b7 75bd 3332 f13d d7dd 353e f5b5 613e
00000200: fac0 5abd dbb4 c83d ef69 75be a612 ca3d
00000210: d858 603e 38a4 153e 5f70 50be 4098 b63d
00000220: a0f2 64be e43e 12bd 2314 7abd 4b03 5b3e
00000230: fcec a63d 9454 91be fe1a 77bd 855c 193e
00000240: 574d 80be db81 ecbc 6755 0fbd bbdc efbd
00000250: 5672 68be 4baf b3bd 9830 7bbe 8a68 dabc
00000260: 75da 773d 6b26 893e c5f5 763c 6207 45bd
00000270: fdbc 95bd c335 b0bd 06c1 1ebe f9d9 93be
00000280: 135d 49be a696 9d3e f88b debd 651a b83d
00000290: dda8 733d 132e 30be 6d28 e93b 7fa5 81be
000002a0: 5d99 053c a6f5 6abe c8f4 a73d 9f26 29be
000002b0: 06f1 2b3e a053 8c3d f49d d337 ae5b 17be
000002c0: 296d 2f3e 6c5b 84be 5f96 cdbd a26a adbd
000002d0: e5f9 2c3d 35bf edbd 3cb5 923d 763a ef3d
000002e0: 6b70 3bbc c11a 86bd 87ec 403e 789f 8bbe
000002f0: 0ec3 9d3e 91b1 10be 0ed2 493d 15c7 563e
00000300: 5e3e 39be 49a8 443e fe77 bd3d 961b 56bd
00000310: 1a34 2d3d 97ae 853d 6d6e 2f3d 56d4 123d
00000320: 3eb1 e43d b488 653d 83d6 85be 809b 05be
00000330: 1a9c 45be 0e87 07be 3d6a 6f3c 7bcc 74be
00000340: 635c 433e d8b9 503e c6fc 94be 656f 8dbd
00000350: e3ae 043e 3efa 553e e248 f23d 81b2 bebd
00000360: e67c 3bbe 4857 ed3d 980e 613e 443d 7fbe
00000370: 1e9d 65be c29c 693e fe9f 733e 1f73 18be
00000380: 40dd 50be a565 ed3d 273c 693d 5b21 173d
00000390: ddb7 8dbd a0a7 33be 77bb 203e 078f 76be
000003a0: 5afb 063d 2aa5 4e3d a71a 6abd 07ba 423e
000003b0: f5ec 493e eb45 443d e4de 183d f7a0 4fbe
000003c0: 12fe 883e 77e4 633e 9a3f 90be e301 91be
000003d0: ba21 f2bd 2f90 843e f922 ee3d 391a 5a3d
000003e0: e762 43be 9fd1 a53d 52c6 de3d b70d bbbd
000003f0: c556 42be 7784 6d3e 1f54 833c 4e52 ae3d

weight_hh_l1 f4 [60, 15]
0.0614291 -0.16134907 0.22744875 -0.14704214 0.11231301 -0.08634358 0.12959862 0.19114651
0.14420809 -0.094834246 -0.21308143 0.07517539 -0.2638025 -0.05461062 0.07590524 -0.008788304
0.057970326 0.17059927 -0.20716207 0.11945255 0.1541182 0.19827116 0.1737941 0.1713819
-0.08170951 0.0802948 -0.27558893 0.22547737 0.18678167 0.21152358 -0.23200065 0.07875534
-0.17863224 0.12194702 0.038328882 0.11091606 -0.20405337 0.20072071 -0.21015444 0.052161034
-0.18773125 0.06557759 -0.047346584 -0.16388647 -0.15319178 -0.06538608 0.25906152 -0.1688117
-0.12038123 0.24649814 0.0052310587 0.25295472 -0.213261 0.22121724 -0.22486696 -0.1400754
0.20846392 -0.036933627 -0.23750107 0.11811526 0.07180054 0.25676852 0.05677961 -0.31399286
-0.112834565 -0.090078734 0.22871369 0.05907461 -0.18800107 -0.07517433 -0.33310297 -0.16405018
0.042926237 0.22482713 0.027788745 0.14138311 -0.16454437 0.04353717 -0.09099762 0.31114304
0.019566067 0.32752553 -0.005452175 -0.014282437 -0.06348901 -0.20735887 0.06867436 -0.1382128
0.052036762 0.12247567 0.17020263 0.020022213 0.060938895 0.028535785 0.107712306 0.10779072
-0.05388927 0.19988298 -0.2065666 0.22990917 -0.038234964 0.09437424 -0.21265571 0.065959625
0.09540927 -0.08040659 -0.11503741 0.12579224 -0.11610259 -0.14904073 0.14343615 0.10497977
-0.13760455 -0.19727236 -0.029445745 0.017943345 -0.32107374 0.1582503 -0.10172045 0.27761158
-0.22398193 0.032753624 0.015804064 0.11542997 0.13743159 -0.05744495 -0.22452913 0.14625436
0.08649814 0.039455663 -0.16252077 -0.22400643 -0.10750995 -0.0072775674 -0.064242266 -0.25821835
-0.13503179 0.2659004 -0.29151213 -0.09684775 0.108146004 0.0006972108 0.27811396 -0.25651094
0.15843834 -0.17677176 -0.3040271 0.081032656 -0.07572924 0.044993415 0.15796396 0.02115297
0.09485563 -0.04495411 0.21537152 0.033664033 0.1822568 0.27950582 0.03661619 0.30026796
-0.21235122 -0.25053325 0.09520707 -0.15449686 0.17618446 -0.01467996 0.03264318 -0.054763798
-0.32364002 0.29328248 -0.34215617 0.3158762 -0.019476283 0.049899742 0.145533 -0.17722088
-0.22062796 0.04133668 0.12626857 0.017940925 0.013065597 -0.15970151 0.19947241 -0.28556213
0.13482569 0.18970266 0.3303517 0.26773134 0.18710569 0.068700865 0.1513214 -0.23224835
0.03178 -0.17538334 -0.1380353 -0.1993855 -0.03389904 -0.08720255 0.1930725 0.08131865
0.23781958 0.17194076 0.13556632 0.17144392 0.117143184 0.28331405 -0.20933294 0.16056564
0.06505787 -0.11997112 -0.024534121 0.29556894 -0.078958 -0.3209786 0.28631297 0.061371207
-0.080841154 -0.07580571 0.091729105 -0.03493199 0.13389485 -0.10770391 0.11871714 0.21232028
-0.09315095 -0.3214057 0.07656949 0.17440061 -0.1513123 0.14039393 0.14738806 -0.10326277
0.35855356 -0.03812049 -0.08583511 -0.00983949 0.095388725 -0.09469994 0.14399539 0.13966757
0.09566324 0.062620714 0.1853092 0.09267344 0.21287113 0.15660389 0.24143489 0.036014702
-0.07150629 -0.03301797 -0.0808715 -0.14236835 -0.033650704 -0.10143038 0.19333304 -0.2265933
00000000: 149d 7b3d b138 25be 53e8 683e 3792 16be
00000010: 5d04 e63d e7d4 b0bd 80b5 043e e9bb 433e
00000020: 49ab 133e 7538 c2bd 0532 5abe 8ef5 993d
00000030: 1f11 87be 63af 5fbd 3574 9b3d d2fc 0fbc
00000040: 4b72 6d3d 93b1 2e3e 4b22 54be 8aa3 f43d
00000050: 29d1 1d3e 9807 4b3e 15f7 313e bd7e 2f3e
00000060: 5157 a7bd 9a71 a43d fe19 8dbe 8ae3 663e
00000070: b243 3f3e a399 583e 9491 6dbe 7b4a a13d
00000080: 5feb 36be 5cbf f93d bffe 1c3d f627 e33d
00000090: 5ef3 50be bb89 4d3e ba32 57be cfa6 553d
000000a0: 9f3c 40be 8b4d 863d 7eee 41bd dbd1 27be
000000b0: 4ede 1cbe 23e9 85bd b6a3 843e f9dc 2cbe
000000c0: 6f8a f6bd 026a 7c3e 4d69 ab3b 4883 813e
000000d0: 1761 5abe c686 623e 8643 66be ed6f 0fbe
000000e0: 9177 553e b747 17bd 7b33 73be 6ae6 f13d
000000f0: 290c 933d 2a77 833e bd91 683d acc3 a0be
00000100: cf15 e7bd 337b b8bd ec33 6a3e 38f8 713d
00000110: 5a83 40be 00f5 99bd 798c aabe c5fc 27be
00000120: 6cd3 2f3d 1539 663e 39a5 e33c bcc6 103e
00000130: 527e 28be 0854 323d f65c babd 244e 9f3e
00000140: 0449 a03c 6db1 a73e 29a8 b2bb e200 6abc
00000150: 8706 82bd e255 54be 25a5 8c3d a887 0dbe
00000160: 8024 553d 86d4 fa3d 9949 2e3e a005 a43c
00000170: 109b 793d e1c3 e93c 4598 dc3d 62c1 dc3d
00000180: ffba 5cbd 20ae 4c3e 3286 53be 4f6d 6b3e
00000190: 449c 1cbd 4847 c13d 6bc2 59be d715 873d
000001a0: ef65 c33d 36ac a4bd bc98 ebbd aecf 003e
000001b0: 32c7 edbd 229e 18be ede0 123e a2ff d63d
000001c0: 35e8 0cbe c401 4abe 3438 f1bc ecfd 923c
000001d0: c763 a4be 5e0c 223e d052 d0bd 1b23 8e3e
000001e0: 855b 65be aa28 063d 8677 813c 8c66 ec3d
000001f0: deba 0c3e 654b 6bbd f7ea 65be b4c3 153e
00000200: f025 b13d 439c 213d d86b 26be f161 65be
00000210: 2d2e dcbd a978 eebb 7391 83bd 3235 84be
00000220: c645 0abe 1924 883e 1441 95be 1d58 c6bd
00000230: a77b dd3d 06c5 363a f464 8e3e 6755 83be
00000240: a93d 223e a803 35be 71a9 9bbe 73f4 a53d
00000250: ef17 9bbd 044b 383d 4ec1 213e fe48 ad3c
00000260: ab43 c23d cd21 38bd 5a8a 5c3e 4ce3 093d
00000270: 87a1 3a3e 631b 8f3e dcfa 153d b9bc 993e
00000280: 9972 59be e545 80be edfb c23d 6d34 1ebe
00000290: b369 343e 3784 70bc dbb4 053d 0150 60bd
000002a0: 25b4 a5be 1f29 963e 182f afbe 86ba a13e
000002b0: ba8c 9fbc ac63 4c3d 9a06 153e 6479 35be
000002c0: 4cec 61be a750 293d 8c4c 013e d9f8 923c
000002d0: 1611 563c cb88 23be 7f42 4c3e 3335 92be
000002e0: bf0f 0a3e 6a41 423e dc23 a93e 1514 893e
000002f0: a298 3f3e 0ab3 8c3d fff3 1a3e 83d2 6dbe
00000300: bf2b 023d b197 33be 2059 0dbe b62b 4cbe
00000310: b8d9 0abd 4097 b2bd ccb4 453e 648a a63d
00000320: fa86 733e 3d11 303e e6d1 0a3e ff8e 2f3e
00000330: c4e8 ef3d 8a0e 913e 605b 56be 526b 243e
00000340: 0f3d 853d 6bb3 f5bd c8fb c8bc d054 973e
00000350: bbb4 a1bd 4f57 a4be 9d97 923e 6060 7b3d
00000360: 0c90 a5bd 0640 9bbd 78dc bb3d d914 0fbd
00000370: bb1b 093e de93 dcbd f921 f33d 7d6a 593e
00000380: edc5 bebd 4a8f a4be 77d0 9c3d 1396 323e
00000390: 9df1 1abe 6dc3 0f3e e5ec 163e 6e7b d3bd
000003a0: 5594 b73e 3b24 1cbd 51ca afbd d035 21bc
000003b0: 2a5b c33d 0bf2 c1bd 8773 133e 0405 0f3e
000003c0: 17eb c33d 4a3f 803d b2c1 3d3e 93cb bd3d
000003d0: e4fa 593e c55c 203e b53a 773e 2784 133d
000003e0: e471 92bd da3d 07bd f59f a5bd 02c9 11be
000003f0: 52d5 09bd bbba cfbd 19f9 453e 1308 68be

bias_ih_l1 f4 [60]
0.17742234 0.12937418 -0.23692004 0.11107901 0.21313466 -0.056728806 0.27581257 -0.1216701
0.22413357 0.18150176 0.07233993 0.3025719 0.025732279 0.05030045 0.31903604 0.08013563
0.22640139 -0.14898297 -0.1399677 -0.029665492 0.102199696 0.25575802 0.026308935 0.033236198
0.1122721 -0.13276678 0.095289074 -0.11979233 0.003858355 0.33159178 -0.15272944 0.10855639
-0.12932543 -0.034654837 0.2501843 -0.1127037 0.14192231 0.09920386 0.23045015 0.21115479
-0.1429311 -0.27244315 0.20350243 0.036131207 0.28898287 0.24021012 -0.002505121 -0.06959972
-0.1517677 0.16469713 0.21263759 -0.21306439 0.27667192 -0.23374112 0.24298263 0.17390747
0.0897954 0.16527042 -0.06132538 -0.06202853
00000000: 34ae 353e aa7a 043e 2b9b 72be 647d e33d
00000010: f93f 5a3e 775c 68bd 4e37 8d3e 2c2e f9bd
00000020: 4583 653e 99db 393e f526 943d b4ea 9a3e
00000030: 80cc d23c d807 4e3d b158 a33e 261e a43d
00000040: c4d5 673e fe8e 18be b153 0fbe 0c05 f3bc
00000050: 134e d13d b7f2 823e d685 d73c ae22 083d
00000060: eaee e53d 04f4 07be eb26 c33d ae55 f5bd
00000070: 75dc 7c3b 66c6 a93e 1b65 1cbe d052 de3d
00000080: e36d 04be 3bf2 0dbd 2818 803e 33d1 e6bd
00000090: 1554 113e 652b cb3d 20fb 6b3e f638 583e
000000a0: 885c 12be ab7d 8bbe f162 503e 51fe 133d
000000b0: 90f5 933e a4f9 753e f52c 24bb 4c8a 8ebd
000000c0: fe68 1bbe 5da6 283e abbd 593e 8d2d 5abe
000000d0: f1a7 8d3e d559 6fbe 70d0 783e cd14 323e
000000e0: a7e6 b73d a63c 293e 5230 7bbd a111 7ebd

bias_hh_l1 f4 [60]
0.20673586 0.24589185 0.08731521 0.15533158 0.1395654 0.11761498 0.07456729 0.085348286
0.18813348 0.055500343 0.032039315 0.04577899 0.2994832 -0.09377585 0.0798091 0.2049837
0.00452551 0.15623996 0.08791803 -0.1635091 0.06130116 -0.0140695395 0.18541625 0.013208356
0.15700296 0.0049437825 0.021151295 0.14390229 -0.035882715 -0.046849336 -0.19846664 0.06315873
-0.15629612 0.09970936 0.12555662 -0.11076101 0.11939056 0.038113248 -0.033817068 0.020241063
-0.30561087 -0.2947697 -0.22963971 0.012465371 0.19522773 0.26606774 0.09187075 0.13568038
0.0962828 0.26168913 -0.12867984 0.23563814 -0.039126053 0.08074529 0.22935587 0.034463696
0.14510751 -0.016005628 0.13453251 -0.06000796
00000000: 91b2 533e 13cb 7b3e 51d2 b23d 3e0f 1f3e
00000010: 3bea 0e3e 1fe0 f03d bcb6 983d 15cb ae3d
00000020: 10a6 403e 5454 633d a83b 033d c082 3b3d
00000030: dd55 993e 8e0d c0bd f472 a33d 3fe7 513e
00000040: bb4a 943b 5efd 1f3e 5e0e b43d ee6e 27be
00000050: ed16 7b3d ed83 66bc c2dd 3d3e dc67 583c
00000060: 62c5 203e 74ff a13b 7b45 ad3c 1f5b 133e
00000070: c1f9 12bd 17e5 3fbd d73a 4bbe 5d59 813d
00000080: 170c 20be 6c34 cc3d ea91 003e abd6 e2bd
00000090: 0a83 f43d a31c 1c3d c483 0abd 96d0 a53c
000000a0: 0779 9cbe 0eec 96be ac26 6bbe 8e3b 4c3c
000000b0: c7e9 473e 083a 883e bb26 bc3d ccef 0a3e
000000c0: eb2f c53d 1efc 853e a6c4 03be 204b 713e
000000d0: a442 20bd c95d a53d 44dc 6a3e ce29 0d3d
000000e0: 1097 143e 3c1e 83bc e4c2 093e e8ca 75bd

weight f4 [20, 15]
0.37946793 -0.1010775 -0.21520828 0.33956656 -0.32030138 0.2064036 -0.19294919 -0.2165882
-0.15292706 0.08662634 0.38790736 0.24696936 0.21228455 -0.036233548 -0.22691202 -0.122340955
0.27812588 0.037258536 -0.08522094 -0.0607158 -0.039080415 0.26399022 0.1003808 -0.16704196
0.115249224 -0.021210091 0.13852954 -0.10034518 -0.083394535 -0.057478428 -0.19947365 0.17736568
-0.18316129 0.03339114 0.24221028 0.24645358 0.018936194 -0.17374443 -0.17104079 0.15470795
0.084120475 0.16354088 -0.22145873 0.13837756 0.043667033 0.06033649 0.0780833 -0.18853468
0.035494953 0.039839324 0.11420323 -0.16644646 -0.100427225 0.042321846 0.1634105 -0.19294496
0.097471334 -0.0987066 -0.034188814 -0.02632097 -0.054317128 0.16860904 -0.22377683 -0.11133194
-0.019242536 0.033180047 0.26449588 -0.17345832 0.07646777 0.224918 -0.26062828 0.10388534
-0.104150414 -0.018536609 -0.13667022 0.08431923 -0.18897663 -0.011585266 0.087762326 0.14733197
0.00035945248 0.048640814 -0.1583258 -0.027391199 0.074459426 0.109512895 -0.012061106 0.018853953
-0.2253698 0.17016616 0.12976834 0.24336848 0.26790506 -0.0024524115 0.13757578 -0.12184903
-0.106228895 -7.5388954e-05 0.004473932 0.07827491 -0.09676352 -0.094586454 0.19351143 0.0648213
0.021392718 0.15719497 -0.04910093 0.09811132 -0.09712111 0.1503164 -0.24653211 -0.118171506
-0.20119527 0.20606385 0.05796864 -0.21355012 0.03803465 0.2475657 0.12321161 0.13586098
-0.007834667 0.11666617 0.018739317 -0.21288131 0.11064729 0.011024636 -0.24155514 0.15648596
0.2156967 0.029398069 0.16870408 -0.14110681 0.11742954 -0.18805751 -0.018672196 0.021054916
-0.0197027 -0.1433177 0.019960333 0.23330358 0.0073768226 -0.19990516 -0.11237443 -0.24875678
0.04922298 0.17088029 0.00034063318 -0.32514295 0.09217008 0.035684638 -0.104918115 -0.12538677
-0.20306094 0.18383591 0.02596892 0.20484625 -0.013090384 -0.120467804 0.158028 0.15932259
0.15764135 -0.120654434 -0.24741511 0.047779772 0.07801824 0.07563849 -0.11913994 -0.08150505
-0.14774758 0.079598784 0.08177192 -0.20196536 -0.097873725 0.25637013 -0.019159969 0.09059779
0.097393855 -0.207258 0.14967532 0.08694521 0.07139817 -0.10175047 -0.06998114 0.18877104
0.19276144 -0.12375956 -0.07155196 -0.114536524 -0.09069343 0.12731764 0.0630063 0.16088183
-0.08312957 -0.07135227 0.26759544 0.104319535 -0.04817506 -0.1749326 0.06985548 -0.11268192
-0.18772678 -0.1503662 0.1733821 -0.16433847 0.06930643 0.017713608 0.020349603 -0.17751536
-0.18998273 0.31195626 -0.04346314 0.21601722 0.07178711 0.069964215 0.24279615 -0.050888058
0.2053023 -0.04406364 -0.10797863 -0.1362862 0.11308517 -0.06226307 -0.028607748 0.13142951
-0.08018449 -0.0047004553 -0.28033757 0.13101567 0.048525356 0.18974656 0.026090918 0.036477223
-0.2719058 -0.0011288533 0.2000416 -0.084519945 -0.015649635 0.078690454 0.13169968 0.044857904
0.18967165 -0.005757809 0.036552645 -0.016207373 0.09316119 0.31335 -0.121823914 -0.13504986
0.12426514 0.21689725 -0.18182881 -0.14382878 -0.21066421 -0.010807868 0.17939211 0.011017196
00000000: 9f49 c23e b801 cfbd 8f5f 5cbe abdb ad3e
00000010: 8bfe a3be 775b 533e 7994 45be 4cc9 5dbe
00000020: e998 1cbe 2769 b13d cb9b c63e 89e5 7c3e
00000030: 1f61 593e a169 14bd a05b 68be e58d fabd
00000040: 8466 8e3e 689c 183d 5188 aebd 21b1 78bd
00000050: c912 20bd ba29 873e 7394 cd3d 0c0d 2bbe
00000060: c907 ec3d c9c0 adbc b0da 0d3e c681 cdbd
00000070: c1ca aabd 806e 6bbd d242 4cbe 599f 353e
00000080: a28e 3bbe 26c5 083d f905 783e 545e 7c3e
00000090: 1420 9b3c 0fea 31be 5125 2fbe c36b 1e3e
000000a0: 5b47 ac3d 4377 273e 14c6 62be d9b2 0d3e
000000b0: 34dc 323d 6523 773d 23ea 9f3d 3c0f 41be
000000c0: 2863 113d 8f2e 233d 62e3 e93d f170 2abe
000000d0: caac cdbd ac59 2d3d 1555 273e 5d93 45be
000000e0: 0d9f c73d b026 cabd 9209 0cbd 139f d7bc
000000f0: a37b 5ebd d9a7 2c3e c125 65be 0002 e4bd
00000100: 86a2 9dbc cde7 073d 016c 873e 0f9f 31be
00000110: 229b 9c3d e750 663e 1271 85be d6c1 d43d
00000120: d04c d5bd 16da 97bc 47f3 0bbe 8faf ac3d
00000130: 1783 41be 21d0 3dbc bcbc b33d 31de 163e
00000140: e574 bc39 973b 473d 2920 22be 8263 e0bc
00000150: 2f7e 983d 4c48 e03d f29b 45bc 9b73 9a3c
00000160: 57c7 66be 0a40 2e3e fee1 043e 9635 793e
00000170: da2a 893e a3b8 20bb aae0 0c3e fc8b f9bd
00000180: 898e d9bd 231a 9eb8 109a 923b 994e a03d
00000190: f42b c6bd 8bb6 c1bd dc27 463e 08c1 843d
000001a0: c83f af3c b8f7 203e 0f1e 49bd 96ee c83d
000001b0: 6fe7 c6bd 8bec 193e ea72 7cbe e703 f2bd
000001c0: 2206 4ebe 6702 533e 8670 6d3d e2ac 5abe
000001d0: 39ca 1b3d dd81 7d3e 5e56 fc3d 241f 0b3e
000001e0: fa5c 00bc acee ee3d 3283 993c 8ffd 59be
000001f0: 0c9b e23d ada0 343c 3b5a 77be db3d 203e
00000200: 99df 5c3e 38d4 f03c c3c0 2c3e 4e7e 10be
00000210: e67e f03d 2692 40be 6ff6 98bc 5c7b ac3c
00000220: 8f67 a1bc e0c1 12be da83 a33c 22e7 6e3e
00000230: 46b9 f13b f0b3 4cbe 9124 e6bd 19ba 7ebe
00000240: 099e 493d 3efb 2e3e 0397 b239 2379 a6be
00000250: abc3 bc3d 0e2a 123d 4fdf d6bd 6465 00be
00000260: 35ef 4fbe 7b3f 3c3e c6bc d43c 37c3 513e
00000270: 0d79 56bc d3b7 f6bd 18d2 213e 7625 233e
00000280: bc6c 213e ac19 f7bd 635a 7dbe b9b4 433d
00000290: 07c8 9f3d 5ae8 9a3d a4ff f3bd 1fec a6bd
000002a0: 244b 17be b004 a33d 0978 a73d 02d0 4ebe
000002b0: 0572 c8bd f242 833e 5ef5 9cbc 568b b93d
000002c0: 6e76 c73d 713b 54be 7d44 193e 5510 b23d
000002d0: 3439 923d 8d62 d0bd 4652 8fbd 324d 413e
000002e0: 4163 453e a775 fdbd d689 92bd 2092 eabd
000002f0: 7abd b9bd 8e5f 023e 7209 813d 35be 243e
00000300: d63f aabd 2421 92bd 4502 893e 7ba5 d53d
00000310: 3653 45bd 8821 33be 6410 8f3d c7c5 e6bd
00000320: 733b 40be 99f9 19be 148b 313e 5848 28be
00000330: 88f0 8d3d 211c 913c 36b4 a63c 96c6 35be
00000340: d58a 42be bbb8 9f3e 6806 32bd 9e33 5d3e
00000350: 1f05 933d 6649 8f3d 8e9f 783e ff6f 50bd
00000360: c43a 523e 137c 34bd e623 ddbd 9c8e 0bbe
00000370: 3399 e73d 9007 7fbd cc5a eabc 7595 063e
00000380: c437 a4bd 4706 9abb 6888 8fbe f928 063e
00000390: 86c2 463d ec4c 423e 9fbc d53c 2469 153d
000003a0: 3d37 8bbe 08f6 93ba b5d7 4c3e cb18 adbd
000003b0: aa33 80bc 7628 a13d 48dc 063e ecbc 373d
000003c0: 4939 423e 01ac bcbb 3ab8 153d 53c5 84bc
000003d0: 4bcb be3d 696f a03e d17e f9bd 834a 0abe
000003e0: b97e fe3d 501a 5e3e 5531 3abe da47 13be
000003f0: 5cb8 57be 7c13 31bc 91b2 373e 7881 343c

bias f4 [20]
-0.052985903 -0.20206259 -0.002663401 0.21298528 -0.1922684 0.101203814 -0.07698811 0.08354029
0.06502587 0.17036518 0.131658 0.15588841 -0.030555466 -0.0486838 -0.1500727 0.09004612
-0.08884011 0.027013833 -0.12526949 -0.19644396
00000000: bf07 59bd 7fe9 4ebe 748c 2ebb d018 5a3e
00000010: 02e2 44be f243 cf3d f1ab 9dbd 2c17 ab3d
00000020: 492c 853d 3674 2e3e 5bd1 063e 36a1 1f3e
00000030: 754f fabc aa68 47bd a8ac 19be 1a6a b83d
00000040: cef1 b5bd 1d4c dd3c a546 00be 9b28 49be
