models/TwentyClassifier.pt (torch, 20668 bytes, 11 tensors)

weight f4 [4, 8]
000000 4f df 8f 3d 0f 81 b4 3f 54 d7 9f 3f ef 0e 37 be
       0.070250146 1.4101886 1.2487588 -0.1787679
000010 a9 8c 70 3f 98 d5 e6 bf ec f0 bd be 05 ad ef 3d
       0.9396463 -1.8033934 -0.3709787 0.11702923
000020 cd dd 70 bf 23 88 1f bf 24 66 ac 3e 41 21 81 3e
       -0.9408844 -0.62317103 0.33671677 0.25220683
000030 52 e5 5b bf 64 95 8f 3f 84 6f 6e bf db c4 c4 3e
       -0.8589679 1.1217465 -0.9313891 0.3843144
000040 26 1c 14 3f 52 64 80 3f 96 c5 37 40 8c be 24 c0
       0.5785545 1.0030615 2.8714347 -2.57413
000050 80 da 85 3f 75 d0 ee be b7 0c e4 be 9c 13 94 3e
       1.0457306 -0.46643415 -0.4454095 0.2892121
000060 37 1e e7 3e 10 42 5d 3e e2 17 b8 be ed 05 6c bf
       0.4514024 0.21607232 -0.3595572 -0.9219654
000070 ae 27 05 40 e6 5e c2 bc 5a 42 7b 3f ad 65 80 3f
       2.0805469 -0.023726892 0.9814812 1.0031029

weight_ih_l0 f4 [60, 8]
000000 56 1e 3d 3e c2 7d 2d be d7 48 48 3e 77 c7 3a 3e
       0.18468603 -0.16942504 0.19559036 0.18240152
000010 68 c9 69 be 07 85 19 be b7 00 8a 3d c5 e5 2c be
       -0.22830737 -0.14992152 0.067384176 -0.16884525
000020 b5 c9 02 be 8c 6a 06 be 38 70 f7 3d 28 26 59 bc
       -0.12772258 -0.13126582 0.12081951 -0.013253726
000030 d0 9b d0 bd 55 cd 20 be 21 97 43 3e c6 d9 70 3e
       -0.10185969 -0.15703328 0.1910062 0.23520574
000040 1f 28 88 be 9e 14 18 bd 2b a9 5d 3d 7d 44 f0 3c
       -0.2659311 -0.037129037 0.05411641 0.029329533
000050 2a cc 19 be d5 8d da 3d 41 dd 5d be 9c aa d2 3c
       -0.15019289 0.106715836 -0.21666433 0.025716119
000060 0c 19 1d 3e c7 a0 98 3b e6 51 d1 3c ad 57 bd 3d
       0.15341586 0.004657838 0.025551748 0.092452385
000070 03 42 44 3d 4a d9 00 be 2f 5c 2a 3e 6b 69 e7 bd
       0.047914516 -0.12582889 0.16636728 -0.11299404
000080 96 2e 45 be fc 6d 69 be 82 b2 51 be 4c f8 8c 3c
       -0.19256052 -0.22795862 -0.20478252 0.01720824
000090 9f b3 3e 3e 1f 4f bb bc 1b 64 1c be c0 20 0a 3e
       0.18623208 -0.022864876 -0.15272562 0.13489056
0000a0 ac 7f c4 bd 87 90 32 3d e7 66 4c be 0f 31 fb bc
       -0.09594664 0.043594863 -0.19961129 -0.030663041
0000b0 d7 f8 59 be b9 2e 73 3d 60 33 80 be e8 03 06 3d
       -0.21286331 0.05937073 -0.25039196 0.03271857
0000c0 a6 3e 3d 3e 19 b9 1f be f5 52 db 3c d5 8e 0a be
       0.1848093 -0.15597953 0.026772955 -0.13531049
0000d0 01 98 02 3d e5 b1 4d 3c fd 92 9d bd 46 6e 5f 3e
       0.031883243 0.01255462 -0.076940514 0.2181941
0000e0 15 15 1b bd 83 4f 15 3e eb 9e 94 be ff 24 4a 3e
       -0.037861902 0.14581113 -0.29027495 0.19740675
0000f0 a6 b9 8d bd 3e 03 21 3e 9d ca 60 be c9 40 30 3e
       -0.06920175 0.15723893 -0.21952291 0.17212214
000100 10 25 4f 3e bd 17 86 be 1d 96 2e be 7d da 59 be
       0.20228982 -0.26189986 -0.17049451 -0.21274753
000110 55 ef 65 3e 14 4e 8e bd 6e 33 52 3e 9b ac c0 bb
       0.22454579 -0.06948486 0.20527431 -0.005879951
000120 76 a3 e7 3d a0 e8 8f 3e c0 8c d0 3d ee 6a 4b be
       0.113104746 0.28107166 0.10183096 -0.19865009
000130 3c 39 f2 3d dc 4b 0a bd 2f fe 20 be 03 83 a1 3d
       0.11827323 -0.03376375 -0.15721963 0.078863166
000140 fc 0e 1e 3b d3 ce 4b be f7 ca 12 3e d4 11 86 be
       0.0024117818 -0.19903116 0.14335237 -0.26185477
000150 38 79 2e 3e f1 3a 30 be 1a 69 5c 3e c1 c1 9f 3e
       0.17038429 -0.17209984 0.21524468 0.3120251
000160 02 ae a9 3e ad 18 4e bd 01 fe 6e bd 8d 5f 00 3e
       0.3314057 -0.0503165 -0.058347706 0.1253645
000170 31 66 04 bd c0 ef 42 3e 0a 79 0b be 19 80 36 3e
       -0.03232402 0.1903677 -0.13620391 0.17822303
000180 ce bb 24 3d d5 ee 0e 3e 5c 31 1e 3e c9 e0 1f bd
       0.040218167 0.13958295 0.15448517 -0.03903273
000190 09 87 05 be ef e6 4e 3d 76 d7 86 3e 52 73 08 3e
       -0.13039793 0.050513204 0.2633626 0.13325241
0001a0 26 ed 12 be 20 1a 36 3e 14 bd d3 3d 2d c7 6d be
       -0.14348277 0.17783403 0.10338798 -0.23220511
0001b0 59 4b 69 be 4b 45 db bd c3 9c a5 bd f7 b0 14 be
       -0.22782649 -0.10706576 -0.080865405 -0.14520632
0001c0 3a 66 15 be cd d5 2d be d1 a2 8d 3e a2 66 18 be
       -0.14589778 -0.1697609 0.27663282 -0.14882901
0001d0 aa 1f fa 3d 95 b2 c3 bd 2e 07 6e bd 9c 07 86 3d
       0.12213071 -0.09555546 -0.058112316 0.0654442
0001e0 7e 08 50 be ac 17 05 3e e6 e9 f3 3d 2e 8b 7f 3e
       -0.2031574 0.12997311 0.11909847 0.24955437
0001f0 2e 5a 48 bc 26 f6 73 be db 0c 5b 3e 9a 23 f0 3c
       -0.012228532 -0.23824367 0.21391623 0.029313851
000200 2d b9 78 3e 9f 41 8a bd 5d a2 08 be 84 07 23 be
       0.24289389 -0.067507975 -0.13343187 -0.15920836
000210 4f d2 cc 3d c1 d9 78 be 65 53 a6 bc 4e cd c7 bd
       0.10001051 -0.24301817 -0.020303437 -0.09755956
000220 21 36 4a be f2 6b 58 be fe 10 6d be ec be 02 3d
       -0.19747211 -0.21134928 -0.23151013 0.03192036
000230 b0 58 03 bd d4 5d 64 3e 6b 07 9d 3e 7d de 16 bd
       -0.032067 0.22301418 0.30669722 -0.036833275
000240 f7 56 e2 3d 4a 45 91 3e a4 20 61 bd b2 7e 15 3e
       0.110517435 0.28373176 -0.05496277 0.14599112
000250 c9 1b d2 bd 3c f8 3d be e8 4d 22 bb 59 5f 4c bc
       -0.10259206 -0.18551725 -0.0024765674 -0.0124739045
000260 96 8b bf 3c a6 5a 4b be 02 a4 81 3e f9 69 86 be
       0.02338199 -0.19858798 0.2532044 -0.26252726
000270 1b b0 e5 3b a2 fe 19 be 23 86 43 be 06 c5 79 3e
       0.007009519 -0.15038541 -0.19094138 0.24391565
000280 27 e8 aa 3e 74 7a da 3d a5 06 8b 3e dd 23 3e 3e
       0.33380243 0.10667887 0.27153507 0.18568368
000290 82 3b 63 3e 20 66 73 b9 ee 69 12 bd a1 99 63 be
       0.22190669 -0.0002321233 -0.035745554 -0.22226574
0002a0 b5 00 42 3e 3c ba 87 bd f1 2f 03 be 2e c4 29 3e
       0.18945582 -0.06627318 -0.12811257 0.16578743
0002b0 8f 53 34 be d9 2d 89 be b7 48 60 3b 32 55 86 3d
       -0.1761 -0.2679279 0.003422303 0.065592185
0002c0 e5 3d 56 3e b5 1b ad 3d 2f ce 2c be 81 2f 88 3c
       0.20922048 0.0845255 -0.16875528 0.016624214
0002d0 ad 45 e4 bd 56 c8 0e 3e 83 29 2d 3d e8 79 2a be
       -0.11146102 0.1394361 0.042275917 -0.16648066
0002e0 71 1c a2 bd d1 c7 77 be 38 ea fa 3d ac 50 a2 3d
       -0.07915581 -0.24197318 0.12251705 0.07925543
0002f0 a2 81 58 3e 3e 70 08 bd 9c 9e 3c bd 81 1f 4b be
       0.21143201 -0.033310167 -0.0460497 -0.19836237
000300 77 0a a5 bd b7 f2 b7 3d 13 a5 7c 3e c0 df 30 3d
       -0.08058637 0.08981841 0.24672346 0.043182135
000310 51 da 76 3e c1 4d 0b be 4e 19 40 bd c0 6a 7c 3e
       0.24106719 -0.1360388 -0.046899132 0.24650097
000320 7f 4e 86 3e 92 48 91 3d 66 8d 83 3d c8 a4 95 bd
       0.26231763 0.0709392 0.06423454 -0.0730682
000330 58 fe b6 39 2b 0d 49 be 50 c1 10 3d 9d 8b 4b be
       0.00034903246 -0.1963393 0.035340607 -0.19877477
000340 f9 bd 25 be b8 a5 5a be 76 45 aa bb 27 07 2c bd
       -0.1618575 -0.21352279 -0.0051962687 -0.04199901
000350 da 33 46 be 5b ce 3e be 0f 6c b3 bd 6d 99 88 bc
       -0.19355717 -0.18633406 -0.08760845 -0.016674722
000360 33 98 0e bc ee a7 41 3e 8e 8d 2b bd 9e ab cd bd
       -0.008703279 0.18911716 -0.041883044 -0.10042499
000370 45 fa c3 bd b6 71 6f be 7a 39 2f 3e 7e 59 3c 3e
       -0.095692195 -0.23383221 0.1711177 0.18393514
000380 74 2e a1 3d 1d 70 92 3e 41 b5 37 3e c7 4a c8 3c
       0.07870188 0.2860116 0.17940237 0.02444972
000390 0a 36 6a 3e 10 f5 5a be 70 42 3d 3e 1c 59 11 be
       0.22872177 -0.21382546 0.18482375 -0.14194149
0003a0 db 2c 4c 3e b3 20 44 3d 8b 32 c9 bd 4c 85 87 bd
       0.19938986 0.047882747 -0.098240934 -0.06617221
0003b0 af 15 90 3d a8 6f 2c be c9 45 42 3e 71 01 09 be
       0.07035386 -0.16839468 0.18971933 -0.13379456
0003c0 9c e7 19 3d 07 36 08 be 0e fc 80 3e 31 b4 57 bd
       0.037574396 -0.1330186 0.25192302 -0.05266208
0003d0 32 13 a4 3d 54 ac 25 3e f7 86 82 bd 6e d1 4b 3d
       0.08011474 0.16179019 -0.06373399 0.049760275
0003e0 65 15 a3 3e e1 c3 d1 3d 70 22 98 3d 52 fb 10 be
       0.3185226 0.10242439 0.074284434 -0.14158371
0003f0 f8 bf 8f 3c 41 a6 10 be a5 7a fc 3d 1f d8 8a bd
       0.017547593 -0.14125921 0.1232808 -0.06779503

weight_hh_l0 f4 [60, 15]
000000 fb 44 50 3e f7 61 89 3e bf bf 5b 3d 1b 6e 68 bd
       0.20338814 0.26832554 0.05364966 -0.05674563
000010 f4 67 2f be c1 5a 44 3e 13 9c 36 3d 96 0b 1c 3c
       -0.17129499 0.19175245 0.044582438 0.009524247
000020 9a 39 1d 3e 86 82 bb 3d ab 50 86 3d 0c d8 34 be
       0.15354005 0.09155755 0.06558355 -0.1766054
000030 6f 19 f7 bb 89 69 6b be fe da 11 3e 9e af 94 bc
       -0.0075408737 -0.22989477 0.14243695 -0.018150147
000040 f0 4d 12 be 69 76 e6 bc 33 d7 86 be 16 07 11 3e
       -0.14287543 -0.028132634 -0.2633606 0.1416286
000050 79 40 f1 3d 41 ad 2b 3e 2d 97 14 3e 67 f3 38 be
       0.11779875 0.1676531 0.14510794 -0.180616
000060 7a 7d 40 3e 30 39 c3 3d 9f ba 38 be 00 f7 11 3e
       0.18797866 0.09532392 -0.1803994 0.1425438
000070 45 8e d4 3d 41 52 d6 3c 09 6d bf bd 47 16 22 3e
       0.10378698 0.026162269 -0.09346969 0.1582881
000080 f6 27 b8 3d f7 38 5a be 1f 56 52 3d a3 d4 f2 bd
       0.08991997 -0.21310793 0.051351663 -0.118569635
000090 d4 48 0d bd 9f a5 98 3d 68 14 bb bd 88 61 dd bd
       -0.034493282 0.07453465 -0.091347516 -0.10809618
0000a0 7e 97 c6 3c f3 c3 1d be da 35 a1 3d 6d 5e ee bd
       0.024242159 -0.1540678 0.078715995 -0.11639104
0000b0 77 7c 9f 3d 17 7f 82 bd 69 18 37 3e 0b 91 c8 bd
       0.07787412 -0.06371897 0.17880405 -0.0979329
0000c0 71 26 00 bd 11 13 51 3e 86 5b 35 be a4 ee 7d 3e
       -0.03128666 0.2041743 -0.17710695 0.24798065
0000d0 6e 18 cd bb d4 8f 26 3e b1 f2 59 3e 24 f0 71 be
       -0.0062590158 0.16265804 0.21283986 -0.23626763
0000e0 4d b9 db 3c 28 2f f0 bd c7 22 38 be 9e 6a c7 bd
       0.026821757 -0.11727744 -0.17982017 -0.097371325
0000f0 19 3a d9 bd 1d 5a 20 3d a0 34 09 bd b4 2f 3d be
       -0.106067844 0.03914844 -0.033497453 -0.18475229
000100 16 c0 b4 3d 54 f0 86 3d e4 8e 8d 3e 70 1d b8 3d
       0.088257 0.06588808 0.2764808 0.0898999
000110 0c 7d 7d be aa b5 ef 3d 8a 4a 1c be 92 16 0e be
       -0.24754733 0.117045715 -0.1526281 -0.13875797
000120 66 e1 86 bd 43 16 31 be 39 9f 3f be 48 7b 19 bc
       -0.0658596 -0.17293648 -0.18713082 -0.009367771
000130 66 4e b0 3c 1a 5b 23 3e 36 13 88 bd b0 55 a6 3e
       0.021521758 0.15952721 -0.06644289 0.3248725
000140 f1 a0 7b be 5a 16 07 3e bf c2 d7 bd fa b0 76 be
       -0.24573113 0.1319212 -0.10535192 -0.24090949
000150 8e 61 11 3d 52 db 3f be df 8d 99 be 0f 89 64 be
       0.035493426 -0.18736008 -0.29991052 -0.22317909
000160 bf 46 74 be 1c 0b c6 bd 8e 60 43 3e 65 cc 00 ba
       -0.23855112 -0.09670088 0.19079801 -0.00049132697
000170 77 8f 91 be d0 2b 30 be 29 21 d3 3d 52 da 6d 3d
       -0.28429767 -0.17204213 0.10309059 0.058069535
000180 04 b4 30 be 60 b4 df bd bf aa 2d be 20 06 29 be
       -0.1725617 -0.10923076 -0.16959666 -0.16506243
000190 05 58 1e be 51 65 23 bd 76 4a 2c be 58 30 08 3e
       -0.15463264 -0.039891545 -0.1682528 0.13299692
0001a0 7e e5 95 be 35 3e 43 3e cb e9 55 3d 95 30 e8 3c
       -0.2927665 0.19066699 0.052224915 0.028343478
0001b0 d7 29 ab 3d 50 d7 9d 3d 10 2d c0 bd a1 e4 d2 3d
       0.0835759 0.07707083 -0.09383595 0.10297514
0001c0 6f be 2d be 33 80 e8 3d 79 3a 6f be b3 50 7b 3d
       -0.16967176 0.11352577 -0.2336215 0.061356258
0001d0 79 a9 8c be f9 ca 3d 3d 9a 78 b1 3d 9f ce e0 3c
       -0.27473047 0.046336148 0.08665581 0.027442275
0001e0 bb 5f 3d 3e 61 48 6f be 36 c0 dd 3d d6 29 3b be
       0.1849355 -0.23367454 0.10827677 -0.18277678
0001f0 00 ba fd bc 1f 5e 94 3e 1f 4d 2a 3e c2 e4 05 3e
       -0.03097248 0.2897806 0.16630982 0.13075545
000200 ef 85 2b be a2 73 55 be 37 91 93 bb d9 96 0b 3b
       -0.1675031 -0.20844892 -0.004503395 0.002129963
000210 49 7d 29 be 71 da 16 3e 0a f0 68 be 25 74 eb 3d
       -0.16551699 0.14731766 -0.22747818 0.11496762
000220 f1 9f f0 3d 64 de 44 be a8 3a 02 bc 6a f7 28 3e
       0.117492564 -0.1922546 -0.007948555 0.16500631
000230 3a c2 22 3e 9b af 6e be fb 27 02 be d7 19 06 3e
       0.15894404 -0.23309176 -0.12710564 0.13095795
000240 9b 4f 6c be af 3c 88 bd fc 4e 07 bd 22 e9 23 3e
       -0.23077242 -0.066521995 -0.03303431 0.16006902
000250 96 9a 56 3e 56 ed e2 bd ab dd e1 bd 2f 16 31 bd
       0.20957407 -0.110804245 -0.11028608 -0.043234047
000260 b8 c5 be bd f8 fd 2f be b0 f2 73 3e 4e cb 35 be
       -0.093150556 -0.17186725 0.23823047 -0.17753336
000270 3a f2 a3 bc 04 5e b1 3d a1 bd 66 be 32 fe ed 3d
       -0.020012964 0.0866051 -0.22533275 0.116207495
000280 44 4d 58 be 5c ad 53 be ad ef a2 bd 7d 72 31 be
       -0.21123224 -0.206716 -0.07955871 -0.1732883
000290 c7 56 77 be 17 16 6e 3e 5b 2a 32 3d 73 ae d9 bc
       -0.24154197 0.23250614 0.043497425 -0.026572442
0002a0 31 fa 01 3d 46 52 bd 3c 45 f9 52 3e d0 2b 69 3e
       0.03173274 0.02311052 0.20602901 0.2277062
0002b0 30 86 a7 3d 7c 3b b0 3d 83 bd 4e 3e 62 f4 1b 3e
       0.08179891 0.08605096 0.2018948 0.15229943
0002c0 ba 74 21 3e 90 f4 7e be df 30 a8 bc dd ca 71 be
       0.15767184 -0.2489798 -0.020531116 -0.23612542
0002d0 76 15 d7 bc 1b a3 0a 3d 76 b6 64 3d 77 1f bc 3d
       -0.02625535 0.033846956 0.05583807 0.09185689
0002e0 c0 ce 24 be 4d b1 cc 3d ab 24 09 be d3 99 90 be
       -0.16094494 0.09994755 -0.13392894 -0.2824236
0002f0 1f 3f 48 be 6b c2 7a 3e c3 9b 01 3d 6b d7 24 3e
       -0.19555329 0.24488227 0.031642687 0.160978
000300 fb 2f 8c 3d 8e 15 1a 3e ec 47 46 bd ac 27 84 3e
       0.06845089 0.15047285 -0.048408434 0.25811517
000310 98 af 6d 3d 09 36 da 3d e6 cc e7 bd 58 12 c7 3d
       0.058028787 0.10654838 -0.11318378 0.09720296
000320 10 47 22 3e 8c 46 49 3d 78 16 ec bc 81 f9 8f 3e
       0.1584742 0.049139544 -0.028819308 0.28120044
000330 8f c4 aa bd 0d bf 61 bc aa 3a 58 3e b4 b2 66 3d
       -0.08338272 -0.01377846 0.21116129 0.05632277
000340 2d 9c 31 bd 11 8c 1d 3d f0 90 6f be 7b d9 08 be
       -0.04336183 0.038463656 -0.23395133 -0.13364212
000350 7d a4 76 bd aa ad 28 3e b7 b9 69 3e 85 f7 38 3e
       -0.060215462 0.16472498 0.22824751 0.18063171
000360 2b 80 05 3c a7 d3 6c bd ab 08 3f be 0f cf 6b bd
       0.008148233 -0.057819035 -0.1865565 -0.057570513
000370 b9 af 1e be ca 0a c2 bd da fa 0a bd ab 02 55 be
       -0.1549672 -0.09474714 -0.033930637 -0.20801799
000380 95 54 7f be a2 e8 9b bc e5 d0 5e be 89 4f 5c 3e
       -0.24934609 -0.019031826 -0.21759374 0.21514715
000390 18 93 33 bb 4e de 65 be f5 ec 84 3d b7 6e 76 be
       -0.0027400907 -0.22448084 0.064905085 -0.24065672
0003a0 2e 9a 03 3e 72 00 23 3e 5a a6 fc bc 29 c2 dd bc
       0.12851784 0.15918139 -0.030841041 -0.027070122
0003b0 1a 99 0c 3e 26 3d 5b 3e 41 ac 89 3e 5e 61 51 3e
       0.13730279 0.21410045 0.26889232 0.20447299
0003c0 56 c9 13 3e 5a 78 77 3e a4 e1 d7 bc 5b 3b 70 3d
       0.14432272 0.24167004 -0.026352711 0.058650356
0003d0 0f ca 16 3e 95 bb d9 bc 2c b4 ee 3d 76 9d 33 be
       0.14725517 -0.026578704 0.11655459 -0.17540535
0003e0 c5 15 42 be 23 09 92 3e 32 09 a0 be 94 0b 87 be
       -0.18953617 0.28522596 -0.31257015 -0.2637602
0003f0 10 f4 3e bc db fe 24 3e 28 06 e5 bd a7 96 8d 3d
       -0.011654869 0.16112845 -0.11182815 0.069135

bias_ih_l0 f4 [60]
000000 08 ab 2c 3e 87 4d a1 3d 74 83 10 3e b2 23 15 be
       0.16862118 0.07876115 0.14112645 -0.14564398
000010 ce b5 69 3d da 69 eb 3c 5b d2 1f 3e b4 4f 56 3e
       0.057058148 0.028736997 0.15607588 0.20928842
000020 06 5e cb bd 32 58 12 be 3b a1 d5 bd 45 dd a6 3e
       -0.09930043 -0.14291456 -0.10431143 0.3259069
000030 5b 31 b3 bd 4a d3 e8 3d cf 09 8a 3e 20 1b 7d bd
       -0.08749648 0.11368425 0.26960608 -0.061793447
000040 9c 62 01 3e 1d ed 8a 3b 87 08 f0 3d 77 f8 10 3d
       0.12635273 0.004239692 0.117203765 0.035393205
000050 0d c3 37 be 95 20 76 3e 9c 0c 58 bd e0 d2 1e 3e
       -0.179455 0.24035867 -0.0527464 0.1551013
000060 04 3f 8c bd ae a0 1d bc 7d af 9c bd 21 6e 4a bd
       -0.06847957 -0.009620829 -0.07650659 -0.049421433
000070 ab 77 3c be df 72 a2 bd 65 dd 2a 3b 28 e0 c7 3d
       -0.18405025 -0.07932066 0.0026071903 0.09759551
000080 56 1f 10 be d0 03 37 be 4f 3c 3c 3c c0 82 10 3d
       -0.14074454 -0.17872548 0.011488988 0.035280943
000090 5c cf 5d be 24 f1 8c 3c 3e 0a 0d be 41 45 88 3e
       -0.21661133 0.017204829 -0.13773438 0.26615337
0000a0 16 87 a7 bc 5d f9 89 be 43 89 6c be 4a b4 6f be
       -0.020450156 -0.26948062 -0.23099236 -0.23408619
0000b0 87 d5 92 be d3 21 03 3e 84 cd 17 3e cd 26 35 be
       -0.28678533 0.12805872 0.14824492 -0.17690583
0000c0 00 e3 34 3e 6b 33 3d 3e 18 2c 46 be df bf 09 be
       0.17664719 0.18476646 -0.19352758 -0.134521
0000d0 7f b4 68 3e cc 40 41 39 fb c7 f9 3d 9c b7 8c 3e
       0.22725104 0.00018430053 0.12196346 0.27483833
0000e0 93 e1 61 3e 6f a8 63 3c b5 a7 af 3d e3 97 a5 3d
       0.22058706 0.013895138 0.085769095 0.08085611

bias_hh_l0 f4 [60]
000000 64 e9 25 be 39 4f 1e 3d f2 ff 7f 3e 10 58 3a 3e
       -0.16202313 0.03864977 0.24999979 0.18197656
000010 cd 5a 59 be de bf 3f be 1f 19 1c 3e a9 e4 10 be
       -0.21226044 -0.18725535 0.15243958 -0.14149727
000020 67 64 93 bd 7f cf 26 be 60 df 27 3e d3 5e 19 be
       -0.071968846 -0.16290091 0.16393805 -0.14977579
000030 96 4b b8 3d 31 7f 6c be 75 9d 0c 3e 07 5c e0 bc
       0.08998792 -0.23095395 0.1373194 -0.027387632
000040 50 08 d0 3d 0c 0e 13 be 35 5e 41 3e 8c 40 ec 3d
       0.101578355 -0.14360827 0.18883593 0.11535749
000050 d1 73 ee bd 11 2b 70 3e 1e da 60 bd f8 87 d4 3d
       -0.11643184 0.23453929 -0.054895513 0.103774965
000060 89 13 39 be aa a2 58 3d 97 71 3e be 41 b2 40 be
       -0.18073858 0.052889504 -0.18598019 -0.18817998
000070 49 8c 39 3e ad dc 72 3e ff ef 52 be 15 bb 4a be
       0.18119921 0.23716994 -0.20599364 -0.19797929
000080 d3 09 3c be 52 0f b3 3d bf 81 79 be 37 3c 31 be
       -0.18363123 0.087431565 -0.243659 -0.17308126
000090 36 d0 83 3e fe 32 f1 3d c8 4c b0 bd 44 58 6e 3e
       0.2574479 0.11777304 -0.08608395 0.23275858
0000a0 ae 84 6e bd 2f 46 44 3e a8 7d 5c 3e fc 7d d2 3d
       -0.058232002 0.19167398 0.21532309 0.10277936
0000b0 dd dc 27 bd 8e 26 c4 bd 7c 82 b2 bc c1 10 77 3e
       -0.040982116 -0.09577666 -0.021790735 0.24127485
0000c0 cf ce 4d bd 93 25 40 be 91 16 63 3e e0 6e 8e 3e
       -0.050246056 -0.18764333 0.22176577 0.27818966
0000d0 9c 63 6d bd ce 90 1d 3d 11 09 05 be 32 2e 3d 3d
       -0.057956323 0.038468175 -0.1299174 0.046186633
0000e0 c2 c2 8a bd f4 6e 04 3e 57 11 f5 bc 25 8d d7 bc
       -0.06775428 0.1293295 -0.029915495 -0.02631242

weight_ih_l1 f4 [60, 15]
000000 ad de fb bd ad b0 43 be 56 ec 74 bd bb 26 18 be
       -0.122983314 -0.19110365 -0.0597957 -0.14858525
000010 b9 57 7d 3e 71 be 55 be e1 f7 a7 bd 08 23 7d 3e
       0.24740495 -0.20873429 -0.08201576 0.24720395
000020 3d be 0d be 11 5e 73 3d 32 68 21 bb 33 ce 07 3e
       -0.13842101 0.05941588 -0.0024628756 0.13262253
000030 f1 75 09 3e 5c cc 5a 3e a2 16 0f be 0b f7 b1 3c
       0.13423897 0.2136702 -0.13973477 0.021724245
000040 19 14 80 bc c6 63 a8 3d 3f 40 8f 3e f4 c3 59 3d
       -0.015634583 0.08222155 0.27978703 0.05316539
000050 8f cc 58 be 02 11 78 3c ef 85 d0 bd a2 80 59 be
       -0.21171783 0.015140774 -0.10181796 -0.21240476
000060 17 12 52 be 3b 8d 92 bd a2 55 32 3e 8d cd 92 bd
       -0.20514713 -0.07155844 0.17415479 -0.07168112
000070 3d 19 01 bc ae 9f 15 be 7d f7 a2 bd 6c 66 29 3e
       -0.007879552 -0.14611694 -0.07957361 0.16542977
000080 90 d4 23 be f1 7b b2 3d 05 62 b4 3d a6 a9 36 3e
       -0.15999055 0.08715046 0.08807758 0.17838153
000090 2a 0f f8 bd 97 bc 0e 3e 22 60 f8 bd 12 c7 50 bb
       -0.12112267 0.13939129 -0.12127711 -0.0031856936
0000a0 3f d3 b1 3d c3 bb 84 bd 2f 85 10 bd 37 8d 87 3d
       0.0868287 -0.06481125 -0.035283264 0.066187315
0000b0 1e bb 42 be 96 f2 04 3e 71 55 a6 3d 9e 97 7d 3b
       -0.19016692 0.12983164 0.081217654 0.0038695107
0000c0 1a 30 81 be b9 82 3b 3e a2 4e 09 ba c3 bc f9 3d
       -0.2523201 0.18311585 -0.00052378525 0.121942066
0000d0 f3 77 49 3e b4 7b d0 bd 0f c4 c0 3d 98 4b ab 3d
       0.19674663 -0.101798445 0.09412395 0.08364028
0000e0 dd 47 e5 bd 73 88 03 bd 06 74 26 be ba 15 02 be
       -0.111953475 -0.03211255 -0.16255197 -0.127036
0000f0 0e c3 a7 bd f5 63 34 3e 9b 93 98 bd 23 f6 1c 3e
       -0.081915006 0.17616256 -0.074500285 0.15328269
000100 e0 a9 89 bd 26 fa 28 bd a2 7c 7a 3e 3d d2 bc bd
       -0.06721854 -0.041254185 0.24461606 -0.09219787
000110 fd 14 10 be 18 31 f9 bd cb d3 8d bc af 6b 61 be
       -0.14070506 -0.12167567 -0.017312905 -0.22013734
000120 a4 10 46 3e 5b 77 a7 be d3 82 07 be 3a 6d 22 3e
       0.19342285 -0.32708248 -0.13233499 0.15861979
000130 d1 30 ed 3d 18 8c 1a be 3b 06 db 3d b6 78 43 3e
       0.115815766 -0.15092504 0.10694548 0.19089016
000140 9b da 50 3e b5 5d 98 3d 26 ec 41 bd ad d8 1c be
       0.20395891 0.07439748 -0.04734435 -0.1531703
000150 1c 14 ce 3d 21 81 17 3e 28 c8 91 be 36 11 9c bb
       0.10062429 0.14795353 -0.2847302 -0.004762794
000160 d8 34 97 be ba a9 83 3c 06 de ca bd fb b6 6e 3e
       -0.29532504 0.016072143 -0.09905629 0.23311989
000170 ee 4b 30 3d 9d 1d da bd 46 7a 58 3e d8 07 1f bd
       0.043041162 -0.106501795 0.21140394 -0.03882584
000180 08 b7 2f bd e2 86 58 3d 91 04 ed 3d ff cd 86 3e
       -0.04289916 0.05286301 0.115731366 0.26329038
000190 b0 61 91 3d 12 bc ce 3d 86 71 35 3e 8a be 4b be
       0.070987105 0.10094465 0.17719087 -0.19896904
0001a0 fe 62 5d bd 74 46 6b be 93 5f 6f 3e 93 6c a5 3c
       -0.054049484 -0.22976094 0.23376302 0.020193374
0001b0 89 2c b7 bd 36 9d 16 3e 0b 63 fc 3d e2 76 c0 3d
       -0.08944041 0.14708409 0.123235784 0.09397675
0001c0 8d b1 2a be bc 68 9f bd c8 5e 82 3e 64 0e 55 3e
       -0.16669293 -0.07783648 0.25462937 0.20806271
0001d0 e1 db 79 be be 10 29 3e e7 2e da 3c 7a a4 8d be
       -0.24400283 0.16510293 0.026633693 -0.27664548
0001e0 e5 45 87 3e f7 d3 de 3d ff 9b 7b ba 43 cf 4b be
       0.26420513 0.10880273 -0.00095981354 -0.19903283
0001f0 18 d9 4c be 7d 0b 94 be 81 c9 6d 3e d9 4a 0c be
       -0.2000469 -0.28915015 0.23221399 -0.13700427
000200 79 98 8d bd 83 18 68 be 7a b9 a3 bc 8c 3d 31 be
       -0.069138475 -0.226656 -0.019985903 -0.17308635
000210 3c 85 56 3d c3 3d b6 bd 65 43 62 be 33 e0 17 3e
       0.052373156 -0.08898499 -0.22096021 0.14831619
000220 06 88 49 3e f7 a8 71 be 79 9d 18 3e a4 22 1d be
       0.19680795 -0.23599611 0.14903821 -0.15345246
000230 83 6c b8 bd 2b c8 31 be 4c 87 88 bc c2 50 2f 3e
       -0.09005072 -0.17361514 -0.016666077 0.1712065
000240 05 9e 21 be 6e d9 5b bd cf 7e 89 be 2b f5 39 3c
       -0.15782936 -0.053674154 -0.2685456 0.0113499565
000250 74 65 55 be 31 ae 4b 3d de b8 a0 bd 85 56 33 be
       -0.20839483 0.04972667 -0.078477606 -0.17513473
000260 b5 1f f9 bd 22 49 89 be 93 9f 95 3e 99 fb 13 be
       -0.12164251 -0.26813608 0.29223308 -0.14451446
000270 c1 6b 6b 3e b1 31 c9 3d e5 42 58 bd 12 37 1a 3e
       0.22990324 0.09823931 -0.05279817 0.1506007
000280 7b a5 4c be 74 48 85 be 32 a5 0a 3e 54 5d e1 bb
       -0.19985001 -0.2603184 0.1353958 -0.0068775807
000290 16 c1 3d bc c5 05 a4 3d 39 57 37 bc e0 be 33 be
       -0.01158168 0.08008913 -0.011190229 -0.17553282
0002a0 e3 37 c2 3d 37 3b f9 3d d2 ba 85 3e 15 8e 2f 3e
       0.09483316 0.121694975 0.26119095 0.17144044
0002b0 67 7c f0 bd f8 53 2b 3e 36 0f 10 bd b6 a8 c5 3d
       -0.11742478 0.1673125 -0.035170756 0.0965132
0002c0 45 bc 60 3e c1 47 e1 3c fe d6 0f 3e f5 a1 2b be
       0.21946819 0.027500035 0.14046857 -0.16761
0002d0 ad f7 ea bd 07 98 ca 3d 07 0b 50 be 20 b0 b5 be
       -0.11473022 0.09892278 -0.20316707 -0.35485935
0002e0 c7 c8 0c 3e 97 8b 01 be 31 b3 b1 3e 98 8e 33 3e
       0.13748465 -0.12650906 0.34707025 0.17534864
0002f0 58 68 06 3e fc ac 4c 3e ba 4e 32 3a bb fd 6a be
       0.13125741 0.19987863 0.00068018923 -0.22948353
000300 6d 75 d8 bd 6e c8 de bd 34 56 10 be d9 84 d4 bd
       -0.10569272 -0.10878073 -0.14095384 -0.10376901
000310 4a 1d 58 be 7a 3f 58 3d 1d f0 52 be ea 45 f7 3d
       -0.21104923 0.05279491 -0.20599408 0.12073882
000320 3a 32 5a 3e ae f8 4b 3e 62 81 4f be ee e9 0f bd
       0.21308222 0.19919083 -0.202642 -0.035135202
000330 41 84 10 bd e3 e1 78 bd 4a da 35 3d b4 c8 86 be
       -0.035282377 -0.060762297 0.04439763 -0.26325
000340 73 f1 38 be 20 1d d2 bd ec df 42 3d df 7a 94 3d
       -0.18060856 -0.102594614 0.04757683 0.07249998
000350 5b c0 12 be 66 e4 8f bb 84 86 dd bd 55 fb 1a 3d
       -0.1433119 -0.004391241 -0.108166724 0.037837345
000360 e2 06 d2 3d ae be 34 3e 21 24 85 3d 2f 5b f3 bd
       0.10255219 0.17650864 0.06501032 -0.11882626
000370 80 a6 3e be c2 79 84 bc 91 28 23 3e ee 62 67 be
       -0.18618202 -0.01617134 0.15933444 -0.22596332
000380 38 fa 7a bd 17 a0 4b 3e 4e 67 95 3e 0d e7 c0 3d
       -0.061273783 0.19885288 0.29180378 0.094190694
000390 3d af 59 3d a2 11 71 bd 5a 19 86 bd df e3 6a 3e
       0.053145636 -0.058854707 -0.06547804 0.22938488
0003a0 87 0b 0a be 6a 0e 7e 3e fa ad 46 3e f8 9c 3b bb
       -0.1348096 0.24810186 0.19402304 -0.0028627496
0003b0 79 5c e5 bd d9 40 18 3d 92 f0 2a 3e ee d1 45 bd
       -0.111992784 0.03717122 0.16693333 -0.048295908
0003c0 c5 31 8e be 17 99 99 bb 81 a4 8d 3e b5 8c 18 be
       -0.27772346 -0.004687439 0.2766457 -0.14897425
0003d0 6f cf 99 be 04 29 e2 bd 77 d5 4a 3e 3a 9f 78 3e
       -0.30041072 -0.11042979 0.19807993 0.2427949
0003e0 3a 4a 64 be d6 fc 1a be 1c de 04 be 20 d6 42 3e
       -0.2229394 -0.15135512 -0.12975353 0.19026995
0003f0 cd 18 5c 3e 6e 4f c0 bd bf 21 e8 3d f4 9d 0d 3e
       0.21493836 -0.0939015 0.113345616 0.13829786

weight_hh_l1 f4 [60, 15]
000000 c6 6f 72 be 8a d8 1f bd 82 dd 33 be e3 cc d0 bd
       -0.2367545 -0.039024867 -0.17564967 -0.10195329
000010 99 f2 d6 3c 82 80 d9 3c 81 c5 c5 3c dd c0 20 bd
       0.026238726 0.026550535 0.024142029 -0.03924643
000020 55 6b f6 3c 49 ca 4f be 70 4d 82 3e eb 30 09 bd
       0.030080477 -0.2029201 0.25449705 -0.033493917
000030 06 00 b8 bd 76 f5 fc bc 90 a8 70 be 3a ee 55 3e
       -0.089843795 -0.030878764 -0.23501801 0.20891657
000040 34 4d 59 3e d5 e2 55 be 60 d4 cc bb 55 d9 72 3e
       0.21220857 -0.20887311 -0.006250903 0.23715718
000050 82 f1 dc 3d b7 5b 68 be c9 e0 4c 3e 11 a3 33 3e
       0.107882515 -0.22691236 0.20007624 0.17542674
000060 c0 61 1c be b2 7a 22 be 0c bb 18 be 56 17 70 be
       -0.15271664 -0.15867117 -0.14915103 -0.23446402
000070 34 82 12 be 8e fa 05 be c1 82 34 3e 98 cb 89 3c
       -0.14307481 -0.1308386 0.17628004 0.016820714
000080 62 66 42 be 99 bc d9 3d 9c 28 97 3d 1c 48 4d 3e
       -0.18984368 0.10631675 0.073807925 0.20047039
000090 9b 3a f3 bd 3f 97 1a 3e 45 a0 04 be 8e fe 87 be
       -0.118764125 0.15096758 -0.12951763 -0.26561397
0000a0 89 3b b5 3d 8b 03 0b bd b1 38 56 be c2 99 b7 bc
       0.08849246 -0.033938926 -0.20920064 -0.022412185
0000b0 45 e4 62 be d0 52 1a be f0 2e bb bd 77 6c 7f bc
       -0.2215739 -0.15070653 -0.09139812 -0.015589825
0000c0 5c c2 95 be 03 54 24 3e 31 95 5d 3e 86 86 d8 3d
       -0.29249847 0.16047673 0.21638943 0.10572533
0000d0 b7 40 5d 3e 17 b7 2a be 75 93 6a be 0c 87 35 3e
       0.21606718 -0.16671406 -0.22907813 0.17727298
0000e0 c2 0a 3f 3c 86 6a b5 bc fa 94 a4 be 43 6f cf bd
       0.01166028 -0.02214552 -0.3214491 -0.10128643
0000f0 b4 c2 8f be 15 90 1c 3e 96 20 33 3e 9e 0e d8 3d
       -0.28078234 0.15289338 0.174929 0.10549663
000100 96 35 64 be 72 6d c0 3d c9 84 2c 3e ad d4 29 3e
       -0.22286066 0.09395875 0.16847529 0.16585036
000110 fc d0 58 3e c0 13 2e be d4 88 89 3e 0c c7 af 3c
       0.21173471 -0.16999722 0.26862204 0.021457218
000120 b4 33 31 3d ee a4 14 3a fa 45 e0 3d 78 68 90 3b
       0.0432622 0.00056703284 0.10950847 0.004406985
000130 d8 10 a2 3c 47 d0 3b be 2a 17 8f be 6e 0a 4b be
       0.019783422 -0.1834117 -0.2794736 -0.19828197
000140 87 c5 99 3e 3f e7 88 3c 27 5e c6 3d d2 09 a9 bd
       0.30033514 0.01671183 0.09685927 -0.08253826
000150 2e ca 73 be 45 ce db bd 32 87 26 3e 67 d0 1c 3d
       -0.23807594 -0.10732702 0.1626251 0.038284685
000160 96 0a 24 3e a8 2b 92 bb 61 b8 69 be 9e ff ec bb
       0.16019663 -0.0044607706 -0.22824241 -0.0072326204
000170 d8 1f ae 3c b4 c8 0f 3e 6c 7d 25 3d 07 45 0d bd
       0.021255419 0.14041406 0.040402815 -0.034489658
000180 7f 61 5a be 33 5b 8a 3e 14 25 88 3e 31 ae 52 be
       -0.21326254 0.27022704 0.26590788 -0.20574261
000190 c8 ee 32 3d b3 2d 29 3e 7a a8 55 3e 3a cc 72 3d
       0.04368475 0.16521339 0.2086505 0.059276797
0001a0 b6 d4 58 3e 11 2b 83 be 25 13 a6 3d 67 8c d1 bd
       0.21174893 -0.25618795 0.0810912 -0.10231858
0001b0 c2 e9 3b 3d 6b 8c 09 be 6d 0f 82 3e d9 94 9d be
       0.045877226 -0.13432471 0.25402394 -0.30777624
0001c0 64 f7 81 3e 29 6d 3f 3d 6a 26 0a be c7 d4 54 be
       0.25384057 0.046734963 -0.13491216 -0.20784293
0001d0 90 29 dc bd fb 2e 60 3e fe 9a 59 be 03 bf 00 3d
       -0.10750115 0.21892922 -0.21250531 0.031432163
0001e0 6e 2b 4f be 68 f1 a2 bc 53 b1 e5 3c 88 18 d3 3b
       -0.20231411 -0.019890502 0.028038656 0.0064421333
0001f0 84 f1 13 3e 1a a5 1c 3e 96 79 72 be 54 43 5a 3e
       0.144476 0.15297356 -0.23679194 0.21314746
000200 0e 1d 26 be 8b 5f 3f be 1c 64 13 be a9 61 3d be
       -0.16222021 -0.1868879 -0.14393657 -0.18494286
000210 d7 b1 97 3c 20 c6 23 3e 05 7c e9 3d 18 fb 2f 3e
       0.018517418 0.15993547 0.11400608 0.17185628
000220 89 49 49 3e 26 dd 4f 3e 62 60 61 be 34 6a 8b 3d
       0.19656958 0.20299205 -0.22009423 0.06807366
000230 61 2b 5d 3e bc df 2c bd 6b 48 e1 bd 26 9b 33 3a
       0.21598579 -0.042205557 -0.11000141 0.0006851427
000240 0f 9e 3b be af 53 93 bd 6e 0d da 3d 37 e7 5a be
       -0.18322013 -0.07193696 0.10647093 -0.21377264
000250 ba 49 62 bd 4b 7d cf 3d 54 ea 98 be 26 ed c0 bd
       -0.055246092 0.101313196 -0.29866278 -0.094202325
000260 df 51 07 3e 95 47 ab 3c ce d0 8f be d9 36 16 3e
       0.13214825 0.020908156 -0.28088993 0.1466936
000270 1e 41 f0 3d aa e8 24 3e f0 22 90 3e af 63 59 3c
       0.1173117 0.1610438 0.28151655 0.013268395
000280 c9 28 ac 3e 72 94 48 be 84 92 43 3e 79 71 a3 bd
       0.33624867 -0.19587877 0.1909886 -0.079806276
000290 6a 30 ef 3d 08 b5 bd bd 0a f1 6c bd 1c d6 2f be
       0.11679156 -0.092630446 -0.05784706 -0.1717152
0002a0 44 c2 5f bd 36 a6 84 bd 1f b3 54 3e 72 eb f4 3c
       -0.054628626 -0.06477015 0.20771454 0.029897425
0002b0 56 6d 49 3e 6d 1e b0 bd a9 f7 c9 bd d9 68 36 3e
       0.19670615 -0.08599553 -0.098616906 0.17813434
0002c0 39 fe 8a be 45 17 5e 3d 26 e1 04 be 6d 95 24 be
       -0.27147081 0.05422141 -0.12976512 -0.16072626
0002d0 8d 1a f3 3d e8 2d 61 3e f3 b3 05 be 50 42 b4 be
       0.118702985 0.21990168 -0.13056926 -0.35206842
0002e0 4d 22 9e be a9 df a0 3e c1 e7 8e bd 7b e5 36 3d
       -0.30885544 0.3142064 -0.06977797 0.044652443
0002f0 90 7e 8f 3e cd e0 2b 3e 6e 6f 41 3e 15 9a d1 3c
       0.28026247 0.16784973 0.18890163 0.025586167
000300 75 15 19 be c6 4d 99 3c 84 af 70 be c8 c2 d5 3d
       -0.14949591 0.018713843 -0.23504454 0.10437542
000310 65 ba cb bc 73 bc 17 3e 87 b9 f4 3d ae 15 d4 bd
       -0.024869153 0.14817981 0.11949449 -0.103556976
000320 e2 c6 5f bd da 20 9f b9 de 22 0c 3e fb 50 60 bd
       -0.05463303 -0.0003035132 0.13685176 -0.05476473
000330 63 22 c0 bd 19 86 21 be 0d 64 f7 3d 48 ff da bd
       -0.09381559 -0.1577381 0.1207963 -0.10693222
000340 cc 4d 16 3e 7b 9c b1 bb 23 71 9e be f0 05 2f be
       0.14678115 -0.0054202653 -0.3094569 -0.17092109
000350 59 0e 9c bd d3 5f 10 be df d2 e9 bd d4 42 e0 bd
       -0.07619924 -0.14099054 -0.114171736 -0.109502465
000360 3a ff 91 be 75 9d 2e bb 54 62 84 3e 39 2b 9d be
       -0.28515035 -0.0026644145 0.25856268 -0.3069704
000370 b7 3c 63 3e 92 ef 55 bd 90 0d 18 be cc 55 97 3d
       0.2219113 -0.052230425 -0.14848924 0.07389411
000380 66 21 ed bc 4e fb 3f bc 4d fd 14 be 1f c5 ed bd
       -0.02894659 -0.011717631 -0.14549752 -0.116098635
000390 8b 8b 05 bd c4 a1 8d be dc 55 0d 3d 73 48 2c 3e
       -0.03260378 -0.2766248 0.03450571 0.16824512
0003a0 ba f7 13 3e b9 b2 87 3e 6f fc 39 3e 5e 5f 63 be
       0.14449969 0.26503542 0.18162702 -0.22204348
0003b0 b0 d6 2d be 61 bf 28 bd 2e d3 78 be c9 bb 73 3e
       -0.16976428 -0.04119814 -0.24299309 0.23802103
0003c0 f4 a1 fd bd 6c b5 72 3e b9 07 94 bd 51 f1 58 3e
       -0.12384406 0.2370202 -0.072280355 0.21185805
0003d0 c8 5b af 3d 5f 0d 4c bd 3c 34 4a be 85 b3 6a 3e
       0.08562428 -0.04981744 -0.19746488 0.22920044
0003e0 77 73 f1 3c b0 31 a2 bd 30 e8 0a be 7f 31 e3 3c
       0.029474003 -0.079196334 -0.13565135 0.027733563
0003f0 db 89 53 3e 02 a8 64 be 6c 08 07 3e 45 13 05 3e
       0.20658056 -0.22329715 0.13186806 0.12995632

bias_ih_l1 f4 [60]
000000 09 17 92 3c b4 82 6e 3e 1b 7b 13 3e 67 df a2 bd
       0.01783325 0.23292047 0.1440243 -0.07952767
000010 f0 47 90 3e 82 c5 a3 bd 9b 54 c2 3c aa 18 3f 3c
       0.28179884 -0.07996656 0.023721984 0.011663595
000020 1d 37 a5 bd b3 f0 34 be 97 b5 86 3e 1f 84 56 3e
       -0.08067153 -0.17669944 0.26310417 0.20948838
000030 6e df c4 bd 72 0b 09 be 50 66 86 bd 03 4a 53 bd
       -0.09612928 -0.13383272 -0.06562483 -0.051584255
000040 62 96 9d 3d e7 59 1e be 64 a5 84 3e e0 2d 5c bc
       0.07694699 -0.15463983 0.25907433 -0.013438672
000050 7d 1a 8f bd 22 a4 d7 bd f3 48 69 3e f4 c4 46 3d
       -0.06987474 -0.10529353 0.22781734 0.048527673
000060 ab ef b2 bd 43 c7 fa 3d d5 94 ec bd 55 4b 73 3e
       -0.08737119 0.122450374 -0.11551825 0.23759206
000070 b8 c5 11 3e e9 cf 20 3c 89 1c 43 be 75 4c 9c 3d
       0.1423558 0.009815195 -0.19053854 0.076317705
000080 96 d1 22 be 11 42 43 be 17 e6 21 3e 51 d7 16 be
       -0.15900263 -0.19068171 0.15810429 -0.14730574
000090 c7 88 0c be 26 6e 39 3e 7c bb 3b 3c 4e 52 c0 3d
       -0.13724051 0.18108425 0.011458274 0.093906984
0000a0 3d aa 3b 3e ef 84 a0 3d aa 98 33 3e 2f 7c 3c be
       0.1832666 0.07837855 0.17538705 -0.18406747
0000b0 48 c1 93 be 65 92 85 3e c3 3e df 3c ae 21 67 3d
       -0.288584 0.26088253 0.027251607 0.056428604
0000c0 1d cf 86 bd 86 70 91 3e 35 f9 1e 3e e1 bb ab 3d
       -0.065824725 0.2840616 0.15524752 0.083854444
0000d0 68 76 32 be 8e ed 7b 3e dd d3 5a 3d 73 91 83 3e
       -0.17427981 0.24602339 0.053424705 0.25696906
0000e0 c6 5e 81 3d 5b 63 05 3d a1 5b 9a 3e 4e 0a 53 3e
       0.06316905 0.032565456 0.30148032 0.206094

bias_hh_l1 f4 [60]
000000 13 bd 49 be d1 21 74 be ad 94 50 bd 04 d9 01 be
       -0.19701032 -0.23841025 -0.05092304 -0.12680441
000010 db 64 d3 bd 60 d5 63 3e 23 97 93 3e cd cc 64 3e
       -0.10321971 0.22249365 0.28826246 0.2234375
000020 5e 5e 3d bd 67 bf 3c be 15 20 cc 3d 11 e3 04 3d
       -0.046232574 -0.18432389 0.09967057 0.03244311
000030 bd 8a b0 bd a5 fd 5c 3e d6 69 f3 3c 94 b2 85 3e
       -0.08620212 0.21581133 0.029713552 0.26112807
000040 64 4f 83 be bf 50 91 3e 2c 64 6a bd 3f 76 8f 3e
       -0.25646508 0.28381917 -0.057224438 0.28019902
000050 1b aa a4 bd c8 ac 5e 3e c8 6e 09 be d3 8c 6d 3e
       -0.080402575 0.21745598 -0.13421166 0.23198251
000060 b1 30 02 3d 01 a7 33 3e 44 e9 0e 3e 76 8f 45 3c
       0.031784717 0.17544176 0.13956171 0.0120581295
000070 21 94 17 3c a4 ea 69 bd 5b 66 4f be 10 33 cf bd
       0.009251625 -0.057108536 -0.2025389 -0.10117161
000080 a9 8b 84 3d 60 2c e2 3d 3a 1b 5d be 74 c6 03 3e
       0.064719506 0.1104362 -0.21592417 0.12868673
000090 22 a5 2e be 04 7f 53 3c 16 86 85 3e e1 e9 14 3d
       -0.1705518 0.012908701 0.26078862 0.036355857
0000a0 4b ce 14 3c 12 e3 20 be 27 aa 38 3e 08 f3 a4 be
       0.009082387 -0.1571162 0.18033658 -0.32216668
0000b0 e5 85 50 be a6 36 75 be ea 15 2c 3e c4 32 fc 3d
       -0.20363577 -0.23946628 0.16805235 0.1231437
0000c0 b9 b5 6e 3d 85 6b 61 bd 79 3d 4b 3e d6 4d 16 be
       0.058278773 -0.05503418 0.19847669 -0.1467813
0000d0 ef d1 16 3e cd fa 82 3e 15 c6 c7 bc 55 05 07 3e
       0.14728521 0.2558197 -0.024386445 0.13185628
0000e0 fd 60 33 bd c9 c9 ad 3e c4 8a a0 3c ff b5 13 be
       -0.043793667 0.33943012 0.019597419 -0.14424895

weight f4 [20, 15]
000000 ef e0 cd 3c 48 27 35 bd 98 58 3f bd 42 74 94 3e
       0.02513167 -0.044226915 -0.04671535 0.28994948
000010 9f 68 76 3e 4d 65 b8 be 36 82 c3 3e 40 59 9d be
       0.24063347 -0.36014786 0.3818528 -0.30732155
000020 7c c7 6d be 42 3d 0b 3e dc 85 90 be 07 6b 65 3e
       -0.23220628 0.13597587 -0.28227127 0.22404109
000030 90 74 c4 be 1a dc 58 3e eb 72 6c 3e bc 6a 32 3d
       -0.3837018 0.21177712 0.23090713 0.04355882
000040 d1 54 86 bd 4a 02 23 3b d3 a7 85 bd 8d 87 fc bd
       -0.06559146 0.002487319 -0.065261506 -0.12330542
000050 8a 1c 2c be 92 f1 fe 3d 58 16 07 be 85 75 a4 3d
       -0.16807762 0.1244842 -0.13192117 0.080302276
000060 97 24 7c be 63 36 9a bd df 84 ce 3d 58 c3 39 3e
       -0.24623333 -0.07529905 0.10083937 0.18140924
000070 aa e8 1a 3e f4 40 5a be 40 f7 6d be b2 12 be 3c
       0.15127817 -0.2131384 -0.2323885 0.023202274
000080 e1 35 37 3e f9 c1 56 3c e1 f4 59 be 66 8f ac 3d
       0.17891647 0.01310777 -0.2128482 0.084257886
000090 f6 bb 8c be a7 9a 3b be 99 2f 12 be 3d 93 81 3e
       -0.27487153 -0.18320714 -0.1427597 0.25307646
0000a0 da 28 b9 bb 20 1d 99 be 61 4b 65 3d 4d 8c 24 3e
       -0.005650622 -0.29905033 0.05598009 0.16069146
0000b0 71 28 5a 3e 37 9a fe 3d 0e 48 29 bd 85 be 31 3e
       0.2130449 0.12431758 -0.041328482 0.17357834
0000c0 98 a1 ca 3d e3 3d 4c 3e 60 27 86 bd 75 12 82 3d
       0.09894103 0.19945483 -0.06550479 0.06351177
0000d0 61 6f a0 3d bd 4f 53 be ab 2b b0 bd c3 a4 62 3e
       0.07833744 -0.20635886 -0.08602079 0.22133164
0000e0 1f 94 74 be cb 1b 4d 3e df 2e 07 3d d1 97 44 be
       -0.23884629 0.20030133 0.033003684 -0.19198538
0000f0 99 ea 38 3e ed fe 31 bd 30 6c 19 3d e4 48 ca 3b
       0.18058242 -0.043456007 0.03745669 0.00617324
000100 0e bb 8e be d9 a0 79 3e d3 ce 09 3e ae 04 a4 bd
       -0.27877086 0.24377765 0.13457803 -0.08008705
000110 9b 5f 27 be 2f bf 9d 3e aa 7e b7 3d 49 44 f0 3d
       -0.16345064 0.30809924 0.08959706 0.11731774
000120 42 15 51 3d 14 20 8a 3d e2 ae 44 be b0 17 80 3e
       0.051045664 0.067444 -0.19207337 0.25018072
000130 20 7d 53 be 3a 04 85 3d c3 32 8b 3e 49 79 9e bd
       -0.206532 0.06494947 0.27187166 -0.07737977
000140 99 db 58 3e c2 17 8b 3d 56 76 e1 3b 02 02 b5 bd
       0.2117752 0.06791641 0.006880562 -0.088382736
000150 fe c0 3b 3e 61 b9 91 3d 45 c3 e1 3d f5 8c 87 3d
       0.1833534 0.07115436 0.11023573 0.06618682
000160 e3 9e b0 3d 55 b8 ed bd 99 ba 49 be d2 65 b8 bd
       0.08624055 -0.11607424 -0.19700088 -0.09003796
000170 22 1e 07 be 53 06 90 3d ef 8d a4 be 2e 12 f3 bc
       -0.13195089 0.07032456 -0.32139537 -0.029671755
000180 38 54 82 bc 9d 8f 02 bc 90 fa 4b bd e4 b2 e0 bd
       -0.0159093 -0.00796881 -0.049799502 -0.10971621
000190 a8 d8 8e bc c5 ed 4c 3e 92 a3 31 3e ac 8d 17 bd
       -0.017437294 0.20012577 0.17347553 -0.037000343
0001a0 9e e3 fc 3d 26 55 28 ba 24 3a 39 be 44 de dc bd
       0.12348102 -0.00064213795 -0.18088585 -0.10784581
0001b0 48 af 5d 3d da a9 31 3d e4 f3 5f 3e 3f 3f a9 3d
       0.05412224 0.043374874 0.2187038 0.08264016
0001c0 c5 f6 34 be 5a 5f 92 3e e9 1d e7 3d fb 9e 87 3e
       -0.1767226 0.28588372 0.11285002 0.2648848
0001d0 e9 5c 45 3e ec 63 b2 bc 55 a7 d0 3d 67 e9 5a be
       0.19273724 -0.021776162 0.10188166 -0.21378098
0001e0 13 c2 34 3e d2 40 8e bb 72 b3 dc bd 04 ff fd bd
       0.17652158 -0.0043412233 -0.10776414 -0.12402156
0001f0 98 2d 56 be 72 b5 c0 bd 85 de b9 3d 27 e4 fc 3d
       -0.2091583 -0.09409608 0.09075645 0.12348204
000200 17 f0 6f 3d b5 24 a2 3d 08 6a 2c 3e 1c 92 5d 3e
       0.058578577 0.079171576 0.16837323 0.21637768
000210 83 67 0a ba d9 00 2f 3e f1 47 3d be a3 3c db 3d
       -0.00052797067 0.17090167 -0.18484475 0.10704925
000220 94 84 c4 3d ba 91 60 3e 10 ff 39 be be c9 17 3e
       0.095956 0.2193059 -0.18163705 0.14823052
000230 55 fd 3a 3e 94 13 2a be 9b f4 07 3e fa ad a2 3d
       0.18260701 -0.16609031 0.13276903 0.0794334
000240 15 0d 33 be 79 38 78 3e ef ee e0 bd 9e 06 43 be
       -0.17485459 0.24240293 -0.10983073 -0.19045493
000250 46 61 53 be 56 d6 69 3e 9a 12 63 be f9 cf 37 3e
       -0.20642576 0.22835669 -0.22175065 0.17950429
000260 a2 e9 41 be 49 6c 8a be f8 c9 ba bd ec 9d b6 bd
       -0.1893678 -0.2703574 -0.09120554 -0.0891684
000270 9d ae ac 3d 5f 6b 4b bd 87 bf be 3d 0e 4b 0d be
       0.08431742 -0.049662944 0.09313875 -0.13798162
000280 9a c1 3a be a5 49 73 be af 72 b2 3d c2 08 fa bc
       -0.18237916 -0.23758562 0.087132804 -0.030521754
000290 7a 31 48 bc ed 10 66 3e a7 2a 13 3d f8 57 81 3e
       -0.012218827 0.22467394 0.03592935 0.25262427
0002a0 fb 88 aa 3d 44 57 e1 3d 8b 6e 16 3e c3 c8 e6 bd
       0.08326908 0.11002973 0.14690606 -0.11268761
0002b0 a1 98 4e be 08 01 5c 3e 40 29 90 3d 2b ee f7 bd
       -0.20175411 0.21484768 0.07039118 -0.12105974
0002c0 8e ae 9b 3e 07 a6 2c 3e 19 e4 3d be 0f aa 86 bd
       0.30406612 0.1686021 -0.18544044 -0.06575405
0002d0 63 4a 89 bc 85 4a 6a bd 45 21 1f be 5a e8 21 bd
       -0.016759103 -0.057199974 -0.15540035 -0.03952823
0002e0 78 25 ec 3d 4e d1 11 be 75 d1 c1 bc b9 54 1c bd
       0.11530584 -0.1424 -0.023659447 -0.038166735
0002f0 2b a1 a3 bd ed 01 3f 3e 9a b9 59 3e bb c3 26 be
       -0.07989725 0.18653078 0.21262208 -0.16285603
000300 35 7f 26 be d8 15 c0 bd fc 74 b3 3d 4a 46 e4 3d
       -0.16259463 -0.09379166 0.087625474 0.11146219
000310 a7 8a 0a 3e c8 5d 5d 3e 1f 44 e0 bd a7 32 a1 3e
       0.13529454 0.21617806 -0.10950493 0.31483957
000320 15 de 1e 3e 3c 73 ee bd d3 9d 97 be d5 dc 17 3e
       0.15514405 -0.11643073 -0.29612598 0.14830334
000330 26 41 40 3d 72 89 23 3e 7e 14 40 be 86 a2 16 be
       0.04693713 0.159704 -0.18757817 -0.14710435
000340 d3 40 40 bc 1e 21 36 3c 03 97 d7 bd 1f b9 36 3e
       -0.011734205 0.011116294 -0.1052685 0.17844056
000350 03 f8 96 3d b4 e3 a7 bd 2c 59 3e bd 07 23 2d be
       0.07371523 -0.08197728 -0.04647176 -0.16907893
000360 3a 7f bc 3b f7 e4 23 3e a5 1f 66 3e 9f 3d cc 3c
       0.0057524713 0.16005312 0.22473009 0.024931727
000370 ad e6 47 3e b3 64 7a 3c 60 e5 20 bd ff c8 b9 bc
       0.1952159 0.015282798 -0.03928125 -0.02267885
000380 62 42 62 3e aa 2c 58 be 78 02 38 bd 7f da f9 3b
       0.22095636 -0.21110788 -0.04492423 0.0076249237
000390 ac 0e 11 be 38 7e de 3d 8f 80 9b 3d 96 2e 2b be
       -0.14165753 0.10863918 0.0759288 -0.1671699
0003a0 1c 61 93 bc 34 c7 d1 3c ca 35 a5 bd 09 e4 a7 3d
       -0.017990641 0.025607683 -0.080669 0.08197791
0003b0 8d 62 2d 3e 1b bb 90 3c e9 88 05 3e d5 74 ae 3c
       0.16932125 0.017667344 0.13040508 0.021295944
0003c0 1a 3b 34 be fb 32 86 be de 41 ba 3d ac 7d e1 3d
       -0.1760067 -0.2621077 0.090945944 0.11010298
0003d0 c5 49 29 be 17 14 85 bd ce 0b e4 bd 86 9c de bd
       -0.16532047 -0.064979725 -0.11135064 -0.10869698
0003e0 ef ff 88 3d c7 fc 5f be 93 d6 f7 bc b9 9c 96 3c
       0.066894405 -0.2187377 -0.030253684 0.018385278
0003f0 06 21 13 3c 41 8f 7a 3e 77 29 e8 bd 87 e5 0a be
       0.008980041 0.2446871 -0.11336034 -0.1356412

bias f4 [20]
000000 a6 80 b8 bd e8 1c 94 3d fb b7 12 bd 79 af e9 bc
       -0.09008913 0.07232076 -0.03581999 -0.028526055
000010 a6 17 bc bd 07 5a 4e 3e 67 66 1a be e8 7f 13 be
       -0.09184198 0.2015153 -0.15078126 -0.14404261
000020 b3 81 e6 bd f8 6f 15 be 01 0a 62 be ac 8a a6 3d
       -0.11255207 -0.14593494 -0.22074129 0.08131918
000030 c9 f7 12 3c 58 98 3a 3e 0a bb 38 be 52 e3 ac bd
       0.008970209 0.18222177 -0.180401 -0.084417954
000040 5d 40 3a 3d f7 0a bc bd b3 73 03 3e ab 04 e6 bc
       0.045471538 -0.09181779 0.12837104 -0.028078398
