models/TwentyClassifier.pt (torch, 58407 bytes, 7 tensors)

weight f4 [5, 10]
0	0x00000000	0.0
1	0x00000000	0.0
2	0x00000000	0.0
3	0x00000000	0.0
4	0x00000000	0.0
5	0x00000000	0.0
6	0x00000000	0.0
7	0x00000000	0.0
8	0x00000000	0.0
9	0x00000000	0.0
10	0xbfb834c6	-1.4391105
11	0x3fa90bc1	1.3206712
12	0xbff04e24	-1.8773847
13	0x3fdc754e	1.7223299
14	0x3e91e9e1	0.28498748
15	0x3fc04c57	1.5023297
16	0xbf400fed	-0.750243
17	0x3ef75332	0.4830566
18	0xbf39268e	-0.72324455
19	0xbfc5cb3a	-1.5452645
20	0xbe8d2e7f	-0.27574536
21	0x3eb1af68	0.34704137
22	0xbf176113	-0.591325
23	0xbf571645	-0.84018356
24	0xbee868be	-0.45392412
25	0x3fd4f6fa	1.6637871
26	0x3ff9b966	1.9509704
27	0xbf82155f	-1.0162772
28	0xbf5a5074	-0.8527901
29	0x3efbb452	0.4916101
30	0xbeaa7922	-0.33295542
31	0xbf3edbf0	-0.7455435
32	0x3fcb00a2	1.5859568
33	0xc02015e4	-2.501336
34	0xbff13724	-1.8844953
35	0xbf9b9672	-1.2155287
36	0x3e712da1	0.23552562
37	0xbeaba748	-0.33526063
38	0x3fa505b6	1.2892368
39	0x400459bb	2.0679767
40	0xbf053533	-0.520343
41	0xbea194ea	-0.31558925
42	0xbd644080	-0.055725574
43	0xbffc1a9a	-1.9695618
44	0x3fba11fb	1.4536737
45	0xbd4ac3c2	-0.049503095
46	0xbfbfc38b	-1.498155
47	0xbf13853d	-0.5762518
48	0x3e75454c	0.23952216
49	0xbefd54ab	-0.4947866

weight_ih_l0 f4 [200, 10]
0	0xbe32ac67	-0.17448579
1	0x3e31dd15	0.17369492
2	0xbe335b5d	-0.17515321
3	0xbd7c5c5c	-0.06161152
4	0xbb1be314	-0.0023786472
5	0xbcc9975c	-0.024608307
6	0xbdd7fcd3	-0.10546269
7	0xbe1c3525	-0.15254648
8	0xbc0a3182	-0.008434655
9	0x3ce1a4af	0.027544348
10	0xbe18edf5	-0.14934523
11	0xbd697669	-0.05699769
12	0x3dd3a126	0.10333471
13	0xbdd228a7	-0.1026166
14	0xbe06c5a0	-0.13161325
15	0xbdd9d365	-0.106360234
16	0x3b5e2e50	0.0033902116
17	0x3c74538d	0.014912498
18	0x3dc49e82	0.096005455
19	0xbc343846	-0.010999745
20	0xbd03423d	-0.03204559
21	0x3e44963d	0.19197936
22	0xbe20ba19	-0.1569599
23	0xbc916bd1	-0.017751606
24	0xbd1b7c7e	-0.037960522
25	0xbc8ddd13	-0.01731733
26	0xbe01adba	-0.12663928
27	0x3cb131ea	0.021630246
28	0xbe01aef2	-0.12664393
29	0xbdfb5c59	-0.12273473
30	0xbd104266	-0.035219572
31	0xbde96c70	-0.11397636
32	0x3e0a01e0	0.13477278
33	0xbe0bbc3c	-0.13646024
34	0x3d6c2f84	0.057662502
35	0x3dc4350a	0.09580429
36	0xbcf7bca0	-0.03024131
37	0xbdefb6bf	-0.11704778
38	0xbd8db6c4	-0.069196254
39	0xbe126d34	-0.1429947
40	0xbd3cf3dc	-0.046131
41	0xbdb3b73c	-0.087751836
42	0x3d5faee1	0.054610137
43	0xba36a2c9	-0.0006967006
44	0xbda63508	-0.08115584
45	0x3cbe9e21	0.023268761
46	0x3d529120	0.051407933
47	0x3dc36234	0.09540215
48	0xbdb5e747	-0.08882003
49	0x3c8b4713	0.017001664
50	0xbe20dac4	-0.15708452
51	0xbd8e7dca	-0.06957586
52	0x3bf95c75	0.0076098987
53	0x3d1b3a13	0.03789718
54	0xbe2808ad	-0.1640956
55	0xbe001a88	-0.12510121
56	0x3bdcd9ec	0.0067398455
57	0xbe391311	-0.1807368
58	0xbdb5374b	-0.08848437
59	0x3d1182df	0.0355252
60	0xbe392840	-0.1808176
61	0x3db2cdcf	0.08730661
62	0x3da778ac	0.08177313
63	0x3d634c3e	0.055492632
64	0xbddd4f8f	-0.1080619
65	0xbd8df8e3	-0.06932237
66	0x3dd70bba	0.105002835
67	0xbe3d3b02	-0.18479541
68	0x3cb58493	0.022157943
69	0x3d91b51e	0.071146235
70	0xbd38a8c6	-0.04508283
71	0x3d0eb8fd	0.034844387
72	0x3b230f67	0.0024881007
73	0xbe115b42	-0.14194968
74	0xbd42b78f	-0.047538336
75	0x3cce6fa0	0.025199711
76	0xbb36c18f	-0.0027886366
77	0xbe534427	-0.20631467
78	0xbde1fbb8	-0.1103434
79	0x3c9de728	0.019275263
80	0xbe1d2dcd	-0.15349503
81	0x3d049923	0.032372605
82	0xbc2eb533	-0.010663318
83	0xbe1baac8	-0.15201867
84	0xbd9c09e4	-0.07619074
85	0xbe35ea79	-0.17765225
86	0x3d2f24f5	0.042759854
87	0xbdda5832	-0.10661353
88	0x3d339d32	0.043851085
89	0xbcbb0d78	-0.02283357
90	0xbccf85fa	-0.02533244
91	0x3d371601	0.04469872
92	0x3e12ceb8	0.1433667
93	0xbdcbdc6c	-0.099541515
94	0x3ddc79ab	0.10765394
95	0xbdb0a794	-0.08625713
96	0xbd9884be	-0.074471936
97	0xbdaff551	-0.08591712
98	0x3e1975e5	0.1498638
99	0x3ca57eb9	0.020202028
100	0xbca58f24	-0.020209856
101	0x3c1c91c4	0.009556238
102	0xbb23a118	-0.0024967846
103	0xbe20adf9	-0.15691365
104	0x3cf1f8f4	0.029537655
105	0x3c6aa64c	0.014321875
106	0x3e325682	0.17415813
107	0x3d038325	0.03210749
108	0x3dfa91a7	0.12234812
109	0x3d9eed22	0.07760073
110	0x3c9909d3	0.018681442
111	0xbe0b581f	-0.13607834
112	0xbe08172f	-0.13290094
113	0x3da4dc9d	0.08049891
114	0x3dc04934	0.093889624
115	0xbd5f0d5e	-0.054456107
116	0x3d558b10	0.052134573
117	0xbe2754e1	-0.16340972
118	0xbc9332bc	-0.017968528
119	0xbdf72a04	-0.12068561
120	0xbe0964ff	-0.13417433
121	0x3ddfff28	0.10937339
122	0xbce9794a	-0.028500218
123	0x3c50e0ec	0.012748938
124	0xbc968f25	-0.018378804
125	0xbd7b8098	-0.061401933
126	0xbdfa7c82	-0.12230779
127	0xbddcd550	-0.10782874
128	0xbce3cadd	-0.027806694
129	0x3c346a5e	0.011011688
130	0x3d77253a	0.060338236
131	0x3e09dbde	0.13462779
132	0xbd9cea04	-0.076618224
133	0x3dff99ed	0.12480531
134	0xbdd11297	-0.10208624
135	0x3cc1774f	0.023616461
136	0x3d6f9c60	0.05849874
137	0xbe2ccebc	-0.16875738
138	0x3dd83b70	0.10558212
139	0x3bf5a8cb	0.0074969283
140	0xbd745187	-0.059648063
141	0x3d903dec	0.07043061
142	0x3d849b4d	0.06474934
143	0xbd3ec61a	-0.046575643
144	0x3e043c7f	0.12913702
145	0x3df98c0f	0.12184917
146	0xbcbf52f7	-0.02335499
147	0xbdb96596	-0.09052579
148	0xbcf083ce	-0.029359724
149	0xbd9c70b7	-0.07638686
150	0xbde1e5f5	-0.11030189
151	0xbb08badf	-0.0020863337
152	0x3e1b21c6	0.15149602
153	0xbdb91f87	-0.090392165
154	0x3e283aab	0.1642863
155	0xbd9b105c	-0.0757148
156	0xbd3f0916	-0.046639524
157	0xbe047b6c	-0.12937707
158	0x3d3c4f22	0.045973904
159	0x3cfde7e8	0.03099437
160	0x3db9dff6	0.0907592
161	0xbd5311bf	-0.051530596
162	0x3c8058f1	0.01566741
163	0xbd5be5df	-0.05368602
164	0x3e089e27	0.1334158
165	0x3dc5460c	0.09632501
166	0xbe1f3507	-0.15547572
167	0xbdd0d768	-0.101973355
168	0xbd0fc9da	-0.03510461
169	0xbd86249f	-0.06549954
170	0x3e02e9b2	0.1278446
171	0x3dea4ddb	0.11440631
172	0x3e1c1429	0.15242065
173	0xbde98f18	-0.11404246
174	0xbd268847	-0.040657308
175	0x3d80cfb4	0.06289616
176	0xbd85ed3e	-0.06539391
177	0x3cb82302	0.02247763
178	0x3dbe570c	0.092939466
179	0xbd096904	-0.033547416
180	0xbd585673	-0.05281682
181	0x3d9b1ca9	0.07573826
182	0x3d356124	0.044282094
183	0x3bd48c0b	0.006486421
184	0xbe0257ac	-0.12728757
185	0x3c420987	0.011843092
186	0xbd76fd3b	-0.060300093
187	0x3d69edbf	0.057111498
188	0x3c7e6d5d	0.015529004
189	0xbd3e80c1	-0.046509508
190	0x3d96f53e	0.07370995
191	0xbd887ee0	-0.066648245
192	0x3e04009a	0.12890854
193	0xbe135389	-0.14387335
194	0xbdfa32cc	-0.1221672
195	0x3d10682e	0.035255603
196	0x3e155549	0.14583315
197	0xbe1563c6	-0.14588842
198	0xbe19aaeb	-0.15006606
199	0x3e2bb1f8	0.16767108
200	0xbd089bd0	-0.03335172
201	0x3da653bf	0.08121442
202	0xbcba3f91	-0.022735389
203	0x3da2d2a7	0.07950335
204	0x3d13b59a	0.03606186
205	0x3de36233	0.111027144
206	0x3dc3a5a7	0.0955308
207	0x3e1105af	0.14162324
208	0xbc5eb609	-0.013593205
209	0xbdcbefb6	-0.099578306
210	0x3c3f2286	0.011665946
211	0x3c831315	0.01600031
212	0xbcc60d12	-0.024176154
213	0xbdf51e56	-0.11968677
214	0xbc7104ad	-0.014710587
215	0xbe06f517	-0.13179432
216	0x3dec17bb	0.11527964
217	0xbd87040c	-0.06592569
218	0xbcdd7df5	-0.0270376
219	0x3df9dc6c	0.12200245
220	0xbdd08094	-0.10180774
221	0xbcc6353b	-0.024195304
222	0x3ddd1e51	0.10796798
223	0x3d4d1eb5	0.050078113
224	0xbe0bf0e4	-0.13666111
225	0xbdbe7b46	-0.09300856
226	0x3e5e7c64	0.21727139
227	0xbe193b29	-0.14963974
228	0x3de5f1b4	0.11227742
229	0xbd20293d	-0.039101828
230	0xbd3eed25	-0.046612877
231	0x3c4d3934	0.012525845
232	0x3de8c3d1	0.11365474
233	0x3c82ebd7	0.015981598
234	0xbe2caa3e	-0.16861817
235	0xbd5f2160	-0.05447519
236	0xbdb3477b	-0.08753868
237	0xbdd19acf	-0.102346055
238	0xbd22f2c0	-0.039782286
239	0x3e0bb72c	0.13644093
240	0xbdbaccb0	-0.09121072
241	0x3dddda58	0.108326614
242	0x3c4fa5d6	0.012673816
243	0x3dfb2821	0.12263513
244	0xbcfccbb6	-0.030858856
245	0xbd31e85b	-0.043434482
246	0x3c0dbe4f	0.00865133
247	0x3e12a88a	0.14322105
248	0xbe2f18f6	-0.17099366
249	0xbdd223dc	-0.10260746
250	0xbe07a105	-0.13245018
251	0xbdd1dd4b	-0.102472864
252	0x3dca9061	0.09890819
253	0xbdf0edd0	-0.11764109
254	0xbd8a7ec7	-0.06762462
255	0x3dd4e467	0.10395127

weight_hh_l0 f4 [200, 50]
0	0x3e56a560	0.20961523
1	0x3dcb7ab5	0.09935514
2	0xbbbcd3c2	-0.005762548
3	0x3e216a95	0.15763314
4	0xbdc193ca	-0.09452017
5	0x3e5485af	0.20754121
6	0xbe3432e0	-0.17597532
7	0x3c7b2d7b	0.015330668
8	0x3e699b35	0.22813113
9	0x3c85d2be	0.016335841
10	0x3a901b22	0.0010994414
11	0xbc96f7c7	-0.018428696
12	0xbda03a0e	-0.07823573
13	0xbdc4851f	-0.09595703
14	0x3dbfcd57	0.09365337
15	0x3d8304bb	0.06397387
16	0xbd85c4d1	-0.065316804
17	0x3e2163c2	0.15760711
18	0x3e45221e	0.19251296
19	0xbe4adbd9	-0.19810428
20	0x3d807c0c	0.0627366
21	0xbd10fe20	-0.035398602
22	0xbd07e77a	-0.033179738
23	0x3debbc36	0.11510508
24	0x3cb797d2	0.02241126
25	0xbe77695a	-0.24161282
26	0xbdb33886	-0.08751015
27	0xbde4ebf6	-0.111778185
28	0x3c389bb8	0.011267595
29	0x3cc705a3	0.02429468
30	0x3de8e0e3	0.11371019
31	0xbe3f38a0	-0.18673944
32	0x3ca193b5	0.019723753
33	0xbc9aa68c	-0.018878244
34	0xbd4595f9	-0.04823873
35	0xbdd2b33d	-0.10288093
36	0x3e1af814	0.15133697
37	0xbe40370c	-0.18770999
38	0xbb35151a	-0.0027630986
39	0xbe5eae7c	-0.21746248
40	0xbacbb445	-0.0015541395
41	0xbe62d7b7	-0.22152601
42	0xbcac238b	-0.021013042
43	0xbd524a42	-0.05134035
44	0xbe447bfe	-0.19187924
45	0xbd94724b	-0.07248362
46	0x3d6aadb2	0.057294555
47	0x3e461b98	0.19346464
48	0x3cfaf827	0.030635906
49	0xbdeea5c9	-0.11652715
50	0xbd40bdb4	-0.047055915
51	0xbe238bdc	-0.15971321
52	0xbdc0522d	-0.09390674
53	0x3d51df5b	0.0512384
54	0xbb3f9f33	-0.0029239177
55	0x3e3a57ab	0.18197505
56	0xbcecd216	-0.02890877
57	0x3dd64ee2	0.104642645
58	0x3dbcfe38	0.09228176
59	0x3db126e5	0.08649997
60	0xbda26d0b	-0.079309545
61	0xbd92f4e6	-0.07175617
62	0x3dc18567	0.094492726
63	0xbe6dbb15	-0.23215897
64	0xbd8fbd5a	-0.07018538
65	0x3dfa143e	0.12210892
66	0xbd7f1218	-0.062273115
67	0x3da3c15e	0.07995866
68	0x3e343404	0.17597967
69	0xbe67f90b	-0.22653596
70	0x3e388746	0.18020353
71	0x3d909a4f	0.07060682
72	0x3d4ef0e6	0.050522707
73	0xbe102e5a	-0.14080182
74	0x3d02673a	0.031836726
75	0xbe0a191d	-0.13486142
76	0x3e17d510	0.1482737
77	0x3e6b2785	0.22964294
78	0x3c7a0ae2	0.015261384
79	0xbd195916	-0.037438475
80	0x3ddd4964	0.10805014
81	0xbe1197a4	-0.14218003
82	0x3dc499b1	0.09599627
83	0x3e223e20	0.15844011
84	0xbd143c82	-0.036190517
85	0xbd2c46fd	-0.042059887
86	0x3de0cf07	0.10976987
87	0xbdac9862	-0.08427502
88	0xbe35d260	-0.17756033
89	0xbda1c8e2	-0.078996435
90	0x3dbf9921	0.09355379
91	0xbdd073e0	-0.101783514
92	0xbdc85b53	-0.09783044
93	0xbd39277b	-0.045203667
94	0x3d033b23	0.03203882
95	0x3cb8e9fc	0.02257251
96	0x3d9ff916	0.07811181
97	0x3e1a251e	0.15053222
98	0xbe010eb7	-0.1260327
99	0x3c952c48	0.018209592
100	0xbd236a57	-0.039896335
101	0xbd39abe2	-0.045329936
102	0xbdf4fadf	-0.11961912
103	0x3e117b33	0.14207153
104	0xbe0560be	-0.13025185
105	0x3dfa98d9	0.122361846
106	0x3df83241	0.1211896
107	0x3b588755	0.0033039649
108	0x3d36a086	0.04458668
109	0x3e1209af	0.14261506
110	0xbe626db1	-0.22112156
111	0xbe4f4773	-0.202421
112	0x3e4e3139	0.20135964
113	0x3ddc1226	0.10745649
114	0x3d12f1e8	0.03587523
115	0xbcd3a0f3	-0.025833583
116	0xbd55ebd8	-0.05222687
117	0xbd7675f0	-0.060171068
118	0x3d513500	0.051075935
119	0x3e311e7b	0.17296784
120	0x3dea6e07	0.11446767
121	0x3e207d92	0.15672901
122	0xbdc891c3	-0.09793427
123	0x3c63b71a	0.013898635
124	0xbe51acc4	-0.20476061
125	0x3d57cff8	0.05268857
126	0xbc175236	-0.009235909
127	0x3d901e90	0.07037079
128	0x3dd12da2	0.10213782
129	0x3d57359b	0.052541357
130	0x3d00ee0d	0.031477023
131	0xbe16cd7f	-0.14726828
132	0x3de0975c	0.109663695
133	0x3be249ce	0.006905771
134	0xbd2cdd03	-0.04220296
135	0xbde7c832	-0.11317481
136	0x3d9037a2	0.07041861
137	0x3d1f4c9c	0.03889142
138	0xbdca9125	-0.09890965
139	0x3d70313f	0.058640715
140	0x3e0cfeb4	0.13769037
141	0xbe0f8f54	-0.14019519
142	0xbe09317c	-0.13397783
143	0xbe3e7157	-0.18597923
144	0x3d7a09cb	0.061044496
145	0x3da3a3ba	0.07990213
146	0xbdc2cf98	-0.095122516
147	0x3e683ad3	0.2267869
148	0xbe62717a	-0.221136
149	0x3e0e6ccb	0.13908689
150	0xbd628391	-0.055301253
151	0x3dcd69f0	0.100299716
152	0x3dab6431	0.08368719
153	0x3d600b4b	0.05469827
154	0x3ce716d8	0.028209135
155	0x3d65c74b	0.056098264
156	0xbd1cb336	-0.038256846
157	0x3e335ea7	0.17516576
158	0x3d4ed441	0.05049539
159	0x3e5296da	0.20565358
160	0xbe3454ec	-0.1761052
161	0xbcf2f01c	-0.029655509
162	0xbd942565	-0.07233695
163	0xbcbcd21c	-0.023049407
164	0xbda3eff7	-0.08004754
165	0x3de43701	0.11143304
166	0xbe624c9e	-0.2209954
167	0xbd336512	-0.04379756
168	0x3b7ce9fb	0.0038591612
169	0x3d9d15f4	0.07670203
170	0x3aec8af5	0.0018046784
171	0xbd93e531	-0.07221449
172	0x3da2b99d	0.07945559
173	0x3d35f300	0.044421196
174	0x3db723e8	0.089423954
175	0xbe3cd213	-0.18439512
176	0xbab23b6a	-0.0013598029
177	0xbd89ab18	-0.06722087
178	0x3dfdf729	0.12400658
179	0x3c9f3794	0.019435681
180	0x3e5b9b3d	0.21445937
181	0x3d4e4445	0.050358076
182	0x3e0e08cd	0.13870545
183	0x3d77484b	0.06037168
184	0xbe0bd50a	-0.13655487
185	0xbdf93355	-0.12167994
186	0x3e42c921	0.19022037
187	0x3b93d970	0.0045120046
188	0xbe4fd8dd	-0.2029757
189	0xbd92ac2d	-0.07161746
190	0x3d19b818	0.03752908
191	0xbcffefeb	-0.031242331
192	0xbd65b85d	-0.056084026
193	0xbd063591	-0.03276593
194	0xbe0b8e61	-0.13628532
195	0x3d8d508c	0.06900129
196	0x3db14fa1	0.08657766
197	0x3d69d5be	0.057088606
198	0xbe4c5baf	-0.1995685
199	0xbe645bba	-0.22300616
200	0xbe4cea33	-0.20011215
201	0xbdf0a09c	-0.11749384
202	0xbd7749c1	-0.06037307
203	0xbdb8e517	-0.090280704
204	0xbe5a6762	-0.213285
205	0x3c70fc3c	0.014708575
206	0x3d8e0e16	0.069362804
207	0xbdbcfb73	-0.09227648
208	0x3db3f60e	0.087871656
209	0x3de920ee	0.11383234
210	0xbd45dba3	-0.048305165
211	0xbcdf7a20	-0.027279913
212	0x3ded2a1d	0.11580298
213	0x3d77323a	0.060350634
214	0x3d7ac6ea	0.061224855
215	0xbd622c08	-0.055217773
216	0x3e3b961c	0.18318981
217	0x3c1954a3	0.009358558
218	0x3c90ccfe	0.017675873
219	0x3e4f4dd1	0.20244528
220	0x3d7697f7	0.06020352
221	0xbde4f254	-0.11179033
222	0xbe4aeb8e	-0.1981642
223	0xbe2a0fc0	-0.1660757
224	0xbddb56dc	-0.107099265
225	0x3e06a2c5	0.13148029
226	0xbd91e4ea	-0.0712374
227	0x3e105382	0.14094356
228	0xbe164e95	-0.14678414
229	0xbd911eb3	-0.070859335
230	0x3df965f3	0.121776484
231	0xbdbbf4b4	-0.09177533
232	0xbdb19b44	-0.08672193
233	0xbe06eb70	-0.1317575
234	0x3d928591	0.07154382
235	0x3e03d41f	0.12873887
236	0xba75e4f6	-0.0009380126
237	0xbdd7fc8c	-0.10546216
238	0x3de0e6fe	0.10981558
239	0xbdb05f0b	-0.08611878
240	0xbdd96b7d	-0.10616205
241	0x3d5e9875	0.054344613
242	0x3cc11997	0.023571773
243	0xbdc65cfe	-0.096857056
244	0x3e03e643	0.12880807
245	0x3e3fbfeb	0.18725555
246	0xbe5d2038	-0.21594322
247	0x3a96b546	0.0011498115
248	0xbe00f252	-0.12592438
249	0x3e07d127	0.13263379
250	0xbd01fec0	-0.03173709
251	0xbd368e20	-0.044569135
252	0xbd98cf38	-0.07461399
253	0xbb65a8f0	-0.0035043322
254	0xbd8f9388	-0.07010561
255	0xbd9a8fe2	-0.07546975

bias_ih_l0 f4 [200]
0	0x3e2b7649	0.16744341
1	0x3d5aef3d	0.05345081
2	0x3e44f77a	0.1923503
3	0xbaad649f	-0.001322884
4	0xbd96fac9	-0.07372052
5	0xbdb4fff9	-0.088378854
6	0x3e09b4a2	0.13447812
7	0x3e0fbef1	0.14037682
8	0x3dd34d1a	0.1031744
9	0x3de6f152	0.11276497
10	0xbd4e9e79	-0.0504441
11	0x3dd666d2	0.1046883
12	0xbd4d5d0b	-0.05013756
13	0x3d8f252c	0.06989512
14	0xbbbbb78b	-0.005728667
15	0xbd547032	-0.05186481
16	0x3d95e181	0.07318402
17	0x3dca912b	0.0989097
18	0x3e379a48	0.17929947
19	0xbce222b4	-0.027604438
20	0x3e118b76	0.14213356
21	0xbbe33bf7	-0.0069346386
22	0xbd633b4a	-0.055476464
23	0x3e3e4cda	0.18584004
24	0x3ae6810c	0.0017586066
25	0x3e1a9f60	0.15099859
26	0x3dfad669	0.12247927
27	0x3e25aa17	0.16178165
28	0x3c903e1d	0.017607743
29	0xbd68f329	-0.05687252
30	0xbd850aa7	-0.064961724
31	0xbda4b632	-0.080425635
32	0xbde0b3ed	-0.10971818
33	0x3ad3f461	0.0016170853
34	0xbbff4e73	-0.0077913343
35	0xbc5bc190	-0.013412848
36	0x3df5b2d2	0.11996998
37	0xbdeb642b	-0.11493715
38	0x3cb3eff4	0.021965005
39	0xbd769e47	-0.06020954
40	0x3da1006c	0.078614086
41	0xbc5518dc	-0.013006415
42	0x3d10d178	0.035356015
43	0xbd8a91a7	-0.06766062
44	0xbd84ea5d	-0.06490014
45	0x3d60d4dd	0.054890502
46	0x3dcbcd2c	0.09951243
47	0x3e1f4338	0.15552986
48	0x3bb8356f	0.005621604
49	0xbc9e1b9a	-0.01930027
50	0xbdb41e29	-0.08794815
51	0x3d8dc443	0.069221996
52	0x3dbe528c	0.09293088
53	0xbdca5561	-0.09879566
54	0x3e174634	0.14772874
55	0x3c8c6c3f	0.01714146
56	0x3d24b974	0.040215924
57	0xbdc6beda	-0.09704371
58	0xbcdc8be3	-0.026922172
59	0x3dfd1da2	0.12359168
60	0x3e43116f	0.19049619
61	0x3dedfc74	0.11620417
62	0x3db81778	0.08988851
63	0xbd1df521	-0.03856385
64	0x3e1fccfe	0.15605542
65	0x3e0e97ae	0.13925049
66	0xbd214196	-0.03936919
67	0x3d7194db	0.05897985
68	0x3cc7e29a	0.024400044
69	0x3e26671a	0.16250268
70	0x3d897e99	0.067136
71	0x3df67798	0.120345294
72	0xbdc3db9d	-0.09563372
73	0xbe19dddc	-0.15026039
74	0x3e25c4ed	0.16188402
75	0x3c76b26c	0.0150571875
76	0xbd716089	-0.058929954
77	0xbd3414e8	-0.04396525
78	0x3e0b1e14	0.13585693
79	0x3e38d579	0.18050183
80	0xbc6eb52c	-0.014569562
81	0x3db39c6e	0.08770071
82	0x3e072949	0.13199343
83	0x3dd1f188	0.102511466
84	0x3dbf98c9	0.09355313
85	0x3e28b7d4	0.16476375
86	0x3d13e0e1	0.036103133
87	0x3df558de	0.11979841
88	0x3e02c926	0.12772045
89	0x3e0a86ac	0.13527936
90	0xbd8e6db6	-0.069545195
91	0x3d3aea1a	0.045633413
92	0x3d4c43a8	0.04986921
93	0x3df27451	0.11838592
94	0xbd6cd6f0	-0.057822168
95	0x3dde2d9c	0.10848543
96	0x3d6da298	0.05801639
97	0x3d9bb7ce	0.07603417
98	0x3d6fefaa	0.05857817
99	0xbd49cd4a	-0.049268045
100	0x3dd3d7cb	0.103438936
101	0xbe0705a9	-0.13185753
102	0x3e102a0b	0.14078538
103	0x3bf99197	0.0076162326
104	0xbcbbe585	-0.022936592
105	0xbcbd13c4	-0.023080714
106	0xbda4d527	-0.08048468
107	0xbd25e283	-0.04049922
108	0x3e1d906d	0.15387125
109	0x3ca8f814	0.020626105
110	0xbe13f56a	-0.14449087
111	0xbb0fa0db	-0.0021915946
112	0xbe017a52	-0.12644318
113	0xbd864cf8	-0.065576494
114	0x3de559d5	0.11198775
115	0xbd97ccc1	-0.074121006
116	0xbe272975	-0.16324408
117	0x3d154fc2	0.036453016
118	0x3df73f1f	0.12072586
119	0xbd7f3212	-0.06230361
120	0x3e063175	0.13104804
121	0x3e22ea87	0.15909778
122	0x3d5bb6d7	0.053641167
123	0x3c86b978	0.01644586
124	0x3df13b18	0.11778849
125	0xbddd69e4	-0.10811213
126	0xbd56a276	-0.05240103
127	0x3d9e16ca	0.077191904
128	0x3dfb00ac	0.122559875
129	0xbda3ad28	-0.07992011
130	0x3d0dc684	0.034613147
131	0xbce6af40	-0.028159738
132	0x3dedc031	0.11608923
133	0xbd646879	-0.055763695
134	0xbdc69e3d	-0.0969815
135	0xbe1f0074	-0.15527517
136	0x3d2dca82	0.042429455
137	0xbd4b3415	-0.049610216
138	0xbe316a6d	-0.17325754
139	0xbdd610e1	-0.10452438
140	0xbd4991f6	-0.049211465
141	0x3d895f27	0.06707602
142	0xbd85fb5e	-0.06542085
143	0x3cb762f1	0.022386046
144	0x3d612514	0.054967
145	0xbd4d4e9b	-0.050123792
146	0xbda5f923	-0.0810416
147	0xbdb41d0c	-0.08794603
148	0xbe229d34	-0.1588028
149	0xbd9f9cb8	-0.077935636
150	0xbc5bd924	-0.01341847
151	0x3e707e49	0.23485674
152	0x3e51b1df	0.20478009
153	0xbd045c9a	-0.032314874
154	0xbc02098b	-0.0079368455
155	0x3e0ffa1a	0.1406025
156	0x3e38a5f5	0.18032058
157	0xbc9a378c	-0.018825315
158	0xbda08e3c	-0.07839629
159	0x3d387e25	0.045042176
160	0x3d426c5d	0.047466625
161	0x3d22bca7	0.039730694
162	0xbd22ab6f	-0.039714273
163	0x3e0e1162	0.13873819
164	0x3da2039b	0.07910844
165	0xbb993f28	-0.0046767183
166	0xbc63cf6a	-0.013904432
167	0x3e099434	0.13435441
168	0xba4e846b	-0.0007878008
169	0xbc86cc68	-0.01645489
170	0x3d9d800b	0.07690438
171	0x3d9d28a4	0.07673767
172	0xbd8f894c	-0.07008609
173	0x3d943dd9	0.07238359
174	0x3defca95	0.11708561
175	0x3e11f737	0.14254461
176	0x3e2d20e2	0.16907075
177	0x3e1cfe88	0.15331471
178	0x3d71f068	0.05906716
179	0xbd52cf00	-0.05146694
180	0x3c55ad3e	0.013041792
181	0x38cc10ba	9.7305936e-05
182	0x3cdeb247	0.027184619
183	0x3e236f35	0.15960391
184	0x3e070101	0.13183977
185	0x3cdf36af	0.027247755
186	0x3cb4d141	0.022072436
187	0x3cb2ae06	0.021811496
188	0xbd50fb43	-0.05102087
189	0x3e182108	0.1485635
190	0x3e37dfc4	0.17956454
191	0x3e24e7eb	0.16104095
192	0xbc363eee	-0.011123402
193	0x3df0890b	0.11744889
194	0xbda28b13	-0.079366826
195	0x3ccedda8	0.025252178
196	0x3db81a39	0.089893766
197	0x3df092f2	0.117467776
198	0x3c8634b5	0.016382555
199	0x3d1ec6ac	0.038763687

bias_hh_l0 f4 [200]
0	0x3dd71dc1	0.10503722
1	0x3e0fd222	0.14045003
2	0x3d8a176a	0.06742747
3	0xbd312a8f	-0.043253478
4	0x3e09f896	0.13473734
5	0x3e23c667	0.15993653
6	0x3d2e507c	0.042557225
7	0x3e51b229	0.20478119
8	0x3cb91ebd	0.022597665
9	0xbd844c0a	-0.06459816
10	0x3d5524cc	0.052037045
11	0xbd1f0e30	-0.03883189
12	0xbcaeccee	-0.021337952
13	0x3dd98450	0.1062094
14	0x3e803a15	0.25044313
15	0xbd1b83de	-0.037967555
16	0x3d6686a0	0.056280732
17	0x3dc77368	0.09738809
18	0x3e21be2d	0.15795203
19	0x3e38b15d	0.18036409
20	0x3dcc3a72	0.09972085
21	0xbd09e6cb	-0.033667367
22	0x3e07ec09	0.13273634
23	0xbd202e01	-0.039106373
24	0x3e255624	0.16146141
25	0x3d4ef34b	0.05052499
26	0x3e499722	0.19686559
27	0x3e2c424b	0.16822164
28	0x3da890b0	0.08230722
29	0x3dfede69	0.12444765
30	0x3d4ce541	0.05002332
31	0x3a67d42c	0.0008843567
32	0xbdda7334	-0.106665045
33	0x3e1dbfa7	0.15405141
34	0x3d045797	0.032310095
35	0x3ddfd8bc	0.10930011
36	0xbbae5951	-0.005320706
37	0x3dff872f	0.12476956
38	0xbc0ffc34	-0.008788157
39	0xbca63e6a	-0.020293433
40	0x3e327e5e	0.17431018
41	0x3d1ccae2	0.03827942
42	0xbd570558	-0.05249533
43	0x3e20c945	0.15701778
44	0xbd8d52e4	-0.06900576
45	0x3d43580e	0.047691397
46	0x3e51a33e	0.20472428
47	0xbdbe7178	-0.09298986
48	0x3ce3a2d2	0.0277876
49	0x3c3d1b4a	0.011542151
50	0x3d53a90b	0.051674884
51	0x3d0ee9ef	0.034891065
52	0xbd961cd8	-0.0732972
53	0xbdc65b58	-0.09685391
54	0x3e25be1f	0.16185807
55	0x3e1220ea	0.14270368
56	0xbd9e722d	-0.07736621
57	0xbd870705	-0.06593136
58	0xbc5be44f	-0.013421132
59	0xbd7d2f52	-0.061812706
60	0x3c9c07d0	0.019046694
61	0xbd35e890	-0.044411242
62	0x3dff2323	0.12457874
63	0x3e3bb856	0.18332037
64	0x3e29b5e4	0.16573292
65	0xbe066a03	-0.13126378
66	0xbdb4ab6f	-0.08821761
67	0xbd38d9b4	-0.045129493
68	0xbc81a092	-0.015823636
69	0x3deb93fc	0.11502835
70	0x3d0f2ce0	0.034954906
71	0x3c9791db	0.018502166
72	0x3dbf8c57	0.093529396
73	0xbb9317d2	-0.0044889236
74	0xbd5b3209	-0.053514514
75	0x3dd043cf	0.101691835
76	0x3c4c139e	0.012455849
77	0xbe0c1352	-0.13679245
78	0xbb12baef	-0.0022389253
79	0xbd9fa998	-0.07796019
80	0xbd443591	-0.047902647
81	0xbcd68600	-0.026186943
82	0x3ce8eeeb	0.028434237
83	0xbd44b161	-0.048020724
84	0x3d0d3b19	0.034480188
85	0xbd10608c	-0.035248324
86	0x3d1a4f55	0.037673313
87	0xbd7e4f31	-0.06208724
88	0x3be84e33	0.0070894
89	0xbdee9456	-0.116493866
90	0xbd888c33	-0.06667366
91	0x3d393786	0.045218967
92	0x3dd1944a	0.10233362
93	0x3c8be835	0.017078498
94	0x3e1ee20a	0.15515915
95	0x3c8c54e1	0.017130317
96	0x3d8d1b6f	0.06889998
97	0x3dab32d4	0.08359304
98	0x3e0e41a3	0.13892226
99	0x3d3b3c7c	0.04571198
100	0xbd6e5104	-0.05818273
101	0x3d990fec	0.0747374
102	0x3d5683b9	0.052371714
103	0x3ce75389	0.028238075
104	0xbc69315f	-0.014232962
105	0x3db7a492	0.08966936
106	0x3bbbbbd3	0.0057291775
107	0x3e0f8d1a	0.1401867
108	0xbb322d7a	-0.002718775
109	0x3e19300d	0.14959736
110	0xbe1f0f9c	-0.15533298
111	0xbcbcdba2	-0.023053948
112	0xbde1f25f	-0.11032557
113	0xbdde2def	-0.10848605
114	0xbd2bcf31	-0.04194564
115	0xbd921113	-0.07132163
116	0x3d16cea8	0.036818177
117	0x3d4b67ae	0.049659424
118	0xbdcd0b89	-0.10011966
119	0xbddf1159	-0.10891981
120	0x3e242721	0.16030551
121	0x3e2f7149	0.17133059
122	0xbdbfa1cc	-0.09357032
123	0xbe153456	-0.14570746
124	0xbcb0a04e	-0.021560814
125	0xbdfcc893	-0.12342944
126	0xbd8c15e4	-0.06840113
127	0x3dffc8ee	0.12489496
128	0xbc2e6a40	-0.010645449
129	0x3e49010f	0.1962931
130	0x3e205175	0.15656073
131	0xbd2f9047	-0.042862203
132	0x3b105708	0.002202453
133	0x3d774038	0.06036398
134	0xbcaa6aed	-0.02080294
135	0xbe06a454	-0.13148624
136	0x3c51c95f	0.012804358
137	0x39ef5696	0.00045650144
138	0xbe030cc7	-0.12797843
139	0x3debf079	0.11520476
140	0x3e3f4b66	0.18681106
141	0xbe33f719	-0.17574729
142	0xbdcd3577	-0.10019963
143	0xbddd917b	-0.10818764
144	0xbe0b89a6	-0.13626727
145	0xbe079162	-0.13239053
146	0x3dac8f9e	0.0842583
147	0x3cc8d3ca	0.024515051
148	0xbd45cd4b	-0.048291486
149	0x3d5c9acc	0.053858563
150	0x3b34d054	0.0027589994
151	0x3ce4387d	0.027858967
152	0x3cb7eeb6	0.022452693
153	0x3e1b8704	0.15188223
154	0xb845df88	-4.717664e-05
155	0xbd57b430	-0.052662075
156	0xbd1a66a3	-0.03769554
157	0x3ba926ce	0.0051620966
158	0xbdbd6e1c	-0.09249517
159	0xbd4a92d9	-0.04945645
160	0x3d229b73	0.03969903
161	0xbd2a6576	-0.041600667
162	0x3d652538	0.055943698
163	0x3e07fa35	0.1327904
164	0xbc3f7597	-0.01168575
165	0x3d58f38f	0.05296665
166	0x3ded859e	0.11597751
167	0xbbe9ce72	-0.007135206
168	0x3dc03e98	0.09386939
169	0x3d4c7981	0.049920563
170	0x3e34874a	0.17629734
171	0x3e1be2d1	0.15223242
172	0x3e1e45c1	0.15456297
173	0x3e59b07c	0.2125873
174	0xbab7f496	-0.0014034684
175	0xbd9c5686	-0.076336905
176	0x3e0494a8	0.12947333
177	0x3b91d688	0.004450623
178	0x3e1a683d	0.15078826
179	0xbd090abd	-0.033457506
180	0x3dec38a4	0.11534241
181	0xbd950d05	-0.07277874
182	0x3e389af6	0.18027863
183	0x3e1e4c0b	0.15458696
184	0x3d842a40	0.06453371
185	0x3d2c4178	0.042054623
186	0xbd9a718b	-0.07541188
187	0x3d93dc05	0.072197
188	0x3e38132f	0.17976068
189	0xbcff410d	-0.031158948
190	0x3c81232c	0.015763842
191	0x3e37bcd1	0.17943121
192	0xbc856fbb	-0.016288629
193	0xbdcd4e90	-0.1002475
194	0x3e132121	0.14368106
195	0x3d007d22	0.031369336
196	0x3dd049fe	0.10170363
197	0x3db5cbdf	0.08876776
198	0x3e1e8996	0.15482172
199	0x3e692423	0.22767691

weight f4 [20, 50]
0	0xbddf0022	-0.10888697
1	0xbc4926be	-0.012277303
2	0xbe0fa5db	-0.14028113
3	0xbdf0c253	-0.117558144
4	0x3ceb76aa	0.028743107
5	0xbe5ecf78	-0.2175883
6	0x3d4d8159	0.050172184
7	0xbe187081	-0.14886667
8	0xbdf0fad9	-0.117665954
9	0xbe81a3c5	-0.2532026
10	0x3e0a3aed	0.13499041
11	0x3e428e86	0.18999681
12	0x3e1b5c88	0.15172017
13	0x3e89b806	0.2689821
14	0xbda3e420	-0.08002496
15	0xbe63bc99	-0.22239913
16	0x3e523b0a	0.20530334
17	0xbe16d9d6	-0.14731535
18	0xbde8d647	-0.11368995
19	0x3dcf531a	0.10123272
20	0xbe32bc80	-0.1745472
21	0xbe2c73b1	-0.16841008
22	0xbdbd3560	-0.09238696
23	0xbd769c93	-0.060207915
24	0xbe34e472	-0.1766527
25	0x3e46aec1	0.19402601
26	0x3d9f17e1	0.077682264
27	0x3c5917c0	0.013250291
28	0xbe3d81e3	-0.18506579
29	0xbe68875b	-0.22707884
30	0xbe3b3343	-0.18281274
31	0xbc569dfe	-0.013099192
32	0xbd87dfe2	-0.06634499
33	0xbe802eae	-0.25035614
34	0x3d3cf977	0.046136346
35	0x3e3032e1	0.17206909
36	0xbe7d26c2	-0.24721816
37	0x3d20a73a	0.03922198
38	0x3e5e736e	0.2172372
39	0x3e4191c2	0.18903258
40	0xbe0d0902	-0.13772967
41	0x3e760240	0.24024296
42	0x3e227bbd	0.15867515
43	0x3dac1803	0.08403017
44	0x3e6a4d60	0.22881079
45	0xbe6889a3	-0.22708754
46	0x3dff1b97	0.12456434
47	0xbde4d7da	-0.11173983
48	0x3e0cdbbd	0.13755699
49	0xbd65f45f	-0.056141254
50	0xbe05fd5f	-0.13084935
51	0x3e0e6d74	0.1390894
52	0xbdc3f712	-0.09568609
53	0xbdc29d2e	-0.09502636
54	0xbd68d72e	-0.056845836
55	0xbd0acf99	-0.033889387
56	0x3cc28996	0.023747247
57	0x3b1eff22	0.0024260958
58	0x3dbf69cc	0.09346351
59	0x3d713016	0.05888375
60	0x3e0c876d	0.13723536
61	0xbd6a185a	-0.05715213
62	0xbdf93ac2	-0.1216941
63	0x3d729ec7	0.059233453
64	0xbde04f17	-0.10952585
65	0x3df743e5	0.12073497
66	0xbda98b19	-0.08278484
67	0x3d979cbc	0.074029416
68	0x3d209d2e	0.0392124
69	0xbe3624ae	-0.1778743
70	0xbdffff91	-0.12499917
71	0xbdd21da7	-0.10259562
72	0x3df70c08	0.12062842
73	0xbd34cbb6	-0.044139586
74	0x3dbbaf2f	0.09164273
75	0xbc66a84a	-0.014078209
76	0xbd55009f	-0.052002545
77	0xbe0cdb99	-0.13755645
78	0x3dbf6125	0.09344701
79	0x3df21d0c	0.118219465
80	0x3dac0c05	0.0840073
81	0x3d54c41a	0.05194483
82	0xbc0473da	-0.008084262
83	0x3cbeb2ec	0.023278676
84	0x3d353272	0.04423756
85	0xbde64a8c	-0.112446874
86	0xbdda2197	-0.10650938
87	0xbde34285	-0.11096672
88	0x3daf63ad	0.085639335
89	0x3d9643ef	0.07337176
90	0x3ddf83f3	0.10913839
91	0xbc103fc9	-0.00880427
92	0xbe080e90	-0.13286805
93	0xbdb529e1	-0.088458784
94	0xbd49ed0e	-0.04929834
95	0xbd8150ec	-0.06314263
96	0xbd28f5dd	-0.0412501
97	0xbd3d91cb	-0.046281617
98	0xbccaaaf7	-0.024739726
99	0xbddf9a2b	-0.10918077
100	0xbe60cf8d	-0.21954174
101	0x3d8285af	0.06373154
102	0x3cd92aad	0.026509607
103	0x3e2238ff	0.15842055
104	0xbe01566f	-0.12630628
105	0x3dd42c47	0.10360008
106	0x3e379ee4	0.17931706
107	0x38d2b880	0.00010047946
108	0x3da020cd	0.07818756
109	0x3d9b9c0c	0.07598123
110	0x3d1d51f9	0.038408253
111	0x3d9db29a	0.07700081
112	0xbcbac93c	-0.022801034
113	0x3d8e8744	0.069593936
114	0xbe2edcc9	-0.1707641
115	0xbc92977d	-0.0178945
116	0xbc2a7502	-0.010403873
117	0xbe07e5ca	-0.13271251
118	0x3d40b476	0.0470471
119	0xbd40a596	-0.047032915
120	0x3cd00ee2	0.025397722
121	0xbd304236	-0.043031894
122	0x3d92fda7	0.071772866
123	0x3da70c38	0.081566274
124	0xbd8a9734	-0.06767121
125	0xbc225933	-0.009908962
126	0x3db01581	0.085978515
127	0xbdb8d4aa	-0.090249375
128	0x3e14749a	0.14497605
129	0x3cde56c5	0.027140984
130	0xbd0b1c1d	-0.033962358
131	0x3dd0be5b	0.101925574
132	0xbbe243df	-0.0069050635
133	0x3e16bf73	0.1472147
134	0xbe2988be	-0.16556069
135	0x3cf0c57e	0.029391047
136	0x3d9f494b	0.077776514
137	0x3d65017b	0.055909615
138	0x3c009d59	0.007850015
139	0xbc0b568f	-0.008504524
140	0x3c81776e	0.015804019
141	0x3c583610	0.013196483
142	0xbd80635c	-0.06268951
143	0x3ce8c227	0.028412892
144	0x3da7dd83	0.08196547
145	0x3d7bf789	0.061515365
146	0xbd9e1de2	-0.077205434
147	0x3d5df23b	0.054186087
148	0x3dbf976a	0.09355052
149	0xbe44ea2b	-0.19229953
150	0xbd824ed1	-0.06362689
151	0x3ccd7013	0.025077855
152	0x3dc648dc	0.096818656
153	0x3cc6c996	0.024266046
154	0xbcef9a20	-0.029248297
155	0xbdb34d8a	-0.08755024
156	0x3e63ac10	0.22233605
157	0x3cf1fe51	0.029540213
158	0x3e0bb98c	0.13645
159	0x3dd57a46	0.104237124
160	0x3d6c67ae	0.057716064
161	0xbda850f7	-0.08218568
162	0x3c8fec02	0.017568592
163	0x3e425c86	0.18980607
164	0xbe1c5f61	-0.15270759
165	0x3d775e84	0.06039287
166	0xbd3704d6	-0.044682346
167	0x3d34b230	0.044115245
168	0x3dafd4cd	0.085855104
169	0xbdd34a86	-0.103169486
170	0xbdd295fe	-0.10282515
171	0xbdcbba0c	-0.09947595
172	0x3c1e51d6	0.009663066
173	0xbdd8cdea	-0.1058615
174	0xbdcddd77	-0.10052007
175	0x3cd1bf89	0.025604026
176	0xbdc29488	-0.09500986
177	0x3dc5c0c6	0.09655909
178	0x3c0d1d14	0.00861289
179	0xbd2be0fa	-0.0419626
180	0x3e0e6726	0.13906536
181	0xbd4f4abf	-0.050608393
182	0xbd2a3baa	-0.041560806
183	0xbd68619c	-0.056733713
184	0x3d8823b4	0.06647435
185	0xbd0d7298	-0.034533113
186	0xbc897108	-0.01677753
187	0xbe1c7cdd	-0.15282007
188	0xbe0e640e	-0.13905355
189	0xbe27a867	-0.16372834
190	0xbdc8fb4d	-0.09813557
191	0xbdc35d9d	-0.0953934
192	0xbe1c745a	-0.1527876
193	0xbcb981b4	-0.022644855
194	0x3c8e4430	0.017366499
195	0xbdd722f1	-0.105047114
196	0x3dc60c8f	0.09670364
197	0x3ced1fcc	0.028945826
198	0xbdf7a36a	-0.12091716
199	0xbe2d9817	-0.16952549
200	0x3dbd4277	0.09241193
201	0xbe17269b	-0.1476082
202	0xbd325822	-0.04354108
203	0x3dcdc12b	0.100466095
204	0xbe2f94b2	-0.17146567
205	0x3c848155	0.016174952
206	0xbd081ff0	-0.033233583
207	0x3c618f2d	0.013767046
208	0x3e1cd730	0.15316463
209	0x3dd75cb5	0.10515729
210	0x3db5f7d9	0.08885164
211	0xbdd3bd36	-0.103388235
212	0x3c7b9c42	0.015357079
213	0x3e32e8d7	0.17471634
214	0xbe0c2846	-0.13687238
215	0xbdc2c833	-0.09510841
216	0xbc8e4b61	-0.017369928
217	0xbdf7fee7	-0.12109166
218	0xbdcd6e9e	-0.10030864
219	0x3de899ca	0.11357458
220	0x3d9277e0	0.071517706
221	0x3dd8af07	0.10580259
222	0xbd8d5cfe	-0.069025025
223	0xbc8d202f	-0.01722726
224	0x3d496d81	0.049176697
225	0xbc9f5217	-0.019448323
226	0xbda1d7c1	-0.0790248
227	0x3d0d2427	0.034458306
228	0xbd97f298	-0.07419318
229	0x3e34025d	0.17579027
230	0x3dc1fa1c	0.09471533
231	0x3d529c2e	0.051418476
232	0x3dd50cb0	0.104028106
233	0xbe186765	-0.14883192
234	0xbdf40add	-0.119161345
235	0xbcfa4b71	-0.030553551
236	0xbd488956	-0.0489591
237	0x3e099004	0.13433844
238	0xbe0adede	-0.1356158
239	0x3e310307	0.17286311
240	0x3d62e2c1	0.05539203
241	0x3dd7cd77	0.10537236
242	0xbb7ef219	-0.0038901626
243	0xbd8fb6ab	-0.07017263
244	0xbdc0e380	-0.09418392
245	0xbd7d7095	-0.061874945
246	0xbdfcf35b	-0.12351104
247	0x3d50e200	0.05099678
248	0x3daa5a15	0.08317963
249	0x3e1e5711	0.154629
250	0xbe1b83f7	-0.1518706
251	0xbe152947	-0.14566527
252	0xbe310b2a	-0.17289415
253	0x3d9c75a2	0.07639624
254	0xbd8d4831	-0.06898535
255	0x3d66d955	0.056359608

bias f4 [20]
0	0xbe036042	-0.12829688
1	0xbd83a519	-0.06427974
2	0xbb9e2cfa	-0.004827139
3	0xbd611a33	-0.054956626
4	0xbceec7b2	-0.029147957
5	0x3dc014f7	0.09378999
6	0xbdbbdcc5	-0.09172968
7	0x3d878186	0.066165015
8	0xbc894f30	-0.016761392
9	0x3d57c0ba	0.052674033
10	0xbe0836eb	-0.133022
11	0x3e2731b2	0.16327551
12	0x3e288009	0.16455092
13	0xbe017aa4	-0.1264444
14	0x3cba298b	0.022724887
15	0x3dff691f	0.12471222
16	0xbdd4dce8	-0.10393697
17	0x3da0d849	0.07853753
18	0x3c0024e8	0.007821299
19	0xbc3284b5	-0.010895898
