models/TwentyClassifier.pt (torch, 58407 bytes, 7 tensors)

weight f4 [5, 10]
000000 00 00 00 00 00 00 00 00 00 00 00 00 00 00 00 00
       0.0 0.0 0.0 0.0
000010 00 00 00 00 00 00 00 00 00 00 00 00 00 00 00 00
       0.0 0.0 0.0 0.0
000020 00 00 00 00 00 00 00 00 3c 82 19 40 35 a9 9c 3f
       0.0 0.0 2.3985739 1.2239138
000030 c6 0b 8f bf 9c db 13 bf 50 c9 47 be 70 a4 d6 3d
       -1.1175468 -0.5775697 -0.19510388 0.10480583
000040 47 02 bb 3e a1 4f a1 3f 7a 91 5f 3e ec d2 67 be
       0.36525175 1.2602426 0.21832839 -0.22639054
000050 00 c2 03 bd df 29 0d bf 43 b9 d0 3f b6 e8 04 40
       -0.032167435 -0.55142015 1.6306537 2.0767035
000060 56 c4 b6 3f 87 af a0 bf cd 0a c5 3f 80 0b 0d c0
       1.4278667 -1.2553567 1.5393921 -2.203827
000070 64 70 a5 3f b8 56 ad bf 7a e0 e3 3d e8 a8 33 bf
       1.2924924 -1.354209 0.111268 -0.70179605
000080 43 a3 55 bf f2 87 e1 bd 04 52 61 bf 12 ee 49 3f
       -0.8345224 -0.11012258 -0.8801577 0.7887889
000090 f8 8d 6f be c8 53 9e 3f 48 ba 82 3f 2b ed 9c be
       -0.23394 1.2369318 1.0213099 -0.30649695
0000a0 de 63 02 c0 94 2d 18 be fa 62 b7 bd c3 a8 50 be
       -2.0373454 -0.14861137 -0.08954425 -0.20376877
0000b0 61 66 29 3f 91 90 cd bf d8 ce 35 bf 73 72 82 be
       0.6617184 -1.6059743 -0.71018744 -0.25477943
0000c0 74 85 35 3f 7e 93 9b 3f
       0.7090676 1.2154386

weight_ih_l0 f4 [200, 10]
000000 f8 89 90 3d 95 5b a8 3d ef 15 79 3c d0 87 b3 3d
       0.070575655 0.08220593 0.015202983 0.087661386
000010 d6 11 0f be d6 f4 81 3d 3b 23 b6 3d 58 f9 24 3e
       -0.13971648 0.06345527 0.088934384 0.16110742
000020 53 55 a6 bc 37 b7 8a bd 2f da 94 bc c6 c9 15 bd
       -0.020304358 -0.06773227 -0.018170444 -0.03656938
000030 44 44 90 bd 16 de 16 be 5d f1 de bd f8 94 2d 3e
       -0.07044271 -0.14733157 -0.1088588 0.16951358
000040 30 99 71 be 0d fb 46 3e b8 c8 bf 3c 5d 6a 4e bd
       -0.23593593 0.19431706 0.02341114 -0.050394405
000050 1f 49 69 bd 6c eb 01 be 87 c6 89 3c 8f 4d a4 3d
       -0.0569545 -0.12687463 0.016818298 0.08022606
000060 24 80 9b 3d 74 a4 48 bd 35 22 32 bd fd 24 ef 3d
       0.075928 -0.04898496 -0.043489654 0.11676977
000070 02 e3 46 bd bd 06 f5 bd 18 67 a1 bd e0 58 c2 3d
       -0.048556335 -0.11964176 -0.07880992 0.09489608
000080 43 8e b5 bd 47 b3 66 3d 2d 0d d5 bc 79 41 30 bc
       -0.08865025 0.056323316 -0.02600726 -0.010757797
000090 21 fb 61 3e e2 0e 09 be e9 cd fe 3d ca d1 90 3d
       0.22068454 -0.13384584 0.12441618 0.07071264
0000a0 43 b6 01 3d 13 36 54 be 5f 3b f2 3d 95 e2 14 3e
       0.03166796 -0.20723753 0.118277304 0.14539559
0000b0 df f1 80 bc 55 f5 5b be 9c eb 61 3d f9 0f 38 be
       -0.015740333 -0.21480305 0.055156335 -0.17974843
0000c0 c5 23 9d 3d c0 c8 fb bc f7 e6 07 3d a4 b0 a4 bd
       0.07672838 -0.030735373 0.03317925 -0.08041504
0000d0 aa 3c f4 3c b4 19 04 3e 50 31 d7 bd d8 0c e9 bc
       0.029814083 0.1290043 -0.105074525 -0.028448507
0000e0 98 93 c9 bc 3c 78 c2 bd 03 c0 58 3c 40 2c 1f be
       -0.024606511 -0.09495589 0.013229373 -0.15544224
0000f0 3a 7c 86 bd 8b 71 b6 3c 5c 9b 87 bd 42 63 1d 3e
       -0.06566663 0.022270938 -0.06621429 0.15369895
000100 d0 1b 8f 3c 30 b8 0e be 10 f7 2c 3d 65 6e 87 3d
       0.017469317 -0.1393745 0.042227805 0.06612853
000110 c1 37 33 3e 31 25 59 3d b5 f4 b2 3b f7 69 0d be
       0.17501737 0.053013984 0.0054613003 -0.13809954
000120 8b 23 e4 bd 87 e2 c6 bc 2b 44 0e 3d ec 89 e4 3c
       -0.11139592 -0.024277939 0.03473298 0.027897798
000130 42 af 08 3d 82 4a f3 3d 93 bc de 3d a9 c1 85 3d
       0.033370264 0.118794456 0.108758114 0.06531078
000140 3c f3 ed 3c a8 fb 07 3e 79 d9 0a be e2 d2 9f bd
       0.029046647 0.13279593 -0.13559522 -0.078038946
000150 de c6 9c bd 30 68 ea bd 17 8d db 3d 61 0d 80 bd
       -0.076551184 -0.114456534 0.1072027 -0.06252552
000160 9e cf db bd 3f 26 67 bd d3 59 07 3e 69 eb b2 3d
       -0.10732959 -0.05643296 0.13217859 0.08736307
000170 02 17 74 bd 3e ca 46 3d 02 9c 8a 3d c7 c3 0a be
       -0.059592254 0.048532717 0.067680374 -0.13551246
000180 85 54 63 bd eb e4 75 bd 6f 2a 97 bd 36 e8 09 3e
       -0.055500526 -0.060032766 -0.073811404 0.13467488
000190 60 21 15 3e 98 60 51 3d 50 68 aa bd 96 f0 1d be
       0.14563513 0.05111751 -0.08320677 -0.15423808
0001a0 fa 6d 7c 3d 55 e8 f6 3d c2 0d 04 3e 32 7e 35 3c
       0.06162832 0.120560326 0.12895873 0.011077451
0001b0 ad 2e 22 3e 12 df 5e 3d 37 e1 16 3e 02 ae cf bd
       0.15838118 0.054411955 0.1473435 -0.10140611
0001c0 56 d6 88 bc 30 83 3d bc 17 bb 46 3d a2 3d f4 3d
       -0.016703766 -0.011566922 0.048518267 0.11925818
0001d0 dc 4b d4 bd 5f bb bf 3d 34 d7 12 3e de 27 34 3c
       -0.103660315 0.0936191 0.14339906 0.010995833
0001e0 57 a7 d7 bd 1b 24 6d be f4 99 dc 3d 3f 29 33 3e
       -0.105299644 -0.23158304 0.10771552 0.17496203
0001f0 03 9d df bd a3 c9 b6 3d aa 03 e4 bd 74 c1 02 be
       -0.109186195 0.08925178 -0.11133511 -0.12769109
000200 77 46 a6 3d 4d bb cb 3c 1a fd d5 3c 64 75 13 3d
       0.08118909 0.024869585 0.026121665 0.036000624
000210 f9 8d f2 3d fa 52 dd 3c da 47 88 bd da 8a 5c 3d
       0.118434854 0.027017105 -0.066543296 0.053843357
000220 09 ca d0 3d 31 7b 89 bd 03 d6 03 3d f6 6b 3a be
       0.10194785 -0.0671295 0.03218652 -0.18205246
000230 d3 47 9b bd 61 1e a8 3d 06 78 18 be 37 a8 d2 3d
       -0.07582059 0.08208919 -0.14889535 0.10285991
000240 88 fa b9 3d ef 47 48 bc 0e aa 9b 3d 07 f7 1e 3d
       0.09080988 -0.012224182 0.07600795 0.038809802
000250 59 fb 97 3d 3e b0 d3 3b 1a 87 d1 bd 17 04 4b be
       0.07420988 0.0064602187 -0.10230847 -0.19825779
000260 2e 2b fc bc 70 72 3c bd 4b 1a 37 be fa 6b 21 3e
       -0.030782308 -0.046007574 -0.17881124 0.15763846
000270 1c a4 52 bd a1 5d 1c 3d 10 d6 6f 3d e8 b4 16 3c
       -0.05142604 0.03817523 0.058553755 0.009198405
000280 ae 7e 08 3e 1a 49 f6 b9 86 e5 20 be 4e 89 46 bd
       0.13329574 -0.0004697524 -0.15712556 -0.048470788
000290 dd e9 05 3e 36 ae e3 3d ab eb a9 bd 6d 18 6b bc
       0.13077493 0.111172125 -0.08296903 -0.014349085
0002a0 26 55 30 3e a3 a0 00 3e b8 8c 46 3d 1c 11 a8 bd
       0.17219982 0.12561278 0.048474044 -0.08206388
0002b0 a4 5a 0e be 97 9a 0a bb a9 75 37 bd ad 54 98 3d
       -0.13901764 -0.0021149272 -0.044789944 0.074380256
0002c0 63 04 62 3d 1c af 58 3d 28 6b eb 3c 14 e2 d0 3d
       0.055179965 0.052901372 0.02873762 0.10199371
0002d0 ae 4f d3 3d c3 6b 6b 3d 78 1c 59 bd 3d da bd 3c
       0.10317932 0.057475816 -0.053005666 0.023175353
0002e0 3b f8 3d 3d cb 06 bc 3b 22 18 b3 3d ed fc 02 bb
       0.04637931 0.0057381145 0.08744837 -0.0019987181
0002f0 d4 84 b4 3d 75 c6 8b 3c 8e 76 cb 3d 0a 75 44 be
       0.088143975 0.017062405 0.09934722 -0.19185272
000300 c2 70 d0 bd e4 63 29 3e e3 33 17 3e f3 41 2b bc
       -0.10177757 0.16542011 0.14765887 -0.010452735
000310 7c 9d 4b 3e fb 32 e5 bd 26 bd 56 3e 4b d4 fd bd
       0.19884294 -0.111913644 0.20970592 -0.12394007
000320 9c d4 76 3c 06 2a 91 3c c3 d5 bd bd 8c f7 87 bc
       0.015065338 0.017720234 -0.092692874 -0.016597532
000330 06 c0 e9 bd 5f 44 7a 3d 30 3c 01 3c 06 87 a6 3d
       -0.11413579 0.06110036 0.007887885 0.081312224
000340 96 77 65 3e 93 54 7b be 7b 0b 3a 3e 33 80 81 3e
       0.224089 -0.24543981 0.18168442 0.2529312
000350 af 23 ff bd 4d 95 88 3c b4 be 2b be ba 20 cd bd
       -0.12457978 0.016672755 -0.16771966 -0.10016008
000360 8e ff 05 bc 93 72 4d bd dd ed 15 bd ec a8 c6 3d
       -0.008178605 -0.050158095 -0.036603797 0.09700188
000370 60 90 d3 bd c1 05 ae 3b f5 48 50 3d de 18 f8 3d
       -0.10330272 0.0053107445 0.050850827 0.12114118
000380 a5 7f 09 bc c8 72 ba 3d 54 ae bd 3c 19 a1 8a 3d
       -0.008392249 0.09103924 0.023154415 0.06769008
000390 85 0e ce 3d 50 ae 9c 3c 9e c1 db 3d 64 53 2f 3e
       0.10061363 0.019126087 0.10730289 0.17121655
0003a0 f9 93 33 be 05 78 ca 3d 53 8f 9d 3d cc 5a 7f 3d
       -0.17536916 0.09886173 0.076933526 0.06234245
0003b0 2f 34 7a 3d e9 87 18 3d 5b bb 0d 3d 96 b7 e3 bd
       0.061084922 0.03723899 0.034602504 -0.111190006
0003c0 25 75 5b 3d 42 a8 eb 3d 71 a6 81 3d 71 ac 95 3d
       0.053578515 0.11506702 0.06330574 0.07308281
0003d0 7a 57 f3 3d 86 2d 16 be 3e 21 4e 3d 0c aa 55 bd
       0.11881919 -0.14665803 0.05032467 -0.052164122
0003e0 e5 49 85 3d 0c e0 a6 bc b6 cb 89 3d 96 79 81 bc
       0.06508235 -0.020370506 0.06728308 -0.015805047
0003f0 40 f9 6c 3b 77 eb e3 bd 66 f8 22 3d 30 39 a0 bd
       0.0036159307 -0.11128896 0.039787672 -0.07823408

weight_hh_l0 f4 [200, 50]
000000 c1 d3 b8 3c 3b df a3 bd 59 c3 2f bd ed 7a 68 be
       0.02256191 -0.08001562 -0.042910907 -0.22703142
000010 00 2d a2 3d e7 e9 73 3e 37 76 46 3d 11 48 6d be
       0.07918739 0.23819695 0.048452582 -0.23172022
000020 45 9c 92 bd b2 b7 26 3e a6 11 3c 3e 1e 83 f6 bd
       -0.07158712 0.16281012 0.18366107 -0.12036727
000030 d5 d9 83 be 4f 86 a6 bd b1 59 9e 3c 3d 6e 35 3e
       -0.2575213 -0.08131086 0.019329878 0.17717834
000040 e3 6b 69 bd 9a 78 e9 3d 95 80 ca 3d 84 05 b3 bd
       -0.056987654 0.11399956 0.09887806 -0.087412864
000050 ca 4b 2f 3e b2 29 d9 bb 49 04 15 bd 9d 5d 98 3d
       0.17118755 -0.006627285 -0.03638104 0.0743973
000060 69 ad 3d be dc 2b a9 bd 69 e5 76 3c 91 07 b9 3b
       -0.18523182 -0.08260319 0.015069344 0.005646654
000070 9b 6b 1c 3e f9 7d 86 be ba 9b 31 3e 44 72 ec bd
       0.15275423 -0.26267985 0.17344561 -0.11545232
000080 b5 08 ff bd e0 49 87 be 03 01 d9 3c e9 71 a3 3d
       -0.124528326 -0.2642355 0.02648974 0.07980711
000090 f9 b1 27 3e 63 67 70 be 95 dd a0 bd 66 48 85 bd
       0.16376485 -0.23476939 -0.078547634 -0.065079495
0000a0 5b 51 1c 3c b1 c8 c3 3b ae cf 86 bd 1e cc 47 3d
       0.009540881 0.005974852 -0.065825805 0.048778646
0000b0 f5 3e 34 be 45 d6 7c bd 6d f7 87 be b3 4f 2d bd
       -0.17602141 -0.06172778 -0.26555958 -0.042312335
0000c0 fe b9 5f 3e bb c9 8a bd ca 32 a1 bd ae 01 1f bd
       0.21848294 -0.06776758 -0.07871015 -0.03881996
0000d0 84 cc 1c 3c 8d 14 77 3d ae c3 09 3e e5 60 ae bc
       0.009570245 0.060322333 0.13453552 -0.021286437
0000e0 99 03 15 3e 39 ad 56 bc 07 b0 e7 3b db 44 95 3d
       0.14552154 -0.013102823 0.0070705446 0.07288524
0000f0 01 fe c4 3d c9 2e 19 3d 83 cd 34 be eb db a2 bd
       0.0961876 0.037398133 -0.17656521 -0.07952102
000100 75 27 c8 bd 35 f5 9f bd 61 dc 3d bd 51 55 37 3e
       -0.09773151 -0.078104414 -0.046352748 0.1790364
000110 83 24 3d 3e 70 8e 8a bd a7 26 23 3d 80 c6 96 3d
       0.1847096 -0.06765449 0.039831784 0.073620796
000120 83 c6 19 bd 40 41 bf bc d7 b3 21 be 27 ab 13 be
       -0.03754283 -0.023346543 -0.1579126 -0.14420758
000130 0b f6 23 3e 92 50 e4 bc db 54 94 3d e7 5f 95 3d
       0.16011827 -0.02787045 0.072427474 0.072936825
000140 4c 17 56 b8 2d 20 21 be 6c b6 26 be df 7d 1d be
       -5.1043273e-05 -0.1573493 -0.16280526 -0.15380047
000150 2e 79 a5 bb 40 f0 4c 3e ec ee 1d bd 48 82 1f 3d
       -0.005049846 0.20013523 -0.03855793 0.038942605
000160 77 f9 e9 3d a8 f5 f4 bd 37 18 ba 3c 04 17 24 be
       0.11424535 -0.11960918 0.022716625 -0.16024405
000170 53 dc d6 bd 59 e2 5b 3d 45 28 21 be 1f 02 bc bd
       -0.10491242 0.05368266 -0.15738018 -0.09180092
000180 4f 85 36 be d1 20 a3 bc 30 55 92 bb c9 ba 4e bd
       -0.1782429 -0.019913109 -0.0044657215 -0.0504711
000190 c6 71 17 be 01 2b 16 bd d5 36 b7 bd 0c 82 01 3d
       -0.14789495 -0.036662105 -0.08946005 0.031618163
0001a0 a6 cc b3 3d 5b 00 59 3e 44 fc 27 bd c7 dc b3 bd
       0.08779268 0.21191542 -0.041012064 -0.08782344
0001b0 97 fb c0 bc ba 3c 09 3c 79 54 fe 3d 32 6e 9a bd
       -0.023557467 0.008376295 0.12418456 -0.07540549
0001c0 5f 87 62 3d 45 2e 0b be 53 be e4 3d c7 5e 37 3d
       0.05530488 -0.13591869 0.11169114 0.04476812
0001d0 1e 1f 9b 3d fb 28 2a 3e 8f e9 dc 3d 50 ba 5c 3d
       0.075742945 0.16617195 0.10786735 0.05388862
0001e0 09 42 35 3e e8 63 2e 3e e3 39 21 3e 91 36 36 bd
       0.17700972 0.17030299 0.15744738 -0.044485632
0001f0 e7 2e a1 bd be 91 2b be 00 83 b8 bd 43 ef 09 be
       -0.07870274 -0.16754815 -0.09009361 -0.13470177
000200 dc df 3b 3e 2c 0f 32 be 24 8c 8f bd b6 05 9a bd
       0.18347114 -0.173886 -0.070091516 -0.075206205
000210 1e 36 dc 3c b0 06 51 bd d2 59 0f be dc d3 b2 bc
       0.026881274 -0.05103177 -0.13999107 -0.021829538
000220 b1 75 43 3e 3d fc a7 bd ef c5 01 be db e5 22 be
       0.19087864 -0.082024075 -0.12673162 -0.15907995
000230 4c 96 83 3e fd 0d 36 bd ee c0 75 be 73 a8 d3 3d
       0.25700605 -0.044446934 -0.23999378 0.103348635
000240 8a 50 07 be 48 ce d6 3b 8e 88 5b be 7e 10 89 bc
       -0.13214317 0.0065553524 -0.2143881 -0.016731497
000250 85 1a c5 3d ab 1c 26 be c9 77 16 bc 9a dc 5b 3d
       0.09624199 -0.16221873 -0.009183832 0.05367718
000260 5b 18 6e 3d bc 98 18 be 71 a1 a6 bd 65 73 9c 3d
       0.058128696 -0.14902014 -0.08136261 0.07639197
000270 e7 1b 2b 3c 19 ba 93 3d b1 46 32 be 85 49 1c 3e
       0.010443664 0.0721323 -0.17409779 0.1526242
000280 ee 13 ab 3d 1c 26 97 3c ea 80 5b 39 02 7f 6c 3d
       0.08353411 0.01845079 0.00020933492 0.05773831
000290 4b d4 19 3e 12 ea b8 bc 68 29 bb bd 98 dc 3b 3d
       0.1502239 -0.02257255 -0.09138757 0.04586467
0002a0 f4 85 ec 3d 19 32 a7 bc 65 ba c6 3d 40 f3 8e 3c
       0.11548987 -0.02040963 0.09703521 0.017449975
0002b0 a8 06 48 3d 03 02 ab bd 4a 10 85 3d bb ab b3 3d
       0.048834473 -0.08349993 0.064972475 0.08772989
0002c0 44 71 0a be 24 ca b5 bc 93 d4 93 bd 47 b9 62 3d
       -0.1351977 -0.022191115 -0.0721828 0.055352475
0002d0 15 78 c7 3d 6a cc 43 bd 51 32 99 bb 95 ca 94 3c
       0.09739701 -0.047802366 -0.0046751876 0.018163005
0002e0 13 cb 3d 3e af 95 13 bc 16 ed 19 3e 7b 51 a2 3d
       0.18534498 -0.009007855 0.15031847 0.079256974
0002f0 79 17 f5 bc 96 0b fa bc 71 f9 ca 3d a2 22 57 3e
       -0.02991842 -0.030523103 0.099108584 0.21009305
000300 2a 31 24 be 8f e1 2e 3e 61 64 87 bd 62 71 2c 3d
       -0.1603438 0.17078231 -0.06610943 0.042100318
000310 aa af c1 3d 06 fa 6b 3d 62 5d 5a bd 91 6f 85 3d
       0.094573334 0.057611488 -0.053311713 0.0651542
000320 35 17 46 3e 6d 78 3c be e0 2a 87 3c 23 e0 a9 b9
       0.1934479 -0.18405314 0.016499937 -0.00032401187
000330 27 49 38 bd bf 85 92 3d 34 d0 37 3e 32 71 7e bc
       -0.04499164 0.07154416 0.17950517 -0.015529918
000340 3d 8d d5 3b 24 58 73 bd 68 07 eb 3b 15 5b 31 3e
       0.006517081 -0.05941023 0.0071725138 0.17319901
000350 3f 65 17 bc b8 51 c2 3c e4 63 bd bc cb 1a 25 3e
       -0.009240448 0.023720607 -0.02311892 0.16123502
000360 d8 a5 ce bd 4e 6b 5e 3e c2 fa 0e bd 23 48 b8 bd
       -0.10090226 0.21720621 -0.03490711 -0.08998134
000370 f7 be 97 3d 36 8b 08 bc fe cc b4 bc 60 e4 f8 3d
       0.074094705 -0.008333972 -0.022070404 0.12152934
000380 f3 8d d7 bd 58 62 0b bc 2b 44 b8 3d 62 bb ff bd
       -0.105251215 -0.008507334 0.08997377 -0.12486912
000390 13 ce e6 bc 73 18 c7 bd 6c 39 08 bc 57 64 01 3e
       -0.028174436 -0.0972146 -0.008314472 0.12635933
0003a0 66 87 15 be 48 97 6f 3b 8d 15 ef bc 96 3c 8a bd
       -0.14602432 0.0036558677 -0.02918508 -0.06749837
0003b0 3e 82 61 bb 6c cd 2a 3c 04 72 c6 bd e8 de 28 be
       -0.0034409906 0.010424953 -0.096897155 -0.16491282
0003c0 8b 1e 6e 3e 29 b7 5a 3e 87 20 ce bd 22 ea ab 3d
       0.23253839 0.21358933 -0.10064798 0.08394267
0003d0 0a fa 91 3d b6 89 f3 bd dc 0e f4 bd 5a 0c c7 3d
       0.07127769 -0.11891501 -0.11916897 0.09719153
0003e0 c7 52 3c bd ca 9a 38 3c 7b c6 02 3d 22 20 04 be
       -0.04597738 0.011267373 0.031927567 -0.12902883
0003f0 76 15 1b bc 7a 9d 5a be 6d 94 b1 bc 76 1e 39 3e
       -0.009465566 -0.21349135 -0.02167722 0.18078026

bias_ih_l0 f4 [200]
000000 2a ec 97 3d d6 90 ae bc 70 85 74 bd 88 ce 21 3e
       0.074180916 -0.021309298 -0.05969757 0.15801442
000010 a2 e1 0c bd 0f 04 3d bc ff 6c 84 3d 93 8d b3 3d
       -0.034394868 -0.011536612 0.06466102 0.087672375
000020 75 25 bf 3d 13 17 40 bc f9 63 31 3e f6 88 91 3b
       0.09333316 -0.011724251 0.17323293 0.004441376
000030 2c 58 2b bd 04 d8 79 bc 54 50 33 3e 3d 60 69 3e
       -0.041832134 -0.015249256 0.17511111 0.22790618
000040 66 31 a6 bc ff 08 29 bc 58 b3 1d 3e 98 7b 0b 3e
       -0.020287227 -0.010317086 0.15400445 0.13621366
000050 4c c6 0f 3e 75 d9 b3 bd 76 26 24 bd a5 ab a6 3d
       0.14040488 -0.08781711 -0.04007574 0.08138207
000060 d4 53 90 3a cb 05 d1 3c f6 6c 86 bd ed ba 1d 3e
       0.0011011311 0.025515458 -0.065637514 0.15403338
000070 6b c9 b0 3d fe 3f 34 3e 42 18 8b b9 3f 7e 25 3e
       0.086321674 0.17602536 -0.0002653022 0.1616144
000080 31 3e 03 3e 9a c3 ad bc f0 9a d4 3d a0 36 ba 3d
       0.12816693 -0.021211434 0.103811145 0.0909245
000090 6e 6b 2c 3c aa 4d 24 3e 17 d8 61 3e 4b 70 6e bb
       0.01052366 0.16045251 0.22055088 -0.003638285
0000a0 43 a8 c3 3a 55 6c 6c 3e 8f a1 4e 3d 26 0c 85 3d
       0.0014927465 0.230882 0.050447043 0.06496458
0000b0 46 97 23 3e 8d 1d 8e bd ae 77 5d 3e 8e 50 fc 3d
       0.15975675 -0.0693923 0.21627685 0.12320052
0000c0 86 f1 9a bc ab 33 f8 3b bc 1a 87 3d 7c 68 09 be
       -0.018913995 0.0075745187 0.06596896 -0.13418764
0000d0 95 19 2a 3e 8b 34 a7 bd ae fe 17 3e b9 9f 38 3d
       0.16611321 -0.08164319 0.14843246 0.0450742
0000e0 6a 4a 5b 3d ad 48 60 3d e1 93 c1 3d 48 ba d2 3d
       0.053537764 0.05475681 0.09452034 0.102894366
0000f0 5e 39 11 3e 3f d0 4f 3d 36 d9 54 3c 7a f3 7e bd
       0.1418204 0.05073571 0.01299124 -0.062243916
000100 0a fd 27 3d 8c 99 08 3c 56 38 15 bc cc 1f a9 3d
       0.0410128 0.00833739 -0.00910767 0.08258018
000110 19 4b 6f bd 98 bb cc 3c 13 28 8b 3d 73 45 21 3d
       -0.058421228 0.024991795 0.06794753 0.039372873
000120 bb b3 87 3d 6b 3c 92 bd 91 15 b3 bc 0c e4 9a bb
       0.06626078 -0.0714043 -0.02186087 -0.0047268923
000130 37 b7 c3 bd 16 da ef 3d 16 11 11 3e 31 04 99 bd
       -0.0955643 0.117115185 0.14166674 -0.074715026
000140 fe d2 2d 3d d7 7a da 3d 6a f9 30 3e d3 66 17 3d
       0.042437546 0.10667961 0.17282644 0.036963295
000150 40 80 2e 3e fa e7 89 3d 50 ac 6e bd 89 00 b2 bd
       0.17041111 0.06733699 -0.0582698 -0.08691508
000160 05 93 2b bc f5 9e 44 bd ca 4b de 3d b0 46 9a bd
       -0.010472064 -0.048003156 0.10854299 -0.07533014
000170 d0 a5 d5 bb 75 89 83 3c 2b 78 37 3e d8 5b 00 be
       -0.0065200105 0.016056756 0.17916934 -0.12535036
000180 22 f2 d0 3d 58 b2 7f bd 94 0d ac 3b aa 3b e4 3c
       0.10202433 -0.06242594 0.005250642 0.027860481
000190 02 8e b5 bd d1 da 39 be 7e 87 9d bd 99 43 a4 bd
       -0.088649765 -0.18149878 -0.07691859 -0.08020706
0001a0 e8 a9 af 3d 6a 71 e8 bd 7b b3 d1 3d e6 4f 8d bc
       0.08577329 -0.11349757 0.10239311 -0.017250013
0001b0 40 89 02 3d 70 36 42 3d 95 8f 00 be e3 75 85 bd
       0.031869173 0.047415197 -0.12554772 -0.06516626
0001c0 35 7d 44 3c 7b c0 c4 3c 29 6a 6f 3d 41 62 03 3e
       0.011992742 0.024017563 0.05845085 0.1283045
0001d0 41 60 2b be 59 35 ed 3d e0 a2 df 3d 0d 54 5b bc
       -0.16735937 0.11582441 0.10919738 -0.0133867385
0001e0 62 f7 a6 bd f3 e0 03 3e 9e 07 48 3e 13 c7 bc 3d
       -0.08152653 0.1287878 0.19534156 0.09217658
0001f0 6c 57 2a bd 68 b3 32 3d 17 66 81 bd c1 a1 55 3d
       -0.04158728 0.043628126 -0.063183 0.052156214
000200 4d 01 52 3d da a7 d4 3c 53 7a 13 3d ba 81 d4 bd
       0.05127077 0.025958944 0.03600533 -0.10376306
000210 25 83 7e bd 6b 7d 68 bd 1e 14 ab 3c f5 f9 1f 3e
       -0.062136788 -0.056760233 0.020883616 0.15622695
000220 e7 76 45 3d 0a 63 9f 3d 46 5c f9 bd 98 4b b6 bb
       0.048209097 0.07782562 -0.12175803 -0.0055632107
000230 f2 4b df 3d 49 f4 0e be 15 13 ef bc 39 b7 49 bd
       0.10903157 -0.13960375 -0.029183904 -0.049247
000240 cd 45 d5 bd bf 46 d9 bd 5a 65 0e be 37 52 1d be
       -0.10413704 -0.10609197 -0.1390585 -0.15363394
000250 b7 78 47 bc cb 04 01 be d9 92 d0 3d 4d ad 1c 3e
       -0.012174777 -0.12599485 0.10184259 0.15300484
000260 86 77 54 3c e7 f2 09 3e 1f 28 49 3e 64 97 38 3e
       0.01296795 0.13471566 0.19644211 0.18026501
000270 ca 2b 42 bd 72 19 10 bc 0f 63 42 3e 22 47 ea 3d
       -0.04740504 -0.008795129 0.189831 0.11439349
000280 06 dd 5e bc ff 09 ec 3d ea 9a 8a 3d 4c fa 88 bc
       -0.013602501 0.11525344 0.06767829 -0.016720913
000290 3b 45 f3 3d ee d4 01 3e ab ad 33 3e 85 44 56 3e
       0.11878439 0.12678882 0.17546718 0.20924576
0002a0 44 90 d4 3b 86 f4 23 bd 51 e9 0f 3e 89 26 b5 3c
       0.0064869244 -0.040028118 0.14053847 0.022113102
0002b0 88 ed 68 3e 45 dc 05 3e aa f9 91 3c e8 30 35 3e
       0.22746861 0.13072307 0.017819244 0.17694438
0002c0 37 fe 55 bd d8 21 c9 3c 5e 87 20 3e fa f8 07 bc
       -0.05224439 0.02455227 0.15676638 -0.008299107
0002d0 d5 c9 83 3b 73 1c 09 3e e4 db 86 3d 9c f5 94 3d
       0.004021863 0.13389759 0.065849096 0.07273409
0002e0 60 10 44 bc 12 e7 91 3d 38 6d 16 3d 70 da 43 3e
       -0.011966795 0.07124151 0.036725253 0.19126296
0002f0 0c 3e 51 3e 61 52 1d 3e b9 c7 39 bc 89 4a 65 3d
       0.20433825 0.15363456 -0.0113391215 0.055979285
000300 b8 e1 88 3d 8f 0d 28 3e 63 db 09 3e 0c b9 37 3e
       0.066836774 0.16411422 0.13462596 0.17941684
000310 87 3f 8f 3d df 4a 36 3d 2d 25 c8 3d 56 c6 31 3e
       0.06994539 0.044504996 0.09772716 0.17360815

bias_hh_l0 f4 [200]
000000 60 cb 22 3d 88 26 ae 3d 05 89 19 bd 4a ec 6d 3d
       0.039744735 0.08503443 -0.037484188 0.05808667
000010 44 f4 0d bd 4c 19 b8 bc c0 fa 02 3d 46 aa 43 3e
       -0.034656778 -0.022473 0.031977415 0.19107923
000020 38 72 e8 3d 26 89 59 3c d3 fa f0 3d eb d6 57 3e
       0.113499105 0.013277328 0.11766591 0.21078078
000030 47 fd e3 3d c8 0c 4d bd 54 fb 3b bd dd cb 09 bd
       0.11132293 -0.050061017 -0.045893982 -0.033641685
000040 9c ae 0a 3e 99 44 73 bd 36 9a 00 3e a3 a4 ee 3d
       0.1354317 -0.05939159 0.12558827 0.11652496
000050 c3 cb a5 3d 62 fc 29 3d e3 a4 1b 3e f8 04 ad bc
       0.08095505 0.041500457 0.15199618 -0.021120533
000060 ef df 5b 3e d9 1a 57 bc f2 20 09 3d e1 f3 38 bd
       0.21472143 -0.01312896 0.033478685 -0.045154456
000070 f2 d4 40 3e 28 58 70 bd 42 16 fc 3d 1f f9 0e 3e
       0.18831232 -0.058677822 0.12308933 0.1396222
000080 44 38 72 3c 94 37 b1 3c 4c 81 29 bc 4a 12 86 bd
       0.014783923 0.021632947 -0.010345768 -0.06546457
000090 1b b4 c7 bd 82 41 02 3e b9 d4 b5 3d 15 6f 03 3e
       -0.09751149 0.12720302 0.08878464 0.12835343
0000a0 ae 38 b1 3d 78 d8 f9 3d 16 71 38 3e b1 f3 4e 3d
       0.08653389 0.12199491 0.18011889 0.05052537
0000b0 3e dd b7 bd fe d5 e0 3c e1 ce 68 3d 45 2c 08 3e
       -0.089777455 0.02744579 0.05683792 0.13298137
0000c0 64 43 48 3e d1 01 90 3d 3c 31 67 bd c6 29 03 be
       0.19556957 0.070315965 -0.056443438 -0.12808904
0000d0 61 ed 2a 3e dc d1 8d bd aa 19 7c 3c bc 58 06 3e
       0.16692115 -0.06924793 0.015386978 0.13119787
0000e0 af 37 a3 3d 37 97 ca 3d 62 08 6d 3d 24 12 83 3d
       0.07969605 0.09892123 0.057869323 0.063999444
0000f0 dc e8 1e 3e ad 74 4c 3b 4b 09 86 3d d5 41 7c bd
       0.15518516 0.0031197474 0.06544741 -0.06158622
000100 6d d1 32 bd 56 04 aa bd 81 9b a1 3d 51 b5 c7 bd
       -0.043656755 -0.08301608 0.07890988 -0.0975138
000110 99 17 ad bd 45 44 d9 3d ae ab 29 3e 79 a5 f8 3d
       -0.084517665 0.106087245 0.16569397 0.121409364
000120 e5 7c 9c 3d e0 96 61 bd bb 24 0e 3e d7 79 cc bd
       0.07641009 -0.055075526 0.13881199 -0.099841766
000130 49 1b 94 3b 98 a4 b6 bc a2 16 f4 bc 8e ee 78 bd
       0.004519854 -0.022295281 -0.029795948 -0.06077438
000140 40 bc c9 3d 6c f4 cb 3c 06 4f d1 3d 37 40 33 bd
       0.09850359 0.024896823 0.10220151 -0.043762412
000150 46 7d 54 3e 3b b1 00 3e 47 6a a6 3c cd f7 8f 3d
       0.20750913 0.12567608 0.020314349 0.07029686
000160 e1 17 c8 3d be a8 cd 3d 0f 63 36 3d b0 0e fa 3d
       0.097701795 0.10041951 0.044528063 0.12209833
000170 aa 16 18 3e 58 5f 37 3e f4 5f e0 3d fc 88 f1 3d
       0.14852396 0.17907465 0.109558016 0.11793706
000180 8b 1b 27 bd a7 5a fe 39 d9 cf b7 bd 5a 8c 50 bd
       -0.04079775 0.00048514197 -0.08975191 -0.0509151
000190 b5 52 d6 3d 3d 80 3e be 83 3b d2 3d 16 1f c0 3c
       0.10464994 -0.18603607 0.10265257 0.023452323
0001a0 d8 12 3e 3c 3b 2d d4 bd 98 10 34 3e c4 77 17 3d
       0.011601172 -0.103601895 0.17584455 0.03697945
0001b0 a4 47 df bd 26 eb a8 3b 28 28 9f bd 78 ab ef 3d
       -0.10902336 0.005154985 -0.07771331 0.11702627
0001c0 03 73 f5 bb 77 d7 39 bd 4a c3 20 3e a9 7b 18 3d
       -0.007490517 -0.0453715 0.15699497 0.037227307
0001d0 d6 96 bc bd 54 ec 2c 3e 28 b4 14 bd 96 d6 13 3e
       -0.09208457 0.16887027 -0.036304623 0.14437327
0001e0 6d c2 f6 3d 9e c3 a0 bd 7c 1f 37 3e 5f 60 c3 3d
       0.120488025 -0.07849811 0.17883104 0.09539866
0001f0 21 78 03 bc 87 1e d5 bd 61 98 03 3e c7 ac 9c bd
       -0.008024246 -0.10406213 0.12851097 -0.07650142
000200 4c c1 ae 3d 11 57 82 bd 06 a9 b0 3d 1d 28 d3 3d
       0.08532962 -0.06364263 0.08625989 0.103103854
000210 ac 3a 3c 3c fd 86 af 3d 72 04 a4 bd cd df 0e bd
       0.011488598 0.08570669 -0.080086604 -0.0348814
000220 9d 1a 54 bd 64 a5 d6 3d f1 a2 ea bd 88 d9 07 3e
       -0.051783193 0.104807645 -0.1145686 0.13266575
000230 b8 c8 a1 bd f1 9f f6 3d ff 7b af bb 38 ac 09 3e
       -0.07899612 0.12042225 -0.0053553577 0.13444602
000240 28 26 f4 bd 63 2a a0 bd 71 68 82 3c 68 19 bd 3b
       -0.1192134 -0.078205846 0.015918942 0.005770851
000250 ea e1 7b bd 09 57 43 bd f1 de 47 3d 46 1a 9b 3d
       -0.061494745 -0.047690425 0.048796598 0.07573371
000260 e3 09 b9 3d 6f a3 77 3d 5d 4a 5e 3d 06 9c 2c bd
       0.09035089 0.060458597 0.054270137 -0.042140983
000270 7f 4f b6 3d 58 e2 d2 3c 42 9f 53 3e c2 28 1c 3e
       0.089018814 0.025742695 0.20666221 0.15249923
000280 d7 66 42 3e 6f 17 83 3b 47 dc 12 3e ee 73 b8 3d
       0.18984543 0.0040005962 0.14341842 0.09006487
000290 31 51 96 3d 4b 7e 54 3d 56 38 22 3e da 6e 8f bd
       0.07339705 0.051878255 0.15841803 -0.07003565
0002a0 6d ca 1d 3e 0d 17 2e 3e b8 76 8c 3d 77 8f e5 3d
       0.1540925 0.1700098 0.06858581 0.11209004
0002b0 a1 5e 3f 3e 67 e6 95 bd 4d 85 31 3e 40 92 53 3d
       0.18688442 -0.073193364 0.17336006 0.051653147
0002c0 dc ed 2a 3e 21 bc 93 3c 0d 06 1f bd ee 07 d6 bb
       0.16692299 0.018034043 -0.03882413 -0.006531707
0002d0 a1 65 e6 3d e9 de d1 3d 05 40 48 3e b6 24 16 3e
       0.11249853 0.10247595 0.19555672 0.14662442
0002e0 c0 ce 52 3e fd ee 96 3d 88 3a 68 3d 05 3f 07 3e
       0.20586681 0.07369802 0.056696445 0.13207634
0002f0 ae dc 1d 3e 4f c0 2b 3e f3 34 07 3e 68 1c 0a 3e
       0.15416214 0.16772579 0.13203792 0.13487399
000300 b7 10 94 3d 00 e6 bf 3d a1 26 88 3c d1 10 29 3e
       0.072297506 0.09370041 0.016619982 0.16510321
000310 5b ee 9c 3d bb b2 2e 3e 2f ae fb 3d 20 4d b0 3c
       0.0766265 0.17060368 0.12289082 0.021521151

weight f4 [20, 50]
000000 ec 75 8f 3d 28 bc 7e 3e 23 7a 78 3e e3 1d 15 3d
       0.07004914 0.24876463 0.24265341 0.036405455
000010 41 e6 85 be a0 f5 82 be 86 11 84 be 47 02 7b 3e
       -0.26152232 -0.25578022 -0.2579462 0.24512587
000020 06 93 b6 3d 72 46 f5 bd 2d 07 58 be 50 40 9f bd
       0.08914761 -0.11976327 -0.21096487 -0.077759385
000030 0f cc 50 3e 12 bd 53 3e aa 1c 4c be b0 aa d1 bc
       0.20390342 0.20677593 -0.1993281 -0.025594085
000040 90 95 81 3e 65 b2 5f be ac 22 a5 3d 9a 4e 97 bb
       0.2530942 -0.21845396 0.08063254 -0.0046175243
000050 98 8b 84 be 69 42 2d be 76 e3 4e be 6b e6 20 be
       -0.25887752 -0.16919865 -0.20203957 -0.15712897
000060 22 81 90 3e 14 b8 c2 3c 44 9a 12 be 47 3f 6f 3e
       0.2822352 0.023769416 -0.1431666 0.23363982
000070 84 3d 93 be a9 db 3c 3e d5 9a 68 bd 87 f8 47 be
       -0.2875787 0.18443169 -0.056788284 -0.195284
000080 8b d0 53 3e a5 de 4f 3d c5 75 17 3e 98 55 80 be
       0.20685022 0.05074944 0.1479102 -0.25065303
000090 b4 81 83 be 69 ee 33 3e 39 af b7 bd ae b5 21 3d
       -0.25684893 0.17571415 -0.08968968 0.039479904
0000a0 3f 6c 10 be 86 38 46 be 37 50 cb 3d 23 56 64 be
       -0.14103793 -0.193575 0.09927409 -0.22298484
0000b0 36 4d 34 3e 3c cb 85 3e 88 f9 84 3e 39 4d 38 3e
       0.17607579 0.26131618 0.25971627 0.17998208
0000c0 ff 1a 61 be ed 24 a0 3e ab a6 c9 bd fc 8f 2c 3d
       -0.21982954 0.31278172 -0.098462425 0.0421295
0000d0 a5 85 9f bd aa a1 a0 bd a0 59 f3 3c c2 66 fc 3d
       -0.077891625 -0.07843335 0.029705822 0.12324287
0000e0 a1 e7 e0 3c 30 c9 ec 3d 83 34 b3 bd 40 9e 71 bd
       0.0274542 0.11561811 -0.0875025 -0.05898881
0000f0 90 36 e6 3c d3 d7 50 3d 6f 59 bb ba 77 56 f6 3d
       0.02810219 0.050987076 -0.0014293621 0.120282106
000100 bc d0 90 3d 0d b6 1a be 2f da d8 3d 67 ff 99 bd
       0.07071063 -0.1510851 0.1058849 -0.07519417
000110 4b 31 23 bd 49 cd 89 3d 9f f7 f3 3d d2 72 8a bd
       -0.03984193 0.06728608 0.11912464 -0.067601815
000120 59 84 28 be 01 c1 90 bd 20 f4 82 bd 83 55 80 3d
       -0.16456737 -0.070680626 -0.063942194 0.0626631
000130 79 a2 0f be ad 9a 69 3d 18 34 ff 3d 0b 14 7c bd
       -0.14026822 0.057032276 0.12461108 -0.061542552
000140 56 a4 7f bd 99 d4 46 be dd 10 43 be 07 a5 c1 bd
       -0.062412582 -0.19417037 -0.19049402 -0.094553046
000150 3f 9a f1 3d 52 79 96 bd 3d 4c ef 3d 03 32 a9 3c
       0.11796998 -0.07347359 0.11684463 0.02065373
000160 ca e3 a8 3d 9f a1 e6 3c 87 b4 50 be 4b 56 e0 bc
       0.08246572 0.028153239 -0.20381366 -0.027384898
000170 fc ba 01 bd d4 09 5d 3e 87 0c e3 bc 79 5d e7 bc
       -0.031672463 0.2158578 -0.027715934 -0.028242813
000180 92 89 3d be ae b4 55 bc 73 5b 85 3d fe 01 37 3d
       -0.1850951 -0.013043566 0.06511583 0.044679634
000190 4f 92 ce 3c be 5e f2 3d 3a 88 98 3d a0 b6 9a bd
       0.02521625 0.11834477 0.07447858 -0.07554364
0001a0 8d 50 05 3e 96 cc a2 bd 19 03 bd bc f8 52 ce bd
       0.13019009 -0.07949178 -0.023072766 -0.10074419
0001b0 cb ee 78 3d 60 5f 27 3c dd 5d 9d 3c ad c9 b9 bc
       0.060774606 0.01021561 0.019209797 -0.022679174
0001c0 19 f1 20 be 4f 3d a8 3d 1e 0f 7b 3d cf da b3 bd
       -0.15716971 0.08214819 0.061293714 -0.08781969
0001d0 3f 04 4b 3c f0 62 2d 3d 94 1c 12 3e 4f 8a 29 bd
       0.012391149 0.042330682 0.14268714 -0.041391667
0001e0 a5 05 fb 3d d6 52 b8 bc 6b 4d d8 bd f4 bc 27 bc
       0.12256936 -0.022500437 -0.10561641 -0.010237921
0001f0 f1 22 fe bd 03 f9 cf 3d 55 c5 b8 3d a8 e4 d7 bc
       -0.12409008 0.10154917 0.09022013 -0.026354149
000200 ec eb ff 3d 1f dd 35 bd e5 aa 01 3e 8f 37 18 be
       0.124961704 -0.04440033 0.12662847 -0.14864944
000210 01 93 8e bd e9 6c 76 bd c3 b7 97 3c ac bc aa bd
       -0.069616325 -0.06016246 0.018520242 -0.083367676
000220 e8 76 85 bd a5 2d bd bd 7c e9 d9 bd ba 65 3c 3e
       -0.0651682 -0.09237222 -0.10640237 0.1839818
000230 29 01 ed bd 6a d6 e3 3c 6b 48 49 bb 9b 63 ef 3d
       -0.11572487 0.027812202 -0.003071333 0.1168892
000240 4c 9a a7 bb 75 92 89 bc c3 58 31 be 9a e9 f3 bc
       -0.005114829 -0.016793469 -0.17319016 -0.029774476
000250 08 e5 f0 3c 4a c5 c6 3c 01 43 cc 3d 37 1e 0c 3e
       0.029406086 0.024263997 0.099737175 0.13683401
000260 7e f1 50 3d 78 13 bf bd 69 5b 8e 3d a1 af f2 bb
       0.051011555 -0.09329885 0.06951029 -0.0074061905
000270 27 9e dc 3d 51 41 7e bc a2 c8 11 3e 66 30 98 3d
       0.10772353 -0.015518502 0.14236692 0.07431106
000280 a3 af 7f 3d 1d 95 c5 bd 78 b3 04 bd 84 38 85 3c
       0.06242336 -0.09647582 -0.032397717 0.0162623
000290 ef c0 ae bd 91 74 b2 bd a8 98 f2 bd 9d 17 a3 3d
       -0.08532893 -0.087136395 -0.11845523 0.07963488
0002a0 39 a8 a0 3d 8a 32 00 3d 04 50 47 3d 9f bf 81 bc
       0.07844586 0.031298198 0.048660293 -0.015838442
0002b0 94 2e 35 3d 63 71 4f 3d 2f ac f4 bd ab 76 f0 bb
       0.044233873 0.050645243 -0.11946904 -0.007338365
0002c0 d2 14 ad bc 01 f5 9f 3d 4d 24 dd 3d be 64 f6 3d
       -0.021128092 0.07810403 0.107979394 0.12030934
0002d0 4d da 75 3e 29 44 4d bd 8a d7 0b be 19 59 da 3d
       0.24009056 -0.05011383 -0.1365644 0.10661525
0002e0 dd fa 1a 3e 0c de 71 bd 7d e3 7b 3c 91 aa 8a 3d
       0.15134759 -0.05904965 0.015374062 0.06770814
0002f0 80 89 b8 bd 94 dc 9e bc fb 60 06 be 6d e3 87 3d
       -0.09010601 -0.01939229 -0.13122933 0.06635175
000300 a6 6e ba 3d f2 0f 46 3d a4 a3 5e 3c 96 ae 7b bd
       0.09103136 0.04835505 0.01358882 -0.061445795
000310 68 8b 66 3c e1 90 a1 39 60 e9 f9 3c fc 3f 23 be
       0.014071323 0.00030816256 0.03050679 -0.15942377
000320 3b a6 5c bd a5 8f be bd 4b 89 17 3e e0 53 1f 3d
       -0.053869467 -0.09304742 0.14798467 0.03889835
000330 6f 8a 2e 3d 61 54 cc bd 53 4f 70 3d 20 75 86 bd
       0.04261249 -0.099770315 0.0586694 -0.065653086
000340 6e 27 e4 bd 89 3a cb 3d 68 95 e7 bd 13 8a 43 3e
       -0.11140333 0.09923274 -0.11307794 0.1909564
000350 87 9b d8 bd 59 d0 d0 3d 8a 54 82 3d ed 7b a2 3d
       -0.105765395 0.10195989 0.06363781 0.07933793
000360 51 17 ff bd 1d 31 4f bd 75 4a f5 3d 3e 2d 09 bd
       -0.12455619 -0.050583947 0.11977092 -0.033490412
000370 8d 50 93 bd a7 5e f1 bd 6b 8f 16 3e 6b f4 56 3d
       -0.07193098 -0.117856316 0.14703147 0.05247919
000380 f9 c3 d8 3c d8 3a d2 bd 53 fe 69 bd 0b 5e b5 3d
       0.026460635 -0.1026513 -0.057127308 0.08855828
000390 53 06 94 bd 95 1b 3d bd 98 04 26 3e a0 a7 19 bd
       -0.07227769 -0.046168882 0.1621269 -0.037513375
0003a0 fd 59 cd 3d 50 85 28 be 18 f2 8b 3c d3 79 80 bb
       0.100269295 -0.16457105 0.017083213 -0.0039207726
0003b0 5d 19 ab 3d 25 ab 9b 3d e6 66 ad bd e3 d0 28 3e
       0.08354447 0.076010026 -0.08466892 0.16485934
0003c0 47 4f 93 bd cd ed d7 3d f1 eb 02 3e 90 ea e3 3d
       -0.07192855 0.10543404 0.12785317 0.111287236
0003d0 e6 dc 14 bb 75 ad e9 3d ca 70 b6 3d 43 50 52 be
       -0.0022714674 0.114100374 0.089082316 -0.2053843
0003e0 f8 01 e0 bd 13 58 a3 3d 60 7c 5a 3e 48 df 9c bc
       -0.109378755 0.07975783 0.21336508 -0.019149438
0003f0 77 7c bb bd 2f df b4 bb 7d 35 b6 3c d6 65 39 3d
       -0.09154599 -0.0055197696 0.022242302 0.045263134

bias f4 [20]
000000 1f 2a 89 3c 91 90 15 3d 4b 7f 51 3d a7 1d b4 3d
       0.016743718 0.036514822 0.051146787 0.08794718
000010 6a 7f 48 3e f9 02 52 bd 9d b5 1f 3d ba 54 ed bd
       0.19579855 -0.051272366 0.03899156 -0.11588426
000020 d2 f9 c3 bc 15 cd f5 bd 77 1e 32 3b 50 42 83 3e
       -0.023922835 -0.12002007 0.0027178803 0.2563653
000030 52 09 ca 3d 37 50 b0 bb ef 20 df 3d 1d 24 de bc
       0.09865059 -0.005380656 0.108949535 -0.02711683
000040 bc 1b 25 bd d2 b0 1c 3d d0 83 8f 3c 73 43 85 3d
       -0.040309653 0.038254566 0.017518908 0.065070055
