models/TwentyClassifier.pt (torch, 20668 bytes, 11 tensors)

weight f4 [4, 8]
00000000: 24a3 b7bf 0579 6bbf 958a 213f 0e53 3d3f
00000010: 845b a3bf 495d 653d af38 edbe 1252 193f
00000020: 6ad9 5e3f 43a4 0f3f f666 75bf d2b4 dbbe
00000030: 35e4 98bf 1ee2 c63b 1cd2 8fbf b6c2 4a3f
00000040: a61f 313f 791f 8c3f fae1 093f cb00 db3f
00000050: 15ae 2abf 70b8 3bbe ce9d 813f 25f6 86bf
00000060: 3f08 67bf 8271 ecbe 01d5 413f 7bb3 93bf
00000070: 8fd4 6f3f 13f7 58be c33e 923f d87c dfb9
-1.4346662 -0.91981536 0.63102084 0.73954856 -1.2762303 0.055997167 -0.4633231 0.59890854
0.870505 0.5611002 -0.9586023 -0.42911392 -1.1944643 0.0060694357 -1.1235995 0.79203355
0.69188917 1.0947105 0.5386044 1.7109617 -0.6667188 -0.18332076 1.0126283 -1.0543867
-0.9024696 -0.4618035 0.75715643 -1.1539148 0.93683714 -0.21188001 1.1425403 -0.0004262689

weight_ih_l0 f4 [60, 8]
00000000: 283a 9e3b d210 663d 412e 9cbd fad9 f83d
00000010: aa3f e5bd 0780 163e 0c7f 3c3e 2342 27bc
00000020: 2d59 3abe 5f96 7abe 892c b63c 2638 42be
00000030: fab4 3b3d 6602 b7bd c1a2 95bd 9d05 273e
00000040: cc69 6d3d 5283 a7bd f8ab f63d 5142 483e
00000050: eec6 38be 9884 80be 6cc7 263e c7b2 5fbe
00000060: 931b e93d 13c0 4bbe e3cd 813e 8976 7b3e
00000070: 55b8 a73d 0145 7ebc 4ea1 8c3d 5ccb d03d
00000080: c4a9 063e 46d0 22be 031a 07bd 3523 0a3e
00000090: 26bd cfbb 5c34 b23c 24b0 ab3d 3652 73be
000000a0: a475 193e 732d 57be d03c a9bd fa5a a4bd
000000b0: 2b65 63be 9674 5dbd 091b 48be 072e e33d
000000c0: 8516 e03c f4f0 3f3e 7654 563e 0e12 acbd
000000d0: 850a 183c 4cfb 17be a5a2 71be 1bf8 803e
000000e0: 3138 febd c6b4 793d a1f0 8cbd 0f5f 3fbe
000000f0: 3820 c2bd 470a 803d b11c 0d3e b47a 4b3e
00000100: 09cd e1bd 142a c5bd ebf8 92bd 2688 40bd
00000110: 82f3 603e 7e73 803d 15e5 1a3d fef7 153d
00000120: 74a1 f33d 1e52 5bbe caf5 eabc 42e1 663e
00000130: b2c7 0abe c6d6 6fbe 2eb0 05be 6855 dcbd
00000140: 97d5 1e3d 4e48 613e a69b 283e 400f 6d3e
00000150: 298e a73a 91e9 edbd 44c7 d33d 9bfd 4b3e
00000160: d1cf c6bd be0a f83c a76f 623e cf51 dc3d
00000170: d93a 11be 060e 3abe d272 e83d ec01 acbd
00000180: aef3 7bbe e19a d13d 218a 313e 96c9 4a3e
00000190: 3d02 60be 4c30 7fbd 5d82 643d 49bf 413e
000001a0: 4a41 a23d e81e 523e 406d 623b affb f23d
000001b0: 3b51 f8bd 71e1 c83d 3148 513c 1457 72be
000001c0: a582 453e 88db 833b 48ac a43c 0cee 303e
000001d0: bfcf 44be 9472 473e 82f2 10be 8153 cb3c
000001e0: 40e7 bc3d 3984 0ebe 3f4c 213e 0f7f eabd
000001f0: 12d6 49bd 9f61 12be 85fe c7bd ed4e 82be
00000200: 4caf 18be d634 b33d b7e2 823d 1e4b 37bd
00000210: 663e 773e 6e12 33be cbff 6a3e 168a 8ebd
00000220: 9f52 303e bbbe 73be 2900 7a3e f92f c0bd
00000230: aa4e 93bc 0dd2 e03a db2f 49bd 01d9 733e
00000240: 7fa3 3fbd d50d 41be 215f febc d3c1 14be
00000250: 5406 68be afb3 643e c7ad 503e 4eb2 6cbe
00000260: fa8b 4abd f352 83bd 64dc bd3d 406e 783d
00000270: 03ba 04be d83a c1bb ab1d 13be 24ca 40be
00000280: fdeb 8abd e616 86be d2ed c8bc d54f 7fbe
00000290: 1f40 1e3e 89b0 06be 9d11 a3bd b260 20be
000002a0: e350 1e3e 301c 823e 63e9 a5bc 383e b83d
000002b0: 06b9 25be ee7b 6d3e f8e6 983d 428d 9dbd
000002c0: 7aff 17be 55e0 dcbc 309e 1d3e 59bd 4abe
000002d0: 0818 4f3c d82c 3fbc d282 9dbd ee44 49be
000002e0: 50f1 673d 9c88 563e a522 9fbc c695 7bbd
000002f0: 680c 6c3d 3663 1f3e 2afd 733e f7c3 68bc
00000300: 9861 ab3d 7b04 24be f569 a7bc 7644 38be
00000310: 1461 ee3c b81e 5bbe dd8b 8c3d 58b8 4cbb
00000320: 2b59 08bd 3de2 af3d 705f 97bd 92ef b0bd
00000330: ab77 6bbe 0a58 b3bd f022 34be f226 173e
00000340: 3af4 73be def0 f3bd 2b10 063e f194 293c
00000350: 2eea 473e fec5 75be ba2e 4c3e a8df 53bd
00000360: fc4d 5dbc e319 8c3e 0eaf 77ba cdee 8ebd
00000370: 3f3e 723e e97b 103d eacd e6bd 2f53 c93d
00000380: ba19 5ebe 35bb 0d3d 02b0 533e 608d f83d
00000390: 0942 58be 2db4 02be 3e21 83be 8405 fabc
000003a0: 972d b1bd aca3 a33d 6fe9 a33d 8e1f a3bd
000003b0: 7d0b febc 6275 19bc 387e 303e b3c4 da3b
000003c0: 679d 87be e887 cebd dc13 f8bd af7c 1fbe
000003d0: 3f1b 98bd c736 f03d 72cb 0d3e e607 b3bd
000003e0: 9845 ce3d 0bb4 70be 30db aabc ee7e 6d3d
000003f0: 2952 703e 7063 193e ac81 2b3e c616 823e
0.00482871 0.056168385 -0.0762601 0.12150951 -0.111937836 0.14697276 0.1840784 -0.010208639
-0.1819808 -0.24471425 0.022238033 -0.18966731 0.04582689 -0.08936004 -0.073064335 0.16310735
0.057962224 -0.08179344 0.12044519 0.19556548 -0.18044636 -0.2510116 0.16287011 -0.21845542
0.113822125 -0.19897489 0.25352392 0.24556936 0.081894554 -0.0155193815 0.06866704 0.10195038
0.13150698 -0.15899763 -0.03298379 0.13489993 -0.006339687 0.021753483 0.083832055 -0.2376183
0.14986283 -0.21013431 -0.08263552 -0.08025165 -0.22206561 -0.054066263 -0.19541563 0.110927634
0.027354488 0.1874426 0.20930657 -0.08401881 0.009279852 -0.14841956 -0.235972 0.2518929
-0.124130614 0.060963415 -0.06881834 -0.18688606 -0.094788015 0.0625196 0.13780476 0.19871026
-0.110254355 -0.096271664 -0.071763836 -0.04700484 0.21967891 0.062720284 0.037816126 0.036613457
0.11896029 -0.21418044 -0.028681654 0.22546867 -0.1355274 -0.23421773 -0.13055488 -0.107584774
0.038777914 0.22000238 0.16465625 0.23150349 0.0012783456 -0.11616815 0.10340741 0.19920962
-0.097076066 0.03027856 0.22112904 0.10757791 -0.14182605 -0.18169412 0.11350025 -0.08398804
-0.24604675 0.10234619 0.17337848 0.19803461 -0.21875854 -0.06230192 0.055788387 0.18920626
0.07922609 0.20519602 0.0034549981 0.11864411 -0.121248685 0.098086245 0.012773559 -0.2366603
0.19288118 0.004023973 0.020101681 0.17278308 -0.19219874 0.19477302 -0.1415501 0.024820091
0.09223795 -0.13917626 0.15751742 -0.11450016 -0.04927642 -0.14295052 -0.097653426 -0.2545084
-0.1491062 0.08750312 0.06390899 -0.04474937 0.24144897 -0.17487499 0.2294914 -0.069599316
0.17219017 -0.23803227 0.24414124 -0.0938415 -0.017981846 0.0017152444 -0.049117904 0.23813249
-0.04678678 -0.18852933 -0.03105122 -0.14527063 -0.22658664 0.22334169 0.20378791 -0.23114893
-0.0494499 -0.06412306 0.09270552 0.060652018 -0.12961583 -0.0058969073 -0.14366786 -0.1882711
-0.067832924 -0.26189345 -0.024527464 -0.24932797 0.15454148 -0.1315328 -0.07962344 -0.15661886
0.15460543 0.2541213 -0.020252889 0.08996242 -0.16183862 0.23191807 0.07465929 -0.076929584
-0.1484355 -0.026962439 0.15392375 -0.19798793 0.012640007 -0.011668406 -0.076909676 -0.19655201
0.056626618 0.2095055 -0.0194257 -0.061422132 0.05762902 0.1556519 0.23827043 -0.014206878
0.08368224 -0.16017334 -0.020436266 -0.17994866 0.029099025 -0.21398437 0.06862614 -0.0031237807
-0.033288162 0.085880734 -0.0739125 -0.086394444 -0.22994868 -0.087570265 -0.17591453 0.1476095
-0.23823634 -0.11911176 0.13092105 0.010350452 0.19522926 -0.2400131 0.199397 -0.051726967
-0.013507362 0.273635 -0.00094483874 -0.069791414 0.23656558 0.03527442 -0.11269744 0.09830319
-0.21689501 0.034602363 0.2067261 0.1213634 -0.2111894 -0.12764044 -0.256113 -0.030520208
-0.08651274 0.07990202 0.08003508 -0.07965003 -0.031011337 -0.009366365 0.17235649 0.0066762804
-0.26487276 -0.10084516 -0.12113163 -0.15574907 -0.07427072 0.11729198 0.1384714 -0.08741741
0.10071868 -0.23506181 -0.02085647 0.057982378 0.23468842 0.14979339 0.16748685 0.25408

weight_hh_l0 f4 [60, 15]
00000000: 384d 343e 9a4d 50bc fe42 d3bc 3bc9 793e
00000010: 99b8 3c3e d206 6dbe c0d8 4bbd e189 7b3c
00000020: bcbc 1b3e 5162 4bbe a481 33be 828a e63d
00000030: 6e83 4fbe d3f2 04be ccb6 ffbc a623 e7bd
00000040: 23f9 f83d 33f1 3cbe 5a33 e93d 547f aa3d
00000050: 6a06 d1bd b2b3 8c3d 4f65 583e e193 363e
00000060: b658 72be a4db 603e 0ce7 85bd 0d2e 5d3c
00000070: 6546 3b3e 1500 7a3e 4247 7b3c bf12 473e
00000080: f85e 67bd ded2 c43d 9639 763e 3580 163e
00000090: 02a7 4fbe 38ba 0c3e 32e3 ae3d 7674 02be
000000a0: 6cdd c93d 9cfa 243e ec27 a9bd 6f1d 58be
000000b0: 47de 003e 4158 78be 3541 64be 1d36 323e
000000c0: ed0f 32be 4df9 3bbe c1a8 093e f1fb 9bbb
000000d0: cbcf 10be e455 f9bd 23bd 7c3e d329 6ebd
000000e0: a387 6bbd c1bd 3d3e f237 143c 4aef 55bd
000000f0: 9ade 56be 75c6 103e 73e0 8bbd 3753 043e
00000100: 198a d23d 80b2 36be 6372 0a3e 7f38 5abe
00000110: 10c4 0d3e d7f0 8a3e e941 063e a573 943c
00000120: e69e a63c dcc9 dbbd 0d50 5fbd 8c6c 1fbe
00000130: e2c0 ce3d d289 ffbd fb0d 15be cd90 21bd
00000140: a683 07bd 1619 2b3d 0445 c2bd 55e5 a1bd
00000150: b9b8 e1bd 357c 443d 1248 253e 3e8e 923d
00000160: e8cc 68be 1480 2d3e 348a c6bd 0272 3bbd
00000170: cbca 443d d349 7ebe a318 d33c 7fc2 ef3d
00000180: 53f4 dfbd c585 643e 573c d23a 1463 a13d
00000190: 47a9 3f3d c017 1d3e 3cff 653d c821 593e
000001a0: c986 2dbe 1ee1 323e c6ec cabb 88a7 cebc
000001b0: bc0c fa3d 0a3f 97bd 8b97 423e 73dc 3f3e
000001c0: 038c 95bd 6891 733e a519 4abe 953e 6c3d
000001d0: 1952 df3c 8679 cabc 49de 903d 3971 0f3d
000001e0: b9e2 8abe bd07 183e 5e79 253e a279 283d
000001f0: 728d 3ebe 09c4 32be dc92 cabd 8ffe 803d
00000200: 0899 ba3d 5afc 66bd 666c 48be 08f8 643d
00000210: e9e2 7a3d 341f 0a3e 1fbc 95bd e1e5 4c3e
00000220: a6c0 043d 32bd 77ba 3118 32be 184b 0abe
00000230: 5f6a 68be 1536 e53c 3c5d 32bd 1979 4bbe
00000240: 3e0a 13be a0b8 a3bd be44 63be bab0 1cbe
00000250: 4384 7bbe 51b9 a1bd ff0e 173e c1d0 353e
00000260: af5c 9fbc a4bf 023e d55a f73d a4ad 513e
00000270: f06a f43d f66e 4bbe 67f2 823e 6bbb 7a3d
00000280: 5287 573e fcc0 063e acba 473e b82e b73d
00000290: 0066 573e 2b1c 393e 6b24 3b3e d905 da3d
000002a0: dbe9 903d b35f f9bd 2118 11bd c16a 9ebd
000002b0: e7ec 73be b016 d43d 9e69 403e 1ddb 8bbd
000002c0: 8a35 e73c 6a13 20bd 16f4 dfbd b141 5e3e
000002d0: 5ede 4bbd d91a 6d3d ec1c 283c 500d cabc
000002e0: b26c 793c f50e 34be 9ede c33d af55 28be
000002f0: 8445 22be 0a07 1b3e 5b48 dc3d 9b60 3bbe
00000300: fe6f 383d 7b03 72bd f2b8 583e 5030 0ebe
00000310: 1680 b53d 6c43 81bd 8c90 81be 6510 ebbd
00000320: a728 6ebe 8b98 783e 2bf5 d8bc 9b96 f43d
00000330: 5f10 fabc b397 df3d b32d 293d 1ccb 79be
00000340: bace cc3d 47d9 4c3d 25ee 9d3d bb7a 423e
00000350: 5f05 75be 8227 073b 7987 153e aff7 8a3e
00000360: d95c 723e f2ff 4b3e ee6d 2a3d 076c 7f3d
00000370: 9c89 0f3d 4541 1dbe a4ea 96bd 1d0f 8c3d
00000380: 0a50 76be 2732 1fbd 5fea 273e eba2 3dbe
00000390: 0958 debd 5363 22be d948 bb3c 7355 1f3e
000003a0: 8776 82bd ef7a 28be fa29 3dbe f72f 613e
000003b0: a39f 503e fe6d 2bbe 1459 833c 12d6 6bbb
000003c0: 5ee0 483d d4f5 6a3d 5954 0dbe 96aa 13bd
000003d0: 6241 433e 7542 10bc 585a 5cbe bee2 fabd
000003e0: a349 3abe 7408 ff3d 6cc9 07be 6067 59be
000003f0: a22d 123e a21f 5e3e 0c18 d4bd 22d1 173d
0.17607582 -0.012713814 -0.02578878 0.2439317 0.18429793 -0.23147133 -0.049767256 0.015352697
0.15208715 -0.19861723 -0.17529923 0.11256887 -0.2026498 -0.12983255 -0.031215094 -0.11286096
0.12156894 -0.18451385 0.11386748 0.08325067 -0.102063015 0.06870212 0.21132396 0.17829849
-0.23666653 0.21958786 -0.06538209 0.013499749 0.18288572 0.24414094 0.015336813 0.19440745
-0.056487054 0.09610532 0.24045405 0.14697345 -0.20278552 0.13742912 0.08539428 -0.12739739
0.09856686 0.16111225 -0.082595676 -0.21104978 0.12584792 -0.24252416 -0.222905 0.17403455
-0.17388888 -0.1835682 0.13443281 -0.0047602584 -0.14141767 -0.121745855 0.24681525 -0.058145355
-0.0575024 0.18529417 0.0090465415 -0.052230157 -0.20983353 0.14138205 -0.0682992 0.12922369
0.10280246 -0.1784153 0.13520198 -0.21310614 0.13844323 0.2713687 0.1311108 0.01812155
0.02033944 -0.10731861 -0.0545197 -0.15568751 0.10095383 -0.12477459 -0.14556114 -0.039444733
-0.033084534 0.04177197 -0.0948582 -0.0790507 -0.11021561 0.047970016 0.16140774 0.07156037
-0.22734416 0.16943389 -0.09694329 -0.045763023 0.04804496 -0.24832849 0.025768584 0.11707019
-0.10935273 0.22316654 0.0016039711 0.07880226 0.046792295 0.15341091 0.056151614 0.21204293
-0.16945948 0.17468688 -0.0061927764 -0.02522637 0.1220946 -0.073850706 0.19003122 0.18736438
-0.07302096 0.23785937 -0.19736345 0.05767687 0.027260827 -0.02471615 0.070736475 0.035020087
-0.271261 0.14846702 0.16159579 0.041131623 -0.18608645 -0.17457594 -0.098912925 0.06298553
0.0911122 -0.056393005 -0.195726 0.055900604 0.061251555 0.13488466 -0.07311272 0.20009567
0.032410286 -0.00094504945 -0.17392041 -0.13505208 -0.22696827 0.02797989 -0.043545946 -0.19870414
-0.14359376 -0.07994199 -0.22194192 -0.15301791 -0.24562173 -0.078966744 0.14751814 0.17755415
-0.019453375 0.12768418 0.12077872 0.20476395 0.11934459 -0.19866547 0.25575563 0.061213892
0.21047714 0.13159555 0.19504803 0.08944458 0.21035004 0.18077151 0.18275611 0.106456466
0.070758544 -0.12176456 -0.0354234 -0.077352054 -0.2382084 0.1035589 0.1879029 -0.06828902
0.028223772 -0.039081015 -0.109352276 0.21704747 -0.049772613 0.057886932 0.010260802 -0.024664551
0.015223669 -0.1758383 0.09563945 -0.16438936 -0.1584683 0.15139404 0.10755988 -0.18298571
0.04502868 -0.05908535 0.21164301 -0.13885617 0.08862321 -0.06311688 -0.25305593 -0.114777364
-0.23257695 0.2427694 -0.026484093 0.11942788 -0.030525384 0.10917606 0.041303348 -0.24393886
0.100003675 0.0500119 0.07711438 0.1899213 -0.2392783 0.0020622914 0.1460246 0.27142093
0.23668231 0.19921854 0.041608743 0.062358882 0.035043344 -0.1535693 -0.07368973 0.0683882
-0.2405397 -0.03886619 0.16397999 -0.1851918 -0.10856635 -0.15858202 0.022861885 0.1555994
-0.063702635 -0.16453145 -0.18473044 0.21990953 0.20373397 -0.16741177 0.016033687 -0.003598575
0.0490421 0.057363346 -0.13801707 -0.036051355 0.1906791 -0.008804907 -0.21518838 -0.12250279
-0.18192153 0.12452784 -0.1326043 -0.2123084 0.1427522 0.21691754 -0.10356149 0.03706468

bias_ih_l0 f4 [60]
00000000: 4238 1dbe 9dfc 2f3e 9c9d f33d 4ebe 86ba
00000010: 9f3d 18be 1d52 033e 5ce4 dabd be21 813e
00000020: 0264 723c 2238 fdbd 909a 143e d8de 65bd
00000030: a289 f6bd 139c 933d db31 013e 37df 2a3d
00000040: 2030 5b3d f3e6 2e3d 2e09 26be 7a42 80bd
00000050: 6c08 1d3e 933b 3ebe ab9a 7abd 5550 2abe
00000060: 3fba 1f3e f2d8 103d 2d6b 63be c8d3 e63d
00000070: 8a72 633e 4fbd 68bd 9a60 373c 622e a33d
00000080: 6db7 a7bc 4df9 fcbc 3474 21be 488d 17be
00000090: aa92 b93d eb72 3abe f73c 553d 55a9 fc3b
000000a0: c8fc 87bc cd05 51bd d986 4abe 0caf 773d
000000b0: 0696 42ba 6095 273d ea5a a8bd 63c8 a8bd
000000c0: a3c1 033e 86a6 d1bb 7132 513e ab73 3c3e
000000d0: ca0e 283e 2034 70be 7f1e 23be faee e0bd
000000e0: 0775 1f3d 4726 15be 4841 72be 6f03 d43c
-0.15353492 0.17186208 0.11895296 -0.0010280104 -0.14867257 0.12824292 -0.10688087 0.25221056
0.0147943515 -0.12364222 0.14512086 -0.056120723 -0.1203797 0.07207503 0.12616675 0.04171678
0.053512692 0.04270072 -0.1621444 -0.062626794 0.15335244 -0.18577413 -0.06118266 -0.16632207
0.15598391 0.035363145 -0.22208853 0.11270863 0.22211662 -0.056821164 0.011192465 0.07967831
-0.020473206 -0.030880595 -0.15766984 -0.14799988 0.09061177 -0.182079 0.052060094 0.0077106156
-0.016600028 -0.051030923 -0.19778003 0.060469672 -0.0007422868 0.04091394 -0.082204655 -0.08241346
0.12866835 -0.006398025 0.20429398 0.18403499 0.16411892 -0.23457384 -0.15929602 -0.10983081
0.038929965 -0.14565383 -0.23657715 0.025880544

bias_hh_l0 f4 [60]
00000000: 469e 533e bdb5 1f3e f01b 08bc 869f 6a3e
00000010: efab 78bd f799 0e3e dc18 20be 98d7 92bc
00000020: 53bc 4abe e430 bfbd 44eb 08be 7377 7f3d
00000030: 6960 483d 7835 67be e5a1 27be 94a9 6c3d
00000040: 0359 85be bb93 0c3e 907e 4f3e 91bf 43be
00000050: 8cea 35be f965 303e ab89 7e3d 737f 32be
00000060: c916 2f3e 0073 d83d 1266 e7bc dc32 c3bc
00000070: 9339 68bc 65b1 993c d7ed 5bbe 4269 5b3e
00000080: bcbc 023e ff89 1ebe aea6 893d 7782 c1bd
00000090: fe56 eb3d ab32 cb3d 3efc 65be 7ae1 ed3c
000000a0: 8319 5a3d 8686 3fbe 5bb0 ba3d d17f 33bc
000000b0: 7d75 90bd 76ba a9bd aee9 cebd 1ec9 1a3e
000000c0: f409 fb3d 022f 623d 70d2 cabd 4d6a 473e
000000d0: 35d3 79be a877 9fbd 1feb 2cbe d913 eb3d
000000e0: 316b cdbc 5904 28bd 3d88 38be 7bed 32bc
0.20665845 0.15596671 -0.008307442 0.22912416 -0.060710844 0.1392592 -0.15634483 -0.017925069
-0.19798402 -0.09335497 -0.13370997 0.062369775 0.04892007 -0.2257899 -0.16370352 0.05777891
-0.26044473 0.1372823 0.20263124 -0.19116046 -0.17765254 0.172264 0.06214301 -0.1743143
0.17098536 0.105688095 -0.028246913 -0.023827963 -0.014173883 0.018761346 -0.21477447 0.21426871
0.12767309 -0.15482329 0.06721245 -0.09448712 0.11491202 0.099217735 -0.22459504 0.02903818
0.053246986 -0.1870366 0.091156684 -0.010955767 -0.07053659 -0.08287518 -0.101031646 0.15115783
0.12257758 0.05522061 -0.09903419 0.19474144 -0.24396975 -0.077864945 -0.16886567 0.11478395
-0.025075527 -0.04101977 -0.18020721 -0.010920878

weight_ih_l1 f4 [60, 15]
00000000: 1f3d c5bd 0145 59be 1e5f 58bd addd 25be
00000010: 914d 4cbe 0440 08be f1fd ff3d 2f64 773d
00000020: 0f00 3d3d b68a 323e 05d9 243d 6c36 28bb
00000030: 6f1c 91bd 7bd6 213e bf58 a03d 16d4 7b3c
00000040: 1c8d 233e 683a a9bc bcf5 5abc 58a7 8b3c
00000050: 0c68 27be 91be 6fbd a1f0 ce3d 0380 e33d
00000060: c24b ed3d 94ee 813e 1dfa 653e 967e 8fbd
00000070: 4591 233e 2c68 eebd 61f5 6dbe 569a 81be
00000080: 71f9 5e3d 44e7 3e3e f066 2abe 1f9b c6bd
00000090: b527 2c3e 4711 86be e0ee 28be 5bb1 a5bd
000000a0: 48ef 043e df7d 4dbe 355d 67be 5641 853e
000000b0: 33be 6a3e 877e 32be e6e3 35be f45b 79be
000000c0: 4e96 2c3e 5f1b e8bb ca51 d2bd a5ca 663e
000000d0: 1e68 073e 3971 0ebe 420a 323e bf1a 86be
000000e0: 86fa 803e 9a2b 953d 0569 243e 3940 083e
000000f0: 716e 653e 3e8a e63c c578 28be c7fe 9cbd
00000100: 50b9 a43c ca5e f2bd 37f8 fa3b 5e0e debd
00000110: 9fef b6bb 77db 7e3d fbf5 bd3d 0f5c b4bd
00000120: f559 8cbe 559b 063e 2eb3 32bd 709c 58be
00000130: 0c87 39be da8d bebd abd0 453e 1e00 223b
00000140: a456 69be b7a7 7b3d a034 303e 10b9 d9bd
00000150: ec33 39be 38a7 5dbe d39e a13d 00ef 9cbb
00000160: 66fd bc3c fcfb 063e 87c7 9ebc fa44 093d
00000170: 6e32 3d3e ca51 703d e4ae d03d 4de9 613b
00000180: 39b0 80be 0647 84be bbc1 513e 272b a1bd
00000190: 1c78 743e 30ae 4ebe 392b 09be 294c 9fbd
000001a0: 353a 10be 92c7 dd3d 8d4f 40bc 61ed 55bd
000001b0: 1ac9 e1bd c812 b4bd d388 0d3d 905d bcbd
000001c0: 5ff5 37be 139a a53c 50ed 193e 3969 203e
000001d0: 7a69 6dbe 88fe 14be 29da d3bd d199 95bc
000001e0: db95 383e 8de2 a73c 20fa 06be f85b 923d
000001f0: 3aaf 923c 91b5 503d cc81 42be 7925 813d
00000200: 89cb 5b3e 1c8c e13d 42ec 0cbe 8c73 4d3e
00000210: 79fc ac3d ddf4 bebd 52b2 913d 49ee 133e
00000220: e817 353e 4162 b63d a03d e73d 3a08 70be
00000230: 4bca f7bd f214 2e3e 030c 61be 4c3c 183e
00000240: 9d39 d6bd d8b7 51be 0b0c cfbd 6700 4abe
00000250: d58d d53d e208 25be d42d dabd 1c87 3bbe
00000260: 8dbc 5ebe 110f 303e cce8 90be 4091 16be
00000270: d0c3 46bd 9657 54bd 91c5 69be b4a0 883e
00000280: 5b5e 273e ffd0 f03d ea5c 59bd 1663 2abe
00000290: 9388 373e df08 3fbe 15bf a73d 047a b2bd
000002a0: 8923 d0b9 84bb 053e 328d bd3d 9f21 e53c
000002b0: 8ece 5a3e d392 cabd d2c1 8c3d 610d 0abc
000002c0: 34a9 ae3d e288 3a3d 9b87 33bd bf48 a2bc
000002d0: f03f e8bd eb1c 00be 0dda 5fbe 7394 333e
000002e0: 8098 e83d 3f2c 11be 4a81 8abc 7640 e83d
000002f0: b4d9 c4bc 35ca 613e 897a c8bd 86de 8fbd
00000300: 3edc 68bd 5de1 763e 81b1 903d 68a3 60be
00000310: 0151 613e 0cea 6c3e faa6 2bbd a80e 4c3e
00000320: ae5a 5ebd 9b0a fa3d 2c3d b93d 6f59 c2bd
00000330: 3a50 b8bd de04 523d 61d3 0b3c 2b0e 87be
00000340: 32b6 813e 2fc9 afbc 8db2 393d 5a8c fabc
00000350: ee1e 07be 54ab 94bd b4b1 6f3e 4db5 0a3d
00000360: 7dbc d93d c210 0bbe 67ba 53be d1c7 7cbe
00000370: 7aed 023e 0e6e 1a3e 4676 023d 69bb 383e
00000380: a859 27bd 8d05 7ebe 6cba bb3d 71b6 793e
00000390: e3fc 7cbe dc7a 5bbd fcf3 463d e63b 363e
000003a0: 96bc 023b 5fa7 dabd 9776 f3bd b845 443d
000003b0: 1f86 833c b2b3 c13d b5d5 4dbd 1d0d 4d3e
000003c0: 26f8 aa3d 8832 1a3e 78b7 89bd 5740 17be
000003d0: 64f0 7c3b 163f 7b3e e05a 29be 2bd6 453e
000003e0: f46d 79be 5063 603e 2ecb 8d3d be10 01be
000003f0: c0c8 463e eca7 013e 3be2 563e d9de 083d
-0.096307985 -0.21217729 -0.052825086 -0.16197844 -0.19951464 -0.1330567 0.12499607 0.060398277
0.046142634 0.17435727 0.04024603 -0.0025667204 -0.070855014 0.15804474 0.07829427 0.015370389
0.15971798 -0.020657733 -0.013364252 0.01704757 -0.16348284 -0.058531348 0.1010449 0.11108401
0.11586715 0.25377333 0.22458692 -0.07006566 0.15973385 -0.11640963 -0.23238136 -0.2531306
0.054437105 0.18642908 -0.1664083 -0.09697556 0.16812022 -0.26185057 -0.16497374 -0.080904685
0.12981904 -0.20067547 -0.2259415 0.2602641 0.22924118 -0.17431079 -0.17762718 -0.24351484
0.16854212 -0.007083341 -0.10269506 0.2253824 0.13223311 -0.13910379 0.17386726 -0.2619228
0.25191134 0.07283707 0.16055687 0.13305749 0.22405411 0.02814209 -0.1645232 -0.076657824
0.020107895 -0.11834486 0.007658984 -0.10842584 -0.0055827643 0.062221017 0.09275433 -0.08806621
-0.27412382 0.13145192 -0.04362791 -0.21153426 -0.18117923 -0.093044 0.19317882 0.0024719308
-0.22786957 0.061439242 0.17207575 -0.10631001 -0.18086213 -0.2164582 0.078916214 -0.004789233
0.023070049 0.13182062 -0.019382251 0.033513047 0.18476269 0.05867175 0.10189608 0.0034471333
-0.25134447 -0.25835437 0.20484059 -0.07869559 0.23873943 -0.20183635 -0.13395394 -0.07778198
-0.14084704 0.10829081 -0.011737716 -0.052228335 -0.11024685 -0.08792645 0.034554314 -0.09197533
-0.17964695 0.02021507 0.15031934 0.1566514 -0.23184767 -0.14550221 -0.10344345 -0.018261822
0.18025915 0.02049377 -0.13181353 0.07146448 0.01790582 0.050954405 -0.18994826 0.063059755
0.21464361 0.11013052 -0.13762 0.20063609 0.08446593 -0.09324048 0.0711409 0.14446367
0.17684901 0.08905459 0.11291051 -0.23440638 -0.12099131 0.17000178 -0.21977238 0.14866751
-0.104602076 -0.20480287 -0.10109719 -0.19726716 0.10427443 -0.1611667 -0.10653272 -0.18313259
-0.21751614 0.17193247 -0.2830261 -0.14703846 -0.048526585 -0.05184134 -0.22829272 0.26685107
0.16344588 0.11758613 -0.053067125 -0.16639361 0.17923193 -0.18655728 0.08190743 -0.08714679
-0.00039699327 0.13059813 0.092554465 0.027970133 0.21367857 -0.09891286 0.06872906 -0.008426041
0.08528367 0.045540698 -0.043830495 -0.019810079 -0.1134032 -0.12511031 -0.21860524 0.17537098
0.11357212 -0.14177035 -0.016907353 0.1134042 -0.02402959 0.22049792 -0.09788997 -0.07024865
-0.056850664 0.24109407 0.07065106 -0.21937335 0.22003557 0.23136157 -0.041907288 0.19927466
-0.054285698 0.12209054 0.09044871 -0.09489714 -0.08999677 0.051274173 0.008534283 -0.26377997
0.25334316 -0.021458237 0.045336295 -0.030584503 -0.13195392 -0.07259241 0.23407632 0.03386431
0.106316544 -0.13580611 -0.20676576 -0.24685599 0.12785903 0.15081045 0.031851076 0.18040241
-0.040856987 -0.24806805 0.091664165 0.24386002 -0.24705844 -0.053583965 0.048572525 0.17796287
0.0019948832 -0.10676455 -0.118878536 0.04791805 0.016055165 0.09458102 -0.050252635 0.20024534
0.08348112 0.15058339 -0.06724447 -0.14770637 0.0038595432 0.24535784 -0.16538572 0.1931998
-0.2435835 0.21912885 0.06923519 -0.12604043 0.19412518 0.12661713 0.20984738 0.03341565

weight_hh_l1 f4 [60, 15]
00000000: 4fa5 293d 533d 2bbe 61ea 1d3e 8da2 4cbe
00000010: 7c7d 23be 6d89 afbd f9f1 64be 1fef 0d3d
00000020: 109a 18be ba8b 113d 1e52 333e 200a 1ebe
00000030: 4f23 45bd 887e be3c e23e 333e 2103 1dbe
00000040: f2d4 7dbe 6f6a 71be db78 e2bd bd07 d3bc
00000050: 0016 f83d f58a 4d3e 4492 db3d 7118 0cbe
00000060: 8ad0 fb3d e7cf 783e 482b 463e de8a 6cbc
00000070: 7fbd 2e3e 0eb7 55be efef 72be 3d3d 7fbd
00000080: c0cd c8bd 6c6e 36bd 8496 c23d d421 0f3e
00000090: 2f83 18be 995a 003e 443d 2d3e 9eb6 bd3d
000000a0: 4d86 c3bc 8f4f 16bb cb7a f5bc 45d0 1abe
000000b0: c01b ff3c ccaa 8e3c 0abb 04bd 5e7e 21bd
000000c0: 72ef 323d 33e4 6ebe 8184 483e 0fb3 c43d
000000d0: f890 13be 7b30 1c3e d8dd 85be b3db 0cbe
000000e0: 3c3d 74be 29ec 49be e8d3 a4bc e26a 853d
000000f0: 8322 4b3e 9c87 373e ff20 6ebe 92cb 5b3e
00000100: df2c 123e c180 6f3e 9176 803e 43c1 91bd
00000110: 2c73 fbbd 2891 293e 6f6a 603e 41f4 80be
00000120: 2298 56be 9559 35be c5d4 a8bc afa4 67be
00000130: 69fb 43be cc26 d33d 7367 7abe f82f 423e
00000140: 643b 3fbe b890 a0bd ddae 793e 3d9f 8f3c
00000150: f782 34bc b375 193e c2cc 09bd c005 bc3d
00000160: 4d6f f83d 7f79 223e 3034 4bbe 6cb3 943d
00000170: a6de edbd de6a c33d 8836 1ebe d2cc 18be
00000180: b0ca 8f3c b554 ecbc f166 35be 0487 d1bd
00000190: b442 9abd 79cc 04be 6992 1a3e 703a 2bbd
000001a0: 6561 c33d 950f 54be 47c3 39be ffa4 1dbe
000001b0: 01bf 083e 2b08 dabd a16e 883d 6fff 58be
000001c0: 9e92 7cbe 2e59 ba3b a0a4 103e e164 e63d
000001d0: 3185 6fbd abcd 4fbd b5b7 513e 9cbe ba3c
000001e0: e8ec bf3d d782 393d 4d60 c13b 6569 fcbb
000001f0: f8c6 203e 0e5d 4b3e 3dd5 2f3e 52a8 f1bd
00000200: 1e36 2c3e a471 22be 36ae 613e 5d7f b5bc
00000210: 2eb0 d73d 55eb 1abe 7b41 053d 355e dc3c
00000220: 393e 42be 1ee1 073e c039 2e3e f7bd 203e
00000230: 375d 673e e226 87bc 58d6 253e 8dbe a9bd
00000240: 6605 4fbe 9b3a 10bd e535 30be b312 a1bd
00000250: 22f6 753e 14b6 603e 8bac 8b3e 71f7 fcbd
00000260: cc1f 93be 4bd6 80be a324 62be 20c2 053e
00000270: 4c4e 8c3e a23d 423b 630d 573d 83c0 833e
00000280: 9a43 d2bd b152 103c c0bb 833e f516 4fbe
00000290: d169 013e c9ee 643d afeb 33be f5d3 843e
000002a0: 19b1 653e c872 a1bb 35dd 683e 0eee 85bd
000002b0: 1468 663d 103a 3f3d 5411 02bb c227 eebd
000002c0: 3147 30be 981c d83d 5e51 313e 4ab3 573e
000002d0: d247 8abd 773f 7ebe 123f d33d 348d afbd
000002e0: ba37 253e b7a0 89be 5608 67be fc07 803e
000002f0: b0d2 3fbc 5822 0c3e 3f0c 113d 9c51 ab3d
00000300: 859b 163d f180 05be ac45 aa3d 1032 24be
00000310: 0ab2 3e3e 0b8b ea3d 96bc 963c 8655 babd
00000320: 336e 773e b431 31be cd2d 843d 6e10 aabc
00000330: 1c6a 123e 43b7 723c ec83 88bc 805a 88be
00000340: f24f 26be 37cb 86be fd0e 30be a874 f8bd
00000350: 2cdb 583d b4a2 1e3e d8b7 413e de5c 0d3e
00000360: 8a24 05bd d10b 34be d6b9 f73d 0d69 863b
00000370: 3134 11be 8509 08be 72e3 e53d e059 ee3d
00000380: ac91 79be 136f 473e 027a 7dbe 1212 973d
00000390: a970 593e 2519 c8bc 0d08 bebd c5f5 523d
000003a0: bd05 bf3d 153b dc3d 7647 2dbd 058c 71be
000003b0: 415e 77bd d58e af3d 9e78 833e c7fb 583e
000003c0: f70c 753e 4164 bc3c 87b3 163d f038 81be
000003d0: b303 17be 5ff2 bfbd e02d 30be dcc4 5d3e
000003e0: b335 7f3d 4d21 563d 5a7f c0bd 6da9 01bd
000003f0: c556 72be be44 46be fa2b 533e 56de e9bd
0.041417416 -0.16722612 0.1542144 -0.19983883 -0.15965837 -0.08571134 -0.2235793 0.03465187
-0.1490252 0.035533644 0.17511794 -0.1543355 -0.048129376 0.023253694 0.17504457 -0.15333225
-0.24788263 -0.23575757 -0.110582076 -0.025760526 0.12113571 0.20072539 0.10721257 -0.13681199
0.12295635 0.24298058 0.19352448 -0.014437405 0.17064475 -0.20870611 -0.2372434 -0.06231426
-0.09804869 -0.0445389 0.09501365 0.13977748 -0.14893793 0.1253456 0.16917902 0.09263347
-0.02386775 -0.0022935604 -0.029965779 -0.15118511 0.031141162 0.017415427 -0.032404937 -0.039427154
0.043685384 -0.23329239 0.19581796 0.09604465 -0.1441077 0.15252869 -0.26145816 -0.13755684
-0.23851484 -0.19718994 -0.020120576 0.06514527 0.19837384 0.17922825 -0.23254775 0.21464375
0.1427493 0.2338896 0.2509046 -0.0711694 -0.12277827 0.16559279 0.21915601 -0.2518635
-0.20956472 -0.17709954 -0.020609269 -0.22621416 -0.19138874 0.10310134 -0.24453525 0.18963611
-0.18675 -0.07840103 0.24383111 0.017531985 -0.011017553 0.14986305 -0.033642538 0.09180784
0.12130604 0.1586666 -0.19844127 0.072607845 -0.116147324 0.09541868 -0.1545049 -0.14921883
0.017552704 -0.028848985 -0.1771505 -0.1023083 -0.07532254 -0.12968625 0.15094914 -0.041803777
0.09540061 -0.20709069 -0.18140899 -0.15394972 0.13354112 -0.10646089 0.06661726 -0.2119119
-0.24665305 0.0056869006 0.141253 0.1124971 -0.05847663 -0.05073325 0.20480235 0.022795968
0.09371358 0.045290794 0.0059013725 -0.0077029937 0.157009 0.19859716 0.17171188 -0.11799683
0.16817519 -0.15863663 0.22039112 -0.022155458 0.105316505 -0.15128835 0.03253315 0.02690039
-0.18969049 0.13269469 0.17014217 0.15697466 0.22594152 -0.016498033 0.16195047 -0.08288298
-0.20216903 -0.03521214 -0.17208059 -0.07864895 0.24019673 0.21944457 0.27280077 -0.12351883
-0.28735197 -0.25163493 -0.22084288 0.13062334 0.27403486 0.0029638787 0.052503 0.25732812
-0.102668 0.008808778 0.2572918 -0.20223601 0.12638022 0.055891786 -0.17570375 0.2594296
0.22430839 -0.004927013 0.22740634 -0.06539546 0.0562516 0.046686232 -0.0019846754 -0.11628677
-0.17214657 0.10552329 0.17316195 0.21064487 -0.0675198 -0.24828897 0.10314764 -0.08571854
0.16134539 -0.26880428 -0.22561774 0.25006092 -0.011707947 0.13684976 0.03541207 0.08365175
0.03676941 -0.13037468 0.0831407 -0.16034722 0.18622604 0.114523016 0.018400472 -0.090983436
0.24163131 -0.17304116 0.06454048 -0.020759787 0.1429829 0.014814201 -0.016664468 -0.26631546
-0.16241434 -0.26326916 -0.17193218 -0.121316254 0.052943394 0.15491754 0.18917787 0.13804957
-0.03250555 -0.17582633 0.12095992 0.0041018785 -0.14180066 -0.13284881 0.112250224 0.11638236
-0.24371976 0.19475965 -0.24753574 0.073764935 0.21234383 -0.024426052 -0.09278879 0.051503915
0.09327266 0.107534565 -0.04230448 -0.2358857 -0.060392622 0.08572165 0.2567796 0.21189795
0.23930727 0.022997024 0.036792304 -0.25238752 -0.14747505 -0.093724005 -0.17205 0.21657127
0.06230707 0.05227785 -0.093992904 -0.031655718 -0.23665912 -0.1936216 0.20622244 -0.1141936

bias_ih_l1 f4 [60]
00000000: 11a1 4d3e 1aed cfbd 4a83 55be dc55 6a3d
00000010: 19f5 abbd 8f42 f7bd e8c0 36be d293 08bd
00000020: 2a84 cdbd 5fb0 1b3e 527e 0ebe bb3f d03d
00000030: 52be c1bb 2453 2cbe cdb1 18be af81 ed3c
00000040: c1ab a13d 1a47 6ebd 62e3 d73d 4b0a a63d
00000050: 2199 0dbe 37bb a63c d7cb f93d 4865 a03c
00000060: 429c 68be 809f 5ebe 6b89 673e f658 f1bc
00000070: ab8b 403e 8f09 66be 9061 be3d 4347 68be
00000080: ba18 1bbc 5c77 39be e41d 8bbe ebf0 93bd
00000090: e7c2 823d 7882 b1b9 ca30 603e 04b1 65be
000000a0: feee 77be c139 19be d30a 653e 0c62 503c
000000b0: a283 3e3c 2846 0e3e 5811 74be 25d6 66be
000000c0: bace 683c e5f6 93bd c959 0abd e588 1abe
000000d0: e92f fcbd e573 14be 3d1f 773e e1b3 2abe
000000e0: 1495 a9bd 139b 583e 4823 b93d 29a2 d63c
0.20080973 -0.101526454 -0.20850864 0.057210788 -0.08396358 -0.12073242 -0.17847025 -0.033344097
-0.10034974 0.15203999 -0.13915375 0.101684056 -0.0059125805 -0.1682859 -0.14911576 0.028992502
0.078940876 -0.058173276 0.10541417 0.08107432 -0.13827945 0.020352943 0.121970825 0.019579545
-0.22715858 -0.21740532 0.22611015 -0.029461365 0.18803279 -0.22464584 0.09295952 -0.22683434
-0.0094663445 -0.18111938 -0.27171242 -0.07223686 0.06384831 -0.00033857278 0.21893612 -0.22430807
-0.24212262 -0.14963438 0.2236741 0.012718689 0.011628063 0.1389395 -0.23834741 -0.22542627
0.014209444 -0.07224826 -0.033777032 -0.15091284 -0.12313826 -0.14497335 0.2413301 -0.16670181
-0.082803875 0.21152906 0.090399325 0.02620037

bias_hh_l1 f4 [60]
00000000: 65b8 3cbe afd1 65be 502e 863e ad4e bd3d
00000010: 2a30 263e 1022 b0bc 15d7 1a3d bae9 51be
00000020: 75f9 a33c d443 71be c9db ad3d 9b06 093e
00000030: feb9 00be a7c8 69be 8b01 44be 780c 0c3e
00000040: 665b 66be ea31 84be 9ccc 5bbe 6a38 33be
00000050: f6a2 1bbc 2f08 8dbb e9c3 75be d28a 14be
00000060: 286e d7bd 6f51 863e 5290 a3bd 2944 f03d
00000070: 4de3 673e e978 44be cd72 833e 37a7 583e
00000080: ddbb fdbd ab75 e1bd 331d 90bd 500c 163e
00000090: 3ff2 053e ed6e 513e d819 e53c 5768 113e
000000a0: 9285 8cbe 0ef6 623d ddc6 7f3e 7696 b13c
000000b0: 6319 e03d 1dfd 3fbe 1fc4 363e bd92 1bbe
000000c0: bd8c 61be 8e5c 563e 7789 6d3d 1a7e 623d
000000d0: 560e 033e 6df7 3e3d 3b4d 3d3e ac28 833e
000000e0: 2910 6dbe b58c 38be 7e2f 133d deef 003e
-0.18429716 -0.22443269 0.2620721 0.09243522 0.1622931 -0.021500617 0.037802774 -0.20499316
0.020016411 -0.2356103 0.08489186 0.13381426 -0.1257095 -0.22830449 -0.19141214 0.13676631
-0.22495803 -0.2581933 -0.21464771 -0.17501989 -0.009499302 -0.004303954 -0.24000515 -0.14506081
-0.105190575 0.26234004 -0.07986511 0.117317505 0.22645302 -0.19186749 0.25673524 0.21157537
-0.12389348 -0.110087715 -0.07036819 0.14653134 0.13080691 0.20452471 0.027966425 0.14199959
-0.27445656 0.055410437 0.24978204 0.02167819 0.10942342 -0.18748899 0.17848252 -0.15192695
-0.22026344 0.20933744 0.057992425 0.05529604 0.12798437 0.046622682 0.18486492 0.25616968
-0.23150696 -0.18022425 0.035933964 0.12591502

weight f4 [20, 15]
00000000: 74e5 663c f767 1cbd f879 99bd d9cf c43d
00000010: 06a6 2e3e cbf7 2b3d c5b0 103e c5d8 b9bd
00000020: d3c0 6b3d bf59 973d 59db 823e b4e2 00be
00000030: 60f5 86be 0758 243e 10cd 513b 2b9e 653d
00000040: 90ef 923d cc12 bc3c 3bdb dfbd 52c5 2abe
00000050: d3ad 7c3e 7bf4 693d 965a 5bbe facf 063e
00000060: 33c8 acbd 61b8 523d 1fb4 37be 5799 2b3e
00000070: eb1e bc3d c552 b43c 2171 00be 2aa6 25be
00000080: 559c d13d 5f14 6f3e 7428 27be bf13 23be
00000090: 93e9 683e 10b3 5e3e 5708 6c3d 458a 5cbe
000000a0: 17c3 4ebe 4456 9c3d 9949 3abe bce0 0d3e
000000b0: cf90 9ebd ae99 983c c415 383c 1e03 323d
000000c0: 355f 1f3e 5015 6f3e a7a1 4ebe 8f67 65be
000000d0: 0017 ae3d 5c70 5c3d 40e9 333d eb65 3d3e
000000e0: cbc1 7dbd 110a 40bd fb6e a63d 06da bbbd
000000f0: e7bd 1fbe 8cc0 66be 7ee4 553e 5b27 58be
00000100: 4ecc 3f3e 873f 833d 3a09 563e 5336 f03d
00000110: b51e 0abe 62ee 8abe 649c 6e3e ab4b febd
00000120: 903a 27bd 6f17 43be 8dc7 113e 974d 00be
00000130: fbb3 26be 6a16 4cbe 0c83 403e c469 863d
00000140: 707b b7bd f077 dcbd d44a d13d 0fdd 6f3c
00000150: 0535 763d 7c52 26be 1ca8 19be 2c7d 0fbd
00000160: 52e4 59be b469 6f3c 21e7 2d3e 44be 783d
00000170: be55 6a3e 6ddb d0bb 4161 c63d 5e6a 32be
00000180: 65fd c03d 00bf 293e c9ab bbbd 9090 d0bc
00000190: f59e 89be d94e 343c cb23 0a3b 067e 49be
000001a0: 31b6 d8bc 9e0f 533c 5278 31be 0955 353d
000001b0: fac1 3a3e 8a2a 583e 0007 e4bd a8dc 013e
000001c0: 5bb7 23be fb56 b93b d448 ed3c 128c 6f3e
000001d0: e167 863e 5e91 30bd 24ae 8fbd 0a7f 37bd
000001e0: 0187 c63d c1b9 8abe f2f9 6c3d bce5 0dbd
000001f0: 05c2 0dbe dc00 5e3e b9a8 513e f7df 623e
00000200: c4f1 383c b050 523d 2a2c 603d d629 573e
00000210: 3d14 0cbe 5740 493e ceda d3bd c99c 0f3e
00000220: 7abc 813e 81e0 e83d b820 c6bb b3de cdbd
00000230: 8f8b 59bd 4141 63be 4ede 0ebd 6508 74be
00000240: fc1c ac3d a22b 71be 027a bc3a 1f66 24be
00000250: 968f 6cbe f547 2cbe 32c3 aebd adcf f73d
00000260: ff94 18be a7f8 eebd 46c0 0d3e 25a6 683e
00000270: b58e 783e 2c35 31bd d912 f3bd c8bd 7a3d
00000280: 40b6 35be 25c7 0ebe 36c7 1d3e 02ca f73b
00000290: fb97 873e 9087 b6bd 4164 5abe a9ee 86be
000002a0: 418c 913d 5526 e2bd 7760 bdbd 171d cdbc
000002b0: 33af 8fbd f908 793d 433f 7cbc ad58 913d
000002c0: 3637 55be 63e0 b73d 04e3 04bd 9b03 5fbe
000002d0: 78ed 473e 974b 6c3a 1def 2a3d 5975 c23d
000002e0: 99ac 6e3e fa35 c33d 14b9 283a 7389 00be
000002f0: 5d7e df3d 9c58 f4bd 718f 0a3e 4e5c f7bc
00000300: a10b 743d eaa6 473e 0398 36be 0789 ad3d
00000310: 4b18 04be 28a2 a93d 4340 313e 525b b1bd
00000320: ea92 9ebd c952 153e 1060 34be ceb0 6cbd
00000330: ca4b e33c 5f38 0a3e 4fbf 8c3c 78c8 0d3e
00000340: ae56 0d3e c9cc 70be 6e16 a03d 9cf9 ba3d
00000350: 300b 5ebe 2526 29be 4ffb afbd 3ee9 2e3e
00000360: 1ccc 0dbe 2a3b c33c ea85 7d3e 5b48 4d3e
00000370: f95a afbd 7186 c0bd 36b8 10bd 34e2 63be
00000380: 292d b93d e564 0f3e 422e 8f3d 92e0 ce3d
00000390: b0ac 183d 42b7 12be b4ce ff3c e161 2a3e
000003a0: 29e5 86bd 679c 87bd 1217 c53c f6c4 5ebe
000003b0: c7e1 2ebe 6b4f 5c3d 863d c0bd 220f d3bc
000003c0: 610d 24be db55 103d ef4f 4cbe 629e 4bbd
000003d0: 2972 803d 6b74 853d f717 323e c09b 4bbd
000003e0: 0bde 39be 51c4 5d3e 5025 003e 66c6 a7bc
000003f0: 2a77 5dbe b3e1 cc3d 9946 663e a402 573e
0.014092792 -0.038185086 -0.07493967 0.09609956 0.1705552 0.04198436 0.14129932 -0.09074549
0.05755694 0.073901646 0.25557974 -0.1258648 -0.2635908 0.16049205 0.0032013096 0.056059044
0.07174599 0.022958182 -0.10930487 -0.16676834 0.24675684 0.05711792 -0.21421275 0.13165274
-0.084366225 0.05144537 -0.17939804 0.16757713 0.09185585 0.022012124 -0.12543155 -0.16176668
0.10234896 0.23347615 -0.16324025 -0.15925501 0.22745351 0.21747994 0.05762514 -0.2153712
-0.20191608 0.07633641 -0.18192138 0.1385526 -0.07742464 0.018627968 0.011235658 0.043460004
0.15563662 0.23347974 -0.20178853 -0.22402786 0.08500481 0.05381809 0.043923616 0.1849591
-0.061952394 -0.0468846 0.081266366 -0.09172444 -0.15599786 -0.22534388 0.20887944 -0.21108763
0.1873028 0.06408601 0.20901957 0.117291115 -0.13488276 -0.27134997 0.23301846 -0.12416776
-0.040827334 -0.19051908 0.14236279 -0.12529598 -0.16279595 -0.19930425 0.1879999 0.06563142
-0.08959091 -0.10765064 0.102193505 0.014640107 0.060109157 -0.16242403 -0.15005535 -0.035031483
-0.21278504 0.014612604 0.169827 0.060728326 0.2288427 -0.006373814 0.096865185 -0.17423388
0.09423331 0.16576767 -0.09163625 -0.025459558 -0.26879087 0.011005127 0.0021078463 -0.1967698
-0.026454063 0.012882141 -0.17331055 0.04427055 0.18238059 0.21109977 -0.11134148 0.1268183
-0.15987913 0.005656121 0.028965391 0.23393276 0.26251128 -0.043107383 -0.070156366 -0.04479889
0.09693719 -0.27094844 0.057855554 -0.03464292 -0.13843544 0.21680015 0.20474519 0.22155748
0.01128811 0.05134648 0.054729618 0.21012053 -0.13679595 0.1965345 -0.10344468 0.14024653
0.2533911 0.11370946 -0.006046381 -0.10052242 -0.05311161 -0.22192861 -0.034879975 -0.23831327
0.08403966 -0.23551801 0.0014379623 -0.16054581 -0.23101649 -0.16824324 -0.08533324 0.12100158
-0.14900587 -0.116685204 0.13842878 0.22719629 0.24273188 -0.0432636 -0.11868829 0.061216146
-0.17745304 -0.13943155 0.15408024 0.007561923 0.2648314 -0.08912575 -0.21327306 -0.26353958
0.071068294 -0.110424675 -0.09246915 -0.025038285 -0.070158385 0.060799573 -0.015395942 0.07096992
-0.20821843 0.08978345 -0.03244306 -0.21778719 0.19524181 0.00090139493 0.041731942 0.094950385
0.23308028 0.095317796 0.000643627 -0.12552433 0.10912774 -0.119309634 0.13531281 -0.030195381
0.059581403 0.19497266 -0.17831425 0.084734015 -0.12899892 0.08282882 0.1730967 -0.08659996
-0.077428654 0.14582361 -0.1761477 -0.0577858 0.0277461 0.13498066 0.017181067 0.13846004
0.13802597 -0.2351562 0.07816778 0.091296405 -0.21683955 -0.16518457 -0.08592855 0.17081162
-0.13847393 0.023831923 0.24758115 0.20047133 -0.085622735 -0.09400643 -0.035331927 -0.22254258
0.09041817 0.14003332 0.06991245 0.10101427 0.037274063 -0.1432772 0.031226493 0.166389
-0.065866776 -0.06621628 0.024058852 -0.21754822 -0.17078315 0.053786676 -0.09386735 -0.025764052
-0.16020729 0.03523813 -0.19952367 -0.049711592 0.06271774 0.065163456 0.17391954 -0.04970908
-0.18151109 0.2165692 0.12514234 -0.020480346 -0.21627489 0.10003986 0.22487868 0.20997101

bias f4 [20]
00000000: 9ecc 3ebe 1660 ba3d 5238 b6bb 4618 073e
00000010: 1faf 453e 17cc 60be ef2f 73be ad81 6e3e
00000020: c81a 9439 4b73 c23d 6046 0ebe aca1 e1bd
00000030: 44ca 10be 743e 38be 6990 2bbe 0dca fbbd
00000040: 269d 103e 99a9 b23c 3e68 613e 8501 0dbb
-0.18632743 0.09100358 -0.005560913 0.13192853 0.19305085 -0.21952854 -0.23748754 0.23291655
0.00028248713 0.09494647 -0.13894033 -0.110171646 -0.14139658 -0.17992574 -0.16754307 -0.122943975
0.14122447 0.021809386 0.22012421 -0.0021515798
